eval/eval_rl/runs/CartpolePPO/nn/CartpolePPO.pth (torch, 69200 bytes, 24 tensors)

value_mean_std.running_mean f8 [1]
402.9343123413192
00000000: 7163 7ff1 f22e 7940

value_mean_std.running_var f8 [1]
22772.478236097766
00000000: eb93 6b9b 1e3d d640

value_mean_std.count f8 []
23330817.0
00000000: 0000 0010 0040 7641

running_mean_std.running_mean f8 [4]
0.5802411269775122 -0.024820249210214355 0.2268290544554389 -0.0054650518696477204
00000000: 0134 05d7 5591 e23f 0eb7 8bba 7a6a 99bf
00000010: 6598 5505 bc08 cd3f e839 d1b0 8562 76bf

running_mean_std.running_var f8 [4]
0.9656950164046254 0.7974793000467847 1.461014161713377 3.985454734114562
00000000: 10c7 2b3c f9e6 ee3f 5f03 1e4f f384 e93f
00000010: 36d4 b862 5060 f73f f0ae 7517 36e2 0f40

running_mean_std.count f8 []
11665409.0
00000000: 0000 0020 0040 6641

a2c_network.actor_mlp.0.weight f4 [64, 4]
0.020636676 0.6696141 0.1835134 0.46864396 -0.005538671 -0.46240732 -0.112987585 -0.14154312
-0.33213443 -0.71899974 -0.014734345 -0.01619626 0.13256699 0.3851363 -0.21515775 0.087461315
0.2303942 1.3538442 0.18637627 0.28994572 0.4456867 0.041445274 0.5708279 -1.8077258
-0.22714268 0.16376522 -0.041252043 0.13165154 -0.29005027 -0.03141992 -0.4766439 -0.636718
-0.3642114 0.69774115 0.14338513 0.24062352 0.049244285 -0.51926833 0.00048312245 -0.8714732
-0.452721 -0.3084717 0.14506453 0.5388747 0.16298032 0.25878608 0.2398847 0.73256
0.23772822 -0.003677841 0.6280722 -0.62640136 -0.08649309 -1.2311771 -0.20254004 -0.32715878
0.04894246 0.39812362 -0.21303459 0.47637805 -0.0011566053 0.3147146 -0.0288064 0.2610035
0.3699794 0.92581564 0.09009744 -0.9120982 0.062169652 0.50352937 0.7169085 0.67789745
0.013515785 -0.8804084 -0.105675556 -0.53835565 -0.08917309 0.18444014 0.5433736 -0.491772
-0.153311 -0.6243273 -0.10235423 -0.15384229 0.121979676 -0.42350674 0.0040794523 0.13334113
0.37057093 -0.37581855 -0.45455828 -0.3658772 -0.21721622 -0.33054796 -0.52051824 -0.7628121
0.27940497 0.9537184 0.013267174 0.007445137 -0.31807464 -0.45523426 -0.5814301 -0.7746473
0.13532904 0.6405582 -0.13178448 0.65840036 -0.14151521 0.39089867 0.05262982 -0.20681535
0.09328588 0.48926485 0.056464154 0.12343991 0.29645935 0.16979414 -0.08561378 0.44084376
-0.2572461 -0.5704503 -0.07704974 -0.6402502 -0.14590724 -0.8538613 -0.073339425 -0.15517373
-0.047459356 -0.3608752 0.16611896 -0.36675066 -0.0108197825 0.42575487 0.0006806443 0.08895329
0.85958207 -0.04844376 -0.081179194 -0.12471354 -0.20965861 -0.36010748 0.1542327 -0.16637997
-0.2952345 -1.2966843 -0.30281806 -0.5413444 0.36698538 0.56561273 0.089281164 -0.17979984
0.0050594807 -0.91564846 -0.15405945 -0.26128566 0.038211834 -1.1648138 0.0020593219 -0.7178678
-0.08717543 0.290911 -0.35489705 0.5358237 0.023384364 -0.09955324 0.27688774 -0.8183786
0.63269186 -0.026657786 -0.14319243 0.8313477 0.033815138 -0.14023429 0.41369465 -1.26011
-0.38334554 0.48648232 -0.16803087 0.33695123 0.038355757 0.32111323 -0.04331346 0.018141521
-0.3246247 0.44742265 0.40596652 0.53872156 -0.28735453 0.17260821 -0.3336735 -0.60479265
-0.05178462 0.22588466 -0.020384142 0.10748835 -0.028813068 0.17501986 -0.35073724 -0.28384703
-0.19063845 0.7798117 -0.28697506 0.8592982 0.027157761 0.11063848 -0.035766494 0.050654445
-0.008233425 -0.4922621 0.04144726 0.09515338 -0.33947858 -0.027324213 0.17264628 -0.89485097
-0.19635603 0.6145522 -0.012700338 -0.14612961 -0.31513768 0.19171554 -0.34325135 -0.39438185
-0.2833417 -0.11543284 0.1894426 0.41618532 0.15519705 0.5549256 0.14222653 -0.16473322
0.22263657 -0.68054307 -0.1559116 0.027349735 -0.23021264 0.6555772 -0.360995 -0.13048042
0.09604968 -0.76694083 0.052968193 -0.7071827 0.40069133 -0.23767672 0.14895189 0.3127111
0.16786511 -0.31324637 -0.16076304 -0.7325542 0.037137546 0.3783674 -0.028933996 -0.013617492
00000000: 3f0e a93c d46b 2b3f f0ea 3b3e 1af2 ef3e
00000010: bd7d b5bb a7c0 ecbe 0966 e7bd aef0 10be
00000020: 860d aabe 5e10 38bf 5268 71bc 05ae 84bc
00000030: a4bf 073e 9630 c53e 5052 5cbe eb1e b33d
00000040: 75ec 6b3e c44a ad3f 6cd9 3e3e c473 943e
00000050: 0c31 e43e 85c2 293d c721 123f 8f63 e7bf
00000060: 1798 68be 12b2 273e e7f7 28bd a9cf 063e
00000070: 7881 94be 2db2 00bd ab0a f4be f3ff 22bf
00000080: eb79 babe 2a9f 323f 8dd3 123e 0366 763e
00000090: 60b4 493d c5ee 04bf 994b fd39 de18 5fbf
000000a0: 0ccb e7be 01f0 9dbe cc8b 143e b1f3 093f
000000b0: 50e4 263e 9c7f 843e 56a4 753e 0d89 3b3f
000000c0: 076f 733e ef07 71bb 57c9 203f d75b 20bf
000000d0: 4a23 b1bd 3697 9dbf a866 4fbe 5b81 a7be
000000e0: e477 483d dcd6 cb3e bd25 5abe d3e7 f33e
000000f0: 3c99 97ba 4622 a13e 66fb ebbc 40a2 853e
00000100: f16d bd3e 4102 6d3f 0285 b83d 457f 69bf
00000110: 9ba5 7e3d 4de7 003f 5187 373f b08a 2d3f
00000120: 5071 5d3c 7262 61bf 6d6c d8bd add1 09bf
00000130: 62a0 b6bd e0dd 3c3e 881a 0b3f 8ac9 fbbe
00000140: 8ffd 1cbe ead3 1fbf 189f d1bd d588 1dbe
00000150: 7bd0 f93d e0d5 d8be edac 853b 948a 083e
00000160: 79bb bd3e 4a6b c0be ddbb e8be 4254 bbbe
00000170: ee6d 5ebe 953d a9be af40 05bf a747 43bf
00000180: 2b0e 8f3e e426 743f 905e 593c 56f6 f33b
00000190: aeda a2be 7714 e9be 9ad8 14bf 494f 46bf
000001a0: b293 0a3e 9ffb 233f 83f2 06be ed8c 283f
000001b0: 5de9 10be df23 c83e 5e92 573d 67c7 53be
000001c0: ab0c bf3d ec80 fa3e f546 673d 10ce fc3d
000001d0: 85c9 973e 84de 2d3e 4756 afbd 46b6 e13e
000001e0: c3b5 83be 0809 12bf 41cc 9dbd 70e7 23bf
000001f0: b568 15be a796 5abf fb32 96bd dde5 1ebe
00000200: be64 42bd a2c4 b8be 171b 2a3e bec6 bbbe
00000210: 7545 31bc 8bfc d93e 446d 323a 242d b63d
00000220: 920d 5c3f f76c 46bd 4741 a6bd d069 ffbd
00000230: bfb0 56be 0260 b8be 2def 1d3e 835f 2abe
00000240: fa28 97be c0f9 a5bf f80a 9bbe 8c95 0abf
00000250: 82e5 bb3e ffcb 103f 0bd9 b63d 731d 38be
00000260: 00ca a53b f067 6abf c3c1 1dbe 3cc7 85be
00000270: 0384 1c3d 9e18 95bf b0f5 063b 2fc6 37bf
00000280: 0889 b2bd 49f2 943e 11b5 b5be be2b 093f
00000290: 9190 bf3c 92e2 cbbd 3bc4 8d3e 4381 51bf
000002a0: 18f8 213f 6e61 dabc 09a1 12be 34d3 543f
000002b0: be81 0a3d 9499 0fbe c9cf d33e 494b a1bf
000002c0: de45 c4be 3614 f93e 4910 2cbe df84 ac3e
000002d0: ed1a 1d3d f468 a43e 7469 31bd 879d 943c
000002e0: 3535 a6be 9514 e53e d8da cf3e a8e9 093f
000002f0: 2220 93be 35c0 303e 41d7 aabe b1d3 1abf
00000300: 1c1c 54bd 4f4e 673e a5fc a6bc da22 dc3d
00000310: 6209 ecbc 6838 333e d593 b3be 6654 91be
00000320: ba36 43be bda1 473f 65ee 92be f8fa 5b3f
00000330: f479 de3c 6d96 e23d e37f 12bd 097b 4f3d
00000340: 7de5 06bc c709 fcbe 9ac4 293d c6df c23d
00000350: 23d0 adbe 07d7 dfbc 30ca 303e f414 65bf
00000360: 8e11 49be 4b53 1d3f 1415 50bc 00a3 15be
00000370: ba59 a1be 1451 443e a4be afbe 6bec c9be
00000380: 2a12 91be 0e68 ecbd 3efd 413e 3e16 d53e
00000390: faeb 1e3e 9b0f 0e3f d5a3 113e d3af 28be
000003a0: d7fa 633e 1238 2ebf 4aa7 1fbe 8d0c e03c
000003b0: ddbc 6bbe e8d3 273f 56d4 b8be a99c 05be
000003c0: b2b5 c43d 3c56 44bf 2df5 583d ed09 35bf
000003d0: 6a27 cd3e 8761 73be d886 183e ab1b a03e
000003e0: d5e4 2b3e d461 a0be 119f 24be ac88 3bbf
000003f0: 8a1d 183d 5fb9 c13e fd06 edbc e71b 5fbc

a2c_network.actor_mlp.0.bias f4 [64]
-0.2520885 0.057269514 0.2733018 -0.57940584 0.1947027 0.22934227 0.35069203 1.0719151
-0.6711196 0.329643 0.5897896 1.0754693 0.16633205 -0.027812364 -0.40861508 -0.69417053
0.10598398 -0.89817137 0.46586576 0.13136654 0.42585504 -0.3455598 -0.49360257 -0.5455618
0.60432476 -0.742752 -0.1565081 -0.090500124 -0.34233272 0.30859432 0.43705842 0.006789671
0.73031956 -0.7248045 -0.31957495 -0.111315206 -0.7830885 1.230574 0.38725802 -0.39579323
0.57961833 0.35141075 0.04705856 0.30369794 0.95107377 0.08017125 -0.48254615 0.4545989
-0.065131985 -0.6846479 -0.2777042 0.5583878 0.7410027 0.06299901 -0.8927052 0.105532005
-0.6207943 -0.57236946 -0.40871543 1.0080814 0.8149639 -0.7930536 -1.0725316 -0.40700874
00000000: be11 81be 7093 6a3d 37ee 8b3e f153 14bf
00000010: 2560 473e b3d8 6a3e e88d b33e 8434 893f
00000020: 7ece 2bbf f8c6 a83e 74fc 163f faa8 893f
00000030: f352 2a3e c1d6 e3bc ff35 d1be 29b5 31bf
00000040: 210e d93d 8fee 65bf f585 ee3e f384 063e
00000050: ac09 da3e 37ed b0be 7ab9 fcbe f0a9 0bbf
00000060: 07b5 1a3f ff24 3ebf a943 20be 2158 b9bd
00000070: 3c46 afbe 1300 9e3e 1fc6 df3e e37b de3b
00000080: 39f6 3a3f ca8c 39bf 549f a3be 3af9 e3bd
00000090: 7d78 48bf 7383 9d3f af46 c63e 69a5 cabe
000000a0: de61 143f 1cec b33e 7ac0 403d 4c7e 9b3e
000000b0: 9279 733f d330 a43d 4a10 f7be 30c1 e83e
000000c0: eb63 85bd 1645 2fbf 3f2f 8ebe 81f2 0e3f
000000d0: 5ab2 3d3f a005 813d 5488 64bf 2a21 d83d
000000e0: 60ec 1ebf ce86 12bf 2643 d1be d008 813f
000000f0: 79a1 503f 9005 4bbf b748 89bf 7363 d0be

a2c_network.actor_mlp.2.weight f4 [64, 64]
0.3694115 -0.1886517 -0.08031684 -0.19595417 0.19313562 -0.88130283 0.11214721 -0.40364122
0.23527433 -0.31495684 -0.032993194 0.116206 -0.45807832 -0.078836516 0.20732191 0.38713846
0.27517763 -0.09345236 0.046189163 -0.323076 -0.47585198 0.7344012 -0.23522231 -0.19989686
-0.38469404 -0.17126329 -0.028430184 0.04685729 0.307701 0.15043166 -0.05082798 -0.046499252
-0.1917972 0.34603485 -0.49563113 0.46133256 -0.0087292995 -0.21813224 -0.3954107 0.34412467
0.19660504 -0.3579185 0.183268 -0.60834897 -0.052225668 -0.43795097 0.34365398 -0.43802238
-0.44889134 -0.1685676 -0.02823243 -0.120002836 -0.20386413 -0.07248709 0.47817096 -0.23337913
0.540832 0.1577721 0.4270742 -0.46581092 0.11030331 0.56408256 0.013521351 0.019294571
-0.113859385 0.27983052 0.10068975 -0.025860192 -0.13750693 -0.73620164 -0.007608501 0.21427843
-0.30613217 -0.19709107 -0.6324294 0.26856488 0.03214092 0.12803167 -0.11495748 -0.25212014
0.68363696 -0.0880435 0.35919857 0.3487809 0.19055797 -0.23981076 -0.17875978 0.024620852
0.33305848 -0.10752939 -0.16327238 0.17925063 -0.3207091 0.19435266 0.09534956 0.14577179
0.25528672 -0.5211785 -0.5165362 -0.11172812 -0.3877324 0.9632987 0.20546299 -0.2735497
0.04993514 -0.2399474 0.01212606 -0.3402483 0.33715254 0.27925456 0.00568475 0.05152749
0.009966405 -0.2064242 -0.2097071 0.41814935 -0.03523612 -0.30873543 -0.28520498 0.17282397
-0.19667785 0.015233663 -0.27752545 0.6399379 0.3933813 -0.52051324 -0.1698034 0.018166723
0.21132812 -0.01161584 -0.04190045 0.09468592 0.09018187 0.09190447 -0.07951435 -0.010387069
-0.117474265 -0.035468973 0.09373778 -0.22050053 0.06685227 -0.021045465 -0.032461196 -0.115584515
-0.15780842 0.026783912 -0.009222686 0.23409985 0.049991652 -0.07592734 0.15603387 -0.18297116
-0.07833558 -0.018995803 -0.12717125 0.08831282 -0.054326907 -0.037326075 -0.07834233 0.07689955
0.047442045 0.086094186 0.29196233 0.12970766 0.12545367 -0.07264527 -0.09329143 0.06551734
0.065612055 -0.07480947 0.1586076 -0.079658315 0.010594384 -0.12293312 0.15363482 0.17769302
-0.091076605 0.20579453 0.05002986 0.118735455 0.21360338 -0.11470068 0.049090743 0.1307867
-0.073317945 0.07055069 -0.018425252 0.13296328 -0.047688015 -0.20705366 0.092252746 0.04535804
0.038097326 -0.12658495 0.03859773 0.026022833 0.11417552 0.19119242 -0.016372623 -0.16327186
0.0065252176 0.040308613 0.10445808 -0.18483314 0.16028166 -0.24932224 0.06194681 0.01203616
-0.09100532 0.098321676 -0.17823261 0.06765363 -0.032553043 -0.13183452 0.089471504 0.058744896
-0.061552048 0.07398061 -0.13643113 0.014650092 0.024757624 0.025649326 -0.04780973 -0.057615083
0.008019581 0.07862498 0.19755688 -0.13235255 0.37516847 -0.20519237 -0.08833205 0.10502049
-0.14540392 0.08524354 0.022320073 0.118245475 -0.13057399 -0.031714965 0.024319664 0.1454678
0.016589077 0.22981434 -0.02541514 -0.008552897 0.27383783 0.13831016 0.13955453 0.06342576
-0.08372337 -0.016941877 0.031437412 0.072727 -0.1118931 -0.26120996 0.14033699 0.13049798
00000000: 8123 bd3e e92d 41be 287d a4bd 36a8 48be
00000010: 58c5 453e 109d 61bf 70ad e53d 10aa cebe
00000020: c1eb 703e 0642 a1be df23 07bd 69fd ed3d
00000030: 3e89 eabe 0a75 a1bd 324c 543e 0337 c63e
00000040: 15e4 8c3e f363 bfbd d930 3d3d 386a a5be
00000050: dfa2 f3be b801 3c3f 1ede 70be c3b1 4cbe
00000060: 9ef6 c4be a55f 2fbe 6be6 e8bc 6eed 3f3d
00000070: fc8a 9d3e c20a 1a3e 0031 50bd 0076 3ebd
00000080: 7c66 44be 7b2b b13e 5dc3 fdbe c833 ec3e
00000090: 5605 0fbc 0f5e 5fbe 4573 cabe 1c31 b03e
000000a0: d552 493e 1841 b7be 9baa 3b3e c2bc 1bbf
000000b0: 95ea 55bd 1c3b e0be 6af3 af3e 7844 e0be
000000c0: 16d5 e5be fc9c 2cbe b247 e7bc 0cc4 f5bd
000000d0: c2c1 50be 1d74 94bd d3d2 f43e f0fa 6ebe
000000e0: f773 0a3f 028f 213e 78a9 da3e c57e eebe
000000f0: b4e6 e13d b767 103f a888 5d3c a60f 9e3c
00000100: 1c2f e9bd f245 8f3e 6d36 ce3d c1d8 d3bc
00000110: 9ece 0cbe b677 3cbf bb50 f9bb ce6b 5b3e
00000120: 5bbd 9cbe 3ed2 49be e5e6 21bf 5681 893e
00000130: 33a6 033d bc1a 033e d46e ebbd e415 81be
00000140: d502 2f3f 2750 b4bd e0e8 b73e 6993 b23e
00000150: a121 433e f490 75be ce0c 37be abb1 c93c
00000160: a486 aa3e 5e38 dcbd e030 27be 7a8d 373e
00000170: fc33 a4be 6204 473e a146 c33d 3345 153e
00000180: f1b4 823e f46b 05bf b73b 04bf b6d1 e4bd
00000190: dc84 c6be be9a 763f e464 523e b50e 8cbe
000001a0: ca88 4c3d c5b4 75be 62ac 463c 0635 aebe
000001b0: 429f ac3e 74fa 8e3e 2447 ba3b 7d0e 533d
000001c0: 224a 233c de60 53be 75bd 56be ac17 d63e
000001d0: c053 10bd 9212 9ebe 6306 92be c4f8 303e
000001e0: eb65 49be 9d96 793c d117 8ebe f8d2 233f
000001f0: 4669 c93e 5b40 05bf f1e0 2dbe 61d2 943c
00000200: 6666 583e 5d50 3ebc ce9f 2bbd b1ea c13d
00000210: 46b1 b83d 6938 bc3d 6bd8 a2bd 862e 2abc
00000220: 5996 f0bd ea47 11bd 98f9 bf3d e4ca 61be
00000230: d8e9 883d 8a67 acbc 08f6 04bd 93b7 ecbd
00000240: 8898 21be ef69 db3c c01a 17bc dfb7 6f3e
00000250: 0cc4 4c3d cb7f 9bbd 58c7 1f3e cb5c 3bbe
00000260: 686e a0bd 169d 9bbc 2e39 02be 5add b43d
00000270: e485 5ebd 3ae3 18bd f271 a0bd 837d 9d3d
00000280: 9752 423d 2652 b03d 167c 953e 16d2 043e
00000290: ed76 003e 0bc7 94bd 940f bfbd f52d 863d
000002a0: 9d5f 863d b535 99bd 086a 223e e623 a3bd
000002b0: 1194 2d3c 5cc4 fbbd 7252 1d3e 29f5 353e
000002c0: 5f86 babd cdbb 523e 1cec 4c3d 932b f33d
000002d0: d8ba 5a3e 31e8 eabd 6013 493d f3ec 053e
000002e0: b827 96bd e17c 903d 8ef0 96bc 8727 083e
000002f0: 8254 43bd e005 54be 02ef bc3d 5ac9 393d
00000300: f10b 1c3d 7c9f 01be a718 1e3d d62d d53c
00000310: dbd4 e93d f2c7 433e e11f 86bc bd30 27be
00000320: 7ed1 d53b a51a 253d 1eee d53d e644 3dbe
00000330: e020 243e 544e 7fbe f0bb 7d3d 5033 453c
00000340: ff60 babd e05c c93d 9c82 36be fd8d 8a3d
00000350: 5756 05bd a1ff 06be d63c b73d 7d9e 703d
00000360: 001e 7cbd 2583 973d 9ab4 0bbe f106 703c
00000370: 80d0 ca3c 891e d23c 23d4 43bd cbfd 6bbd
00000380: 9064 033c 2206 a13d 5a4c 4a3e 6d87 07be
00000390: 1516 c03e f31d 52be 6fe7 b4bd fc14 d73d
000003a0: c4e4 14be 2a94 ae3d 96d8 b63c af2a f23d
000003b0: 30b5 05be 8de7 01bd 083a c73c 83f5 143e
000003c0: d1e5 873c 7354 6b3e 6933 d0bc 7321 0cbc
000003d0: 7934 8c3e 2ea1 0d3e 62e7 0e3e 5de5 813d
000003e0: 2977 abbd b1c9 8abc 84c4 003d e5f1 943d
000003f0: 3628 e5bd 50bd 85be 80b4 0f3e 43a1 053e

a2c_network.actor_mlp.2.bias f4 [64]
-0.43931824 0.41252735 0.2312078 0.3827721 0.013378955 -0.11227154 0.046482805 0.33644834
-0.26749098 -0.5563699 -0.5205997 -0.22186767 -0.06370785 0.04638169 0.1451393 0.1388099
-0.23648624 -0.18148021 -0.79296285 -0.67314494 0.21322337 0.24520837 -0.033958096 0.34156808
-0.027113251 -0.047595415 -0.730267 -0.09378823 0.2660595 0.5312472 0.26649866 -0.2666275
0.17590366 -0.27931875 -0.36532 -0.31630743 0.0037559909 -0.14956863 -0.7594396 -0.55782765
-0.6268396 -0.14662138 -0.04407474 -0.41470987 0.6255174 -0.28303745 -0.14516428 -0.26363575
-0.17104366 -0.1770663 0.16004927 0.2683254 -0.6088077 0.56680906 -0.3320799 0.4035938
-1.7810826e-05 0.69652975 -0.339647 -0.30206835 -0.19408074 -0.6850531 -0.13517289 0.6386291
00000000: 52ee e0be c936 d33e bdc1 6c3e b4fa c33e
00000010: 6833 5b3c 9fee e5bd c164 3e3d f542 ac3e
00000020: 94f4 88be 426e 0ebf 0646 05bf 4731 63be
00000030: 4379 82bd bafa 3d3d 669f 143e 2f24 0e3e
00000040: 7329 72be f3d5 39be 9dff 4abf 3a53 2cbf
00000050: 3a57 5a3e e717 7b3e a517 0bbd 03e2 ae3e
00000060: 9c1c debc 69f3 42bd c7f2 3abf 0b14 c0bd
00000070: f338 883e d1ff 073f 8372 883e 6683 88be
00000080: 1720 343e de02 8fbe 390b bbbe 0cf3 a1be
00000090: 1227 763b 8528 19be a26a 42bf cbcd 0ebf
000000a0: 8f78 20bf ea23 16be b787 34bd da54 d4be
000000b0: e921 203f 49ea 90be f2a5 14be 44fb 86be
000000c0: 1226 2fbe de50 35be f5e3 233e f261 893e
000000d0: d2da 1bbf 661a 113f 6006 aabe d9a3 ce3e
000000e0: 7568 95b7 c64f 323f 36e6 adbe b4a8 9abe
000000f0: 1abd 46be a45f 2fbf c36a 0abe 327d 233f

a2c_network.value.weight f4 [1, 64]
0.07419914 0.1250673 0.004680153 -0.06347631 0.0015851764 -0.22642 0.24596062 -0.12089819
0.16457145 0.1173189 0.12418373 -0.016686589 -0.021863857 0.0066534393 -0.0071933456 0.005873206
0.0079953745 0.12366 0.32507417 0.26480606 -0.38681835 -0.34099075 0.18752317 0.20996314
0.001969461 0.0008478477 0.24034104 -0.017499354 0.43811974 -0.22282852 0.18730383 0.006604502
0.015137487 0.0014572811 -0.042919982 -0.47134465 0.2075441 -0.13053818 0.3853374 0.14004607
0.24816623 0.018691668 -0.007940715 0.07396915 -0.24799837 0.08699193 -0.059758045 -0.54967886
-0.24420908 0.40633678 -0.08636812 -0.12102912 0.14659436 -0.12370545 -0.18836258 -0.12944141
-0.17925005 -0.25366014 -0.034362417 0.05265659 -0.4380272 0.17135094 -0.16649877 -0.20195471
00000000: b8f5 973d a411 003e f85b 993b deff 81bd
00000010: b2c5 cf3a a5da 67be 1add 7b3e 7899 f7bd
00000020: 6b85 283e e444 f03d 0a54 fe3d 50b2 88bc
00000030: d51b b3bc 1805 da3b 28b6 ebbb 0674 c03b
00000040: 08ff 023c 7441 fd3d 1f70 a63e a994 873e
00000050: 0e0d c6be 5796 aebe 1306 403e 9400 573e
00000060: 1312 013b 1942 5e3a f61b 763e ce5a 8fbc
00000070: 3b51 e03e 292d 64be 93cc 3f3e 946a d83b
00000080: 3903 783c 3d02 bf3a ddcc 2fbd 1654 f1be
00000090: 7186 543e cdab 05be f24a c53e 3d68 0f3e
000000a0: 4a1f 7e3e 451f 993c c619 02bc 237d 973d
000000b0: 49f3 7dbe d328 b23d dac4 74bd c1b7 0cbf
000000c0: f211 7abe 600b d03e c5e1 b0bd 1ede f7bd
000000d0: d51c 163e 4859 fdbd 1fe2 40be 4a8c 04be
000000e0: 538d 37be bedf 81be 9bbf 0cbd 70ae 573d
000000f0: 1a45 e0be 9f76 2f3e a77e 2abe 37cd 4ebe

a2c_network.mu.weight f4 [1, 64]
0.45807645 0.37170202 0.005136542 -0.013021245 0.00069971045 0.23668478 0.41419503 -0.35748348
0.0092776315 0.10669749 0.6030202 -0.05779188 0.12174756 0.54112643 -0.44637054 -0.1223932
-0.0020903721 -0.21675327 0.16396357 -0.19870964 -0.01080256 0.07043999 0.12833552 0.32152775
0.000118170305 0.2418991 0.030475764 -0.10554587 -0.6313853 -0.03754335 0.13621333 3.4141005e-05
0.25236577 -0.16128336 0.022450013 0.25410756 -0.22294983 0.24978143 0.00817682 -0.1764253
0.040724616 -0.0038114542 -0.00045373212 0.050501242 -0.052394617 -0.013962161 0.36746585 -0.30018827
-0.14789441 -0.0775787 -0.90917504 0.5312534 -0.08716583 -0.16387802 -0.13970986 0.153243
0.023258822 -0.19852343 0.5177799 -0.07005119 -0.5904512 0.25851095 0.21380264 0.17855702
00000000: ff88 ea3e ba4f be3e 7050 a83b 0f57 55bc
00000010: c66c 373a 7f5d 723e 5f11 d43e 1308 b7be
00000020: 3501 183c 3784 da3d 885f 1a3f 2eb7 6cbd
00000030: c956 f93d 4387 0a3f ae8a e4be 49a9 fabd
00000040: a0fe 08bb 92f4 5dbe 11e6 273e 8a7a 4bbe
00000050: 38fd 30bc d742 903d 636a 033e 499f a43e
00000060: 33d2 f738 66b4 773e 4fa8 f93c 6f28 d8bd
00000070: 78a2 21bf 0ec7 19bd 827b 0b3e a032 0f38
00000080: 1636 813e 7727 25be 17e9 b73c 631a 823e
00000090: f64c 64be b4c6 7f3e 12f8 053c d5a8 34be
000000a0: dbce 263d 97c9 79bb e5e2 edb9 64da 4e3d
000000b0: bd9b 56bd 8cc1 64bc 7c24 bc3e 47b2 99be
000000c0: a271 17be 95e1 9ebd b2bf 68bf 3900 083f
000000d0: 0084 b2bd a4cf 27be 1a10 0fbe bceb 1c3e
000000e0: 4989 be3c ba49 4bbe 398d 043f 0077 8fbd
000000f0: cf27 17bf 8c5b 843e 14ef 5a3e a7d7 363e

exp_avg f4 [64, 4]
0.0012750028 -0.0002907738 -0.0011426235 8.254174e-05 -0.0007083268 -1.8095168e-05 0.000993249 0.00036473334
-1.9072317e-05 0.00018697102 -0.00020331402 0.00025315068 1.0339564e-05 -0.00088751863 0.00050910073 -0.00032831993
0.0018924274 -0.00042874724 -0.0014953691 0.0010348666 -0.0012722673 0.0016742683 -0.0017793566 -0.0011151495
0.002103616 0.00020661122 0.0006895339 0.0009627283 0.0014699756 0.0003262317 0.0018608832 -0.00054347835
0.0017233221 -0.0014939782 0.000624893 0.0014982362 -0.0016193729 0.00011815566 3.37249e-05 -0.0006003934
0.0002803406 0.00020095908 -0.0007996087 -7.811177e-05 0.00017745577 0.0006663241 0.00023198083 -0.000110408146
-0.00053370616 -0.00016439664 0.00044192318 -6.757722e-05 -0.003229499 0.0004987735 0.0020401117 -0.0010017811
0.0019135115 -0.00093426206 0.00052527664 0.0009842069 0.0003818708 -0.00041519004 -0.0007803593 -8.5379725e-05
0.0015980444 -9.828719e-05 -0.0007054857 0.00060304935 -0.0015009902 -0.000111011665 -0.0012208662 -0.00016079184
-0.0016242925 0.00046026002 0.002671236 -0.00059899874 -2.2949707e-05 -0.0011702788 0.00066356885 0.00031235398
-0.0013136041 0.0007921368 -0.00035368535 -2.6079188e-05 -0.0005048774 -9.887534e-05 -0.000673818 -0.00054291065
-0.0010344387 4.364684e-06 0.0008717401 -0.0008879737 -0.00056968484 -0.0017083434 0.001720849 -0.000262325
-3.5949102e-05 -7.003615e-05 -0.0014069426 0.0005817414 -0.00066022814 -0.002011632 0.001129253 0.00026636932
0.0012196238 -0.000118545046 -0.0018789301 0.00047036615 0.00076377916 -0.0002983531 0.00066950463 -0.00040537652
0.0011092195 -0.0004865363 0.00010842319 -0.00043785127 -4.717249e-05 0.0014975626 -0.001763517 -0.00029307412
0.00072637544 -0.000701099 0.0026036233 0.00045762188 -0.0019411704 0.0005964041 0.00044167106 -0.00041568695
-0.00073930726 0.0006424157 -0.00053858483 -0.00029980135 0.0010714901 -0.0009243987 0.001119423 0.00025089868
-0.00018745547 0.0005896774 0.001246131 -0.0008673259 0.00045268994 -0.00040974538 0.001080439 3.2651114e-05
-0.00063500315 0.00039215747 0.00044126416 -0.0011967353 0.0006093465 0.0012397218 0.00044049305 0.00046445377
-0.002195498 0.0010287807 -6.728798e-05 -0.00088728295 -0.0026975947 0.00033687882 0.0030704692 -0.00051214296
0.002582058 5.4418683e-06 0.0009627508 0.00076287746 -0.0010861319 -0.00029150903 0.00016959036 -5.1333125e-05
0.00032970082 0.00080860883 7.21291e-05 -0.0001274149 -0.0010362042 0.0002570086 -0.00048516787 -0.00024051625
0.0022538407 0.00026977572 0.001219228 0.0008789654 0.00048048503 0.00019551606 0.0006424846 -0.00040443815
0.00035393875 -0.0007931006 2.5079526e-05 0.00047932318 -0.0003789185 -5.1275892e-05 -0.0003980081 0.00010001275
0.00036561172 -0.00014338898 -0.0008396411 -9.378667e-05 0.00012503073 -0.00090734137 0.0019213689 -0.0007207798
0.00026326784 -0.00019480755 -0.0006711033 0.00016539636 0.00088765885 0.0010576712 -6.545966e-05 0.00010132239
-0.0017299484 0.0014355638 -0.0031068102 0.00059967797 0.0004775927 -0.00050754286 -5.1811135e-06 -0.00020983838
0.0009361511 -0.00075479463 -0.00024373007 0.00041184886 -0.0003731278 -2.054433e-05 0.00015263322 -0.00014000095
0.00041392606 -0.0014640288 0.0003051605 0.0005562078 -0.00013281785 -0.00063059235 -0.00032358995 -3.4995269e-06
-0.0016260354 0.0001387198 0.0010964625 -0.0007829565 0.0026001115 -0.00022023 0.0017872468 0.0008585049
0.00021049561 0.00024362118 0.0005028699 3.6039397e-05 -0.00056606636 -0.00032625414 -0.00041012967 -0.0007222629
-0.0015106556 -0.0006709913 -0.0007387698 0.00045719152 0.00010459795 -0.0008222634 0.00044499367 -0.0002944595
00000000: ff1d a73a 0073 98b9 15c4 95ba 421a ad38
00000010: 02af 39ba 14cb 97b7 e82f 823a ae39 bf39
00000020: 7dfd 9fb7 a70d 4439 b130 55b9 4fb9 8439
00000030: 1778 2d37 5ea8 68ba 2c75 053a 5b22 acb9
00000040: 540b f83a 7bc9 e0b9 4300 c4ba 5ca4 873a
00000050: 35c2 a6ba 1f73 db3a 4d39 e9ba 352a 92ba
00000060: d2dc 093b c7a5 5839 d6c1 343a 9a5f 7c3a
00000070: 32ac c03a 140a ab39 e1e8 f33a 3778 0eba
00000080: 18e1 e13a 97d1 c3ba dccf 233a 7760 c43a
00000090: 2341 d4ba 56ca f738 d673 0d38 b863 1dba
000000a0: aefa 9239 8bb8 5239 d59c 51ba f0cf a3b8
000000b0: 6c13 3a39 41ac 2e3a e13f 7339 ec8a e7b8
000000c0: 6ae8 0bba e361 2cb9 edb1 e739 3eb8 8db8
000000d0: 01a6 53bb 1fc0 023a 65b3 053b 324e 83ba
000000e0: cbce fa3a 44e9 74ba b8b2 093a 8100 813a
000000f0: d535 c839 ddad d9b9 0791 4cba e40d b3b8
00000100: 7975 d13a 891f ceb8 58f0 38ba f515 1e3a
00000110: e0bc c4ba efce e8b8 7905 a0ba 3b9a 28b9
00000120: 36e6 d4ba 0e4f f139 e70f 2f3b 2006 1dba
00000130: 1f84 c0b7 0a64 99ba 5af3 2d3a 71c3 a339
00000140: 3d2d acba 67a7 4f3a d86e b9b9 a1c4 dab7
00000150: c059 04ba 4b5b cfb8 29a3 30ba 1e52 0eba
00000160: 0196 87ba 5a74 9236 7d85 643a e8c6 68ba
00000170: e756 15ba 7eea dfba 1c8e e13a aa88 89b9
00000180: 0ec8 16b8 5fe0 92b8 2969 b8ba 0180 183a
00000190: 2913 2dba 96d5 03bb 7103 943a 7ca7 8b39
000001a0: c9db 9f3a 639b f8b8 6f46 f6ba 7a9b f639
000001b0: 5a38 483a 466c 9cb9 b281 2f3a b788 d4b9
000001c0: 3b63 913a cc15 ffb9 4261 e338 678f e5b9
000001d0: 13db 45b8 dd49 c43a d025 e7ba bea7 99b9
000001e0: 3b6a 3e3a f5c9 37ba 8da1 2a3b f8ec ef39
000001f0: df6e feba 0058 1c3a 1690 e739 8ff0 d9b9
00000200: 12ce 41ba ca67 283a d12f 0dba a82e 9db9
00000210: 3e71 8c3a 5953 72ba 9ab9 923a 0d8b 8339
00000220: b28f 44b9 9594 1a3a 3855 a33a 425d 63ba
00000230: 0457 ed39 18d3 d6b9 849d 8d3a def2 0838
00000240: 5776 26ba 7c9a cd39 7959 e739 c6db 9cba
00000250: 8dbc 1f3a 297e a23a faf1 e639 ee81 f339
00000260: 58e2 0fbb 27d8 863a f61c 8db8 8d98 68ba
00000270: 21ca 30bb 1c9f b039 ed39 493b 5541 06ba
00000280: bf37 293b 4b99 b636 1d61 7c3a d7fb 473a
00000290: 8a5c 8eba aed5 98b9 11d4 3139 864e 57b8
000002a0: b2db ac39 d2f8 533a 0444 9738 ad9a 05b9
000002b0: 3ed1 87ba 1cbf 8639 215e feb9 1733 7cb9
000002c0: 2cb5 133b af70 8d39 81ce 9f3a 5f6a 663a
000002d0: 9ce9 fb39 7103 4d39 696c 283a c50a d4b9
000002e0: db90 b939 15e8 4fba df61 d237 ab4d fb39
000002f0: 95a9 c6b9 1211 57b8 beab d0b9 f0bd d138
00000300: 93af bf39 b05a 16b9 5c1b 5cba 56af c4b8
00000310: ae1a 0339 a6da 6dba 71d6 fb3a b7f2 3cba
00000320: 3607 8a39 4145 4cb9 fbec 2fba 3f6e 2d39
00000330: c7b1 683a 8ea1 8a3a 6347 89b8 0b7d d438
00000340: 70bf e2ba 8729 bc3a a09b 4bbb b533 1d3a
00000350: 6865 fa39 a00c 05ba 6dd9 adb6 1008 5cb9
00000360: 0968 753a 69dd 45ba cb91 7fb9 6bed d739
00000370: 5ea0 c3b9 9d56 acb7 2b0c 2039 38cd 12b9
00000380: 3704 d939 a8e4 bfba f3fd 9f39 79ce 113a
00000390: 0545 0bb9 564e 25ba 82a7 a9b9 6ad9 6ab6
000003a0: b220 d5ba 5075 1139 2db7 8f3a 523f 4dba
000003b0: a266 2a3b 8aed 66b9 0d42 ea3a 4a0d 613a
000003c0: 7cb8 5c39 9074 7f39 07d3 033a 0229 1738
000003d0: 1264 14ba 170d abb9 ac06 d7b9 3e56 3dba
000003e0: 3101 c6ba 77e5 2fba 01aa 41ba 35b3 ef39
000003f0: 995b db38 2a8d 57ba 0a4e e939 af61 9ab9

exp_avg_sq f4 [64, 4]
6.952786e-05 1.6600507e-05 0.0002572146 6.737908e-05 3.510102e-05 1.23363425e-05 0.00015687912 4.108209e-05
9.039089e-05 4.0727533e-05 0.00037266302 4.1868698e-05 3.1613465e-05 1.6687281e-05 6.869756e-05 1.140444e-05
0.00045216433 3.653921e-05 0.0015724405 0.00030689136 1.8354216e-05 0.00013013488 0.00010044984 1.6049922e-05
2.043131e-05 1.822234e-05 4.8764934e-05 1.2089026e-05 6.768203e-05 1.0831394e-05 0.00017568751 3.5708097e-05
0.00016680811 4.2266183e-05 0.0008481263 0.00017360889 5.7347428e-05 1.7397775e-05 0.00011161668 1.0266514e-05
1.2287225e-05 9.708519e-06 4.246266e-05 6.370577e-06 3.1693806e-05 2.7280326e-05 0.00012534662 1.5898586e-05
6.3215434e-06 3.8852624e-05 1.3801712e-05 5.3634662e-06 0.0005437265 3.3903794e-05 0.0019176746 0.00039710023
7.723784e-05 4.9547692e-05 0.00021379917 4.90681e-05 9.9272365e-05 5.942691e-05 0.00034517093 6.2449086e-05
6.0075432e-05 1.609926e-05 5.817756e-05 1.2880985e-05 6.044372e-05 6.995361e-06 2.9998553e-05 1.45251415e-05
0.00020198939 6.7200504e-05 0.0007198269 0.00012770371 3.184362e-05 8.022111e-05 7.589591e-05 1.8101868e-05
9.134028e-05 6.013769e-05 0.00043283025 8.78925e-05 4.9802336e-05 1.5350091e-05 0.00028763118 5.4610267e-05
9.1845504e-05 1.3874925e-05 0.00024525396 4.9204915e-05 3.586772e-05 1.9281899e-05 0.0001560164 4.710512e-05
0.0001874556 2.3108822e-05 0.00072355964 0.0001424846 1.4837111e-05 3.1070183e-05 6.884605e-05 2.4785002e-05
7.9833364e-05 5.6262616e-05 0.0002763302 6.246022e-05 5.1325667e-05 1.3060419e-05 0.00019026766 3.110767e-05
9.731453e-05 5.8847276e-05 0.00042822896 9.025865e-05 2.2432321e-05 3.9966788e-05 7.873249e-05 2.0002572e-05
4.8332167e-05 1.6574933e-05 0.00016306929 2.8100398e-05 0.00027282187 4.45793e-05 0.0010962947 0.00020045873
9.48136e-05 5.126212e-05 0.00031265462 3.8586033e-05 8.003327e-05 6.250572e-05 0.00030570404 6.2820516e-05
8.466859e-06 1.716195e-05 0.00013566064 3.4061493e-05 2.9330648e-05 1.6984224e-05 8.61799e-05 1.9516297e-05
0.0003926252 5.156182e-05 0.0016412783 0.0004242034 7.004924e-05 7.975191e-05 0.00066716986 0.00012837503
0.00027229125 5.313072e-05 0.0009842496 0.0001729159 9.881949e-05 8.4843756e-05 0.000490656 0.00014434193
1.9058858e-05 2.1445056e-05 3.19076e-05 1.4996617e-05 1.719459e-05 3.53415e-05 4.570687e-05 6.1673154e-06
8.189843e-06 1.5517135e-05 2.6407639e-05 2.680476e-06 1.2697982e-05 3.9420025e-05 4.3490127e-05 7.0473466e-06
2.2652988e-05 2.9123345e-05 7.203404e-05 1.839286e-05 6.747015e-05 2.5088413e-05 0.00028517074 4.778379e-05
8.264795e-05 1.139588e-05 0.00035677635 8.1265935e-05 7.696482e-06 4.5669703e-06 6.970918e-05 1.5855043e-05
3.9755963e-05 2.5235307e-05 0.00012420876 1.9023728e-05 5.338438e-05 1.0522258e-05 0.00010469422 2.6463564e-05
1.0269463e-05 2.2258397e-05 4.9110153e-05 3.2721753e-05 1.4339521e-05 2.5076914e-05 5.1243125e-05 1.388307e-05
0.00037215304 0.00020268746 0.001203894 0.00012898124 2.2790406e-05 9.123615e-06 4.1038744e-05 2.0454781e-06
8.806463e-05 3.445022e-05 0.00031948887 3.88321e-05 2.9612945e-06 2.635548e-06 2.699733e-05 7.4041354e-06
6.128465e-05 5.2792057e-05 0.00020497538 3.8105652e-05 5.6741548e-05 6.337613e-05 0.00024944064 3.6935035e-05
0.00022912414 4.635263e-05 0.0009845286 0.00020750002 7.67849e-05 1.4272851e-05 8.788983e-05 2.1035357e-05
5.9781356e-05 3.261833e-05 0.00018581151 2.3363984e-05 2.1971311e-05 2.5041474e-05 6.807753e-05 1.52372195e-05
2.6026597e-05 2.9552137e-05 0.000107305255 1.561705e-05 6.67798e-05 5.062419e-05 0.00028788173 4.5170105e-05
00000000: 7ccf 9138 5141 8b37 c2da 8639 de4d 8d38
00000010: 6f39 1338 30f8 4e37 eb7f 2439 8f4f 2c38
00000020: 3d90 bd38 dbd2 2a38 fc61 c339 2c9c 2f38
00000030: b398 0438 aafb 8b37 b911 9038 b255 3f37
00000040: 7810 ed39 ae41 1938 591a ce3a 43e6 a039
00000050: 61f7 9937 d174 0839 99a8 d238 f2a2 8637
00000060: e763 ab37 2ddc 9837 f388 4c38 f9d1 4a37
00000070: 83f0 8d38 7cb8 3537 c238 3839 47c5 1538
00000080: 36e9 2e39 f846 3138 cb54 5e3a c80a 3639
00000090: 5588 7038 70f1 9137 c013 ea38 583e 2c37
000000a0: 3b25 4e37 c6e1 2237 ef19 3238 d7c2 d536
000000b0: f7ee 0438 0ed8 e437 7a6f 0339 f45d 8537
000000c0: a51d d436 b0f5 2238 e78d 6737 d3f7 b336
000000d0: de88 0e3a ec33 0e38 7b5a fb3a e431 d039
000000e0: c0fa a138 6ed1 4f38 472f 6039 79ce 4d38
000000f0: 7230 d038 2941 7938 0ff8 b439 19f7 8238
00000100: 81f9 7b38 e60c 8737 ae03 7438 691b 5837
00000110: f384 7d38 b2b9 ea36 67a5 fb37 02b1 7337
00000120: 1dcd 5339 ffed 8c38 c4b2 3c3a 34e8 0539
00000130: d48f 0538 613c a838 4e2a 9f38 77d9 9737
00000140: f08d bf38 5a3c 7c38 7eed e239 ed52 b838
00000150: dae2 5038 12c4 8037 34cd 9639 540d 6538
00000160: 2e9d c038 59c8 6837 6e95 8039 6061 4e38
00000170: ac70 1638 90bf a137 5598 2339 bd92 4538
00000180: bb8f 4439 d1d9 c137 44ad 3d3a eb67 1539
00000190: e8ec 7837 5b51 0238 7161 9038 63e9 cf37
000001a0: 366c a738 86fb 6b38 69e0 9039 13fd 8238
000001b0: 8446 5738 131e 5b37 9682 4739 9b79 0238
000001c0: 5715 cc38 c8d2 7638 eb83 e039 3e49 bd38
000001d0: 0b2d bc37 03a2 2738 2f1d a538 32cb a737
000001e0: 45b8 4a38 660a 8b37 94fd 2a39 25b9 eb37
000001f0: 8809 8f39 a9fa 3a38 8cb1 8f3a 3b32 5239
00000200: aad6 c638 4802 5738 cbeb a339 70d7 2138
00000210: 89d7 a738 8115 8338 e746 a039 82be 8338
00000220: e20c 0e37 02f7 8f37 2040 0e39 40dd 0e38
00000230: 160b f637 5879 8e37 7bbb b438 eeb6 a337
00000240: 43d9 cd39 1544 5838 2920 d73a 9e67 de39
00000250: 66e7 9238 7b40 a738 03e5 2e3a 699c 0639
00000260: 50c2 8e39 add8 5e38 f001 813a c250 3539
00000270: 4f3d cf38 25ee b138 5e9f 003a 7e5a 1739
00000280: 96e0 9f37 e8e4 b337 86d4 0538 fb99 7b37
00000290: 1a3d 9037 a63b 1438 61b5 3f38 d6f0 ce36
000002a0: 1c67 0937 cb2a 8237 f985 dd37 3ae2 3336
000002b0: 6b09 5537 ee56 2538 2b69 3638 3f78 ec36
000002c0: ec06 be37 e84d f437 fb10 9738 5e4a 9a37
000002d0: c37e 8d38 f574 d237 f882 9539 746b 4838
000002e0: 4853 ad38 ef30 3f37 b60d bb39 516d aa38
000002f0: 2320 0137 fa3d 9936 d530 9238 7200 8537
00000300: a4bf 2638 69b0 d337 093e 0239 2595 9f37
00000310: 0be9 5f38 c188 3037 488f db38 12fe dd37
00000320: 024b 2c37 8bb7 ba37 a0fb 4d38 b73e 0938
00000330: c693 7037 435c d237 e3ed 5638 55eb 6837
00000340: 891d c339 8088 5439 fbcb 9d3a 233f 0739
00000350: 062e bf37 a111 1937 0421 2c38 0c45 0936
00000360: 57af b838 a47e 1038 1281 a739 a6df 2238
00000370: a7ba 4636 5fde 3036 5378 e237 0a71 f836
00000380: f285 8038 0a6d 5d38 a9ee 5639 a2d3 1f38
00000390: c6fd 6d38 cde8 8438 5bc7 8239 b1ea 1a38
000003a0: 0b41 7039 c26a 4238 4c0b 813a 5d94 5939
000003b0: 9407 a138 6e75 6f37 7e51 b838 1675 b037
000003c0: bebd 7a38 aacf 0838 66d6 4239 c6fd c337
000003d0: 084f b837 2810 d237 d8c4 8e38 5ca3 7f37
000003e0: b153 da37 bbe6 f737 1209 e138 5c01 8337
000003f0: 220c 8c38 4f55 5438 d5ee 9639 0875 3d38

exp_avg f4 [64]
-0.0009065465 0.0008479017 0.0015074473 -0.0006885318 -0.0023890496 -0.00014016569 -0.00024046077 0.0007556484
-0.0018879662 0.0010003394 0.00058140844 -0.00028414544 0.0005511325 0.0029735353 -0.001082832 -0.0012201219
-0.0018296421 -0.0007778932 0.0025802879 -0.0012938444 0.0012918212 0.0004561989 0.00017729434 0.00076701096
-0.00072196894 0.0008946379 -0.0028370258 -0.00056174665 -0.0011266253 -0.0008817899 0.0015759781 0.0026573252
0.00083552976 -0.00095120585 -0.00032051996 0.0013690809 0.0012910509 -0.00021112258 0.001949697 0.0029227608
-0.0003181644 0.000505072 -0.00092008227 0.00013615172 -4.4184573e-05 -0.00082688016 -0.0008384105 0.0006292009
-0.0012617987 -0.00015853178 -0.001549706 -6.979985e-05 0.000827846 0.0006022194 -0.0010749031 0.00028367096
0.0002185387 -0.00082521304 0.0015141967 0.0006621048 0.00074543466 1.7518209e-05 0.00021984862 -0.0005272593
00000000: 4ea5 6dba b845 5e3a 8a95 c53a 967e 34ba
00000010: 9a91 1cbb 71f9 12b9 3224 7cb9 b516 463a
00000020: a275 f7ba d21d 833a a969 183a 5bf9 94b9
00000030: e079 103a a5df 423b d0ed 8dba 7fec 9fba
00000040: 9ad0 efba 87eb 4bba 0c1a 293b 3796 a9ba
00000050: 5452 a93a fb2d ef39 16e8 3939 3c11 493a
00000060: 8442 3dba 2286 6a3a 65ed 39bb 2e42 13ba
00000070: 46ab 93ba eb27 67ba 0d91 ce3a 8526 2e3b
00000080: 7407 5b3a 585a 79ba 760b a8b9 bb72 b33a
00000090: 7b38 a93a c960 5db9 fa8c ff3a ca8b 3f3b
000000a0: 4ecf a6b9 cf66 043a ad31 71ba f3c3 0e39
000000b0: d352 39b8 fdc2 58ba c7c8 5bba f5f0 243a
000000c0: f062 a5ba 8d3b 26b9 811f cbba 8261 92b8
000000d0: ce03 593a 43de 1d3a c3e3 8cba acb9 9439
000000e0: 8927 6539 1c53 58ba 0378 c63a 1a91 2d3a
000000f0: 4669 433a 11f4 9237 2a87 6639 c637 0aba

exp_avg_sq f4 [64]
8.0285405e-05 4.2355394e-05 8.10137e-05 8.818824e-06 0.0007036279 9.005742e-05 5.0649778e-05 2.1982538e-05
9.908654e-05 0.00013528415 5.061048e-06 1.9028697e-05 5.670313e-05 0.001218357 4.4316905e-05 4.4322074e-05
0.00017048031 1.3267347e-05 0.00023411747 4.415123e-05 5.1873558e-05 4.0136252e-05 0.0001670254 7.446919e-05
0.00013197883 4.2747746e-05 0.00028987307 4.3035492e-05 5.458393e-05 2.7154978e-05 0.000109693654 0.00061574474
2.3847806e-05 3.879716e-05 3.4890094e-05 3.0191102e-05 0.0002490057 5.355653e-05 0.00024733567 0.00048454746
4.0811818e-05 3.842967e-05 1.8987965e-05 4.615665e-05 2.6668818e-05 2.7733944e-05 7.484354e-05 3.5722114e-05
2.5302585e-05 6.5402324e-05 5.5614153e-05 9.976102e-06 7.3052e-05 1.606076e-05 4.0593015e-05 1.347647e-05
3.0206205e-05 2.046511e-05 0.00042640048 2.0324791e-05 1.1779173e-05 1.00451425e-05 2.3179911e-05 2.015698e-05
00000000: e65e a838 c2a6 3138 e6e5 a938 90f4 1337
00000010: ab73 383a 36dd bc38 c970 5438 2467 b837
00000020: aecc cf38 10db 0d39 12d2 a936 d19f 9f37
00000030: 86d4 6d38 47b1 9f3a eae0 3938 77e6 3938
00000040: f6c2 3239 d296 5e37 6e7d 7539 062f 3938
00000050: cf92 5938 f957 2838 8a23 2f39 582c 9c38
00000060: cc63 0a39 0b4c 3338 1bfa 9739 0281 3438
00000070: 0cf1 6438 dfca e337 550b e638 ee69 213a
00000080: c60c c837 22ba 2238 f456 1238 e642 fd37
00000090: fb8c 8239 e3a1 6038 d5ac 8139 dc0a fe39
000000a0: 5b2d 2b38 8b2f 2138 5848 9f37 5398 4138
000000b0: dab6 df37 31a6 e837 52f5 9c38 54d4 1538
000000c0: e340 d437 9b28 8938 3e43 6938 085f 2737
000000d0: 7e33 9938 38ba 8637 6b42 2a38 ff18 6237
000000e0: 5563 fd37 7dac ab37 818e df39 287f aa37
000000f0: 2a9f 4537 8f87 2837 7b72 c237 c916 a937

exp_avg f4 [64, 64]
-6.4083e-05 0.00022516344 0.0005240193 -0.0008053026 -0.00020387505 -0.00019462594 -0.00016062829 -0.0007350828
-0.0008802095 -3.749083e-05 0.0008236415 0.0008991359 0.00068434636 0.00030501743 -0.00050492055 -0.00063933356
-0.0009503054 0.0005821915 0.0004691465 0.00020051043 0.00046520733 0.0005328467 -0.0005642661 -0.0009128101
-0.0001632855 -0.0008821169 -0.00018791582 -0.0007744553 -0.00047955013 0.0005712669 -0.000112507405 0.0003936277
0.0006955966 -0.00081239606 0.0005256582 0.00022336596 -0.00033235765 0.00049880834 0.0006128519 0.00011834349
-8.009325e-05 4.8959755e-05 0.00089376536 -0.00010396406 -0.00026259726 -0.00036022006 0.00012043204 -0.00097433705
-0.0003529006 -0.0010053752 -0.0005912316 0.00035061367 0.0009500314 -0.0007669108 -0.0009948901 -0.0010070549
0.00020982257 -0.00072010903 0.00045880984 -0.0006641561 0.00069972145 0.00074378145 -0.0008485666 -0.0007300518
8.793167e-05 -6.0304574e-05 -7.4026498e-06 -7.899434e-06 5.533118e-05 -0.00014135493 4.410654e-05 -0.00013636833
4.9927567e-06 -8.224732e-05 9.2235634e-05 0.00018165588 -9.287029e-05 -5.165142e-05 1.1316527e-05 6.846426e-06
-7.596548e-05 0.00011142409 -2.4332878e-05 -3.182748e-05 -3.0745912e-05 2.911185e-05 -0.00017468793 -0.0001517047
3.602454e-05 -0.00014641495 2.4885347e-05 -3.3608398e-05 2.4176474e-05 0.00011739805 -8.884264e-05 -2.8507488e-05
-8.4254737e-07 -4.46701e-06 -1.6917869e-06 -1.4770814e-05 -0.0001289395 3.3922624e-05 -2.2763203e-05 -2.4670933e-05
6.6442306e-05 -5.858962e-05 0.00015198257 -6.0472277e-05 6.0178623e-05 3.815059e-06 0.00014934881 -0.00015525027
2.4150313e-05 -6.918051e-05 2.3375208e-06 2.6090871e-05 1.4287032e-05 -0.00015408263 -1.268326e-05 -0.00013713754
0.00016910011 5.890551e-06 -4.633021e-05 -5.2214273e-05 5.541867e-06 0.00012730066 -0.00020316888 -7.1312006e-06
1.9669662e-05 -5.4806496e-06 -1.7088512e-05 2.7649046e-05 3.8142066e-06 -2.3953959e-05 -1.03868015e-05 -3.4199376e-05
1.718302e-05 -3.0745046e-05 -1.8234225e-05 -1.2838643e-05 -1.4755395e-05 -7.462967e-06 2.6863394e-05 2.1510014e-05
-1.9401583e-05 2.812009e-05 -2.6418633e-05 -2.0967926e-05 -1.9375417e-05 1.9226321e-05 2.2624092e-05 7.3564825e-06
-1.186171e-05 1.3372916e-05 2.618195e-05 -8.340958e-06 1.50894275e-05 9.385907e-06 -3.7318754e-05 -7.452756e-06
-2.8350605e-05 1.9396166e-05 1.843539e-05 -1.1631718e-05 1.3646994e-05 -2.4163355e-05 -1.616649e-05 2.3992525e-06
-3.4886034e-06 -2.641421e-05 2.6620923e-05 -3.0532567e-05 -2.6215972e-05 7.111923e-07 1.6757931e-05 -2.9035551e-05
4.1488124e-06 1.8641244e-05 1.9625391e-05 -8.114914e-06 -1.8728417e-05 -3.6436715e-05 2.0601508e-05 -1.746855e-05
1.9453148e-05 1.56466e-05 2.2368164e-05 -3.7181766e-05 -3.2594442e-05 3.7255304e-05 1.715394e-05 1.2561268e-05
-5.42897e-05 1.991188e-05 2.7865479e-05 -6.060653e-05 5.861338e-06 5.1947933e-05 3.0825817e-05 8.361591e-05
-8.064756e-05 6.5752414e-05 3.2544296e-05 6.7230896e-05 4.164701e-05 1.9868618e-05 -5.5114608e-05 -7.181599e-05
4.5261666e-05 -0.000115762974 7.553131e-05 3.723522e-05 5.617444e-05 -3.953962e-05 -2.5343932e-05 -3.7163176e-05
5.7737416e-05 -5.8720758e-05 -3.1859527e-05 -8.087327e-06 -4.2803742e-05 2.9317873e-05 8.078584e-05 1.1045761e-05
7.9360005e-05 -6.785168e-05 4.131108e-06 -1.1666655e-05 -6.940813e-05 0.0001054039 6.121941e-05 -4.7845162e-05
5.557945e-05 6.0213904e-05 -2.2358596e-05 6.0508824e-05 9.872033e-05 9.289914e-06 -8.905242e-05 4.8833932e-05
-9.193793e-06 -4.482977e-05 -3.672842e-05 4.4580785e-05 6.275524e-05 5.3853488e-05 -7.9848076e-05 3.0172956e-05
-8.4231884e-05 -6.935852e-05 -4.421544e-05 0.00011387147 9.8403965e-05 -6.791423e-05 -8.43881e-05 -3.8197086e-05
00000000: 4c64 86b8 da19 6c39 575e 093a f11a 53ba
00000010: 4bc7 55b9 8114 4cb9 546e 28b9 92b2 40ba
00000020: dcbd 66ba 793f 1db8 a5e9 573a fdb3 6b3a
00000030: b565 333a bfea 9f39 a55c 04ba f398 27ba
00000040: ea1d 79ba 369e 183a c7f7 f539 1c40 5239
00000050: 12e7 f339 bdae 0b3a 42eb 13ba a649 6fba
00000060: 9e37 2bb9 dd3d 67ba 450b 45b9 d104 4bba
00000070: 216c fbb9 13c1 153a f4f1 ebb8 d15f ce39
00000080: b358 363a faf6 54ba 53cc 093a 5837 6a39
00000090: 4a40 aeb9 76c2 023a cba7 203a 2d2f f838
000000a0: bcf7 a7b8 235a 4d38 944b 6a3a 4807 dab8
000000b0: 35ad 89b9 ebdb bcb9 7690 fc38 a76a 7fba
000000c0: 8405 b9b9 cbc6 83ba e2fc 1aba 92d2 b739
000000d0: 870b 793a 830a 49ba f966 82ba 28ff 83ba
000000e0: d103 5c39 b3c5 3cba 6a8c f039 c31a 2eba
000000f0: 836d 373a 54fa 423a 5772 5eba f260 3fba
00000100: f567 b838 8bef 7cb8 4764 f8b6 d087 04b7
00000110: 6713 6838 ad38 14b9 09ff 3838 18fe 0eb9
00000120: 7487 a736 327c acb8 a16e c138 e17a 3e39
00000130: 5bc3 c2b8 4aa4 58b8 1ddc 3d37 5aba e536
00000140: a84f 9fb8 5aac e938 751e ccb7 7f7e 05b8
00000150: 2cf5 00b8 3935 f437 6f2c 37b9 ec12 1fb9
00000160: 0e19 1738 f786 19b9 e0c0 d037 bef6 0cb8
00000170: 95ce ca37 9933 f638 0751 bab8 5d23 efb7
00000180: 6a2b 62b5 53e3 95b6 5b11 e3b5 2ad0 77b7
00000190: ef33 07b9 2448 0e38 9bf3 beb7 6df4 ceb7
000001a0: f156 8b38 20be 75b8 835d 1f39 9da3 7db8
000001b0: 4e68 7c38 1b03 8036 849a 1c39 adca 22b9
000001c0: 6796 ca37 0115 91b8 4dde 1c36 b8dd da37
000001d0: 56b2 6f37 3e91 21b9 30ca 54b7 94cc 0fb9
000001e0: 7750 3139 73a7 c536 af52 42b8 a600 5bb8
000001f0: 46f4 b936 037c 0539 bb09 55b9 8c48 efb6
00000200: 4700 a537 6ce6 b7b6 4d59 8fb7 e0ef e737
00000210: 92f7 7f36 bcf0 c8b7 f942 2eb7 4d71 0fb8
00000220: 4124 9037 3ef4 00b8 b3f5 98b7 8d65 57b7
00000230: f08d 77b7 666a fab6 b358 e137 6770 b437
00000240: 95c0 a2b7 6fe3 eb37 959d ddb7 47e4 afb7
00000250: 6488 a2b7 3648 a137 dec8 bd37 b4d7 f636
00000260: a801 47b7 3d5c 6037 4fa1 db37 24f0 0bb7
00000270: 9928 7d37 2a78 1d37 b586 1cb8 b012 fab6
00000280: 76d2 edb7 f3b4 a237 b3a5 9a37 d925 43b7
00000290: 65f5 6437 69b2 cab7 469d 87b7 d802 2136
000002a0: c01d 6ab6 1694 ddb7 ff4f df37 1810 00b8
000002b0: 5fea dbb7 c3e8 3e35 6293 8c37 5f91 f3b7
000002c0: 0736 8b36 c45f 9c37 35a1 a437 4a25 08b7
000002d0: f81a 9db7 a0d3 18b8 67d1 ac37 6d89 92b7
000002e0: 512f a337 d140 8337 44a3 bb37 9ef3 1bb8
000002f0: 04b6 08b8 9442 1c38 cee5 8f37 3cbe 5237
00000300: 1fb5 63b8 7008 a737 a9c0 e937 c433 7eb8
00000310: 83ac c436 abe2 5938 f84a 0138 f35a af38
00000320: 5421 a9b8 8fe4 8938 2c80 0838 50fe 8c38
00000330: 23ae 2e38 88ab a637 dc2a 67b8 eb9b 96b8
00000340: 58d7 3d38 c6c5 f2b8 9066 9e38 032d 1c38
00000350: d89c 6b38 58d7 25b8 ae99 d4b7 a8df 1bb8
00000360: 142b 7238 ef4a 76b8 e8a0 05b8 ceae 07b7
00000370: 2b88 33b8 a7ef f537 916b a938 2f51 3937
00000380: 146e a638 984b 8eb8 f39d 8a36 e7bb 43b7
00000390: 358f 91b8 4a0c dd38 ec62 8038 5aad 48b8
000003a0: fb1d 6938 308e 7c38 b88e bbb7 dbca 7d38
000003b0: 1308 cf38 e0db 1b37 a7c1 bab8 09d3 4c38
000003c0: 0a3f 1ab7 9907 3cb8 d70c 1ab8 41fc 3a38
000003d0: 779b 8338 bee0 6138 1c74 a7b8 ee1b fd37
000003e0: a6a5 b0b8 9274 91b8 f873 39b8 48ce ee38
000003f0: 3a5e ce38 2d6d 8eb8 84f9 b0b8 cf35 20b8

exp_avg_sq f4 [64, 64]
2.173297e-06 1.677755e-06 4.505069e-06 4.303073e-06 3.8908643e-06 4.109515e-06 2.0640625e-06 4.7742465e-06
5.2476744e-06 3.4064265e-06 6.1973205e-06 7.362932e-06 4.865761e-06 3.6995757e-06 4.340528e-06 2.8380932e-06
6.7360847e-06 5.09705e-06 3.6694744e-06 3.6687645e-06 3.439902e-06 2.6725158e-06 3.8805815e-06 5.310305e-06
3.5929957e-06 5.5690116e-06 4.44573e-06 3.9907873e-06 2.7265053e-06 3.5499686e-06 2.5144936e-06 3.449192e-06
4.0064383e-06 4.224007e-06 3.6139825e-06 2.9273463e-06 5.053047e-06 3.6494e-06 4.004963e-06 4.9750433e-06
3.908767e-06 2.6386283e-06 5.00668e-06 3.337918e-06 3.4375587e-06 1.8558819e-06 2.1364388e-06 5.2034793e-06
1.382104e-06 5.5540704e-06 5.837944e-06 2.2098793e-06 5.6021527e-06 4.330714e-06 6.5346358e-06 5.786094e-06
1.6254427e-06 5.235639e-06 2.6774337e-06 5.5897085e-06 5.335379e-06 3.724374e-06 7.607391e-06 3.5847977e-06
1.172613e-06 1.1248724e-06 1.6780581e-06 1.5506179e-06 1.6606858e-06 6.50596e-07 6.9933144e-08 9.1286734e-07
1.6980529e-06 1.0737252e-06 1.3464967e-06 7.1557713e-07 6.002032e-07 1.6453012e-06 1.3011496e-06 1.3520139e-06
1.5397693e-06 1.1511415e-06 1.5505755e-06 4.0031142e-07 1.5679312e-06 8.270366e-07 5.62739e-07 7.341433e-07
1.5689242e-06 7.7724303e-07 1.2716131e-06 1.1308658e-06 1.4519374e-06 4.1893654e-07 1.1124515e-06 1.6204842e-06
1.4103996e-06 1.646949e-06 3.5441056e-07 9.546914e-07 1.3040138e-06 3.5423747e-07 1.6859443e-06 1.3769225e-06
5.194491e-07 7.5703736e-07 6.0754843e-07 8.3342826e-07 4.296292e-07 8.0600455e-07 1.0247899e-06 6.564315e-07
6.0663723e-07 1.2281727e-06 1.4207161e-06 1.1616139e-07 1.7373835e-06 5.6817845e-07 1.7965857e-06 7.054129e-07
3.63012e-07 1.6344701e-06 1.2555694e-06 9.43666e-07 1.5595477e-06 4.1992055e-07 6.5575364e-07 1.4777188e-06
2.9687609e-08 9.2175245e-09 2.7911529e-08 7.4455144e-08 4.275232e-08 6.423088e-08 4.2308912e-08 1.8448543e-07
1.4462887e-07 5.158411e-08 7.307716e-08 2.385315e-07 3.7891727e-08 1.7406101e-08 6.205061e-08 1.3973136e-07
3.804491e-08 1.5409685e-07 7.79496e-08 2.4884141e-08 6.11594e-08 4.322877e-08 5.0207596e-08 1.1101436e-07
1.283024e-07 1.6266728e-07 2.2278748e-08 1.78845e-08 4.395525e-08 5.991802e-08 5.720947e-08 1.2948574e-08
1.3733344e-07 1.4534143e-07 3.2113423e-08 2.0639778e-08 1.8336178e-07 2.6550356e-07 6.107323e-08 6.4946335e-08
1.14689534e-07 5.8184497e-08 4.084419e-08 5.4646787e-08 1.7141657e-07 1.0019102e-08 1.0043428e-07 5.4882666e-08
5.647686e-09 1.2062422e-07 5.5681575e-08 1.05040804e-07 1.4299653e-07 2.6612401e-08 1.903581e-07 2.3126312e-08
1.2626393e-07 9.204396e-08 4.9906813e-08 1.7152006e-07 1.6890888e-07 1.2854072e-07 2.2684225e-07 5.1246417e-08
2.2304783e-07 4.8289348e-08 2.4398682e-07 6.806978e-07 2.5535402e-07 3.846291e-07 3.786344e-07 1.7017857e-06
9.3549556e-07 3.913322e-07 6.6256115e-07 1.7275486e-06 2.4876826e-07 1.0326854e-07 5.0222127e-07 1.0651681e-06
2.3076377e-07 1.3688164e-06 5.8724703e-07 1.8574839e-07 4.915398e-07 4.054355e-07 4.9448397e-07 7.111309e-07
9.273839e-07 1.0822907e-06 1.6277139e-07 9.518271e-08 3.3335667e-07 3.044464e-07 5.473286e-07 7.358166e-08
1.1131273e-06 1.0906768e-06 3.0893466e-07 1.1046474e-07 1.2918076e-06 2.0196155e-06 4.185879e-07 4.8787837e-07
8.376012e-07 4.5171805e-07 1.8828781e-07 4.0193342e-07 1.4766176e-06 6.796563e-08 6.295743e-07 5.863909e-07
3.7569265e-08 9.362133e-07 3.681446e-07 7.7935516e-07 1.0777218e-06 1.5327967e-07 1.3636193e-06 1.9093487e-07
9.031635e-07 7.3325185e-07 4.8795374e-07 1.574358e-06 1.2964572e-06 1.2190535e-06 1.7323295e-06 3.9693526e-07
00000000: f5d8 1136 392f e135 3f2a 9736 1e63 9036
00000010: 458e 8236 77e4 8936 5384 0a36 7732 a036
00000020: 2e15 b036 f699 6436 94f2 cf36 1b0f f736
00000030: 9244 a336 3a46 7836 daa4 9136 1276 3e36
00000040: 8706 e236 5307 ab36 1741 7636 e534 7636
00000050: 11d9 6636 7959 3336 f135 8236 2c2f b236
00000060: 321f 7136 72dd ba36 882c 9536 9ae8 8536
00000070: 01f9 3636 ff3b 6e36 acbe 2836 ab78 6736
00000080: 0b6f 8636 f2bb 8d36 bf87 7236 6d73 4436
00000090: 588d a936 37e8 7436 5f62 8636 4cef a636
000000a0: 0e28 8336 4a13 3136 0eff a736 ff00 6036
000000b0: cfb0 6636 9e17 f935 bd5f 0f36 8c99 ae36
000000c0: bb80 b935 1a5d ba36 8fe3 c336 704d 1436
000000d0: 20fa bb36 8d50 9136 1844 db36 2b26 c236
000000e0: c929 da35 ccad af36 f6ad 3336 3b8f bb36
000000f0: 8e06 b336 42f0 7936 fe42 ff36 5b92 7036
00000100: ad62 9d35 52fa 9635 a339 e135 d31e d035
00000110: bbe4 de35 9ea4 2e35 272e 9633 c40b 7535
00000120: a7e8 e335 eb1c 9035 46b9 b435 1616 4035
00000130: a61d 2135 1ed4 dc35 29a3 ae35 d876 b535
00000140: 12aa ce35 ec80 9a35 5e1d d035 62ea d634
00000150: b571 d235 8601 5e35 210f 1735 f211 4535
00000160: d393 d235 bca3 5035 4bac aa35 41c8 9735
00000170: 30e0 c235 33ea e034 8b4f 9535 6a7f d935
00000180: f64c bd35 bd0c dd35 d145 be34 f222 8035
00000190: 9305 af35 072e be34 9b48 e235 b2ce b835
000001a0: 4570 0b35 3637 4b35 6916 2335 c1b8 5f35
000001b0: caa7 e634 365c 5835 838b 8935 a135 3035
000001c0: cbd7 2235 b1d7 a435 6faf be35 6674 f933
000001d0: 0b30 e935 ed84 1835 3722 f135 9b5b 3d35
000001e0: fde3 c234 f75f db35 0985 a835 3c50 7d35
000001f0: a751 d135 7171 e134 0c07 3035 0856 c635
00000200: be03 ff32 1a5b 1e32 1ac2 ef32 26e4 9f33
00000210: ac9e 3733 4def 8933 24b7 3533 f816 4634
00000220: 484b 1b34 548d 5d33 98ee 9c33 850f 8034
00000230: 65be 2233 6c84 9532 af40 8533 1009 1634
00000240: d266 2333 d275 2534 3f65 a733 cec0 d532
00000250: bc56 8333 89aa 3933 d6a3 5733 ca66 ee33
00000260: 7fc3 0934 a4a9 2e34 7c5f bf32 6ea0 9932
00000270: 4fc9 3c33 48ac 8033 7ab6 7533 6e74 5e32
00000280: ee75 1334 260f 1c34 15ed 0933 5a4b b132
00000290: 1ae2 4434 888a 8e34 5d27 8333 a078 8b33
000002a0: 3d4b f633 88e6 7933 a96c 2f33 c7b4 6a33
000002b0: a10e 3834 7a20 2c32 54ae d733 21b8 6b33
000002c0: 920d c231 ef84 0134 8a26 6f33 cb92 e133
000002d0: 968a 1934 4a99 e432 3c65 4c34 4ca7 c632
000002e0: 2a93 0734 b4a9 c533 1f59 5633 132b 3834
000002f0: 525d 3534 0105 0a34 ec91 7334 081a 5c33
00000300: ec7e 6f34 b366 4f33 4bfd 8234 32b9 3635
00000310: 9717 8934 057f ce34 1e47 cb34 e968 e435
00000320: c41e 7b35 4a18 d234 dbda 3135 1ede e735
00000330: 738e 8534 7bc4 dd33 62d0 0635 e6f6 8e35
00000340: ddc7 7734 2cb8 b735 4fa3 1d35 2172 4734
00000350: 5cf2 0335 a1aa d934 aebc 0435 8be4 3e35
00000360: 56f1 7835 3a43 9135 42c6 2e34 4067 cc33
00000370: 31f8 b234 cb72 a334 23ec 1235 f203 9e33
00000380: c366 9535 5f63 9235 a8db a534 a238 ed33
00000390: 2c62 ad35 bb88 0736 48ba e034 bff6 0235
000003a0: 84d7 6035 a883 f234 292c 4a34 4fc9 d734
000003b0: 3230 c635 80f4 9133 0400 2935 7a68 1d35
000003c0: d85b 2133 1750 7b35 69a5 c534 e134 5135
000003d0: 3da6 9035 3295 2434 9a05 b735 c703 4d34
000003e0: ec70 7235 afd4 4435 edfb 0235 874e d335
000003f0: ee01 ae35 5c9e a335 6382 e835 5e1a d534
