eval/eval_rl/runs/CartpolePPO/nn/last_CartpolePPO_ep_300_rew_963.91437.pth (torch, 70524 bytes, 24 tensors)

value_mean_std.running_mean f8 [1]
420.8506615551122
00000000: be72 4a4f 9c4d 7a40

value_mean_std.running_var f8 [1]
17645.059566038595
00000000: ee12 eecf 433b d140

value_mean_std.count f8 []
39321601.0
00000000: 0000 0008 00c0 8241

running_mean_std.running_mean f8 [4]
0.7101653801853353 -0.04346765724934122 0.23116937696721968 0.09627648059714282
00000000: adb7 54bf acb9 e63f 32aa a38c 6441 a6bf
00000010: 8298 f448 f596 cd3f b3e8 894f 93a5 b83f

running_mean_std.running_var f8 [4]
1.0241798434194371 0.6829976797007609 1.4137911095412161 3.6655999291536068
00000000: 9657 4b67 0a63 f03f 78e0 31f3 1ddb e53f
00000010: 65ae 2d6d e39e f63f 2e7a 3f0e 2653 0d40

running_mean_std.count f8 []
19660801.0
00000000: 0000 0010 00c0 7241

a2c_network.actor_mlp.0.weight f4 [64, 4]
0.013931295 0.6250043 0.1782497 0.5335588 -0.062083993 -0.48716417 -0.19190618 -0.26283273
-0.3176472 -0.8188917 -0.1124364 0.0881561 0.082615905 0.34202847 -0.27590737 0.10590663
0.20604563 1.3886752 0.22494225 0.34443152 0.5573739 0.20255762 0.6236823 -1.8057555
-0.20957461 0.30840662 0.011593472 0.09587543 -0.3359707 0.061274294 -0.3989409 -0.6776993
-0.28233576 0.68038267 0.19033967 0.18245837 0.06573532 -0.6706579 -0.12140175 -1.0351708
-0.47272435 -0.21010974 0.06383066 0.47591794 0.2521429 0.31870225 0.18116006 0.6525954
0.40504673 0.04988222 0.7365577 -0.5209636 -0.09229152 -1.1863374 -0.26576164 -0.4772466
0.0059018247 0.37278953 -0.4321374 0.4869691 -0.04703615 0.31254712 -0.05339975 0.27466694
0.3503701 1.0691532 0.12365728 -0.796818 0.09111599 0.44101062 0.6949737 0.9210954
-0.020222828 -0.92993945 -0.13200827 -0.5222836 -0.1007968 0.38625368 0.42774686 -0.6007968
-0.25497556 -0.65522677 -0.15857153 -0.16271754 0.076405056 -0.4247779 -0.027962845 0.13251583
0.3808116 -0.50203717 -0.6130361 -0.26978847 -0.30610725 -0.3984985 -0.5029437 -0.6969588
0.33878824 0.9636766 0.017597387 0.009039714 -0.3950516 -0.5044236 -0.5085684 -0.697931
0.09876648 0.59389836 -0.21476606 0.6923859 -0.114363745 0.3152196 0.09124513 -0.21710955
0.1845597 0.5153854 0.09994099 0.14067592 0.24687123 0.23958807 -0.18525009 0.35650495
-0.23052491 -0.52637434 -0.16528231 -0.81265795 -0.15824121 -0.8758022 -0.11040068 -0.1419084
0.04146655 -0.35332537 0.237078 -0.3003666 -0.03832305 0.4168557 -0.05803232 0.063299716
0.78005207 -0.0134041 -0.07185479 -0.17445812 -0.118951716 -0.30861625 0.0924355 -0.16143979
-0.31274968 -1.4404728 -0.22173104 -0.5144679 0.3527809 0.58964884 0.04891075 -0.14731035
-0.04013658 -0.921382 -0.21179295 -0.24564055 0.032193545 -1.0892805 -0.025270414 -0.80442405
-0.21698299 0.22143075 -0.34166119 0.6475509 0.08408111 -0.11090153 0.16714367 -0.93265164
0.43418008 0.035949226 -0.12270052 0.6792235 0.14669219 0.28328642 0.45320663 -1.3736107
-0.38763547 0.5937772 -0.09469089 0.34097376 0.022843165 0.31667778 -0.0077135726 -0.00580753
-0.3784887 0.48483375 0.43458894 0.5169679 -0.1720354 0.2925347 -0.406688 -0.6186001
-0.08040433 0.2125231 0.017527256 0.030008515 -0.013092508 0.063086465 -0.40689954 -0.19775227
-0.19962856 0.7948716 -0.4578698 0.8109028 0.17127688 0.2623064 0.018040145 0.057319652
-0.019040473 -0.4898024 0.037271407 0.20109735 -0.17202221 -0.17473762 0.22318684 -1.107679
-0.23082155 0.63246965 -0.017294496 -0.24596311 -0.21650733 0.13169433 -0.40762836 -0.37451473
-0.26765567 -0.18636093 0.20113665 0.4948354 0.27724856 0.6206716 0.13396351 -0.25555322
0.23171006 -0.6592908 -0.1482759 0.10485782 -0.28900382 0.7226685 -0.12347931 0.052960373
0.11883206 -0.7837229 0.07642772 -0.62352365 0.30313513 -0.40298894 0.037097827 0.4553623
0.23862839 -0.49817565 -0.09774841 -0.79445946 0.029847594 0.29814267 -0.032327004 -0.08519921
00000000: 1640 643c 4800 203f 1787 363e 4f97 083f
00000010: c94b 7ebd 956d f9be 0e83 44be 0392 86be
00000020: a7a2 a2be e3a2 51bf 0e45 e6bd 2f8b b43d
00000030: 8732 a93d 5b1e af3e bb43 8dbe 93e5 d83d
00000040: a0fd 523e 1cc0 b13f 4357 663e 5459 b03e
00000050: 0eb0 0e3f 446b 4f3e a5a9 1f3f ff22 e7bf
00000060: ba9a 56be 79e7 9d3e 8cf2 3d3c 565a c43d
00000070: 5a04 acbe c1fa 7a3d fb41 ccbe b47d 2dbf
00000080: 508e 90be 8f2d 2e3f 67e8 423e 5ed6 3a3e
00000090: 3da0 863d 3cb0 2bbf 7ba1 f8bd 7a80 84bf
000000a0: ed08 f2be 0227 57be a6b9 823d 84ab f33e
000000b0: e018 813e f12c a33e 0682 393e 7e10 273f
000000c0: 4962 cf3e 4c51 4c3d 0c8f 3c3f df5d 05bf
000000d0: 5603 bdbd e7d9 97bf e911 88be ab59 f4be
000000e0: 1864 c13b 45de be3e 1d41 ddbe 0454 f93e
000000f0: faa8 40bd 2d06 a03e b2b9 5abd 25a1 8c3e
00000100: b663 b33e 03da 883f 0740 fd3d 44fc 4bbf
00000110: 059b ba3d 25cc e13e cce9 313f e8cc 6b3f
00000120: 58aa a5bc 8310 6ebf 2d2d 07be 61b4 05bf
00000130: 8d6e cebd 0bc3 c53e a301 db3e d2cd 19bf
00000140: 288c 82be f1bc 27bf 9360 22be 6d9f 26be
00000150: 417a 9c3d 7d7c d9be 5612 e5bc 3bb2 073e
00000160: bdf9 c23e 8285 00bf efef 1cbf b721 8abe
00000170: 17ba 9cbe ff07 ccbe ebc0 00bf e46b 32bf
00000180: a775 ad3e 82b3 763f 6528 903c 4f1b 143c
00000190: 3444 cabe e821 01bf 8a31 02bf 9bab 32bf
000001a0: 1546 ca3d b909 183f a2eb 5bbe 3440 313f
000001b0: 8a37 eabd 7764 a13e bade ba3d f751 5ebe
000001c0: 38fd 3c3e 4cf0 033f ddad cc3d 590d 103e
000001d0: d0cb 7c3e 9356 753e 33b2 3dbe d187 b63e
000001e0: b90e 6cbe 78c0 06bf c43f 29be 5a0a 50bf
000001f0: fc09 22be 9334 60bf c019 e2bd 7050 11be
00000200: d4d8 293d 10e7 b4be 93c4 723e a7c9 99be
00000210: a1f8 1cbd 1c6e d53e 4cb3 6dbd 48a3 813d
00000220: 7eb1 473f df9c 5bbc 9b28 93bd 26a5 32be
00000230: f59c f3bd f302 9ebe d34e bd3d 7950 25be
00000240: ba20 a0be 6a61 b8bf 760d 63be 2bb4 03bf
00000250: b39f b43e 3af3 163f a356 483d 86d8 16be
00000260: 4166 24bd b1df 6bbf 40e0 58be 3289 7bbe
00000270: 61dd 033d 8b6d 8bbf e603 cfbc bcee 4dbf
00000280: ca30 5ebe bebe 623e 37ee aebe e5c5 253f
00000290: b832 ac3d 5720 e3bd b627 2b3e 42c2 6ebf
000002a0: da4c de3e 7f3f 133d 694a fbbd 97e1 2d3f
000002b0: 7a36 163e eb0a 913e b30a e83e 7ad2 afbf
000002c0: 2878 c6be c801 183f 4ced c1bd 1d94 ae3e
000002d0: 9721 bb3c 9723 a23e 23c2 fcbb 184d bebb
000002e0: 45c9 c1be 213c f83e 7182 de3e 0258 043f
000002f0: 0c2a 30be 1cc7 953e 6939 d0be 935c 1ebf
00000300: 06ab a4bd a89f 593e 5295 8f3c 6bd4 f53c
00000310: f581 56bc 7a33 813d 2355 d0be 927f 4abe
00000320: 6e6b 4cbe b57c 4b3f e96d eabe 5397 4f3f
00000330: 3563 2f3e 064d 863e edc8 933c 03c8 6a3d
00000340: c4fa 9bbc 61c7 fabe e7a9 183d 77ec 4d3e
00000350: 9726 30be 6bee 32be 178b 643e 6dc8 8dbf
00000360: 7c5c 6cbe 88e9 213f 30ad 8dbc c1dd 7bbe
00000370: 19b4 5dbe e1da 063e aab4 d0be 65c0 bfbe
00000380: 2a0a 89be 66d5 3ebe c4f6 4d3e 115b fd3e
00000390: 86f3 8d3e 55e4 1e3f bb2d 093e dfd7 82be
000003a0: 6745 6d3e 48c7 28bf a3d5 17be b2bf d63d
000003b0: 4ff8 93be ce00 393f b8e2 fcbd faec 583d
000003c0: 395e f33d 10a2 48bf 2386 9c3d 3f9f 1fbf
000003d0: 8734 9b3e 9154 cebe e4f3 173d 3f25 e93e
000003e0: 005b 743e e110 ffbe 5230 c8bd b261 4bbf
000003f0: f182 f43c 28a6 983e 5269 04bd ec7c aebd

a2c_network.actor_mlp.0.bias f4 [64]
-0.30472076 0.09346794 0.33119065 -0.8257168 0.16453813 -0.21606095 0.4602746 1.2726072
-0.7609768 0.36170647 0.96760195 1.2669511 0.13449067 0.027475588 -0.32973248 -0.78892386
0.0936558 -0.81872815 0.4967286 0.029392712 0.4667811 -0.5103674 -0.47255504 -0.5273795
0.7752549 -0.77176493 -0.12853636 -0.10310169 -0.36493066 0.47572854 0.5097444 0.018154988
0.78212285 -0.8344763 -0.37582716 -0.167609 -0.7808118 1.4555243 0.41042033 -0.4740418
0.72692454 0.24381898 0.20873141 -0.016951457 1.2124025 0.19894667 -0.45746407 0.59310955
-0.022901343 -0.8337797 -0.25404873 0.6944615 0.81062293 -0.004496184 -1.1134568 0.22786301
-0.76378024 -0.5817371 -0.45134333 1.3083438 0.841505 -1.12801 -1.143371 -0.46513432
00000000: 5c04 9cbe 1f6c bf3d d291 a93e 2d62 53bf
00000010: af7c 283e 153f 5dbe 1da9 eb3e cbe4 a23f
00000020: 60cf 42bf 9731 b93e c3b4 773f 742b a23f
00000030: ecb7 093e 7c14 e13c b2d2 a8be eaf6 49bf
00000040: 9dce bf3d 2b98 51bf 3653 fe3e fcc8 f03c
00000050: effd ee3e 70a7 02bf bcf2 f1be 5802 07bf
00000060: 1b77 463f 6392 45bf 099f 03be fb26 d3bd
00000070: 31d8 babe b192 f33e 9c7e 023f c5b9 943c
00000080: 3439 483f 3da0 55bf 6b6c c0be b2a1 2bbe
00000090: 48e3 47bf 9f4e ba3f 9d22 d23e 9bb5 f2be
000000a0: ba17 3a3f afab 793e b0bd 553e c8dd 8abc
000000b0: 0130 9b3f adb8 4b3e bb38 eabe 07d6 173f
000000c0: 999b bbbc 9672 55bf ad12 82be 3bc8 313f
000000d0: fc84 4f3f ba54 93bb c185 8ebf ec54 693e
000000e0: 1a87 43bf b9ec 14bf 7916 e7be cf77 a73f
000000f0: df6c 573f a262 90bf fb59 92bf 1626 eebe

a2c_network.actor_mlp.2.weight f4 [64, 64]
0.4649174 -0.3008734 -0.17969467 -0.08119414 0.10583767 -0.7707671 0.23095435 -0.37130234
0.28222445 -0.49086496 -0.12181395 0.22564697 -0.46429312 -0.020141985 0.32727724 0.41107866
0.34908417 -8.239201e-05 0.016258532 -0.12432819 -0.5684278 0.76866686 -0.2501678 -0.34201345
-0.4476542 -0.32400948 0.055439904 0.12703633 0.40915525 0.27991942 -0.28679496 -0.046144243
-0.29723534 0.45686904 -0.5547601 0.3551808 0.047061495 -0.20813371 -0.4262698 0.3402864
0.3224483 -0.31779438 0.18141271 -0.4665361 0.061834864 -0.36136922 0.38588443 -0.43400592
-0.350166 -0.16808042 0.059439402 0.0379208 -0.36366412 -0.058998235 0.6392689 -0.20136635
0.39205554 0.3084635 0.4867058 -0.501897 0.024270073 0.6548434 -0.114913136 0.12887827
-0.07316195 0.27002105 0.09549566 -0.022347903 -0.12349193 -0.94302946 0.07143946 0.25571692
-0.3033757 -0.22860597 -0.5460451 0.28157598 -0.0026665041 0.11077739 -0.1268973 -0.24089243
0.66539663 -0.10129388 0.34009042 0.30829278 0.18676357 -0.21976395 -0.15945391 0.12164702
0.34640303 -0.0054098885 -0.16926281 0.16230509 -0.3122008 0.29682535 0.044837136 0.13736479
0.25613073 -0.51480514 -0.47721398 -0.1409434 -0.41242617 1.0090086 0.19680873 -0.28951275
0.19292696 -0.31620723 0.12107052 -0.53776646 0.44972524 0.29299274 0.012237193 0.062356837
0.031171609 -0.36752507 -0.24158192 0.4570426 -0.03714975 -0.40046704 -0.28248608 0.15487172
-0.17634803 0.013925718 -0.29213694 0.5975821 0.39131722 -0.46799687 -0.18794638 0.023311622
0.25968084 -0.086647876 -0.0694205 0.07833526 0.12337615 0.09828334 0.033683676 -0.011027104
-0.055057734 -0.057077587 0.22772673 -0.24994633 0.123310745 -0.08794263 -0.02102367 -0.15256514
-0.372265 0.05395323 -0.09108731 0.3803181 -0.006174236 0.03624273 0.0076485667 -0.20165417
-0.21000338 -0.041855223 -0.081711635 -0.028689904 -0.00999815 -0.015105449 -0.06156054 0.05266366
0.06259578 0.105096385 0.37348574 0.11041469 0.19081113 -0.08573352 -0.17005968 -0.032167975
0.071452625 0.010803986 0.1117428 -0.028567344 0.049632262 -0.22192371 0.23505022 0.20299587
-0.1233205 0.11207169 0.17323759 0.18713962 0.2249624 0.0146963755 0.020259878 0.13083634
-0.07123852 0.029243754 0.12616377 0.067822784 -0.07794212 -0.24748304 0.09138743 0.025044933
-0.07106833 -0.062134877 0.12788108 0.24357605 -0.12954773 0.4609502 0.09897669 -0.4728068
0.20223324 0.11236763 -0.10329779 -0.32127258 0.41542727 0.09914038 0.19209686 -0.0016480888
-0.42840645 0.35965794 -0.19059797 0.27140924 0.06826292 -0.14411663 0.04499171 0.07309835
-0.2838668 0.07399091 -0.05450328 0.2478027 -0.033021677 -0.14855719 0.06186299 0.0757988
-0.095262684 0.22180548 0.15532395 -0.15361889 0.7078954 -0.22853939 -0.037190158 0.18570882
-0.25997758 0.19680841 -0.16425294 0.23086445 -0.18248332 0.045747068 0.28169033 -0.12137353
0.19553882 0.5459585 0.12648119 0.012638515 0.07081975 0.5125395 0.46976972 -0.06723029
0.22618717 -0.047818862 0.09771698 -0.104965135 -0.21073335 -0.07233322 0.023360029 0.2808986
00000000: a709 ee3e 140c 9abe e101 38be 1d49 a6bd
00000010: 6cc1 d83d fe50 45bf 4c7f 6c3e 571b bebe
00000020: b97f 903e a752 fbbe 9879 f9bd 0010 673e
00000030: d4b7 edbe ce00 a5bc e290 a73e e778 d23e
00000040: 29bb b23e e0c9 acb8 9d30 853c c79f febd
00000050: 7c84 11bf 5ac7 443f fe15 80be 631c afbe
00000060: ee32 e5be 92e4 a5be f414 633d d015 023e
00000070: cc7c d13e 9951 8f3e cad6 92be bf01 3dbd
00000080: 3b2f 98be bdea e93e c204 0ebf 42da b53e
00000090: 8ec3 403d 0121 55be 0940 dabe 053a ae3e
000000a0: f217 a53e f2b5 a2be 41c4 393e d2dd eebe
000000b0: 8e46 7d3d 6305 b9be a592 c53e 0636 debe
000000c0: f548 b3be 461d 2cbe bb76 733d d752 1b3d
000000d0: 2f32 babe 22a8 71bd 20a7 233f fb32 4ebe
000000e0: 81bb c83e eeee 9d3e 8131 f93e 527c 00bf
000000f0: 08d2 c63c d1a3 273f 9457 ebbd aaf8 033e
00000100: efd5 95bd 3340 8a3e 3b93 c33d f312 b7bc
00000110: 56e9 fcbd 616a 71bf da4e 923d 54ed 823e
00000120: 0f54 9bbe af17 6abe 9dc9 0bbf ba2a 903e
00000130: 84c0 2ebb 42df e23d 5ef1 01be 81ac 76be
00000140: 6f57 2a3f 2a73 cfbd 5520 ae3e 8dd8 9d3e
00000150: f33e 3f3e cd09 61be e347 23be 1322 f93d
00000160: bd5b b13e 6f45 b1bb 3b53 2dbe 4e33 263e
00000170: c9d8 9fbe 7ef9 973e 25a7 373d 5ba9 0c3e
00000180: 9123 833e 45ca 03bf 6455 f4be 7753 10be
00000190: 8629 d3be 3227 813f 3a88 493e 043b 94be
000001a0: a58e 453e eae5 a1be d2f3 f73d 10ab 09bf
000001b0: 6342 e63e 2503 963e 827e 483c e269 7f3d
000001c0: 9a5b ff3c 3f2c bcbe 4061 77be 7d01 ea3e
000001d0: 562a 18bd 040a cdbe 04a2 90be b196 1e3e
000001e0: 9494 34be b228 643c f992 95be 24fb 183f
000001f0: bb5a c83e 499d efbe 0475 40be 04f8 be3c
00000200: e3f4 843e 7174 b1bd 562c 8ebd 3d6e a03d
00000210: a3ac fc3d c748 c93d e5f7 093d 07ab 34bc
00000220: 3884 61bd 30ca 69bd 3231 693e eef1 7fbe
00000230: 588a fc3d 441b b4bd d539 acbc 093a 1cbe
00000240: 8599 bebe 10fe 5c3d fc8b babd 0eb9 c23e
00000250: 3f51 cabb 4273 143d d4a0 fa3b 6e7e 4ebe
00000260: 200b 57be 6270 2bbd 6e58 a7bd 1707 ebbc
00000270: 48cf 23bc d87c 77bc e826 7cbd dab5 573d
00000280: 3732 803d c63c d73d 8639 bf3e 1921 e23d
00000290: fe63 433e 0e95 afbd 2024 2ebe 91c2 03bd
000002a0: c155 923d 3403 313c 69d9 e43d 1006 eabc
000002b0: 334b 4b3d f83f 63be 01b1 703e 26de 4f3e
000002c0: 758f fcbd d885 e53d 3265 313e 87a1 3f3e
000002d0: 8b5c 663e 11c9 703c 0bf8 a53c f6f9 053e
000002e0: 80e5 91bd 9990 ef3c 1331 013e ace6 8a3d
000002f0: 1ea0 9fbd 326c 7dbe 5529 bb3d 082b cd3c
00000300: 468c 91bd 2481 7ebd 42f3 023e 006c 793e
00000310: 29a8 04be aa01 ec3e 4ab4 ca3d bc13 f2be
00000320: 3b16 4f3e 0021 e63d cb8d d3bd d77d a4be
00000330: e2b2 d43e 1d0a cb3d 0ab5 443e af04 d8ba
00000340: 1758 dbbe 1625 b83e 1d2c 43be 27f6 8a3e
00000350: 6ecd 8b3d 4f93 13be 3a49 383d 96b4 953d
00000360: fd56 91be 8c88 973d d53e 5fbd febf 7d3e
00000370: bd41 07bd 601f 18be 0c64 7d3d 673c 9b3d
00000380: 1519 c3bd fa20 633e 3e0d 1f3e 454e 1dbe
00000390: a238 353f 3b06 6abe b554 18bd 742a 3e3e
000003a0: c81b 85be 2588 493e ec31 28be bb67 6c3e
000003b0: e8dc 3abe 4761 3b3d b739 903e af92 f8bd
000003c0: 543b 483e f0c3 0b3f 4984 013e c611 4f3c
000003d0: f209 913d ca35 033f a885 f03e 09b0 89bd
000003e0: 9c9d 673e b6dd 43bd d71f c83d f6f7 d6bd
000003f0: 7cca 57be 7023 94bd 885d bf3c f1d1 8f3e

a2c_network.actor_mlp.2.bias f4 [64]
-0.32226977 0.41086072 0.32778952 0.441065 0.04900671 0.024644513 -0.015744004 0.44072756
-0.49167305 -0.61878926 -0.5652121 -0.20598629 -0.034344543 0.016408151 0.18477406 0.13036138
-0.1766995 -0.18639754 -0.8610951 -0.72971797 0.42295024 0.56782055 -0.25606483 0.2753313
-0.028893225 -0.037124276 -0.94586444 -0.1397506 0.28689218 0.68757576 0.34635592 -0.28418618
0.1532865 -0.32130662 -0.33800668 -0.3426997 0.11779056 -0.23260154 -0.910945 -0.5769
-0.78624403 -0.20778735 -0.030865332 -0.40795317 0.74235725 -0.3517058 -0.06213117 -0.1580165
-0.09544244 -0.26579982 0.14084093 0.41666028 -0.7979939 0.52700216 -0.37812877 0.46714354
0.10566858 0.7340291 -0.41736397 -0.23910458 -0.18711008 -0.7389567 -0.079165906 0.67555445
00000000: 8b00 a5be 565c d23e 07d4 a73e 46d3 e13e
00000010: 43bb 483d 4ae3 c93c 92f9 80bc 0ba7 e13e
00000020: 92bc fbbe f968 1ebf bdb1 10bf 12ee 52be
00000030: ddac 0cbd 636a 863c 6935 3d3e 747d 053e
00000040: b7f0 34be ffde 3ebe ba70 5cbf ccce 3abf
00000050: ef8c d83e b05c 113f ee1a 83be 39f8 8c3e
00000060: 7cb1 ecbc a00f 18bd 2c24 72bf c81a 0fbe
00000070: 88e3 923e f704 303f 9055 b13e da80 91be
00000080: 23f7 1c3e 4d82 a4be 360f adbe 5676 afbe
00000090: 2d3c f13d 192f 6ebe b133 69bf b8af 13bf
000000a0: 4a47 49bf 35c6 54be 4bd9 fcbc 3ddf d0be
000000b0: 200b 3e3f c812 b4be 417d 7ebd 14cf 21be
000000c0: 5377 c3bd ea16 88be 9b38 103e 7f54 d53e
000000d0: 5449 4cbf 9de9 063f 189a c1be 702d ef3e
000000e0: c568 d83d 55e9 3b3f bbb0 d5be d5d7 74be
000000f0: c999 3fbe 442c 3dbf bc21 a2bd 23f1 2c3f

a2c_network.value.weight f4 [1, 64]
0.117817625 0.036205173 -0.012362496 -0.21653292 0.0034264848 -0.31937903 0.24738427 -0.1530323
0.24685478 0.21224473 0.041903254 0.005810395 -0.07223537 0.073206395 -0.0196606 -0.018539995
0.15745077 0.10919823 0.42330047 0.31247833 -0.70844215 -0.48654976 0.22331427 0.19839816
-0.00066767517 0.0012461147 0.32075757 -0.08697548 0.6383864 -0.25392804 0.073875114 0.005525078
0.06632261 0.017424634 -0.07293166 -0.62942725 0.27365348 -0.1340254 0.41246492 0.14589879
0.32485738 0.08336062 -0.014510302 0.12316307 -0.36830443 0.1418284 -0.07019992 -0.54057294
-0.23486872 0.60677874 -0.031392224 0.025324019 0.172357 -0.10189824 -0.17831996 -0.1523391
-0.3050271 -0.39092728 0.060244154 -0.018702118 -0.4326232 0.46347606 -0.20759425 -0.2756439
00000000: 5e4a f13d e04b 143d 118c 4abc ceba 5dbe
00000010: e08e 603b a685 a3be 4d52 7d3e 80b4 1cbe
00000020: 80c7 7c3e af56 593e bfa2 2b3d 2065 be3b
00000030: 23f0 93bd 3ced 953d 440f a1bc 30e1 97bc
00000040: c63a 213e 52a3 df3d d7ba d83e 29fd 9f3e
00000050: 775c 35bf 0d1d f9be 7fac 643e e328 4b3e
00000060: ec06 2fba ac54 a33a 563a a43e 3320 b2bd
00000070: 4b6d 233f db02 82be d64b 973d b70b b53b
00000080: 26d4 873d 1bbe 8e3c 325d 95bd 2522 21bf
00000090: 4f1c 8c3e f43d 09be 9a2e d33e 7e66 153e
000000a0: b553 a63e f9b8 aa3d 9ebc 6dbc eb3c fc3d
000000b0: 6692 bcbe 773b 113e fac4 8fbd fd62 0abf
000000c0: 6d81 70be da55 1b3f 2295 00bd 5174 cf3c
000000d0: 5a7e 303e 06b0 d0bd 8299 36be c8fe 1bbe
000000e0: 832c 9cbe 9f27 c8be 93c2 763d 2f35 99bc
000000f0: ca80 ddbe bc4c ed3e 9693 54be 3221 8dbe

a2c_network.mu.weight f4 [1, 64]
0.4210384 0.36552012 0.0008174268 -0.022695608 0.002980811 0.16609114 0.4457014 -0.32168987
0.02477303 0.12420689 0.5253115 -0.04356189 0.106413245 0.4888727 -0.3607986 -0.07619646
-0.0059742355 -0.20642588 0.18178768 -0.19525601 0.027417956 0.035230927 0.09807934 0.31228942
0.0026294 0.20787685 0.02040275 -0.059931874 -0.66270524 -0.045615636 0.1234846 -0.0009465694
0.18431057 -0.12025783 0.04648193 0.2513456 -0.24772148 0.21902733 -0.033589624 -0.13515551
0.011084346 0.029455855 -0.0014785309 0.018748881 -0.033937853 0.005441075 0.3786118 -0.22762835
-0.11249142 -0.024160638 -0.90737534 0.57994044 -0.06315941 -0.17426905 -0.11408464 0.15500955
0.029818589 -0.19295347 0.46601328 -0.16785902 -0.588585 0.24319376 0.2071596 0.16760127
00000000: 5892 d73e 7425 bb3e 9548 563a 24ec b9bc
00000010: b659 433b cc13 2a3e f932 e43e 89b4 a4be
00000020: cff0 ca3c 2f60 fe3d d17a 063f f46d 32bd
00000030: 30ef d93d 864d fa3e 98ba b8be e40c 9cbd
00000040: 85c3 c3bb 4e61 53be 8d26 3a3e 31f1 47be
00000050: 9f9b e03c 4e4e 103d d2dd c83d 66e4 9f3e
00000060: 0352 2c3b abdd 543e ab23 a73c 207b 75bd
00000070: 0da7 29bf 76d7 3abd 7ee5 fc3d 3223 78ba
00000080: e9bb 3c3e bd49 f6bd d663 3e3d 5fb0 803e
00000090: b3aa 7dbe b348 603e 4695 09bd 3566 0abe
000000a0: 1e9b 353c 684d f13c 44cb c1ba 4197 993c
000000b0: 6b02 0bbd 0c4b b23b 68d9 c13e 6817 69be
000000c0: e761 e6bd 88ec c5bc c049 68bf fa76 143f
000000d0: b959 81bd 9673 32be 35a5 e9bd d3ba 1e3e
000000e0: 1d46 f43c 9895 45be 4b99 ee3e 3ce3 2bbe
000000f0: 82ad 16bf c907 793e a521 543e ab9f 2b3e

exp_avg f4 [64, 4]
-0.0026022426 0.0009618994 -0.0033941248 0.0005423276 0.0014620103 -0.0012749829 0.0031258417 0.0002700279
-0.00074668217 0.00012661012 -0.0010440932 -7.199423e-05 0.0006304969 0.00042953456 0.0018127973 -0.0007388651
-0.0035742996 0.00080120424 -0.004526632 0.002009311 0.0014538046 -0.0014706464 0.0017213298 0.0007790188
-0.00095933897 -0.0005338763 -0.0010569493 -0.00013936087 -0.002488778 0.00024775328 -0.00078726775 -0.00012695634
-0.0022977854 0.00053608103 -0.00274216 0.0016955558 0.0016573665 0.00013883869 -2.9186122e-05 0.0005760527
-0.00095781684 -0.0005257914 -0.0011032335 -0.0010293536 -0.0017629856 -0.00059072307 -0.001981945 0.0012030795
0.0012435451 0.00025500535 0.00015388455 0.0013169151 0.0045416383 -0.00054266443 0.0047265836 -0.003115583
-0.0016177935 0.0006783598 0.000104788756 -0.00064196327 -0.00092115306 0.00027274346 -0.0013678371 0.0004559652
-0.0002993456 -1.9681444e-05 0.0009882059 -0.0007742389 0.0030331973 -0.00015717276 0.0011047426 0.00016298603
0.0018834852 -0.0003939652 0.0016883708 -0.00062590337 4.541009e-05 0.0002195449 -0.0013935728 -0.0010118678
7.575241e-05 -0.0008496705 0.0008345184 0.0007436626 0.0015036957 0.00036763368 7.685485e-05 0.0015863092
0.0013543167 -0.00048288718 0.0019557157 -0.0011699722 0.00049302843 0.0005224558 0.0025637702 -0.0019490123
-0.002685851 0.00046478075 -0.004104342 0.00234064 -2.9682922e-05 3.347266e-05 0.002040977 -0.0013728461
-0.0002432957 5.39065e-05 0.0016292362 -4.117527e-05 -0.0014229575 0.00092817436 -0.0012510096 2.721344e-05
-0.00055722153 0.00053223706 -0.0018782901 0.00021639741 -0.0004501255 -6.3888824e-06 -0.0005597782 -0.00036229583
0.0001955794 -0.00019359779 0.0006355666 -0.00017156328 0.0018643715 -0.00024208467 0.0013718426 -0.0008214606
0.00043827778 -2.307507e-06 -4.1530206e-05 -0.0001315445 -0.0009236642 0.0002830013 -0.0016924103 0.0007383068
0.0002296982 -8.741151e-05 0.00069076754 0.0015997278 0.0009964094 0.00057185866 0.00020100917 -0.0004092867
0.0044907425 -0.0011828771 0.009038379 -0.0025076168 -0.0035725029 0.0002768108 -0.009860584 0.00070148736
0.0020537525 -0.00029626105 0.0018191669 -0.0014728362 0.0012167556 -0.0009039336 -0.00029417212 0.0006636119
-0.00011923417 -0.0005201338 -0.00017869356 -0.00097467937 0.0011338627 -0.00019988012 -2.9607909e-06 0.00034767322
-0.00101519 -0.00050148385 -0.0010246155 0.00037371073 0.0001923245 -0.00125899 0.0004107552 0.00034611867
0.0002826012 0.0006138639 -0.0003068177 -0.00069809746 -0.0015233123 -0.00011112608 -0.00031844998 -0.000268021
-0.0018968687 0.0005722394 -0.002669179 0.00068899296 -0.00013534032 0.000117827876 -0.00012023135 -0.0007253749
-0.00060763396 -0.00040568097 0.0020298378 0.00015140916 0.0014675499 0.00028966516 0.0027173446 -0.0020395936
-0.00068160513 0.0010690445 -0.00012486678 -0.0014080189 -0.00058617553 -0.0010182058 -0.0017648496 -0.00016048626
0.00017469362 -0.00021422186 -0.0005393094 0.00023644879 0.00081917306 0.00037374327 -0.0008216034 -0.00018649145
-0.00021122454 6.1682316e-05 -0.0005711087 0.00043267192 -0.000957807 2.4506191e-05 -0.00054940314 7.202342e-05
-0.0007431551 0.00076159753 0.000107848624 9.9453806e-05 -3.0646275e-05 8.153615e-05 0.00038234904 0.0002933101
0.004278098 -0.0009254498 0.00591788 -0.001532928 -0.0029956067 0.0005547504 -0.0018000217 -0.0014009255
0.00021687745 -0.0002608409 -0.0015289991 0.0004834541 0.00037003143 -0.00017158614 -0.00082147773 0.0008352483
-0.0003897515 0.00056374253 -0.0015331256 -3.801344e-05 -0.00095626415 0.00054930046 -0.000454001 0.000585344
00000000: 638a 2abb fa27 7c3a f76f 5ebb fd2a 0e3a
00000010: eda0 bf3a 541d a7ba ecda 4c3b 8892 8d39
00000020: febc 43ba a5c2 0439 f4d9 88ba 9cfb 96b8
00000030: ee47 253a 2733 e139 629b ed3a 66b0 41ba
00000040: cc3e 6abb e807 523a 2454 94bb a5ae 033b
00000050: 968d be3a b4c2 c0ba 3e9e e13a 1137 4c3a
00000060: 267c 7bba d5f3 0bba 5589 8aba 6621 12b9
00000070: c41a 23bb e2e4 8139 a560 4eba 951f 05b9
00000080: 7196 16bb ca87 0c3a d0b5 33bb 693d de3a
00000090: fe3b d93a 3a95 1139 b8d4 f4b7 3e02 173a
000000a0: 0016 7bba 43d5 09ba 609a 90ba 60eb 86ba
000000b0: fb13 e7ba c1da 1aba 85e3 01bb a6b0 9d3a
000000c0: 73fe a23a 3db2 8539 125c 2139 579c ac3a
000000d0: 06d2 943b 9841 0eba 75e1 9a3b cf2e 4cbb
000000e0: 240c d4ba f5d3 313a 09c2 db38 6d49 28ba
000000f0: 8979 71ba 02ff 8e39 ff48 b3ba 9d0e ef39
00000100: 7cf1 9cb9 9419 a5b7 b086 813a 4bf6 4aba
00000110: 9bc8 463b bece 24b9 03cd 903a 3be7 2a39
00000120: 47df f63a 1d8d ceb9 534c dd3a aa13 24ba
00000130: b676 3e38 a335 6639 8ba8 b6ba a6a0 84ba
00000140: 44dd 9e38 6cbc 5eba 95c3 5a3a 5af2 423a
00000150: a817 c53a f5be c039 222d a138 b4eb cf3a
00000160: 5483 b13a 052c fdb9 772b 003b c159 99ba
00000170: 943e 013a 6af5 083a ed04 283b 0076 ffba
00000180: 1a05 30bb d1ad f339 b77d 86bb 6c65 193b
00000190: 97ff f8b7 ff64 0c38 e9c1 053b 12f1 b3ba
000001a0: 311d 7fb9 aa19 6238 188c d53a 9cb3 2cb8
000001b0: 8882 baba ba50 733a ebf8 a3ba 6b48 e437
000001c0: 8112 12ba d385 0b3a f530 f6ba bde8 6239
000001d0: d2fe ebb9 1560 d6b6 14be 12ba 86f2 bdb9
000001e0: 7214 4d39 8300 4bb9 279c 263a abe5 33b9
000001f0: ed5d f43a 1cd8 7db9 66cf b33a 4a57 57ba
00000200: a6c8 e539 abda 1ab6 b830 2eb8 35ef 09b9
00000210: 0e22 72ba cb5f 9439 ded3 ddba ee8a 413a
00000220: 24db 7039 b250 b7b8 a014 353a f5ad d13a
00000230: f499 823a c9e8 153a fdc5 5239 8895 d6b9
00000240: 1427 933b c50a 9bba b615 143c d456 24bb
00000250: a720 6abb eb20 9139 498e 21bc 05e4 373a
00000260: 4098 063b 7c53 9bb9 1d71 ee3a 2f0c c1ba
00000270: 8b7b 9f3a f5f5 6cba 1d3b 9ab9 3ef6 2d3a
00000280: 5c0d fab8 9759 08ba b05f 3bb9 a081 7fba
00000290: 1e9e 943a e996 51b9 00b2 46b6 e947 b639
000002a0: 2010 85ba 0376 03ba 644c 86ba 9bee c339
000002b0: b7aa 4939 b204 a5ba a15a d739 4377 b539
000002c0: 172a 9439 b5eb 203a 60dc a0b9 8700 37ba
000002d0: e1a9 c7ba 5c0c e9b8 a2f5 a6b9 2b85 8cb9
000002e0: 5aa0 f8ba 5602 163a 65ed 2ebb 899d 343a
000002f0: 24ea 0db9 5c1a f738 b724 fcb8 1627 3eba
00000300: a049 1fba 94b1 d4b9 0707 053b 96c3 1e39
00000310: ce5a c03a 33de 9739 7a15 323b b4aa 05bb
00000320: bfad 32ba 2e1f 8c3a acee 02b9 468d b8ba
00000330: 93a9 19ba 5175 85ba 8752 e7ba 3448 28b9
00000340: f62d 3739 bea0 60b9 7160 0dba 3def 7739
00000350: c6bd 563a f9f2 c339 df60 57ba eb8c 43b9
00000360: 287c 5db9 715b 8138 75b6 15ba 3ed8 e239
00000370: 5715 7bba a592 cd37 d205 10ba 470b 9738
00000380: 4bd0 42ba f2a5 473a ca2c e238 db91 d038
00000390: 308a 00b8 63fe aa38 0576 c839 6ac7 9939
000003a0: 492f 8c3b e399 72ba c7ea c13b 87ec c8ba
000003b0: f151 44bb ab6c 113a b5ee ebba 429f b7ba
000003c0: 9969 6339 79c1 88b9 b268 c8ba 1c78 fd39
000003d0: c700 c239 ceeb 33b9 7058 57ba 91f4 5a3a
000003e0: 9057 ccb9 1fc8 133a 29f3 c8ba 9f70 1fb8
000003f0: cdad 7aba eefe 0f3a fc06 eeb9 c571 193a

exp_avg_sq f4 [64, 4]
7.6950695e-05 1.5559524e-05 0.00018911391 5.4960525e-05 4.140324e-05 4.1676987e-05 0.00012894624 8.101217e-05
3.0989013e-05 3.8934713e-06 7.502309e-05 1.283461e-05 3.9624727e-05 1.33398535e-05 5.3050942e-05 1.7277333e-05
0.00070183154 8.969955e-05 0.001762226 0.00034870685 6.179648e-05 0.00012410939 0.00017089884 1.7912515e-05
2.4453724e-05 7.279414e-05 0.00015475629 4.4653407e-05 0.00010689633 2.0258629e-05 0.00019074249 5.6637582e-05
0.000118562195 2.2362034e-05 0.0003924869 0.00012445012 8.188854e-05 4.9832102e-05 0.00016258989 2.2540276e-05
2.1028796e-05 6.371369e-06 4.213992e-05 9.3759445e-06 7.037359e-05 2.4557965e-05 0.00012764643 1.3699146e-05
2.6488176e-05 4.2279404e-05 1.3086389e-05 1.32237665e-05 0.00081906 0.00013888365 0.0021983485 0.00051234406
3.8578302e-05 1.0466739e-05 1.3202227e-05 2.0168512e-05 4.621599e-05 2.086788e-05 0.00010872948 3.834502e-05
0.00014339993 1.4957964e-05 3.7020873e-05 1.6547525e-05 5.1517454e-05 1.0437045e-05 5.827418e-05 3.5716428e-05
0.00016357914 4.83013e-05 0.00038745865 0.00015157128 9.563337e-05 5.1078932e-05 0.00013347181 2.3028877e-05
5.8442565e-05 1.804298e-05 0.00018745431 4.9419043e-05 9.110786e-05 8.928359e-05 0.000553943 8.699752e-05
0.00018064326 1.7230253e-05 0.00017093787 5.126342e-05 0.0001274507 1.3076222e-05 0.00018654481 5.831915e-05
0.00029285718 0.00014013117 0.001577382 0.00019366817 8.9240006e-05 2.069382e-05 0.00011993891 3.7012775e-05
9.150417e-05 3.8327955e-05 6.9101436e-05 6.0312377e-05 0.00010833428 1.3984436e-05 0.00013837987 2.4973884e-05
4.686479e-05 1.7083023e-05 0.00014956326 4.169825e-05 4.2358537e-05 8.9645226e-05 0.00026018822 7.7264216e-05
6.905749e-05 1.613004e-05 0.00013443475 2.4908762e-05 0.00027643426 3.564077e-05 0.00069241226 0.00013631405
3.138739e-05 1.4001961e-05 6.304105e-05 2.1122265e-05 5.599415e-05 1.6963437e-05 8.446447e-05 3.715878e-05
8.099411e-06 3.082423e-05 0.00014093604 3.610279e-05 3.9972765e-05 3.7948666e-05 0.00014373458 3.21433e-05
0.0005305834 0.00028160453 0.002850261 0.0005526511 0.00026798146 0.00040891123 0.0026494893 0.00044118828
0.00018657708 1.313345e-05 0.00034629117 8.616603e-05 0.0002606848 0.00040531866 0.0019579392 0.00045905888
3.2205506e-05 7.8075915e-05 0.00019335454 4.592513e-05 5.314501e-05 3.3550194e-05 5.2920564e-05 6.2859735e-06
1.0776005e-05 1.3843141e-05 3.376797e-05 4.223775e-06 8.261676e-05 4.928276e-05 8.150454e-05 7.467722e-06
6.606546e-05 0.0002021268 0.0006161359 0.000115191135 8.957772e-05 5.9535956e-05 0.00040460407 6.405852e-05
7.3094554e-05 2.8375505e-05 0.0002269279 5.965131e-05 4.086687e-05 6.9112293e-06 0.00010719806 2.7039712e-05
5.3590855e-05 2.8018052e-05 9.329417e-05 2.473383e-05 9.945204e-05 1.1534847e-05 0.00015972083 4.589643e-05
1.5999673e-05 4.042936e-05 4.5020042e-05 7.8612386e-05 3.8962087e-05 0.00015135836 0.00020946545 7.143636e-05
0.00010903439 4.5761437e-05 0.00012109867 4.3862972e-05 3.6954374e-05 1.246115e-05 5.0475985e-05 4.0747345e-06
9.0048765e-05 2.062017e-05 0.00015012627 3.9393803e-05 6.146489e-05 4.8215097e-06 4.672501e-05 1.5417503e-05
0.00011056718 8.168907e-05 0.00036886366 5.310288e-05 2.8112478e-05 9.502598e-06 4.147226e-05 1.0826983e-05
0.000325565 0.00015642303 0.001643006 0.0002265875 0.0001614885 7.132665e-05 0.00031175453 7.5345924e-05
2.039569e-05 1.3911864e-05 8.9856934e-05 2.9942037e-05 6.3154155e-05 0.000101422 0.00022620178 3.8700367e-05
6.4709e-05 3.994496e-05 0.00017139994 1.6241213e-05 4.997366e-05 1.3433595e-05 5.58924e-05 1.897061e-05
00000000: 9760 a138 d385 8237 e14c 4639 6a85 6638
00000010: 64a8 2d38 53ce 2e38 be35 0739 14e5 a938
00000020: 33fa 0138 aaa4 8236 b755 9d38 3b54 5737
00000030: ba32 2638 3cce 5f37 0483 5e38 caee 9037
00000040: 1efb 373a 141d bc38 7efa e63a a4d2 b639
00000050: bc98 8138 5c23 0239 4f33 3339 d542 9637
00000060: f921 cd37 0ea9 9838 1346 2239 3b4a 3b38
00000070: 882d e038 13f1 a937 0c02 4839 248e 6d38
00000080: 98a4 f838 1a96 bb37 b3c6 cd39 d37e 0239
00000090: 93bb ab38 d002 5138 e47c 2a39 e014 bd37
000000a0: ff66 b037 a5c9 d536 65bf 3038 604d 1d37
000000b0: 8995 9338 d401 ce37 d4d8 0539 62d5 6537
000000c0: ed32 de37 2a55 3138 9d8d 5b37 a5db 5d37
000000d0: 30b6 563a 4ca1 1139 2b12 103b d44e 063a
000000e0: 23cf 2138 4d9a 2f37 227f 5d37 8d2f a937
000000f0: 0bd8 4138 6e0d af37 b205 e438 a7d4 2038
00000100: a05d 1639 f7f3 7a37 dc46 1b38 8acf 8a37
00000110: 7214 5838 c41a 2f37 6d6b 7438 39ce 1538
00000120: 7186 2b39 2097 4a38 d223 cb39 1bef 1e39
00000130: c68e c838 963d 5638 91f4 0b39 232e c137
00000140: 3a20 7538 015b 9737 628f 4439 4b47 4f38
00000150: 2911 bf38 c33d bb38 7c36 113a 7072 b638
00000160: 0e6b 3d39 b089 9037 c93d 3339 ae03 5738
00000170: 49a4 0539 f261 5b37 3e9b 4339 b69b 7438
00000180: a08a 9939 2df0 1239 28c0 ce3a 6713 4b39
00000190: 5d26 bb38 a497 ad37 b687 fb38 2a3e 1b38
000001a0: ede5 bf38 54c2 2038 8dea 9038 ecf7 7c38
000001b0: 8631 e338 b29e 6a37 101a 1139 027f d137
000001c0: af90 4438 834d 8f37 15d4 1c39 28e5 2e38
000001d0: 22aa 3138 eaff bb38 df69 8839 e908 a238
000001e0: f5d2 9038 ff4e 8737 0ef7 0c39 29f3 d037
000001f0: 61ee 9039 fc7c 1538 0083 353a 86ef 0e39
00000200: f4a5 0338 f7e9 6a37 e834 8438 b82f b137
00000210: 43db 6a38 b44c 8e37 8422 b138 f0da 1b38
00000220: b5e2 0737 4449 0138 3bc8 1339 136d 1738
00000230: 6ea8 2738 122b 1f38 75b7 1639 9bd1 0638
00000240: d916 0b3a 52a4 9339 72cb 3a3b cadf 103a
00000250: dd7f 8c39 2363 d639 0ea3 2d3b 4a4f e739
00000260: e7a3 4339 bd57 5c37 6a8e b539 09b4 b438
00000270: 86ac 8839 f380 d439 c550 003b d7ad f039
00000280: 6614 0738 b0bc a338 37bf 4a39 bc9f 4038
00000290: 05e8 5e38 3fb8 0c38 06f7 5d38 1aec d236
000002a0: 97ca 3437 d63f 6837 15a2 0d38 f3b9 8d36
000002b0: 8942 ad38 f6b4 4e38 6bed aa38 3e93 fa36
000002c0: a08c 8a38 00f2 5339 2e84 213a c592 f138
000002d0: acdb bb38 3fb6 7938 0a21 d439 2857 8638
000002e0: 574a 9938 ef07 ee37 7ff3 6d39 1b32 7a38
000002f0: 7868 2b38 02e7 e736 85cf e038 57d3 e237
00000300: bec6 6038 4f08 eb37 eda6 c338 7f7b cf37
00000310: e890 d038 ca85 4137 bc7a 2739 eb80 4038
00000320: 0937 8637 b292 2938 e7d3 3c38 b4dc a438
00000330: 396b 2338 f3b5 1e39 f4a3 5b39 1bd0 9538
00000340: 64a9 e438 f8ef 3f38 5af6 fd38 82f9 3738
00000350: 75ff 1a38 3b10 5137 2db6 5338 b4b9 8836
00000360: 90d8 bc38 7af9 ac37 376b 1d39 c63a 2538
00000370: b6e6 8038 74c8 a136 99fa 4338 d654 8137
00000380: 4ee0 e738 7c50 ab38 0b64 c139 c9ba 5e38
00000390: 16d3 eb37 596d 1f37 80f2 2d38 8aa5 3537
000003a0: 98b0 aa39 7d05 2439 225a d73a 1e98 6d39
000003b0: 3d55 2939 3495 9538 fc72 a339 0903 9e38
000003c0: 6917 ab37 0067 6937 9371 bc38 092c fb37
000003d0: a171 8438 86b2 d438 9430 6d39 3452 2238
000003e0: 61b4 8738 938a 2738 d2b9 3339 bd3d 8837
000003f0: cf9a 5138 da60 6137 026e 6a38 1323 9f37

exp_avg f4 [64]
-0.00089342904 0.00045254407 0.0005343669 0.00011045147 -0.0024299559 0.0014716932 -0.0005521757 -0.0007230604
0.00030065156 0.0015816763 -0.00014583945 -0.00016054454 0.00047216757 0.0029791738 -0.00055149593 0.00019242258
-0.0018532915 0.0008638666 0.00081847416 0.0007513156 0.00024834918 0.00010528524 0.0017745929 0.0008964644
-0.00029866004 0.00082463096 -0.001759659 0.00048440913 -0.00021824698 -3.760583e-05 0.0010594546 0.0018717125
-0.00034968028 5.4064567e-05 -0.00016559938 -0.00045456283 0.00047171838 0.00028731136 0.0010342733 0.0026751528
-0.0005767464 0.0010142168 -0.00015922179 0.00163693 -0.0010320254 0.0004754512 3.6867696e-05 8.3259525e-05
0.00034013062 0.0006987299 -0.00045085527 0.0005450944 -0.00017016963 0.00029841624 -6.317145e-05 0.00078145484
-0.00049513543 0.00037057966 0.0014947146 -0.0014428383 -0.00017095827 0.00041990992 0.0007289237 0.00018597058
00000000: 0235 6aba 7043 ed39 c114 0c3a 2ea2 e738
00000010: e53f 1fbb d4e5 c03a e2bf 10ba c38b 3dba
00000020: c5a0 9d39 4050 cf3a 7bec 18b9 d957 28b9
00000030: 428d f739 3e3e 433b 4492 10ba 0bc5 4939
00000040: 25ea f2ba 1b75 623a df8e 563a f0f3 443a
00000050: dd34 8239 95cc dc38 7599 e83a b500 6b3a
00000060: 7995 9cb9 0c2c 583a 5ca4 e6ba 4bf8 fd39
00000070: 3ad9 64b9 f4ba 1db8 66dd 8a3a 4054 f53a
00000080: 4b55 b7b9 63c3 6238 bfa4 2db9 6452 eeb9
00000090: f850 f739 47a2 9639 7490 873a 9e51 2f3b
000000a0: cc30 17ba 78ef 843a c6f4 26b9 428e d63a
000000b0: 0745 87ba fb45 f939 63a2 1a38 9e9b ae38
000000c0: 8f53 b239 f82a 373a c560 ecb9 aae4 0e3a
000000d0: 906f 32b9 c074 9c39 ea7a 84b8 8cda 4c3a
000000e0: facb 01ba 5c4a c239 4dea c33a 9f1d bdba
000000f0: 4343 33b9 5b27 dc39 3e15 3f3a 1901 4339

exp_avg_sq f4 [64]
3.7395883e-05 1.4988253e-05 2.0195777e-05 2.6347652e-05 0.00053604285 0.00011448378 1.7389964e-05 2.4784838e-05
5.5609056e-05 8.14984e-05 9.730245e-06 2.5845058e-05 4.092552e-05 0.0005099034 1.0198431e-05 1.3199214e-05
0.00018403283 1.4870271e-05 9.06799e-05 0.00010391244 2.5839916e-05 5.3518903e-05 0.00019587688 0.00013626182
0.00011168124 9.563472e-05 6.310583e-05 7.601237e-05 1.7256825e-05 2.5471674e-05 5.601034e-05 0.00014918813
1.11779e-05 1.025541e-05 1.0277345e-05 3.1985805e-05 0.00021064979 0.00015412821 9.062673e-05 0.00022006959
2.8969967e-05 4.971767e-05 1.129924e-05 0.000103388295 4.692366e-05 6.6104796e-05 3.5684767e-05 3.947524e-05
5.642247e-05 7.374449e-05 9.804008e-06 2.8406539e-05 2.1190508e-05 3.542312e-05 1.8523784e-05 8.2921855e-05
6.11127e-05 1.9236384e-05 0.00016682975 3.9028546e-05 7.68891e-06 2.6545078e-05 2.6831585e-05 1.6142907e-05
00000000: 86d9 1c38 0e76 7b37 1a6a a937 2705 dd37
00000010: 3a85 0c3a 0317 f038 aae0 9137 09e9 cf37
00000020: c53d 6938 1fea aa38 163f 2337 d7cd d837
00000030: 71a7 2b38 0aab 053a ed19 2b37 3172 5d37
00000040: f0f8 4039 547b 7937 672b be38 91eb d938
00000050: ccc2 d837 7c79 6038 4d64 4d39 81e1 0e39
00000060: 6936 ea38 808f c838 af57 8438 d568 9f38
00000070: c0c2 9037 01ac d537 a5ec 6a38 626f 1c39
00000080: b788 3b37 a70e 2c37 dc6c 2c37 7f28 0638
00000090: dfe1 5c39 7a9d 2139 db0e be38 7bc2 6639
000000a0: 8804 f337 f187 5038 de91 3d37 2bd2 d838
000000b0: e5cf 4438 bea1 8a38 3aac 1538 3792 2538
000000c0: 2aa7 6c38 46a7 9a38 e57b 2437 944a ee37
000000d0: 45c2 b137 4993 1438 8663 9b37 55e6 ad38
000000e0: a229 8038 d25d a137 05ef 2e39 95b2 2338
000000f0: 9eff 0037 1fad de37 6414 e137 a16a 8737

exp_avg f4 [64, 64]
0.00038254904 0.00013144258 6.7877154e-05 0.0009336914 0.00021813066 -0.00022756077 0.00047004328 0.0008662254
0.00039785137 -0.00048405916 -6.3710235e-05 -0.00024293353 -0.000995292 -0.00033845135 0.0009866129 0.00080590684
-3.0727202e-05 -0.0009269612 -0.0006860671 -0.00042414258 0.000104635285 -0.00029387357 0.0005884071 0.0009366253
0.00011912486 0.0009384627 0.0007650074 6.282822e-05 -1.6299695e-05 0.00037904194 -0.00014276065 -0.00015598701
-0.0011000999 0.0005292943 -0.00041225788 -0.00049472984 -0.0003574185 -0.00032717816 -0.00016898935 -0.0006634618
0.00038751325 -0.00043366893 5.5519577e-05 -0.00019198295 0.00044035842 0.00028578957 -3.8602408e-05 0.0009555019
0.0003222066 0.0009725165 0.00101086 -0.00013439164 -0.00021303775 -0.00026126392 0.0002706854 0.001064996
1.9592448e-05 -2.1604132e-05 -0.00035858096 0.00071597035 -0.0010751977 -0.0005476386 9.705505e-05 0.0002618801
0.0002328592 -0.00025290053 -0.0002119517 0.0001618677 0.00022941378 4.263669e-05 5.847431e-05 -0.00015546037
0.00018476178 -0.00019251245 -0.00013447044 -7.0683425e-05 -0.000246162 -0.00025352204 0.00015952109 0.0001632283
0.00015559676 0.00024159338 -0.00019010184 0.00010378074 -0.00024224338 -0.00011966694 -7.8250116e-05 -4.270847e-06
0.00023285962 -2.3904404e-05 0.00016313972 0.00014458192 0.00022032193 8.529004e-05 -0.00025930195 -0.00021719193
-0.0001613969 0.00016645569 0.00012101361 -0.00012548995 -0.00031871177 6.562795e-05 -0.00021849881 -0.0001859417
3.574484e-05 -6.723916e-05 7.726095e-05 9.000177e-05 5.7414007e-05 0.00012209843 0.0002406184 0.00010257239
9.9427416e-05 0.0001816443 0.00016517472 3.256733e-05 -0.00016586941 -7.064317e-05 0.00016901742 0.00010383424
-4.192633e-05 0.0002104941 -0.00018639589 9.573101e-05 -0.00017052295 -2.7180517e-06 -5.6741006e-05 0.00015191904
1.8366527e-05 -1.6860524e-05 -1.3797837e-05 9.814129e-06 3.68391e-06 2.7764818e-05 -1.18611915e-05 -1.7464772e-05
2.1965865e-05 -7.855131e-06 -9.6196345e-06 -9.357006e-06 3.6120156e-05 -1.3640887e-05 -1.6598218e-05 1.8122364e-05
9.132301e-06 2.9337067e-05 -1.9857309e-05 6.965634e-06 -1.847004e-05 7.0224687e-06 -1.1960707e-05 -4.2126344e-06
-9.660506e-06 2.2277851e-07 -7.2903626e-06 5.6927324e-06 1.4654034e-05 -1.8526056e-05 -2.0474055e-05 -5.4935967e-06
-8.3734285e-06 1.4469191e-05 1.1660934e-05 7.646227e-06 6.3075145e-06 -1.2667075e-05 -1.8516714e-05 1.7825281e-05
-2.2777662e-05 2.9689863e-06 -2.7839558e-06 2.0137384e-05 -2.4738605e-05 -3.3927365e-06 2.4296487e-05 -1.8239143e-05
1.5672996e-06 5.074233e-06 -2.7312612e-05 -7.68492e-06 -1.1113183e-05 9.466444e-06 1.3734625e-05 -1.8112209e-05
1.3433756e-05 1.3996936e-05 4.347637e-06 -1.9964404e-05 -1.3699925e-05 1.253549e-05 2.5644522e-05 6.530227e-06
-0.00010381611 7.3065574e-05 7.1810223e-06 -5.3072887e-05 -2.2383307e-05 5.1366387e-05 -2.183189e-05 0.00013885018
-9.0979396e-05 0.00010519196 2.4965595e-05 -5.8352216e-05 8.292969e-07 5.0287614e-05 -5.565147e-05 -5.5293574e-05
9.3477465e-06 -0.00014720968 9.296416e-05 -2.2859063e-05 3.1987533e-05 -9.541274e-06 6.214407e-05 0.0001028271
-2.305273e-05 0.00010755641 -5.9053713e-05 -2.5137315e-06 -4.175649e-05 -4.430974e-05 9.024416e-05 3.6850626e-05
5.4625292e-05 -5.6365494e-05 -8.788569e-06 4.2423293e-05 3.0408659e-05 5.9564877e-06 5.0991537e-05 0.00010402699
-1.6246292e-06 7.4695316e-05 -7.062336e-05 4.183914e-05 -4.830843e-05 -1.9722023e-05 -0.00015290776 8.6463755e-05
-2.9512448e-05 -4.2661e-05 -5.46058e-05 -5.6316044e-06 4.2192063e-05 6.530839e-05 -7.670581e-05 5.7251695e-05
-0.00011234079 -3.2162714e-06 1.3286216e-05 1.576791e-05 6.4246764e-05 -8.647634e-05 0.00013149399 -3.313604e-05
00000000: dd90 c839 d9d3 0939 4559 8e38 f8c2 743a
00000010: 01ba 6439 619d 6eb9 2470 f639 6713 633a
00000020: b596 d039 52c9 fdb9 2c9c 85b8 f9bb 7eb9
00000030: 7574 82ba 2c72 b1b9 3c51 813a 7e43 533a
00000040: 15e1 00b8 50ff 72ba 2fd9 33ba 745f deb9
00000050: a46f db38 0b13 9ab9 553f 1a3a dc87 753a
00000060: acd2 f938 2a03 763a c78a 483a a5c2 8338
00000070: 54bb 88b7 26ba c639 05b2 15b9 7290 23b9
00000080: 3a31 90ba 57c0 0a3a 5124 d8b9 c2b0 01ba
00000090: e663 bbb9 1c89 abb9 bc32 31b9 2bec 2dba
000000a0: 262b cb39 0f5e e3b9 b1dd 6838 084f 49b9
000000b0: e8df e639 07d6 9539 05e9 21b8 a67a 7a3a
000000c0: d6ed a839 7af0 7e3a d57e 843a 7beb 0cb9
000000d0: e362 5fb9 40fa 88b9 c8ea 8d39 5697 8b3a
000000e0: 765a a437 853a b5b7 ecff bbb9 f5af 3b3a
000000f0: a6ed 8cba 688f 0fba 098a cb38 f44c 8939
00000100: aa2b 7439 bc97 84b9 5a3f 5eb9 08bb 2939
00000110: cb8e 7039 ccd4 3238 5042 7538 1303 23b9
00000120: 9dbc 4139 2bdd 49b9 a200 0db9 e03b 94b8
00000130: 4e0f 81b9 27eb 84b9 1e45 2739 4328 2b39
00000140: b027 2339 3b54 7d39 1356 47b9 dca4 d938
00000150: b602 7eb9 b3f5 fab8 361a a4b8 4c4e 8fb6
00000160: c72b 7439 5186 c8b7 7c10 2b39 ea9a 1739
00000170: 3806 6739 bedd b238 ebf2 87b9 04be 63b9
00000180: a73c 29b9 9c8a 2e39 b0c8 fd38 f495 03b9
00000190: c518 a7b9 bda1 8938 d41c 65b9 58f9 42b9
000001a0: bbec 1538 c002 8db8 2807 a238 55bf bc38
000001b0: d2cf 7038 8c07 0039 834e 7c39 221c d738
000001c0: b083 d038 c577 3e39 c032 2d39 e898 0838
000001d0: 3bed 2db9 4326 94b8 453a 3139 95c1 d938
000001e0: 0eda 2fb8 14b8 5c39 4473 43b9 32c3 c838
000001f0: 68ce 32b9 c667 36b6 31fd 6db8 754c 1f39
00000200: d111 9a37 b36f 8db7 427d 67b7 5da7 2437
00000210: 1839 7736 7ee8 e837 6eff 46b7 5081 92b7
00000220: 5643 b837 88c9 03b7 0464 21b7 09fc 1cb7
00000230: b97f 1738 2adb 64b7 673c 8bb7 7b05 9837
00000240: ef36 1937 df18 f637 3f93 a6b7 57ba e936
00000250: 1cf0 9ab7 8ca2 eb36 d8aa 48b7 415a 8db6
00000260: 8f13 22b7 e434 6f34 bd9f f4b6 3304 bf36
00000270: 99da 7537 6768 9bb7 b3bf abb7 a355 b8b6
00000280: 9a7b 0cb7 b4c0 7237 55a3 4337 4b48 0037
00000290: 23a5 d336 ac84 54b7 5754 9bb7 8087 9537
000002a0: a812 bfb7 cc3e 4736 ffd3 3ab6 b4ec a837
000002b0: c085 cfb7 c5ae 63b6 4fd0 cb37 4300 99b7
000002c0: 015c d235 5443 aa36 631d e5b7 7bee 00b7
000002d0: c272 3ab7 11d2 1e37 c46d 6637 acef 97b7
000002e0: 8b61 6137 62d4 6a37 ebe1 9136 3b79 a7b7
000002f0: bbd8 65b7 854f 5237 311f d737 391e db36
00000300: dab7 d9b8 c83a 9938 83f4 f036 949a 5eb8
00000310: c9c3 bbb7 3d72 5738 a023 b7b7 5098 1139
00000320: 31cc beb8 819a dc38 356d d137 37bf 74b8
00000330: d99c 5e35 eaeb 5238 506b 69b8 06eb 67b8
00000340: 44d4 1c37 4c5c 1ab9 c1f5 c238 77c1 bfb7
00000350: 5a2a 0638 7613 20b7 5853 8238 e1a4 d738
00000360: 5c61 c1b7 e88f e138 71b0 77b8 94b1 28b6
00000370: b123 2fb8 39d9 39b8 7741 bd38 0f90 1a38
00000380: 761d 6538 fd69 6cb8 9e72 13b7 aaef 3138
00000390: 1916 ff37 d7dd c736 bfdf 5538 1129 da38
000003a0: d60d dab5 bea5 9c38 a11b 94b8 6f7c 2f38
000003b0: c89e 4ab8 b970 a5b7 dd55 20b9 e053 b538
000003c0: 8091 f7b7 e6ee 32b8 8808 65b8 1df7 bcb6
000003d0: 62f7 3038 2df6 8838 1edd a0b8 8a21 7038
000003e0: 8198 ebb8 1fd7 57b6 dde7 5e37 5445 8437
000003f0: 38bc 8638 a25a b5b8 a6e1 0939 8dfb 0ab8

exp_avg_sq f4 [64, 64]
2.0171797e-06 1.739824e-06 8.549554e-06 8.341985e-06 5.685776e-06 6.03959e-06 1.6584255e-06 5.9809104e-06
7.629716e-06 3.4597863e-06 1.0244669e-05 1.0635964e-05 7.781777e-06 3.9979636e-06 8.340856e-06 6.2863455e-06
1.0394733e-05 6.7915107e-06 5.5502665e-06 4.472822e-06 6.1595065e-06 2.4367373e-06 6.5029094e-06 8.123903e-06
4.9104488e-06 8.108358e-06 7.3170913e-06 5.5551973e-06 5.12023e-06 3.087808e-06 2.5688717e-06 5.7935986e-06
8.514863e-06 8.304347e-06 4.264276e-06 3.2806076e-06 4.3125738e-06 2.9578166e-06 6.7354786e-06 5.5392243e-06
4.084542e-06 3.2699722e-06 5.232325e-06 6.0604716e-06 3.1645882e-06 2.1505496e-06 3.1010347e-06 8.680854e-06
1.5491659e-06 8.725289e-06 9.044552e-06 2.0952352e-06 1.0069757e-05 3.9295855e-06 1.0653304e-05 8.292157e-06
4.9569862e-06 9.379067e-06 3.353147e-06 5.689097e-06 8.683853e-06 3.5827752e-06 9.858593e-06 7.1801005e-06
2.810052e-06 2.335228e-06 3.935555e-06 5.047708e-06 3.632996e-06 2.7211004e-06 6.472239e-07 3.4823731e-06
4.773633e-06 2.9036426e-06 3.1590234e-06 2.9753237e-06 3.2701237e-06 3.243505e-06 4.9593823e-06 4.554461e-06
3.382701e-06 3.920294e-06 4.368948e-06 1.3062921e-06 3.316895e-06 1.0841737e-06 2.9805428e-06 3.4094182e-06
2.9654962e-06 3.473313e-06 4.728997e-06 2.0182888e-06 3.237478e-06 1.1542785e-06 2.7157328e-06 3.671715e-06
5.0968474e-06 4.9599084e-06 1.1745418e-06 2.2298454e-06 2.994664e-06 1.5507696e-06 4.0538166e-06 3.873146e-06
2.1129347e-06 2.4052524e-06 1.8392719e-06 1.9681893e-06 1.751713e-06 1.4969891e-06 2.5428224e-06 3.0881743e-06
1.4738938e-06 3.7357745e-06 5.180557e-06 8.001962e-07 4.965872e-06 2.1081494e-06 5.224527e-06 2.8566133e-06
1.2885374e-06 3.833956e-06 2.4566637e-06 2.7771332e-06 5.2134883e-06 1.406106e-06 2.1867704e-06 3.8747803e-06
8.6431946e-08 2.579282e-08 9.6992075e-08 2.9985347e-07 1.08760595e-07 2.1088256e-07 9.387038e-08 4.545321e-07
3.7986513e-07 1.2573221e-07 2.6307694e-07 5.768104e-07 1.429907e-07 4.275636e-08 1.0464419e-07 3.5069394e-07
1.2736827e-07 3.2727155e-07 1.8166809e-07 4.6190856e-08 1.355442e-07 1.15576164e-07 8.7028866e-08 2.9031116e-07
3.536741e-07 4.0261884e-07 4.1798515e-08 6.291629e-08 9.73941e-08 2.0256856e-07 1.3717231e-07 4.9355375e-08
3.181393e-07 3.7563262e-07 1.6785341e-07 4.7468756e-08 4.0731467e-07 6.0657186e-07 1.4894769e-07 1.5275619e-07
2.3882612e-07 1.02023854e-07 1.4205791e-07 1.08030655e-07 3.7707548e-07 3.6018033e-08 2.3270039e-07 1.7047766e-07
1.9925244e-08 3.4412878e-07 1.2250794e-07 3.1095757e-07 3.6962876e-07 6.421916e-08 5.4089156e-07 7.396091e-08
3.4451188e-07 2.0518156e-07 9.516498e-08 4.2483597e-07 3.8397465e-07 3.4839582e-07 4.531233e-07 1.6686323e-07
2.9604934e-07 1.8740555e-07 5.420005e-07 8.47685e-07 4.6916443e-07 5.781709e-07 2.0667581e-07 6.146937e-07
6.0137097e-07 4.2559233e-07 6.762462e-07 6.6728563e-07 7.63734e-07 3.2428528e-07 8.010728e-07 6.8859975e-07
6.787493e-07 7.5104214e-07 5.2791495e-07 3.9800395e-07 3.6373896e-07 3.466151e-07 7.6364137e-07 8.021701e-07
4.6120726e-07 8.1770526e-07 7.156985e-07 3.936182e-07 3.3260613e-07 2.0198699e-07 4.4831057e-07 4.1838985e-07
8.014121e-07 7.132203e-07 3.8657785e-07 2.8099558e-07 4.0759673e-07 4.7794094e-07 4.373487e-07 4.929716e-07
4.175395e-07 4.3698265e-07 4.5566745e-07 4.5970478e-07 3.6080223e-07 1.9902099e-07 4.826812e-07 6.499702e-07
1.568845e-07 8.510681e-07 8.54833e-07 2.3799738e-07 6.789577e-07 4.4523674e-07 7.4404244e-07 7.128675e-07
4.5286458e-07 5.695419e-07 4.4217293e-07 5.2894853e-07 8.00415e-07 4.879783e-07 5.970108e-07 5.1171844e-07
00000000: e25e 0736 e683 e935 0e70 0f37 8ef4 0b37
00000010: 72c8 be36 afa7 ca36 1197 de35 a1af c836
00000020: 6101 0037 ad2e 6836 85e0 2b37 1e71 3237
00000030: 7a8e 0237 3f26 8636 b4ef 0b37 4cef d236
00000040: 0a65 2e37 a2e2 e336 6d3c ba36 4015 9636
00000050: c2ad ce36 d486 2336 9133 da36 e64b 0837
00000060: 6fc4 a436 2209 0837 5685 f536 c866 ba36
00000070: 71ce ab36 2338 4f36 e164 2c36 a266 c236
00000080: 0fdb 0e37 e652 0b37 da15 8f36 6928 5c36
00000090: bab4 9036 e77e 4636 5201 e236 93dd b936
000000a0: f30d 8936 b271 5b36 5491 af36 0e5b cb36
000000b0: 365f 5436 2952 1036 5f1b 5036 fca3 1137
000000c0: efec cf35 d562 1237 0ebe 1737 de9b 0c36
000000d0: 47f1 2837 e2da 8336 98bb 3237 8b1e 0b37
000000e0: 3054 a636 c95a 1d37 a006 6136 f9e4 be36
000000f0: ddb0 1137 9c6f 7036 5666 2537 98ec f036
00000100: 5394 3c36 e9b6 1c36 290e 8436 7b5f a936
00000110: 65ce 7336 269c 3636 e3bc 2d35 b7b2 6936
00000120: 322d a036 33dc 4236 9cff 5336 acab 4736
00000130: 4c74 5b36 feaa 5936 c568 a636 86d2 9836
00000140: 5c02 6336 128b 8336 fa98 9236 db53 af35
00000150: d297 5e36 ed83 9135 5605 4836 5ccd 6436
00000160: d602 4736 1017 6936 c6ad 9e36 f071 0736
00000170: 7343 5936 b5ec 9a35 ef3f 3636 9567 7636
00000180: 9605 ab36 4a6d a636 f3a4 9d35 74a4 1536
00000190: f0f7 4836 0a24 d035 0506 8836 12f6 8136
000001a0: f1cb 0d36 ec69 2136 e7dc f635 3c15 0436
000001b0: 661c eb35 27ec c835 5ba5 2a36 6e3e 4f36
000001c0: 9bd2 c535 1eb4 7a36 a5d4 ad36 10cd 5635
000001d0: 84a0 a636 bb79 0d36 584e af36 3eb4 3f36
000001e0: cff1 ac35 6ea5 8036 29dd 2436 c95e 3a36
000001f0: 86ef ae36 6fb9 bc35 6ec0 1236 1c04 8236
00000200: 779c b933 038f dd32 f549 d033 8cfb a034
00000210: c58f e933 f56e 6234 ca95 c933 6b06 f434
00000220: 44f0 cb34 0201 0734 053d 8d34 1cd6 1a35
00000230: fc88 1934 1da3 3733 c0b8 e033 0247 bc34
00000240: b9c2 0834 dcb3 af34 8b10 4334 6263 4633
00000250: 1b8a 1134 ab32 f833 a0e4 ba33 10dc 9b34
00000260: 99e0 bd34 8327 d834 f485 3333 991c 8733
00000270: f926 d133 9f81 5934 a349 1334 cffa 5333
00000280: bccc aa34 8eaa c934 323b 3434 73e0 4b33
00000290: e7ac da34 4dd3 2235 6eee 1f34 4d05 2434
000002a0: 0338 8034 3518 db33 9588 1834 7bfe e733
000002b0: dc70 ca34 3fb2 1a33 32dc 7934 8b0c 3734
000002c0: 1328 ab32 b3c0 b834 ba8a 0334 aff1 a634
000002d0: 6471 c634 dbe8 8933 c931 1135 71d4 9e33
000002e0: 5af5 b834 e14f 5c34 805d cc33 0315 e434
000002f0: 1325 ce34 280b bb34 cb44 f334 042b 3334
00000300: b6f0 9e34 a539 4934 fe7d 1135 788c 6335
00000310: 78e1 fb34 9a33 1b35 9dea 5d34 6e01 2535
00000320: e66d 2135 f77c e434 4987 3535 851f 3335
00000330: 6703 4d35 6e19 ae34 4e09 5735 37d8 3835
00000340: 4c33 3635 399b 4935 0ab6 0d35 3fad d534
00000350: e747 c334 6b16 ba34 09fd 4c35 b654 5735
00000360: d89b f734 4780 5b35 6d1e 4035 7952 d334
00000370: 0a91 b234 c3e1 5834 56af f034 109f e034
00000380: 9f20 5735 2074 3f35 db8a cf34 bddb 9634
00000390: abd3 da34 da4b 0035 bfcc ea34 c054 0435
000003a0: 312a e034 709a ea34 75a2 f434 58cd f634
000003b0: 48b4 c134 79b2 5534 9991 0135 9d79 2e35
000003c0: 1574 2834 f474 6435 ad77 6535 398c 7f34
000003d0: 9e41 3635 df08 ef34 35ba 4735 e25b 3f35
000003e0: 3c21 f334 9fe2 1835 c963 ed34 11fd 0d35
000003f0: 1adc 5635 9dfd 0235 4542 2035 065d 0935
