eval/eval_rl/runs/CartpolePPO/nn/last_CartpolePPO_ep_100_rew_1198.247.pth (torch, 70478 bytes, 24 tensors)

value_mean_std.running_mean f8 [1]
000000 60 03 f1 96 ce 77 76 40
       359.48793691774154

value_mean_std.running_var f8 [1]
000000 89 62 21 22 ab e2 df 40
       32650.673958154894

value_mean_std.count f8 []
000000 00 00 00 20 00 00 69 41
       13107201.0

running_mean_std.running_mean f8 [4]
000000 7a 99 c4 0b 28 1b e0 3f de 1a bf 82 d9 65 9e bf
       0.5033149938433745 -0.029685400586255344
000010 3b fb 04 dc 8d ca d0 3f 94 81 06 60 25 13 b5 bf
       0.26236292349124185 -0.0823233947217033

running_mean_std.running_var f8 [4]
000000 26 9d cd c7 e6 95 f2 3f e4 fe 91 d7 4b 8e f0 3f
       1.1615970425426183 1.0347402973856612
000010 e4 8c 59 e7 6a db f9 3f 4e 69 b8 dd fc b2 12 40
       1.6160687481977272 4.6747927326017145

running_mean_std.count f8 []
000000 00 00 00 40 00 00 59 41
       6553601.0

a2c_network.actor_mlp.0.weight f4 [64, 4]
000000 da 7c ed bb bb cb 17 3f 96 da 48 3e 3a 44 e5 3e
       -0.0072475495 0.59295243 0.19614634 0.44778615
000010 5b 8c eb 3b e7 bd ef be a8 ac c6 bd 19 5e 06 be
       0.0071883625 -0.46824571 -0.097009 -0.13121833
000020 84 c4 94 be f2 32 21 bf e2 2f 43 bd 88 0a 0a bc
       -0.2905618 -0.6296836 -0.047653086 -0.008425362
000030 10 e3 39 3e 81 44 a8 3e 0b 1e 5d be 16 00 b0 3c
       0.18153024 0.32864764 -0.21593492 0.021484416
000040 38 2b 88 3e b9 5b a7 3f 2c 55 48 3e 05 2d 83 3e
       0.26595473 1.3074867 0.1956374 0.25620285
000050 40 ea d6 3e e5 84 b1 3c 3d cf 24 3f d0 52 cb bf
       0.41975594 0.021669814 0.6437872 -1.5884647
000060 f5 28 4a be 5e dc 2e 3e 0d 8e 01 bd b8 fb 58 3e
       -0.19742186 0.17076251 -0.03162961 0.21189773
000070 af bc ac be 50 b7 47 be 09 d4 b3 be df e1 25 bf
       -0.33737704 -0.19503522 -0.35122707 -0.64797777
000080 16 89 aa be ca 25 4b 3f e4 aa f8 3d 2e fb 45 3e
       -0.33307713 0.79354537 0.1214197 0.19334099
000090 f9 45 dc 3d 8b 07 fb be 9a 24 c8 bc c8 72 62 bf
       0.10755534 -0.49029192 -0.024431515 -0.8845639
0000a0 43 11 eb be a6 02 a1 be ea 7e 50 3e 47 3e c6 3e
       -0.45911607 -0.31447333 0.20360914 0.3871939
0000b0 cf 64 13 bd e6 6d 8a 3e 13 73 5c 3e 9b 35 34 3f
       -0.03598481 0.2703697 0.21528272 0.70394295
0000c0 80 f3 a5 3e 2f 75 75 3c 01 c5 0d 3f e0 24 22 bf
       0.32412338 0.014981552 0.5537873 -0.63337517
0000d0 9a 63 c0 bd 0b 03 98 bf f1 19 29 be 9e 2f 9b be
       -0.093939975 -1.1875929 -0.16513802 -0.30309767
0000e0 94 a7 3a bd c9 c8 be 3e ff f4 2d be eb 1c dd 3e
       -0.04556997 0.37262562 -0.1698799 0.43186125
0000f0 c0 3e 9a bc 0b 4e a6 3e 48 b6 32 3d 8b 06 80 3e
       -0.01882875 0.32481417 0.04363087 0.25004992
000100 4d d1 b5 3e 01 0c 71 3f d7 db 2f 3e a5 bd 6a bf
       0.35511246 0.9415894 0.17173706 -0.91695625
000110 38 8c 85 3e 61 e0 04 3f 20 bd 3b 3f 56 ab 16 3f
       0.2608354 0.51904875 0.73335457 0.5885519
000120 9c 90 46 3d fb 06 51 bf f7 3a 5b bd c0 38 12 bf
       0.048477754 -0.81651276 -0.05352303 -0.57117844
000130 53 0a 45 bd e5 2e 89 3e 6a b3 07 3f 72 eb 06 bf
       -0.04810555 0.2679359 0.5300814 -0.5270301
000140 e4 a5 8b bd 5c 80 18 bf ba e8 b4 bd 34 9f 08 be
       -0.068187505 -0.5957086 -0.088334516 -0.13341981
000150 86 9c 30 3e 1d 72 ca be 92 6f ba 3c a4 c5 1c 3e
       0.17247209 -0.39540187 0.022758279 0.15309769
000160 0b 27 b4 3e 1b 4c 8c be 47 9b f4 be 86 fe af be
       0.35186037 -0.27401814 -0.47774717 -0.34373873
000170 86 c6 81 be ef f8 d9 be 8f 75 0f bf e6 45 3d bf
       -0.25346774 -0.42572734 -0.56038755 -0.7393478
000180 83 ab a2 3e 18 dc 67 3f 08 bc 72 3d 26 00 7a 3c
       0.31771478 0.9057021 0.05926135 0.015258824
000190 db c8 be be 11 1c 12 bf cc 5c 0c bf 63 7e 4f bf
       -0.37262616 -0.57074076 -0.54829097 -0.81052226
0001a0 6f 54 64 3d 4d de 25 3f ed cb b2 bd 4f 1e 13 3f
       0.055744585 0.6479233 -0.08730302 0.5746812
0001b0 c5 c9 65 bd 0d 59 99 3e dd dd 2c 3e 63 d2 89 be
       -0.056100626 0.29950753 0.16881509 -0.26918325
0001c0 52 62 65 3c c7 4c f4 3e a4 25 69 3d d7 1d b8 3d
       0.014000492 0.47714826 0.056920663 0.089900665
0001d0 b1 b0 d6 3d 23 9e 5d 3e be f0 0a be 47 58 cc 3e
       0.1048292 0.21642356 -0.13568398 0.399111
0001e0 6a ee 78 be dc 51 14 bf 86 97 a9 bd 9f 49 04 bf
       -0.24309698 -0.5793741 -0.08280854 -0.51674837
0001f0 1a 67 05 be 0c 89 52 bf 3e ea 8a bd 73 d3 12 be
       -0.13027611 -0.82240367 -0.067829594 -0.14338474
000200 c8 0a 84 bd 75 82 9d be 22 31 20 3e eb 1a c9 be
       -0.06447369 -0.30763593 0.15643743 -0.3927835
000210 8f fd 2d bd bc 28 d3 3e 0e 19 45 3c 94 c2 cf 3d
       -0.04247814 0.41242015 0.012029899 0.10144535
000220 83 76 62 3f a2 02 38 3b 23 7a 62 bb 47 1f db bd
       0.88462085 0.002807774 -0.0034557662 -0.10699325
000230 30 e5 55 be 40 bb c5 be 57 eb 15 3e 9b c1 d0 bd
       -0.2088821 -0.38619423 0.14640556 -0.10193177
000240 ff 7c b7 be 7c eb 9f bf e4 67 a7 be ed 6f 0c bf
       -0.35837552 -1.2493739 -0.3269645 -0.54858285
000250 4f e7 c5 3e 88 33 10 3f db 66 a9 3d 83 48 61 be
       0.38653037 0.5632863 0.08271571 -0.22000317
000260 5a a0 f6 3c 36 f7 68 bf 88 d9 18 be c8 67 4a be
       0.030105758 -0.91002214 -0.14926732 -0.19766152
000270 83 64 29 3c 66 4d a0 bf 71 c5 ff bc 6b 78 20 bf
       0.010338905 -1.252362 -0.031222077 -0.62683743
000280 20 dc d3 bd 5d a0 89 3e 0c 94 cc be d0 cc 10 3f
       -0.1034472 0.2688016 -0.399567 0.5656252
000290 71 62 c8 3d ed a4 f6 bd 0e e8 df 3d d9 d4 56 bf
       0.09784401 -0.12043176 0.10932933 -0.8391853
0002a0 01 40 19 3f e2 b2 a8 3d 70 e9 2d bd 6e 5f 35 3f
       0.5986329 0.08237244 -0.04245895 0.7084874
0002b0 0d a5 2e 3e c4 4f 58 bd b9 54 c1 3e 2b 0b 93 bf
       0.1705515 -0.052810445 0.3775995 -1.1487783
0002c0 fd 01 ca be 64 db e1 3e 8b 98 79 be 15 85 eb 3e
       -0.39454642 0.44112694 -0.24374597 0.4599997
0002d0 bc a3 f2 3c a9 16 96 3e 74 e6 2a bd 4d 4f 9a 3c
       0.02961909 0.29314163 -0.041723683 0.018836642
0002e0 e0 cf b1 be 87 7d d9 3e 15 4a d1 3e 01 d3 eb 3e
       -0.3472891 0.42478582 0.40876833 0.4605942
0002f0 9a 13 88 be 1e e0 0a bc 9e e3 97 be f9 3e 1a bf
       -0.26577455 -0.008476285 -0.29665846 -0.6025234
000300 0c 37 68 bd 39 5b 5e 3e 4d 3e 80 bd 45 c6 ba 3d
       -0.05669312 0.21714486 -0.06261883 0.09119848
000310 f8 66 c4 3c 81 c2 5b 3e e2 1f d4 be 15 c5 92 be
       0.02397488 0.21460916 -0.41430575 -0.28665987
000320 06 d9 95 be 6f 30 38 3f c1 b0 83 be 6d c9 51 3f
       -0.29267138 0.71948904 -0.2572079 0.81947976
000330 e5 eb eb 3d 84 bb a1 3d 8d 09 86 bd dc 6d 61 3d
       0.11519603 0.07897094 -0.065447904 0.05503641
000340 98 e5 ca 3c e6 f0 e5 be 48 1e 85 3c bf 09 76 3d
       0.024767682 -0.44910353 0.01624979 0.06006789
000350 96 8e 85 be 26 80 61 bc 57 90 0c 3e 0e a3 3f bf
       -0.26085347 -0.013763463 0.13726936 -0.74858177
000360 bc 62 59 be bb 3a 2a 3f 7b ee b9 bc c4 78 d7 bd
       -0.2122907 0.66495866 -0.022696724 -0.10521081
000370 bb 8a 94 be 36 1e 3c 3e c1 52 d0 be f7 f7 a8 be
       -0.29012093 0.183709 -0.40688136 -0.33001682
000380 09 f8 ac be b6 7d fe bc cc d2 4f 3e b2 22 c2 3e
       -0.33782986 -0.031065803 0.20295256 0.37917095
000390 f6 56 90 3d 61 11 fd 3e eb 92 f0 3d d5 0c 45 be
       0.070478365 0.49427322 0.117467724 -0.19243176
0003a0 3c 23 53 3e 58 47 21 bf 47 92 e5 bd cf f5 44 3d
       0.2061891 -0.62999487 -0.11209541 0.048085984
0003b0 c1 0e b0 be ef a5 d9 3e 58 65 d0 be a1 7f c6 bd
       -0.34386256 0.4250941 -0.4070232 -0.09692312
0003c0 e1 8b 4e 3e b8 5f 38 bf bd 7c 24 3d 6e 83 22 bf
       0.20170547 -0.72021055 0.040158022 -0.63481796
0003d0 a2 2d ae 3e 50 4e 1e be e1 3c 11 3a a5 8c 92 3e
       0.3401919 -0.15459561 0.00055403827 0.28622928
0003e0 af ed 5a 3e b9 97 af be 49 49 5a be 72 12 27 bf
       0.21379732 -0.34295443 -0.21317019 -0.6526252
0003f0 cc 9d 91 3c 23 85 af 3e 41 77 e1 bc 67 af 72 bd
       0.017775439 0.34281263 -0.027522685 -0.059249308

a2c_network.actor_mlp.0.bias f4 [64]
000000 66 00 86 be d2 68 8a 3d 85 1d 91 3e 37 dd e3 be
       -0.2617218 0.06758274 0.28342834 -0.4450471
000010 79 3c 3f 3e cf f5 8d 3e 2f e3 a9 3e da 73 5f 3f
       0.18675412 0.277266 0.3318114 0.8728615
000020 a4 1c 20 bf 99 4c a4 3e 35 db 1a 3f 24 36 85 3f
       -0.625437 0.3208969 0.60490733 1.0407147
000030 e2 ce de 3d 50 ee ab bc 8e 6f d1 be 67 b0 28 bf
       0.108793035 -0.02098766 -0.40905422 -0.6589417
000040 64 14 92 3d cd d4 2a bf 2c 53 ed 3e 22 d3 f3 3d
       0.071327955 -0.6673096 0.46352518 0.11905505
000050 b6 52 d6 3e 05 26 a5 be 5b 83 ef be a6 26 fa be
       0.41859978 -0.3225557 -0.46779904 -0.4885761
000060 84 0f 07 3f 9e 5b 27 bf a4 c4 19 be c8 ff ac bd
       0.5275805 -0.6537417 -0.15016419 -0.08447224
000070 e1 10 ae be 02 9a 9d 3e b0 17 eb 3e 47 bb fa 3b
       -0.33997253 0.3078156 0.4591651 0.0076517197
000080 0a ab 2f 3f d1 a3 2b bf 18 12 a1 be 4f 23 a3 bd
       0.6862036 -0.6704684 -0.31459117 -0.07965719
000090 b6 4c 37 bf b5 25 89 3f 65 46 c9 3e 31 b6 a8 be
       -0.71601427 1.0714632 0.3931152 -0.329515
0000a0 4a 3c 17 3f c3 23 b6 3e a2 cb 5e bd 9a 89 a8 3e
       0.5907637 0.3557416 -0.054393418 0.32917482
0000b0 f5 e1 57 3f 83 1d c2 3d b5 fd 02 bf e8 e7 bd 3e
       0.8432916 0.09478285 -0.51168376 0.37090993
0000c0 64 63 e8 bc 14 4f 0e bf 1e f1 99 be 50 69 fd 3e
       -0.028367706 -0.55589414 -0.3006677 0.4949441
0000d0 20 0f 29 3f 5c 30 d9 3d d3 c4 3f bf 01 cf 06 3d
       0.66038704 0.10604927 -0.74909705 0.032912258
0000e0 7e 9b 15 bf b5 6a 10 bf 0b b7 c1 be b7 8c 45 3f
       -0.5844039 -0.5641282 -0.37834963 0.7716784
0000f0 97 79 3e 3f 4e a6 43 bf 9c 2b 86 bf cc af ad be
       0.7440428 -0.76425636 -1.0482059 -0.33923185

a2c_network.actor_mlp.2.weight f4 [64, 64]
000000 1a 54 dc 3e d1 df 80 be dc 99 b5 bd fc f3 8c be
       0.43032914 -0.25170758 -0.08867237 -0.27529895
000010 1e c7 6a 3e 58 78 4c bf 0d ee a4 3d 6f a6 e0 be
       0.2292752 -0.7987113 0.08053217 -0.4387698
000020 a1 4e 84 3e 67 b1 96 be ff 9c 55 3b c8 a6 bd 3d
       0.2584124 -0.29432222 0.0032594798 0.092603266
000030 78 9b c1 be c2 65 17 be 4d f7 17 3e 95 06 ed 3e
       -0.37813926 -0.14784911 0.14840432 0.46294084
000040 c6 dc 81 3e 21 45 88 3c 3f 41 b8 bc 1a f1 94 be
       0.2536375 0.016634526 -0.02249205 -0.29090196
000050 25 c4 ff be 3a 12 2c 3f 50 90 9b be 96 72 1b be
       -0.49954334 0.6721531 -0.3038354 -0.1518043
000060 5f bd 9c be a0 3c 9d bd 96 80 18 bc c3 3d ea 3c
       -0.3061323 -0.07677579 -0.009308001 0.028593903
000070 70 f8 ac 3e 77 f3 03 3e f1 b8 7d bd d8 6c e4 bd
       0.33783293 0.12885843 -0.061943952 -0.11153573
000080 fc 9e 36 be 52 01 b3 3e 66 82 09 bf e6 34 ed 3e
       -0.17834085 0.34961945 -0.537146 0.4632942
000090 56 2f 13 bd e1 51 4c be cc 3b de be 0b f0 7a 3e
       -0.035933815 -0.1995311 -0.43404996 0.24505632
0000a0 1e db 31 3e 74 c7 a1 be 8a 10 81 3e 57 fa 10 bf
       0.17368743 -0.31597483 0.2520793 -0.5663199
0000b0 aa e8 c6 bd 4a 58 d2 be de 12 d8 3e fa 45 f0 be
       -0.09712346 -0.41082984 0.42201895 -0.46928388
0000c0 a4 c6 ea be 2b 39 65 be 1f af 61 bd 66 2c 17 be
       -0.45854676 -0.22385089 -0.05509865 -0.1476303
0000d0 04 20 15 be 91 24 fd bd 38 c4 cc 3e 1b 65 7f be
       -0.14562994 -0.1236049 0.39993453 -0.24940912
0000e0 38 5b 23 3f 30 2a 1c 3e 36 b6 aa 3e 44 0f d8 be
       0.63811064 0.15250468 0.3334214 -0.42199147
0000f0 4f 03 d5 3d 6f 29 03 3f cc f1 0d 3d df 8c e0 3b
       0.10401022 0.512351 0.034654424 0.0068527306
000100 d3 b9 cd bd 42 78 82 3e ed 3e ac 3d 6f d8 35 bc
       -0.10045209 0.25482374 0.0841044 -0.011098965
000110 93 3a ed bd b8 7b 13 bf 95 1e 58 bc 3a 3b 69 3e
       -0.11583438 -0.57610655 -0.013190885 0.227765
000120 84 38 7c be 6c 98 1d be 14 98 23 bf d2 d9 92 3e
       -0.24630934 -0.15390176 -0.6390393 0.2868181
000130 a7 e4 8c 3d 05 0a c5 3d aa 19 89 bd b9 9e 4e be
       0.068795495 0.09621052 -0.06694348 -0.20177735
000140 51 43 28 3f 54 01 09 be 4d ef 9e 3e a0 b3 a3 3e
       0.65727717 -0.13379413 0.31041947 0.3197298
000150 19 2f 2b 3e 49 51 87 be 9e 25 68 be ba 00 7e bc
       0.16717185 -0.26429203 -0.226706 -0.015503103
000160 9b 5a b4 3e fd ec 06 be a7 42 f7 bd 99 0d 37 3e
       0.35225376 -0.13176341 -0.1207326 0.17876281
000170 70 b4 95 be 16 84 2d 3e b4 4d d4 3d ff 19 ec 3d
       -0.29239225 0.16944918 0.10366383 0.11528396
000180 e1 74 59 3e 9f 65 f6 be f9 b8 04 bf 3a 7c f6 bd
       0.21235992 -0.48124406 -0.51844746 -0.12035413
000190 b1 fb ce be 0e 5f 71 3f 92 20 30 3e 60 ba b5 be
       -0.404264 0.94285667 0.17199925 -0.35493755
0001a0 dd 30 e9 ba 7f de 35 be 13 ed 96 3c 82 3f 87 be
       -0.0017791052 -0.17760657 0.018423593 -0.2641564
0001b0 e7 b9 90 3e 59 79 9d 3e 04 b7 1e 3b 43 b7 07 3d
       0.28266832 0.30756643 0.0024217973 0.033133756
0001c0 81 3b 4a 3d 66 68 75 be d1 d1 0f be 75 a6 ce 3e
       0.049373154 -0.23965606 -0.14044882 0.40361372
0001d0 bc c6 94 bd 59 31 95 be 6f 1d 6d be eb 9e e9 3d
       -0.07264468 -0.29139212 -0.2315576 0.11407264
0001e0 9a d0 11 be 64 19 1a 3d 33 0a a3 be de f9 f1 3e
       -0.14239731 0.03762187 -0.3184372 0.47260946
0001f0 87 93 a0 3e 86 77 09 bf 90 a3 2b be f8 0f 54 3d
       0.31362554 -0.53698003 -0.16761613 0.05177304
000200 96 89 15 3e 12 2b de 3c c2 26 8f bd a6 83 f9 3d
       0.14603266 0.027120147 -0.06989814 0.12183313
000210 0d 22 3e 3d d0 3d 6a 3d 29 1f d9 bd 34 34 e0 bc
       0.046419192 0.057187855 -0.106016465 -0.027368642
000220 dd ab c1 bd f6 f0 00 be 2f 60 8a 3d 84 02 3d be
       -0.094566084 -0.1259192 0.06756627 -0.18457991
000230 6c fd a1 3d 55 d7 7d 3d b6 2b 08 bd f5 1b e5 bd
       0.079096645 0.061972935 -0.03324481 -0.11186973
000240 f4 86 58 bd ca bc 74 bb 60 cb 04 3c 3a 1b 8d 3e
       -0.052863076 -0.0037343972 0.008105129 0.27559835
000250 f3 55 9f 3d 09 5b a9 bd 06 1f 5d 3d db 5a 25 be
       0.077800654 -0.08269317 0.053984664 -0.1614794
000260 7c 1a 80 bd 0f a2 82 ba b1 db 88 bd cb 78 d2 3d
       -0.062550515 -0.000996651 -0.06682528 0.10276946
000270 0b 25 8a bd c9 d6 44 bd eb 9c ee bd 52 f2 cd 3d
       -0.06745347 -0.048056398 -0.116510235 0.100559846
000280 b4 6a 3d 3d 6f c7 ac 3d 31 61 79 3e 1c bf d9 3d
       0.04624434 0.084364764 0.24353482 0.10632154
000290 0a ca 81 3d 06 d1 48 bd e7 7b db bc ec 99 2c bc
       0.06337364 -0.049027465 -0.02679248 -0.010534745
0002a0 f5 7a cb 3d d2 d3 6b bd c7 64 3e 3e 3f d8 23 bd
       0.099355616 -0.057575054 0.18593131 -0.04000115
0002b0 72 ba 90 bc c6 31 03 be 95 c9 15 3e 24 22 2d 3e
       -0.017667029 -0.12811956 0.14627679 0.16907555
0002c0 28 44 fd bd d3 29 25 3e 0b 91 b3 3d 40 40 c7 3d
       -0.123665154 0.16129236 0.08767899 0.097290516
0002d0 10 65 57 3e 2d f4 e7 bd dd 8f 41 3d 5e 53 c4 3d
       0.21034646 -0.1132587 0.04725634 0.095862135
0002e0 76 6a 3c bd 91 97 92 3d 5d 10 70 bd 81 73 ec 3d
       -0.045999967 0.07157815 -0.058609355 0.11545468
0002f0 8e e1 96 bd d0 e8 2e be a5 86 94 3d e2 ba 80 3d
       -0.0736724 -0.17080998 0.07252244 0.06285645
000300 64 0f 84 bd 58 7d b3 bc 77 8c 2c 3d 8d c8 c9 bb
       -0.06448248 -0.021910354 0.042126145 -0.0061579407
000310 c0 ad 72 3d ea 8c 16 3d da 8e e7 bc 9a 63 3a be
       0.059247732 0.03675548 -0.02826636 -0.18202057
000320 2a bb c0 bc 26 4c d7 bd 4d 78 b3 3d 07 8b fc bd
       -0.023526747 -0.10512571 0.0876318 -0.12331205
000330 5e 99 ad 3d e0 50 b4 bd 15 37 f1 3c 21 c5 a7 bc
       0.08476518 -0.08804488 0.02944521 -0.02047974
000340 6f 5a ab bd 6d 9f 80 3b 45 da d4 bd 7d e5 51 bb
       -0.08366858 0.003925255 -0.10393194 -0.0032027655
000350 ea b9 1d 3d 28 e8 d7 bd 85 18 0b bc bf 59 50 3c
       0.03850738 -0.10542327 -0.008489733 0.01271671
000360 a6 af 23 bc 54 12 c1 3c 14 2b 89 bd 75 76 8f bd
       -0.009990608 0.02356831 -0.066976696 -0.07005016
000370 72 c6 d4 bc 94 8c 81 3d 72 8e f8 bd f9 24 90 bb
       -0.025973532 0.06325641 -0.12136544 -0.0043989387
000380 4e 12 51 3d 69 cd 3f 3d b6 4e 0b 3e 59 4e 04 be
       0.051042847 0.046826754 0.13604245 -0.12920512
000390 d2 a0 83 3e 62 1a 01 be 3c 03 3d 3d 00 b6 f4 3b
       0.25708634 -0.1260772 0.046145663 0.007467985
0003a0 39 c9 81 bd f6 dc 92 3d 7e 29 7d 3d 19 fa a3 3d
       -0.06337208 0.07171051 0.06180715 0.08006687
0003b0 17 79 ff bd fd bc 9e bd 95 a6 ff bc 79 b5 fe 3d
       -0.12474268 -0.077508904 -0.031207362 0.12436957
0003c0 51 11 be bd e1 96 0b 3e 43 a0 07 3d 47 d0 aa bc
       -0.092806466 0.13631774 0.03311182 -0.020851268
0003d0 a2 56 94 3e 7e 27 ac 3d 3f bb f6 3d 29 14 de bb
       0.28972346 0.0840597 0.12047433 -0.0067773056
0003e0 a9 24 80 bd dd 91 a6 bd 32 05 d1 3b 4a 74 4b 3d
       -0.06256992 -0.0813329 0.006378793 0.04967145
0003f0 64 2a c5 bd 9a 56 4f be b3 be c9 3d 41 87 fa 3d
       -0.09627226 -0.2024788 0.09850826 0.12232829

a2c_network.actor_mlp.2.bias f4 [64]
000000 55 05 ec be 74 7e c1 3e c2 9f 54 3e c1 94 bc 3e
       -0.46097818 0.3779179 0.20764068 0.3683224
000010 58 b2 2d ba 0a bc f8 bd ab 01 b0 3d 96 36 8b 3e
       -0.00066260016 -0.121452406 0.08594068 0.27190083
000020 79 4c 7e be 95 9d 05 bf 21 bc 0a bf 1a 35 56 be
       -0.2483386 -0.52193576 -0.5419331 -0.20918694
000030 4b ea 95 bd ed f4 58 3d 44 dc 09 3e 14 47 47 3e
       -0.073200785 0.052967954 0.13462931 0.19460708
000040 1f 32 7f be 01 43 ad bd d7 00 35 bf dd 9d 12 bf
       -0.24921463 -0.084600456 -0.70704406 -0.5727213
000050 1e cd fa 3d ba ba e1 3d 12 67 85 bd 5e e5 c0 3e
       0.12246154 0.110219434 -0.065138 0.37674993
000060 d6 6c f0 bc 27 3a bd bd e6 a9 1c bf 8d 7c fc bd
       -0.029348772 -0.09239607 -0.61196744 -0.12328444
000070 23 f8 81 3e 91 01 f6 3e a2 0c 8f 3e e4 d5 87 be
       0.25384626 0.4804807 0.27939326 -0.26530373
000080 1f ce 43 3e 16 22 81 be c0 8c ac be 07 6c 96 be
       0.19121598 -0.25221318 -0.33701134 -0.29379293
000090 e9 1e 2d 3d ee ba 22 be 62 9a 09 bf 52 5e e6 be
       0.042265806 -0.1589162 -0.53751194 -0.44993836
0000a0 e0 30 10 bf 5a e4 f8 bd f2 88 98 bc 1c 9c cb be
       -0.5632458 -0.121529296 -0.018619988 -0.3976754
0000b0 d1 88 0c 3f ac 7c 82 be 9a 77 a1 bd 30 75 9b be
       0.54896265 -0.25485742 -0.0788414 -0.30362844
0000c0 13 c7 42 be c5 90 be 3c 99 b4 1e 3e 08 71 72 3e
       -0.19021253 0.02326239 0.1549858 0.2367593
0000d0 13 ab 19 bf 55 81 ef 3e 5a 34 8c be 24 8f ba 3e
       -0.60026664 0.4677836 -0.2738369 0.36437333
0000e0 0f db 13 be 85 85 2c 3f 32 07 72 be c3 1f 74 be
       -0.14439033 0.67391235 -0.23635557 -0.23840241
0000f0 8a 25 4e be d2 ac 28 bf 65 92 e9 bd cf c8 20 3f
       -0.20131508 -0.658887 -0.11404876 0.6280641

a2c_network.value.weight f4 [1, 64]
000000 98 e1 7c 3d 91 36 3d 3e 8a cb 0c 3b bb cd e4 ba
       0.06173858 0.18477847 0.0021483623 -0.0017456332
000010 60 f2 59 3c 3b e3 1a be 42 49 3a 3e f1 eb b5 bd
       0.013302416 -0.15125744 0.18192008 -0.08882893
000020 3a 35 e8 3b 21 2e a9 3d ec 8b 17 3e c9 9e 04 bd
       0.007086423 0.082607515 0.1479947 -0.03237799
000030 e3 62 8c bc dd 06 08 bd 18 52 03 3b d8 2d ee 3c
       -0.017136997 -0.03320967 0.0020037945 0.029074594
000040 6b 3b e7 bb b6 3e b7 3d 9a 0d 9d 3e 9d a8 4d 3e
       -0.0070566437 0.08947508 0.3067444 0.20083852
000050 a0 46 ac be f1 8e 9f be 63 45 38 3e 0e 0a 77 3e
       -0.33647633 -0.31163743 0.17995219 0.2412493
000060 fa 15 71 bb 2d e2 ad bb 05 83 59 3e bf d0 52 3b
       -0.003678678 -0.0053065033 0.21241386 0.003216788
000070 6c af 9d 3e d4 08 60 be a6 c2 4c 3e eb 28 91 bb
       0.307979 -0.21878368 0.19996127 -0.0044299266
000080 4f 32 d8 bb 3f 46 10 bc ee 9c 20 3d 49 f9 b9 be
       -0.006597794 -0.0088058105 0.03921216 -0.36323002
000090 c5 96 7a 3e 61 11 06 be 0e 58 a4 3e 29 c8 c4 3d
       0.24471577 -0.13092567 0.3209843 0.0960849
0000a0 fd 36 46 3e 2e 2c 46 bc e9 a8 17 3c 93 13 9d bc
       0.19356914 -0.012095494 0.00925658 -0.019174373
0000b0 91 f1 66 be a9 d7 6d 3b 4b 19 8c bd c9 e9 06 bf
       -0.22553088 0.0036291874 -0.06840762 -0.5270048
0000c0 03 ee 6c be 7d 8a 8f 3e 01 a6 08 be 46 70 0d be
       -0.2313767 0.28035346 -0.13344575 -0.1381236
0000d0 de e8 23 3e 76 52 dc bd 6e 8b 31 be c0 83 fe bd
       0.160068 -0.10757916 -0.17338344 -0.12427473
0000e0 09 3a 30 be 23 db 53 be e1 01 c5 bd b2 b1 9e 3c
       -0.17209639 -0.20689063 -0.09619499 0.019371841
0000f0 15 58 e8 be d1 22 1a 3e 0c 5a 49 be db e0 43 be
       -0.453797 0.15052344 -0.19663256 -0.19128744

a2c_network.mu.weight f4 [1, 64]
000000 f5 ea e1 3e 4a 99 b6 3e 12 75 4f ba 06 93 01 bc
       0.4412457 0.35663825 -0.0007913868 -0.007908588
000010 a3 31 9b bb be ce 70 3e 17 57 cc 3e 49 e9 ba be
       -0.004736142 0.23516366 0.39910194 -0.36506107
000020 02 58 50 bb d7 7d f0 3d 3b 3d 1a 3f c4 e9 28 bd
       -0.0031790738 0.11742752 0.6024968 -0.04123856
000030 ab d8 06 3e 3a 87 0e 3f 06 8d e1 be 1f a7 f5 bd
       0.1316859 0.5567509 -0.44052905 -0.119947664
000040 dd c7 86 b9 8c f2 4c be ba ef 2b 3e e5 b1 3f be
       -0.0002570738 -0.200144 0.16790667 -0.18720205
000050 d2 8d 82 bc 86 6f 4f 3d be a9 09 3e f3 88 a6 3e
       -0.015936766 0.050643466 0.13443658 0.3252636
000060 9e 3b dd 3a ba 96 28 3e 50 61 27 3d a4 5c c9 bd
       0.0016878729 0.16463748 0.04086429 -0.09832123
000070 ae da 20 bf 75 99 5d bd 03 09 28 3e bc 1f cb 3b
       -0.6283368 -0.054101426 0.16409688 0.0061988514
000080 a6 0b 7e 3e b8 ee 38 be cd 0a 01 3d 03 d8 80 3e
       0.24809131 -0.18059814 0.03150444 0.25164804
000090 e5 de 4c be 09 04 64 3e c8 d2 c9 bb 2f f3 2a be
       -0.20006903 0.22267164 -0.0061591603 -0.1669433
0000a0 dd 7c 81 3d 3b 15 25 3c b9 a8 d6 bb be 3f f3 3c
       0.06322644 0.0100758625 -0.006550875 0.02969348
0000b0 c1 2a 6c bd a5 f0 4d bc 22 73 c5 3e 7b 89 a5 be
       -0.05765796 -0.012569581 0.38564402 -0.32331452
0000c0 f8 95 29 be 5f 7a 4e bd 23 de 6b bf 9e df 09 3f
       -0.16561115 -0.05040967 -0.9213583 0.5385684
0000d0 14 43 c7 bd d1 9e 39 be 66 ce 19 be 15 0b 17 3e
       -0.09729591 -0.1812699 -0.15020141 0.14750321
0000e0 1f ec 2a 3c 2d 56 5d be d7 78 05 3f 97 b8 b0 bd
       0.010432272 -0.21614905 0.5213751 -0.08628958
0000f0 64 cc 15 bf 46 b0 6e 3e 27 a5 7f 3e f1 10 30 3e
       -0.58515 0.2330943 0.24965344 0.17193963

exp_avg f4 [64, 4]
000000 48 ae 2b b8 73 07 18 ba ac 4b bc 3a 66 a7 e1 39
       -4.093189e-05 -0.000579945 0.0014365814 0.00043040066
000010 61 b2 03 38 0d c0 48 3a 71 75 a3 ba 4a 7c 70 ba
       3.1398962e-05 0.00076580123 -0.0012470913 -0.0009173794
000020 26 88 f6 b8 32 27 f5 39 d8 38 68 ba 02 4b c9 b9
       -0.00011755554 0.00046759244 -0.0008858568 -0.00038393593
000030 74 72 66 39 bf 00 2e ba f1 d3 90 38 49 6e f7 39
       0.00021977146 -0.00066376844 6.905932e-05 0.0004719368
000040 f0 8a 65 b8 22 c9 3f ba 58 b3 ed 3a 84 56 86 39
       -5.472725e-05 -0.0007316043 0.0018135114 0.0002562293
000050 28 93 34 b9 33 58 a6 ba fe c2 74 b9 8e d8 82 39
       -0.00017220958 -0.001269108 -0.00023342294 0.00024956878
000060 6f 07 ab b9 25 9b 3b ba e1 97 b2 ba 24 66 53 3a
       -0.000326212 -0.0007156602 -0.0013625586 0.00080642314
000070 23 15 89 ba 83 6b 1b 3a 7b f0 78 ba 2b af 08 ba
       -0.001045857 0.0005928801 -0.00094962836 -0.00052140903
000080 f7 61 8c 39 10 2a e8 b9 71 5c 57 3a 1f f4 65 39
       0.0002677587 -0.00044281827 0.0008215374 0.00021930084
000090 d8 fc f8 b8 c3 47 d2 b9 d2 8e 0a ba b3 2e bd 39
       -0.00011872657 -0.00040107788 -0.0005285564 0.00036083683
0000a0 8a 2a 92 b9 af bf 02 39 64 46 18 ba 3d 17 0a 38
       -0.00027878984 0.00012469174 -0.0005808829 3.2923406e-05
0000b0 81 37 18 b9 b3 39 82 ba 3c ef 14 bb 0f 43 a6 3a
       -0.00014516526 -0.0009935409 -0.0022725603 0.001268478
0000c0 80 7e 5b b8 f2 d0 f7 b8 3b 7e ee b9 1a 69 17 b7
       -5.233148e-05 -0.00011816797 -0.00045488946 -9.024772e-06
0000d0 bf 2b 35 3a 58 de b3 39 04 c1 9d ba e8 83 2b 39
       0.0006911121 0.000343072 -0.0012035673 0.0001635697
0000e0 94 84 d5 b4 f2 72 95 ba 0b c3 93 3a 8e 57 5d 3a
       -3.9770805e-07 -0.0011402054 0.0011273337 0.00084435276
0000f0 09 c5 c5 39 09 1e 4a ba d1 0b df 3a 96 07 7a 39
       0.0003772157 -0.0007710164 0.0017017071 0.00023844684
000100 d4 1b dc 39 b9 dc 42 b7 c5 ba b2 39 81 0b 74 b9
       0.00041982403 -1.1614692e-05 0.0003408996 -0.00023273939
000110 2c 08 12 3a e5 ba 05 ba b5 7a 39 39 a3 9e 24 3a
       0.0005570676 -0.0005101397 0.00017688687 0.0006279742
000120 09 e7 f7 b9 5e 56 b8 3a 6b 5b 36 bb ad 5f 99 ba
       -0.00047283646 0.0014063825 -0.0027825485 -0.0011701487
000130 ad 44 93 39 36 74 e5 ba 10 60 4f 3a 21 27 22 39
       0.00028089192 -0.0017505947 0.0007910738 0.000154641
000140 3a 89 66 b9 15 5c 76 3a 36 bd c1 ba 97 98 7f ba
       -0.0002198563 0.00093978766 -0.0014781121 -0.00097502157
000150 74 67 56 3a 09 cb c1 38 8d 63 0e 3b 53 7c 4a b9
       0.0008178868 9.2407754e-05 0.0021726817 -0.00019310536
000160 10 b4 65 39 78 e0 3a b9 3f f9 3e 36 3b 38 c2 39
       0.0002190622 -0.00017821963 2.8457287e-06 0.00037044458
000170 ae 80 2e b9 65 2d a7 3a 5a 78 11 ba c4 34 67 b9
       -0.0001664187 0.0012754617 -0.0005549245 -0.00022049533
000180 d7 b1 14 39 09 95 48 ba 5c 31 1f 3a 15 0a ec 38
       0.0001418063 -0.00076516025 0.0006072724 0.00011255235
000190 fd de 69 b7 07 b6 e3 3a ab 8c 01 ba 88 d1 15 ba
       -1.3939801e-05 0.0017372974 -0.00049419206 -0.00057151215
0001a0 36 1c 24 3a be 6a de ba ba d9 d5 3a 22 3b e3 3a
       0.0006260307 -0.0016969068 0.0016315498 0.0017336349
0001b0 c2 42 11 b9 7a 3d 4d ba a8 e1 0c ba fb ab 15 38
       -0.00013853147 -0.000782929 -0.00053742016 3.5684538e-05
0001c0 21 30 4b 39 5c f4 83 ba 45 50 bc 3a 6d 88 55 3a
       0.00019377518 -0.0010067332 0.0014367184 0.0008145634
0001d0 b7 7d a8 39 d3 60 f6 ba 1d 4b 80 37 c8 25 00 3b
       0.00032137122 -0.0018797166 1.5293766e-05 0.001955377
0001e0 d2 2d 0d ba 54 bc 69 3a eb 50 b0 ba 51 ea 8c ba
       -0.0005385551 0.00089163077 -0.001345185 -0.0010750984
0001f0 0e da 82 39 c1 eb 1f 3a bb 3f a4 ba af d8 36 b9
       0.00024957996 0.0006100499 -0.00125312 -0.00017437593
000200 e5 a0 fa b7 21 3d 13 3a e6 c8 8e ba 05 0f 09 b9
       -2.9877245e-05 0.0005616714 -0.0010893613 -0.00013070933
000210 9e dc 3c 39 79 84 41 ba cd 2a a0 3a c0 99 8b 39
       0.00018011263 -0.00073821057 0.0012219787 0.000266267
000220 9d f9 8d 38 9c 3a 48 39 e0 93 b7 3a f2 bb 4b ba
       6.769898e-05 0.0001909532 0.0014005862 -0.00077718415
000230 1c 1e 02 b9 f2 c4 86 3a 9c 55 1a 3a ad c1 9c ba
       -0.00012408983 0.0010282083 0.00058873906 -0.0011959575
000240 00 ee 66 ba 41 a2 a5 3a 0b a1 4e bb d5 11 4e 39
       -0.00088092685 0.0012636856 -0.0031529095 0.00019652334
000250 37 eb 99 38 23 21 a8 ba 3a 2f 0b b9 28 3c 8d b8
       7.339421e-05 -0.0012827258 -0.00013273666 -6.734609e-05
000260 60 37 13 39 e1 79 d5 39 cb b2 fa b9 24 ed a6 b9
       0.00014039641 0.00040717333 -0.00047816927 -0.0003183867
000270 8e 5d 29 ba 1f b6 07 3b 48 c0 9d ba be 20 1f bb
       -0.0006460779 0.0020707918 -0.0012035454 -0.002428099
000280 f2 9d d6 39 ee 8c 81 ba 27 28 8f 3a b6 e3 94 3a
       0.0004093494 -0.0009883919 0.0010922 0.0011359367
000290 c5 c7 26 b9 07 64 e4 b7 cd 47 d6 b9 93 dd c7 b8
       -0.00015905414 -2.7226297e-05 -0.00040870756 -9.530331e-05
0002a0 21 08 ac 37 2a 6e 36 ba 58 3e 42 ba 1f 4c d6 39
       2.0507783e-05 -0.0006959165 -0.00074098026 0.00040873975
0002b0 2d a3 76 b9 79 41 d7 b9 49 d8 22 ba 3b 48 9d b8
       -0.00023521176 -0.00041056777 -0.00062120386 -7.499797e-05
0002c0 e1 68 15 38 bc 99 80 ba b9 28 55 b9 a0 8d b8 3a
       3.5622044e-05 -0.0009811441 -0.00020328433 0.0014080293
0002d0 14 72 d4 b9 d6 95 94 ba 3d 00 80 ba e8 36 8a 3a
       -0.00040520786 -0.0011336158 -0.0009765696 0.0010544928
0002e0 84 2b d8 b9 25 fb 26 39 35 5e 07 ba b5 4d db 37
       -0.00041231152 0.00015924552 -0.0005163879 2.614302e-05
0002f0 1c ce 5c b9 84 c9 1c 39 61 74 86 b9 4a 0f a9 38
       -0.00021057617 0.0001495239 -0.0002564518 8.061396e-05
000300 40 3b e1 37 e1 73 46 ba 11 94 5c b9 ea b4 d3 39
       2.684968e-05 -0.0007570368 -0.00021035994 0.00040379848
000310 c7 26 91 b9 b1 20 77 39 3b 6a 01 ba 99 52 14 38
       -0.00027685447 0.00023567934 -0.0004936789 3.5362875e-05
000320 db f1 9e 39 65 5a ae ba 3c e3 6e 3a 33 f7 b5 3a
       0.00030316305 -0.0013302086 0.000911284 0.0013882875
000330 d8 4c b6 b8 c7 06 33 ba b0 ca a3 ba 05 45 81 3a
       -8.6927495e-05 -0.0006829318 -0.0012496319 0.0009862488
000340 ca ed 38 b8 15 e7 be 3a 97 c9 5e ba d7 cc 6b ba
       -4.4090477e-05 0.0014564717 -0.0008498667 -0.0008995062
000350 bf 95 ce b9 90 39 ab 38 5c 7e f7 b8 e0 01 67 b9
       -0.0003940295 8.164637e-05 -0.00011801414 -0.00022030575
000360 b2 fd 98 39 5f b2 c1 b9 c8 bf 15 39 0d 31 bb 38
       0.00029180717 -0.00036944725 0.00014281191 8.925991e-05
000370 9f c8 39 b9 31 51 b9 39 de 2e e2 38 f8 2c 2f b9
       -0.00017717712 0.00035346442 0.000107852495 -0.00016706053
000380 cd 10 c9 39 3b 5a 45 3a 0a 07 f1 39 25 03 ef b9
       0.00038350225 0.0007528399 0.00045972347 -0.00045587975
000390 f2 7f c3 39 0c bc 75 ba 21 09 26 3a d8 68 09 3a
       0.00037288625 -0.00093740295 0.0006333758 0.0005241758
0003a0 73 c6 70 3a 4b 5c c9 39 b0 43 5e 3a 41 3c 7b b8
       0.00091848447 0.0003840647 0.0008478714 -5.989918e-05
0003b0 32 f4 16 ba 6d 5b bb b8 45 95 1d ba b6 f2 29 b9
       -0.0005758434 -8.933884e-05 -0.00060113176 -0.00016207513
0003c0 b6 b7 56 b9 7b 22 56 3a 49 26 0c ba 82 b4 96 ba
       -0.00020477068 0.000816859 -0.0005346281 -0.0011497887
0003d0 04 8c 2c 3a c1 61 d1 b9 ad 3f 18 3b c1 04 56 3a
       0.0006582143 -0.0003993642 0.0023231313 0.00081641605
0003e0 3e 52 c4 39 f2 99 b4 3a ff fe 33 3b 9d 90 c5 ba
       0.00037445308 0.001377879 0.0027465222 -0.0015073005
0003f0 4d f3 d9 37 8c e2 21 ba 57 1c 1d 3a 67 57 9c 38
       2.5981712e-05 -0.0006175421 0.00059932977 7.4549396e-05

exp_avg_sq f4 [64, 4]
000000 e3 3c 84 37 9f 67 53 36 0d 96 7f 38 ea 53 b2 37
       1.5763979e-05 3.1501766e-06 6.0936483e-05 2.1258329e-05
000010 c0 cf 0f 37 72 3a 47 36 e9 d5 32 38 2e 33 75 37
       8.571835e-06 2.968733e-06 4.2637726e-05 1.4615054e-05
000020 ff 22 14 37 87 a1 28 36 c5 7d bd 37 1c 6f db 36
       8.829636e-06 2.5127972e-06 2.2589122e-05 6.5396434e-06
000030 d6 6d 53 36 fe ce a4 36 82 23 f8 36 de ec 8d 36
       3.1505383e-06 4.911678e-06 7.3951096e-06 4.2297024e-06
000040 67 c0 a0 38 40 ff 2c 37 63 30 8f 39 f5 84 a0 38
       7.665232e-05 1.0311429e-05 0.00027311136 7.65416e-05
000050 fd 16 9c 36 0e d8 22 38 62 cf 83 37 2e 03 94 36
       4.6518385e-06 3.8825026e-05 1.5712987e-05 4.411114e-06
000060 dc ad ac 36 be 81 e1 36 21 98 7c 37 5f 40 d4 36
       5.1462393e-06 6.7206265e-06 1.5055791e-05 6.325586e-06
000070 79 85 7e 37 32 eb 98 36 4e f6 5b 37 e9 c3 cd 36
       1.5170656e-05 4.5573333e-06 1.31107645e-05 6.132283e-06
000080 eb 4c ab 37 18 90 aa 36 a2 3c e5 38 10 9c 0e 38
       2.0420606e-05 5.0831695e-06 0.00010930865 3.4000783e-05
000090 54 f1 8c 37 36 b4 a3 36 e8 a8 90 37 6e 03 80 36
       1.6801678e-05 4.878758e-06 1.724479e-05 3.8150965e-06
0000a0 12 af 87 35 9a 19 2c 36 b0 ef 9e 36 1a f4 0f 36
       1.0109236e-06 2.56449e-06 4.7366702e-06 2.1450746e-06
0000b0 2e 79 cd 36 51 94 bf 36 16 3a eb 37 71 cd 08 37
       6.1235833e-06 5.70951e-06 2.8041231e-05 8.154065e-06
0000c0 10 9b e0 35 a2 a0 0f 37 12 fc 8e 36 37 62 19 36
       1.673443e-06 8.560864e-06 4.2612746e-06 2.2855945e-06
0000d0 70 9d fd 38 11 bb 08 37 da 78 a7 39 24 ac b6 38
       0.00012093305 8.1497865e-06 0.00031942764 8.7105e-05
0000e0 14 8f 90 37 35 cc 00 37 7e 54 c0 37 12 46 5d 37
       1.7232764e-05 7.67694e-06 2.2927528e-05 1.3188941e-05
0000f0 d3 20 54 37 7b 15 81 37 23 47 aa 38 1b 40 ea 37
       1.2643827e-05 1.5388001e-05 8.119482e-05 2.7924825e-05
000100 c6 78 ec 37 6c 4c 3a 37 e2 2a dd 37 42 8e 52 37
       2.8189632e-05 1.1104257e-05 2.6365222e-05 1.2550097e-05
000110 82 f6 86 37 da a7 ba 36 54 9a 35 36 77 17 ed 36
       1.6088834e-05 5.5627725e-06 2.7060933e-06 7.065882e-06
000120 16 fe cc 37 bc a6 30 37 9f 3c 83 38 34 fd de 37
       2.4437013e-05 1.0529238e-05 6.257858e-05 2.658237e-05
000130 af a9 01 37 a2 9d a3 37 39 d4 ad 37 03 7a 3e 37
       7.728507e-06 1.9504518e-05 2.0722031e-05 1.1353291e-05
000140 d5 4c 8a 37 d7 de da 36 3d bc b0 38 ca 7d f1 37
       1.648666e-05 6.5228483e-06 8.427396e-05 2.8788014e-05
000150 13 8a 11 37 dd 47 0e 37 63 14 ed 37 da bf 36 37
       8.674821e-06 8.4805915e-06 2.8262095e-05 1.0892714e-05
000160 84 e0 79 37 dd d8 0f 36 be 80 41 38 b4 a4 62 37
       1.4893831e-05 2.1434892e-06 4.6134686e-05 1.3508998e-05
000170 b0 6c 04 37 e0 19 a8 36 93 18 3d 38 81 1a 6f 37
       7.893119e-06 5.0098024e-06 4.5083998e-05 1.4251681e-05
000180 a9 de af 37 e6 e8 f5 36 e1 56 0b 39 89 9f 11 38
       2.096531e-05 7.328682e-06 0.00013288438 3.4719273e-05
000190 ea a4 c5 36 6b 3a 1a 37 5d 44 0c 38 58 9a 4c 37
       5.890256e-06 9.192717e-06 3.344227e-05 1.21952835e-05
0001a0 92 06 b1 37 10 b5 0d 37 d4 e9 22 38 90 b2 93 37
       2.1103104e-05 8.446412e-06 3.884158e-05 1.7606915e-05
0001b0 ef b4 19 37 c9 7a 32 37 e5 f4 93 37 28 71 15 37
       9.1616375e-06 1.0638215e-05 1.7637803e-05 8.907438e-06
0001c0 1f c8 79 37 8f 13 e0 36 e6 ca a9 38 8a a1 e8 37
       1.4888151e-05 6.677997e-06 8.096341e-05 2.7731778e-05
0001d0 79 7c ba 36 47 90 13 37 16 bc 9e 37 58 69 1b 37
       5.5577225e-06 8.795475e-06 1.8922652e-05 9.263247e-06
0001e0 4c 8b c4 36 03 a1 af 36 67 b6 9d 37 18 e5 fc 36
       5.8574715e-06 5.2341506e-06 1.8800796e-05 7.5368553e-06
0001f0 84 aa 81 38 cc 80 d0 36 c9 d2 30 39 c7 ef 49 38
       6.18296e-05 6.213877e-06 0.00016863192 4.8145444e-05
000200 b2 4d d9 36 fa 08 40 37 c5 36 4c 37 f6 86 db 36
       6.476149e-06 1.1446182e-05 1.21721e-05 6.54242e-06
000210 90 96 25 37 d3 a0 40 37 70 67 67 38 96 9a ac 37
       9.869822e-06 1.1481537e-05 5.5171025e-05 2.0575982e-05
000220 df 87 74 36 b7 b2 ff 36 1c af 6a 37 00 85 fd 36
       3.643792e-06 7.6203974e-06 1.3988258e-05 7.555471e-06
000230 82 9e d6 36 e7 33 51 36 60 b8 a7 37 4d b8 de 36
       6.3961497e-06 3.1173638e-06 1.9993808e-05 6.637571e-06
000240 13 e2 68 38 61 6c 9f 37 2f ac d2 39 61 6b 12 39
       5.552366e-05 1.9004745e-05 0.00040182608 0.00013963647
000250 69 12 4b 37 8c 35 d3 37 78 ab 05 39 9c ee 0e 38
       1.2104029e-05 2.5178095e-05 0.00012747745 3.407766e-05
000260 24 b3 0d 38 73 a0 84 36 9a 21 11 39 1b 61 2b 38
       3.3783857e-05 3.9525853e-06 0.00013840795 4.0860014e-05
000270 56 a0 5d 38 12 b1 da 37 b5 95 21 39 e3 45 7f 38
       5.283983e-05 2.607008e-05 0.00015409927 6.0861825e-05
000280 b7 85 35 36 1a fa 00 37 28 d1 f2 36 70 e8 d7 36
       2.7048934e-06 7.687626e-06 7.236511e-06 6.4345586e-06
000290 65 1a d1 36 34 f4 2d 37 80 9e db 36 91 dc d6 35
       6.231758e-06 1.03684615e-05 6.5451604e-06 1.6008436e-06
0002a0 f3 5a 44 36 56 d9 09 36 38 55 46 37 3f f4 04 36
       2.9259215e-06 2.0541097e-06 1.1821561e-05 1.9811703e-06
0002b0 ac 7c 77 36 a5 41 07 37 85 3d b6 36 47 da e7 35
       3.6878437e-06 8.061911e-06 5.4311845e-06 1.7274368e-06
0002c0 8b 62 89 36 29 d8 19 37 44 a3 6c 37 68 23 14 37
       4.09439e-06 9.169839e-06 1.4104709e-05 8.829731e-06
0002d0 cc 80 56 37 31 5d 10 37 fb 25 15 38 47 8b 62 37
       1.2785382e-05 8.604767e-06 3.555974e-05 1.3503078e-05
0002e0 96 d2 45 37 cb 66 8f 36 df 83 62 38 8e 71 96 37
       1.1791146e-05 4.273699e-06 5.4005413e-05 1.7934271e-05
0002f0 7a e2 6e 36 94 94 29 36 b2 15 e1 37 da a4 06 37
       3.559659e-06 2.5269446e-06 2.6832193e-05 8.025405e-06
000300 ed 5d 90 36 90 a4 84 36 00 c5 61 37 0a 79 95 36
       4.302469e-06 3.953064e-06 1.3456913e-05 4.454637e-06
000310 13 7c 2c 37 1b 64 b3 36 75 21 cc 37 1c 40 1e 37
       1.0280887e-05 5.3462695e-06 2.4334275e-05 9.4324605e-06
000320 06 9c 97 36 32 34 14 37 d5 68 91 37 3c f6 76 37
       4.518314e-06 8.83364e-06 1.7334163e-05 1.47200735e-05
000330 17 f1 00 36 ef 31 f4 36 54 64 4e 37 f4 4f ba 36
       1.921382e-06 7.2775797e-06 1.2301916e-05 5.5525397e-06
000340 2c 61 a4 37 b7 d9 17 38 ba 1f 9d 38 3f 90 25 38
       1.9595573e-05 3.620397e-05 7.492253e-05 3.9473405e-05
000350 0d 44 0a 36 4e 83 35 36 1f 46 6c 36 9b a2 50 35
       2.0603213e-06 2.7047531e-06 3.5207556e-06 7.772266e-07
000360 6a 0b 53 37 d7 5e ae 36 9c 17 24 38 a7 49 31 37
       1.2579238e-05 5.196645e-06 3.9122635e-05 1.0567171e-05
000370 f2 e8 48 35 10 d2 26 36 09 50 30 35 3b 51 d4 35
       7.4844786e-07 2.48582e-06 6.5681576e-07 1.5818872e-06
000380 f1 3f fb 36 15 cf 8c 37 16 3a 2b 38 5a d4 4d 37
       7.4878267e-06 1.678573e-05 4.0823674e-05 1.2268394e-05
000390 38 45 04 37 53 da 3c 37 8b ed a7 37 9d f6 0b 37
       7.883929e-06 1.1256506e-05 2.0018566e-05 8.342465e-06
0003a0 17 9b 6a 38 19 d9 62 37 18 be 39 39 be ac 34 38
       5.5934386e-05 1.3521197e-05 0.0001771379 4.3076223e-05
0003b0 21 8f 9a 37 bc 21 1c 37 03 31 1a 37 f7 e9 05 37
       1.842488e-05 9.306179e-06 9.190527e-06 7.981892e-06
0003c0 29 70 7e 36 19 09 c4 36 92 0a 02 37 91 93 d8 36
       3.7914235e-06 5.8423143e-06 7.751065e-06 6.4544806e-06
0003d0 90 5e 77 36 e0 d9 00 37 c8 dd 8b 37 8e ba 01 37
       3.686091e-06 7.6801225e-06 1.6673366e-05 7.732435e-06
0003e0 a4 6b 31 37 cd 3a e0 36 be 23 0a 38 5f 26 27 37
       1.0575084e-05 6.6825655e-06 3.293505e-05 9.96291e-06
0003f0 49 c9 0d 37 19 72 f6 36 15 62 2c 38 32 6e 62 37
       8.45112e-06 7.344654e-06 4.109934e-05 1.3496307e-05

exp_avg f4 [64]
000000 2b d4 ed ba 7a 50 91 3a f0 98 f1 3a 0b 57 4e 39
       -0.0018144896 0.0011086606 0.001843242 0.00019678117
000010 ec 63 b0 bb e2 4a c9 3a d6 dd 9f ba 1f 37 37 ba
       -0.0053830054 0.00153574 -0.001219685 -0.00069891097
000020 c4 4c 0a bb 2a 52 23 3b 9f be 7b b9 27 24 cc b9
       -0.0021102885 0.00249208 -0.00024008237 -0.00038936848
000030 60 dd 6b 3a c9 0a ea 3b c5 9e b4 ba 07 17 66 ba
       0.0008997526 0.007142399 -0.0013780227 -0.0008777235
000040 56 91 7b bb 11 3d 40 3a c7 75 4c 3b 90 12 f1 ba
       -0.0038386188 0.00073333184 0.003119813 -0.0018392373
000050 f9 52 b5 3a bb f8 e3 3a 46 08 08 3b 7a 55 a5 3a
       0.0013833932 0.0017392853 0.0020756884 0.0012613975
000060 69 eb 13 bb 94 d3 83 3a 11 00 16 bb a8 74 0a bb
       -0.0022570735 0.0010057562 -0.0022888223 -0.0021126661
000070 56 dd ce ba 7d 2c fc b8 7a a9 81 3a c0 9a af 3b
       -0.0015782516 -0.00012024583 0.0009892427 0.005359024
000080 e8 2c 81 3a fb dc c0 ba f6 14 fc ba f8 2d 48 3a
       0.0009855302 -0.0014714295 -0.0019232321 0.00076362444
000090 3b 31 68 3b ef 77 77 b6 a5 04 73 3b 41 33 4f 3b
       0.0035429734 -3.6875679e-06 0.0037081626 0.0031616243
0000a0 27 75 a6 b9 8e a1 8c 3a c8 e0 f2 b9 fb 44 93 3a
       -0.00031749273 0.0010729299 -0.00046325312 0.0011235768
0000b0 12 bd 37 ba 51 4f 32 ba ff 05 0f bb d9 4b 55 3a
       -0.00070090697 -0.000680198 -0.0021823642 0.00081366074
0000c0 22 21 44 ba 08 54 d1 3a 13 6c 61 ba 5d e8 11 3a
       -0.0007481744 0.0015970478 -0.0008599173 0.0005565936
0000d0 4d 8c de 3a 26 b5 2a 39 46 cd b1 ba fc 7e c1 b9
       0.0016979069 0.00016279946 -0.0013565205 -0.0003690644
0000e0 19 3d 90 ba 96 4d 24 ba f8 29 93 3b 2d 6e 6d ba
       -0.0011004537 -0.0006267665 0.004491087 -0.000905725
0000f0 56 45 7c b9 b6 ff 48 3a 18 f0 98 39 f3 d1 5c ba
       -0.00024058422 0.00076674984 0.00029170583 -0.0008423619

exp_avg_sq f4 [64]
000000 0a 76 78 38 f9 21 1a 38 c5 13 69 38 1f a3 83 36
       5.923774e-05 3.67481e-05 5.556994e-05 3.923094e-06
000010 09 9c 0d 3a db d7 1e 38 a3 a2 32 38 fc 64 f8 36
       0.0005401974 3.7871167e-05 4.2589974e-05 7.402732e-06
000020 e6 69 ac 38 18 9c e0 38 0b 8e d8 35 ea ba 8b 37
       8.221324e-05 0.00010710227 1.6134594e-06 1.665713e-05
000030 05 bf 94 37 2d e7 57 3a bd 93 62 38 90 7e 05 38
       1.7731925e-05 0.0008236047 5.402019e-05 3.182754e-05
000040 74 88 98 39 a8 38 2b 37 fb 7e 3d 39 98 1c 4f 38
       0.00029093365 1.0205586e-05 0.00018071748 4.9379276e-05
000050 64 81 08 38 e7 88 13 38 d5 cb ba 38 55 54 67 38
       3.254543e-05 3.517503e-05 8.907138e-05 5.5153232e-05
000060 3f ab 0e 39 31 ef 26 38 c0 20 3b 39 fa fe 20 38
       0.0001360597 3.980025e-05 0.0001784591 3.8384438e-05
000070 6e f2 2a 38 83 55 f1 37 6f b1 36 38 99 45 e5 39
       4.075694e-05 2.8769258e-05 4.355743e-05 0.00043730138
000080 d6 63 87 37 72 c9 06 38 0f d7 67 38 c6 3b 0c 38
       1.6139744e-05 3.21357e-05 5.527498e-05 3.343427e-05
000090 28 82 79 39 f4 ab f5 37 d5 9d 39 39 09 78 a8 39
       0.00023794977 2.9286348e-05 0.00017701772 0.0003213289
0000a0 50 9c b8 37 8f 94 05 38 ea 69 00 38 5e 48 bf 37
       2.2007298e-05 3.1848027e-05 3.061622e-05 2.2802673e-05
0000b0 ab 2c ac 37 05 55 cf 37 36 da 95 38 95 a1 9f 37
       2.0524798e-05 2.4715913e-05 7.1455186e-05 1.902952e-05
0000c0 ed 6c a0 37 3f c2 63 38 b7 98 0a 38 05 25 8a 36
       1.9124209e-05 5.4301923e-05 3.304399e-05 4.11703e-06
0000d0 81 28 c8 37 9f 44 81 37 16 19 ff 37 28 0f 16 36
       2.3860719e-05 1.5409953e-05 3.041005e-05 2.2360564e-06
0000e0 45 ae 96 37 34 69 ea 36 59 1f b2 39 d0 a8 b2 37
       1.7962544e-05 6.9859907e-06 0.00033974161 2.1297863e-05
0000f0 de af 8c 36 c5 3e 62 36 0b 53 a6 37 f1 3c 2a 37
       4.1927988e-06 3.371316e-06 1.9827412e-05 1.0146979e-05

exp_avg f4 [64, 64]
000000 15 b1 11 38 e8 5f 0b b8 7f b4 97 b8 1c cf be 37
       3.4735614e-05 -3.3229502e-05 -7.233861e-05 2.2746208e-05
000010 a7 0f a5 b5 79 e5 5a 39 8c b0 7e b8 e1 c6 10 b9
       -1.2298013e-06 0.00020875585 -6.072274e-05 -0.00013806998
000020 6c 61 c1 37 b8 cc 9a 37 2d 79 ce b8 3b 9e ee b8
       2.3052758e-05 1.845356e-05 -9.845416e-05 -0.00011378197
000030 08 fd 58 39 7f bc a9 35 f7 37 45 b8 61 5b 80 38
       0.00020693627 1.2646341e-06 -4.702058e-05 6.120536e-05
000040 0f b7 d9 38 22 ab 65 39 5f cf 58 37 4a ae 08 39
       0.00010381464 0.00021902894 1.2922886e-05 0.00013034898
000050 55 ef 7c b8 8c 3c 9a b5 87 09 2d b8 14 77 70 b7
       -6.0304377e-05 -1.1491516e-06 -4.1255287e-05 -1.433284e-05
000060 87 bd bf b7 7f 31 c5 b7 7b d9 59 b8 17 f6 8b 38
       -2.285723e-05 -2.3507278e-05 -5.1939376e-05 6.673874e-05
000070 9b 71 53 38 9a 3b 9a b8 41 2e 77 b7 90 e1 62 b7
       5.0412124e-05 -7.354394e-05 -1.4733117e-05 -1.3523168e-05
000080 fa 47 4b b3 91 c3 82 38 9e 0d fc 37 17 55 e9 37
       -4.7330083e-08 6.23531e-05 3.0047082e-05 2.7815388e-05
000090 82 a5 7b 38 24 90 23 b7 8b 60 44 b8 08 4e ce 38
       5.9997205e-05 -9.749117e-06 -4.6819954e-05 9.83738e-05
0000a0 50 d0 14 b9 c1 69 79 38 f4 09 cb 37 7a c9 12 39
       -0.00014191982 5.9464717e-05 2.420412e-05 0.00013998701
0000b0 4c bb 9d b8 9c 9f 15 b7 83 f4 02 39 77 04 9b b8
       -7.52123e-05 -8.918254e-06 0.00012488854 -7.3918076e-05
0000c0 93 98 ab b7 e4 eb dd 37 29 b0 cb b8 93 a4 96 b8
       -2.0455836e-05 2.6455098e-05 -9.712607e-05 -7.183212e-05
0000d0 e0 63 90 b8 61 47 8a 37 e1 d3 0a 38 52 62 9d b8
       -6.885058e-05 1.648412e-05 3.309909e-05 -7.504657e-05
0000e0 5c 51 4d 38 14 6e bd 38 9f 73 f5 b7 fe 71 dd b8
       4.895158e-05 9.032726e-05 -2.9260116e-05 -0.00010559334
0000f0 f3 4f ea 37 bf 6d 55 37 68 08 de 38 e9 b8 59 38
       2.7932203e-05 1.2721342e-05 0.00010587351 5.1909043e-05
000100 4b d7 a9 38 a9 c1 56 b9 d1 2d 9e b9 1f 1c 99 39
       8.0986494e-05 -0.00020480774 -0.00030170244 0.00029203386
000110 bd 3e 9e 39 5e cb 8c 39 2d 19 e4 b8 ef 7a 71 38
       0.00030182852 0.000268544 -0.000108765766 5.757337e-05
000120 69 bc a0 39 99 dc 22 38 1f f2 a6 b9 b1 c1 93 b9
       0.00030657955 3.8829257e-05 -0.00031842382 -0.00028182336
000130 62 4e cc 38 29 24 9c b9 91 20 24 39 73 ec 58 39
       9.742078e-05 -0.0002978158 0.0001565239 0.0002068745
000140 5a 0f 9f 39 2b d2 81 b7 02 be 4f b9 55 e6 30 39
       0.0003033828 -1.5475865e-05 -0.00019811842 0.00016870473
000150 bb 4c 96 b9 1e d9 77 b9 d5 50 65 39 7d e2 28 39
       -0.00028667398 -0.00023636638 0.00021869254 0.00016106102
000160 9e 0b 98 39 63 1c 10 39 29 3b 09 39 3a 02 83 39
       0.00029000355 0.00013743485 0.00013087377 0.00024987926
000170 19 2c 8e 39 35 5a ba b8 6f 2d 02 b9 af 52 99 b9
       0.00027117206 -8.8859735e-05 -0.00012414691 -0.00029244038
000180 4c f6 4e b9 31 b9 97 39 00 37 5a 39 96 1d 74 b9
       -0.00019737444 0.00028938943 0.00020810589 -0.00023280675
000190 87 e5 de b8 b4 a0 51 39 6b 5b a0 b9 69 62 68 b9
       -0.00010628538 0.0001999166 -0.0003058569 -0.00022161905
0001a0 03 09 e1 b8 e3 90 10 39 db 1c 0f b9 f6 b7 46 39
       -0.000107305146 0.00013786885 -0.00013648292 0.00018951282
0001b0 b1 9e d1 b8 42 48 47 39 88 d3 07 b7 5a e9 2c 39
       -9.995455e-05 0.00019005037 -8.095878e-06 0.00016490128
0001c0 b6 f2 0f 39 aa 81 a8 39 53 68 00 39 c1 19 b0 b8
       0.0001372796 0.00032140064 0.00012245895 -8.397131e-05
0001d0 44 aa a2 b9 cd 61 37 39 dc e7 a7 39 91 6c 82 39
       -0.00031025906 0.00017488674 0.0003202547 0.0002487642
0001e0 ee b6 1a b9 b5 ec a1 39 52 b9 83 b9 b4 b2 54 39
       -0.00014754731 0.00030884673 -0.00025124341 0.00020284468
0001f0 8b 91 4b b9 6e 2d 2e b8 36 d4 90 39 82 91 94 39
       -0.00019413808 -4.1527142e-05 0.0002762393 0.00028337172
000200 dd c1 c6 b5 d4 68 80 b5 7f 00 0c 36 35 4e 43 b5
       -1.4808571e-06 -9.567252e-07 2.0861914e-06 -7.2756967e-07
000210 5f 11 2f 36 ef a5 41 b5 22 e7 06 36 d0 16 fc 36
       2.6087143e-06 -7.213957e-07 2.0102093e-06 7.512841e-06
000220 07 c5 8c b6 fa dc 33 36 88 dd 46 36 fe 52 5a 36
       -4.195262e-06 2.6801704e-06 2.9633247e-06 3.253284e-06
000230 8f a1 a3 36 5f df df b5 3b e9 88 b6 58 dc c8 b6
       4.8765864e-06 -1.6679804e-06 -4.0802674e-06 -5.986116e-06
000240 59 ec fe b5 9c fc d5 b6 d1 af 32 36 1b 22 f1 36
       -1.8993261e-06 -6.3773023e-06 2.6626406e-06 7.18633e-06
000250 56 e1 35 36 03 86 93 b6 4c 69 25 36 72 d1 83 36
       2.7102265e-06 -4.3965424e-06 2.4648207e-06 3.928487e-06
000260 c1 49 ca 36 11 10 10 36 49 a1 9b b5 09 0d 94 35
       6.028655e-06 2.1467024e-06 -1.159534e-06 1.1030653e-06
000270 7d 5a 08 b6 59 1b bc 35 d7 ea 1b 36 3a 2b b5 b5
       -2.031825e-06 1.4015051e-06 2.3233495e-06 -1.3498131e-06
000280 81 d9 cf 36 56 28 a9 b6 a0 4a 4d b6 94 51 69 b6
       6.1944015e-06 -5.041288e-06 -3.0590818e-06 -3.476719e-06
000290 68 25 3b b7 65 2e 62 37 62 9e 2f 36 66 11 c5 b6
       -1.1154778e-05 1.3481452e-05 2.6169223e-06 -5.873083e-06
0002a0 a4 a0 e5 35 94 fb 5f 36 c3 fb 3c b6 4a 19 05 36
       1.7108582e-06 3.3376027e-06 -2.8160728e-06 1.9833265e-06
0002b0 a0 cc 7c 36 95 a4 3f 36 d5 b9 d6 b6 41 5d e8 36
       3.7670034e-06 2.8557017e-06 -6.3993307e-06 6.924995e-06
0002c0 24 b2 1a 35 b6 7a 9b 35 d6 06 91 b6 dc c9 b7 36
       5.76287e-07 1.1584114e-06 -4.3221326e-06 5.4773245e-06
0002d0 25 72 92 36 fa dd 2a 36 50 3f 8a b6 54 4d ed 36
       4.3644272e-06 2.5461181e-06 -4.120091e-06 7.0721526e-06
0002e0 44 98 0c b7 ca 6c 9c b6 5d 92 9a b6 4a 16 10 37
       -8.380102e-06 -4.661827e-06 -4.6065966e-06 8.588258e-06
0002f0 1e 4a b3 36 ad f4 08 b7 03 cc 6b b6 cd fa f6 b5
       5.343244e-06 -8.1632e-06 -3.513648e-06 -1.8401421e-06
000300 92 18 e9 b7 38 00 d8 37 3e 22 7f 38 79 77 8c b8
       -2.7787206e-05 2.5749308e-05 6.082863e-05 -6.697974e-05
000310 07 63 46 b7 27 a6 0a b8 46 cd 2d 38 9d b9 72 38
       -1.1824776e-05 -3.3056505e-05 4.143759e-05 5.7870162e-05
000320 10 b5 c9 b8 a6 e8 78 37 82 b7 c7 38 37 6c 00 39
       -9.6181524e-05 1.483612e-05 9.5232404e-05 0.00012247344
000330 27 28 81 b7 d3 60 f7 37 ac 6c 34 b8 e3 ad 9f b8
       -1.5396696e-05 2.9489782e-05 -4.3016553e-05 -7.6141e-05
000340 2f 08 2f b8 4a 40 53 b8 c4 c1 6d 38 27 50 87 b7
       -4.1730873e-05 -5.0366194e-05 5.668566e-05 -1.6130578e-05
000350 5e 39 94 38 24 9a c6 b6 6c f7 5e b8 77 ca 86 b8
       7.0678754e-05 -5.918804e-06 -5.3159354e-05 -6.42733e-05
000360 ee 4c ea 37 23 09 a3 b8 b0 df 82 b7 08 41 28 b8
       2.7930797e-05 -7.7741475e-05 -1.560137e-05 -4.0114886e-05
000370 e0 78 82 b8 be 2c 55 38 48 1b 31 38 f5 09 01 38
       -6.221398e-05 5.0824827e-05 4.2225496e-05 3.076527e-05
000380 c8 89 91 38 8b 41 be b8 88 ee 07 b8 e1 22 a4 36
       6.9398026e-05 -9.072114e-05 -3.2408658e-05 4.8916413e-06
000390 2a 50 84 b8 ae d5 a0 38 f5 e1 9f 38 4b 96 8d b7
       -6.309182e-05 7.6691955e-05 7.6237986e-05 -1.6878495e-05
0003a0 d5 9e 98 38 34 89 f4 36 43 c7 f0 37 5c 14 30 b7
       7.2775096e-05 7.287739e-06 2.8703018e-05 -1.0495158e-05
0003b0 d4 ef 9b 38 a1 6c bc b6 be 46 49 b8 6f 23 58 37
       7.4356474e-05 -5.6154827e-06 -4.798802e-05 1.2882853e-05
0003c0 07 3b 6d b7 54 f5 ac b8 53 cb cf b7 16 f5 80 38
       -1.4140044e-05 -8.247295e-05 -2.4771003e-05 6.1491664e-05
0003d0 a8 64 d1 38 e1 58 c3 b7 14 cb e9 b8 c9 aa 95 b7
       9.984645e-05 -2.3287199e-05 -0.00011148132 -1.7841712e-05
0003e0 fd ed 45 b8 ec 3a c1 b8 8a a5 0a b7 7f 3e 50 38
       -4.7190104e-05 -9.213932e-05 -8.263984e-06 4.964927e-05
0003f0 ff b7 9e 38 97 8c 6d b8 a0 58 f1 b8 3a 82 8c b8
       7.568299e-05 -5.6636138e-05 -0.00011508283 -6.699977e-05
