eval/eval_rl/runs/CartpolePPO/nn/last_CartpolePPO_ep_150_rew_1215.7435.pth (torch, 70524 bytes, 24 tensors)

value_mean_std.running_mean f8 [1]
391.51056908902956
00000000: b03b 7e4a 2b78 7840

value_mean_std.running_var f8 [1]
25453.8609343921
00000000: 8590 8c19 77db d840

value_mean_std.count f8 []
19660801.0
00000000: 0000 0010 00c0 7241

running_mean_std.running_mean f8 [4]
0.5912590405017022 -0.02638782439878178 0.2457922203593553 -0.01742860782326704
00000000: ae69 4d14 98eb e23f edaf 38eb 6805 9bbf
00000010: fbfe 0696 1e76 cf3f fd84 7612 ced8 91bf

running_mean_std.running_var f8 [4]
1.0354239526360938 0.8560070803900712 1.5357102147464456 4.173037466048325
00000000: be12 e1b4 1891 f03f fe6e edf5 6864 eb3f
00000010: 8581 c7df 4492 f83f 1da4 c6bb 30b1 1040

running_mean_std.count f8 []
9830401.0
00000000: 0000 0020 00c0 6241

a2c_network.actor_mlp.0.weight f4 [64, 4]
0.016820885 0.6505295 0.18828022 0.4518655 0.006734508 -0.4602946 -0.11231337 -0.12787563
-0.35725072 -0.6868219 -0.030827057 -0.004294346 0.13530828 0.40601763 -0.23003131 0.07660918
0.22369644 1.3450621 0.18794478 0.2872946 0.45687336 0.011430029 0.62402534 -1.685945
-0.23423275 0.18095079 -0.033392638 0.11954915 -0.3145924 -0.04632228 -0.43362248 -0.6675384
-0.37346718 0.7023107 0.14064427 0.23451316 0.054622542 -0.45977724 -0.05452507 -0.89061373
-0.46298626 -0.35967562 0.13982013 0.5285186 0.04612772 0.25981158 0.2114712 0.7666412
0.2527813 -0.007114078 0.5605486 -0.6090092 -0.079545155 -1.2093943 -0.20407425 -0.32944596
0.03838929 0.41113666 -0.19951591 0.43651554 -0.015619283 0.30247465 -0.032469496 0.2622049
0.34414655 0.91562945 0.15138792 -0.9118277 0.12993455 0.54064083 0.7038946 0.63828033
0.009961908 -0.8750038 -0.10839803 -0.52295685 -0.11687568 0.20069763 0.48143226 -0.549023
-0.15536796 -0.6115155 -0.09481543 -0.13873583 0.14626315 -0.40502325 0.0069983127 0.11926702
0.40357873 -0.36615667 -0.45587736 -0.35875383 -0.2419121 -0.36464944 -0.5435752 -0.7409326
0.2744 0.95185226 0.024251968 0.0025552902 -0.3629937 -0.49970526 -0.5901716 -0.7477036
0.1176608 0.6289965 -0.10292511 0.63051003 -0.086427994 0.35147822 0.104109704 -0.237104
0.0973945 0.47661418 0.05346753 0.11062959 0.19278997 0.18032436 -0.13333616 0.45128524
-0.27557808 -0.53666455 -0.07467635 -0.6249061 -0.14939943 -0.815916 -0.08254115 -0.16278474
-0.07606785 -0.3415744 0.14200267 -0.35524717 -0.015071398 0.40669763 0.001464868 0.10016889
0.89070064 -0.036443744 -0.06492038 -0.12192076 -0.20313464 -0.3793806 0.14492507 -0.12366817
-0.3028138 -1.2981737 -0.31106445 -0.5418308 0.36836603 0.5676991 0.09149501 -0.18253079
0.012719323 -0.8968754 -0.15614901 -0.25896376 0.034232046 -1.1631521 -0.02240351 -0.6865912
-0.09497791 0.328777 -0.31100336 0.549653 0.07008498 -0.08235766 0.24085987 -0.79489666
0.5962399 -0.02323594 -0.12909262 0.82594234 0.12778577 -0.11422561 0.40933648 -1.2124066
-0.37708956 0.51874995 -0.19951831 0.3763864 0.037081245 0.31278074 -0.0396787 0.026700944
-0.36543733 0.43219033 0.40648782 0.5436145 -0.31565964 0.14162682 -0.321998 -0.61643386
-0.047299 0.22870862 -0.008840479 0.102859445 -0.0746624 0.18402806 -0.4073593 -0.2790227
-0.23100324 0.75543624 -0.29950425 0.86467165 0.021095958 0.12616828 -0.023345632 0.037397135
-0.03204206 -0.47628918 0.020602042 0.112291306 -0.30948076 0.0066070505 0.13076615 -0.9053369
-0.18842497 0.58342725 -0.0060432195 -0.13230924 -0.34970874 0.15749495 -0.34017098 -0.399192
-0.31514505 -0.08907677 0.19315322 0.4141622 0.1777669 0.5613154 0.14668973 -0.2213511
0.23789772 -0.67361605 -0.14539668 0.015995368 -0.25626558 0.5933694 -0.3680157 -0.1402685
0.11144663 -0.8177499 0.06977531 -0.6361263 0.38866 -0.22702578 0.10038598 0.2661987
0.16917329 -0.30820146 -0.18328519 -0.7449804 0.041848056 0.37564436 -0.026405262 -0.024881653
00000000: f4cb 893c 1a89 263f 88cc 403e ea5a e73e
00000010: 26ad dc3b bcab ebbe 8d04 e6bd d4f1 02be
00000020: 91e9 b6be 8fd3 2fbf 0689 fcbc 96b7 8cbb
00000030: 418e 0a3e 8be1 cf3e 548d 6bbe 46e5 9c3d
00000040: ae10 653e ff2a ac3f 9974 403e 4718 933e
00000050: 4eeb e93e 0445 3b3c 20c0 1f3f 0ccd d7bf
00000060: b6da 6fbe 2a4b 393e b8c6 08bd 2fd6 f43d
00000070: 4112 a1be 6ebc 3dbd c403 debe cce3 2abf
00000080: 1737 bfbe a2ca 333f 0d05 103e 3824 703e
00000090: e3bb 5f3d ec67 ebbe ae55 5fbd 43ff 63bf
000000a0: 890c edbe 6727 b8be 022d 0f3e ff4c 073f
000000b0: 6cf0 3c3d 0606 853e e88b 583e 9942 443f
000000c0: 8d6c 813e 361d e9bb 1d80 0f3f 07e8 1bbf
000000d0: 92e8 a2bd 6fcd 9abf d7f8 50be 24ad a8be
000000e0: 173e 1d3d 8180 d23e e64d 4cbe f77e df3e
000000f0: 05e8 7fbc f5dd 9a3e bcfe 04bd b83f 863e
00000100: fa33 b03e b166 6a3f 6f05 1b3e 8a6d 69bf
00000110: 900d 053e 7067 0a3f 7032 343f 5766 233f
00000120: 4537 233c 4000 60bf c9ff ddbd 80e0 05bf
00000130: 845c efbd ae83 4d3e 4a7e f63e c58c 0cbf
00000140: c718 1fbe 488c 1cbf 982e c2bd c410 0ebe
00000150: 02c6 153e 355f cfbe 1a52 e53b 4442 f43d
00000160: dfa1 ce3e e378 bbbe c268 e9be 95ae b7be
00000170: ceb7 77be 55b3 babe bf27 0bbf c2ad 3dbf
00000180: 287e 8c3e 97ac 733f 10ac c63c a876 273b
00000190: 4fda b9be 5ed9 ffbe 7c15 17bf 8169 3fbf
000001a0: 25f8 f03d ea05 213f 66ca d2bd 1b69 213f
000001b0: 2901 b1bd f4f4 b33e 7837 d53d 64cb 72be
000001c0: c576 c73d c606 f43e c500 5b3d c491 e23d
000001d0: bc6a 453e f3a6 383e 4689 08be dc0e e73e
000001e0: 9218 8dbe d962 09bf eaef 98bd d9f9 1fbf
000001f0: 2afc 18be dfdf 50bf 560b a9bd 0bb1 26be
00000200: 76c9 9bbd d7e2 aebe 2669 113e f5e2 b5be
00000210: 06ee 76bc ac3a d03e d000 c03a 5925 cd3d
00000220: f504 643f 0946 15bd faf4 84bd 97b1 f9bd
00000230: 8702 50be 2d3e c2be 3d67 143e bd45 fdbd
00000240: 690a 9bbe 8e2a a6bf d743 9fbe 6cb5 0abf
00000250: 799a bc3e ba54 113f bc61 bb3d 5ae9 3abe
00000260: b564 503c a099 65bf 87e5 1fbe e696 84be
00000270: e736 0c3d 2be2 94bf 9187 b7bc 71c4 2fbf
00000280: c783 c2bd 7555 a83e d53b 9fbe 0fb6 0c3f
00000290: b788 8f3d 22ab a8bd f8a3 763e 597e 4bbf
000002a0: 2ea3 183f 4c59 bebc db30 04be f570 533f
000002b0: 46da 023e 1eef e9bd 8d94 d13e 2430 9bbf
000002c0: e211 c1be cccc 043f 874e 4cbe b8b5 c03e
000002d0: 81e2 173d cc24 a03e 2286 22bd f0bb da3c
000002e0: 9a1a bbbe 0d48 dd3e 2c1f d03e 522a 0b3f
000002f0: 249e a1be 9f06 113e ecdc a4be 9cce 1dbf
00000300: 99bc 41bd 9832 6a3e a8d7 10bc f9a7 d23d
00000310: 9ae8 98bd da71 3c3e 6691 d0be 10dc 8ebe
00000320: 1d8c 6cbe 4564 413f 9f58 99be 1f5b 5d3f
00000330: 6ed1 ac3c 4232 013e 573f bfbc bd2d 193d
00000340: 893e 03bd 2ddc f3be 9dc5 a83c fcf8 e53d
00000350: 4374 9ebe f57f d83b 90e7 053e 29c4 67bf
00000360: 7af2 40be 7d5b 153f 3306 c6bb 137c 07be
00000370: 060d b3be 5b46 213e e42a aebe e562 ccbe
00000380: b15a a1be e26d b6bd f5c9 453e 110d d43e
00000390: 8708 363e 5eb2 0f3f d535 163e dda9 62be
000003a0: 769b 733e 1a72 2cbf dee2 14be b808 833c
000003b0: 3e35 83be 0fe7 173f 8e6c bcbe 8ca2 0fbe
000003c0: 213e e43d 0f58 51bf 5ce6 8e3d 2cd9 22bf
000003d0: 72fe c63e 7279 68be 2a97 cd3d 324b 883e
000003e0: c33b 2d3e 95cc 9dbe 1daf 3bbe 09b7 3ebf
000003f0: de68 2b3d 7554 c03e d94f d8bc 9cd4 cbbc

a2c_network.actor_mlp.0.bias f4 [64]
-0.25696623 0.06738826 0.2905214 -0.5144478 0.19247353 0.27509058 0.3544127 1.0284936
-0.66201067 0.33379138 0.56813574 1.0715005 0.15780395 -0.024098517 -0.409725 -0.6972342
0.09926192 -0.8225181 0.4732518 0.1516832 0.4373804 -0.37047663 -0.47313768 -0.529112
0.59368485 -0.71914905 -0.15408057 -0.066368945 -0.34970957 0.31725612 0.45260322 0.009741238
0.73658305 -0.7147155 -0.32154977 -0.1109109 -0.77650774 1.2140939 0.39015564 -0.39031506
0.5849841 0.36871275 0.027797237 0.32137045 0.9248271 0.10173622 -0.48126492 0.4401835
-0.03786754 -0.6386176 -0.2664252 0.5477038 0.7203499 0.07254204 -0.88126487 0.11708162
-0.6231923 -0.5487878 -0.40678376 0.94127005 0.7971659 -0.8123361 -1.0584911 -0.3826369
00000000: 1491 83be db02 8a3d 39bf 943e dab2 03bf
00000010: c817 453e acd8 8c3e 9575 b53e aea5 833f
00000020: 8879 29bf b4e6 aa3e 5871 113f ee26 893f
00000030: 5c97 213e 416a c5bc 7ac7 d1be f17d 32bf
00000040: d549 cb3d 8c90 52bf 0f4e f23e d752 1b3e
00000050: 53f0 df3e 1daf bdbe 1a3f f2be e273 07bf
00000060: bbfb 173f 271a 38bf 4cc7 1dbe 71ec 87bd
00000070: 220d b3be 656f a23e 9cbb e73e b799 1f3c
00000080: b590 3c3f 98f7 36bf 2ca2 a4be 4125 e3bd
00000090: 36c9 46bf 6e67 9b3f 7bc2 c73e 60d7 c7be
000000a0: 85c1 153f ebc7 bc3e 08b7 e33c ab8a a43e
000000b0: 78c1 6c3f 145b d03d 5b68 f6be bb5f e13e
000000c0: fe1a 1bbd 717c 23bf e268 88be 5136 0c3f
000000d0: da68 383f ec90 943d 939a 61bf 7dc8 ef3d
000000e0: 8889 1fbf 5b7d 0cbf f645 d0be 13f7 703f
000000f0: 1013 4c3f 42f5 4fbf a37c 87bf fce8 c3be

a2c_network.actor_mlp.2.weight f4 [64, 64]
0.3423327 -0.18472001 -0.06584961 -0.21621299 0.20685644 -0.88900304 0.11582393 -0.38102672
0.24603112 -0.29932067 -0.007633249 0.10671594 -0.48985377 -0.08559487 0.2095017 0.3968211
0.2501441 -0.09541349 0.050272264 -0.3498889 -0.46935087 0.714139 -0.24388085 -0.17562465
-0.3617303 -0.12981698 -0.019880222 0.05864059 0.30530962 0.13764535 -0.013095848 -0.05150523
-0.18904588 0.35289276 -0.50879985 0.46156237 0.01355516 -0.23422433 -0.3984235 0.32944873
0.21762629 -0.3751978 0.16342303 -0.6320062 -0.044345535 -0.43404424 0.3595193 -0.43477815
-0.44743168 -0.18454227 -0.0065453057 -0.12637432 -0.20022282 -0.063611224 0.4854509 -0.23459846
0.55592716 0.15208715 0.41044414 -0.4437463 0.1147692 0.53636044 0.019222427 0.020368423
-0.1210619 0.27752408 0.10275864 -0.021340914 -0.13438408 -0.64835715 -0.0065865945 0.21801353
-0.30382696 -0.18515092 -0.6392749 0.2932889 0.040336557 0.12586573 -0.09362521 -0.25033286
0.6876154 -0.11265265 0.36065128 0.3381467 0.19167385 -0.24321726 -0.18150382 0.008816439
0.3359732 -0.12164744 -0.15060903 0.18848549 -0.3215187 0.19789413 0.109061666 0.14569296
0.2433316 -0.521969 -0.46595544 -0.12605265 -0.3898269 1.0226653 0.20670913 -0.29018098
0.030917685 -0.2120975 0.03678628 -0.30392277 0.33685318 0.2883009 0.0090038655 0.020816786
0.018744973 -0.20960991 -0.17446664 0.43950137 -0.03647326 -0.30827639 -0.28027982 0.1337884
-0.20204993 0.02101673 -0.28732005 0.624525 0.38254115 -0.50696164 -0.17600943 0.01932274
0.21586697 -0.027991867 -0.06788167 0.11054997 0.10029659 0.09174154 -0.082818784 -0.0051411893
-0.11781793 -0.032962106 0.07961288 -0.22288586 0.056463372 -0.03543809 -0.019807696 -0.10939579
-0.14990251 0.024639584 -0.01709126 0.2171531 0.036318153 -0.08615264 0.17613125 -0.17432967
-0.06887371 -0.011661361 -0.11505749 0.0932454 -0.040909465 -0.036323104 -0.08452478 0.051441938
0.039823443 0.09153148 0.311938 0.10559605 0.12445338 -0.07138701 -0.102069944 0.05935431
0.06982654 -0.08075239 0.16178624 -0.08536891 0.010839208 -0.10009861 0.14111193 0.19515234
-0.077358805 0.21626425 0.06052868 0.118475124 0.20843638 -0.11864249 0.05054796 0.15857384
-0.08381775 0.0830829 -0.022474177 0.14411663 -0.05491048 -0.21354586 0.09860395 0.05610665
0.030934779 -0.100770466 0.033899363 0.00067195675 0.083839215 0.15085255 -0.043802865 -0.16391103
-0.023184296 0.046162244 0.08731314 -0.16666487 0.17599538 -0.19621398 0.03386459 0.003794545
-0.1078028 0.09332021 -0.15874702 0.034880184 -0.030425616 -0.10231405 0.09217548 0.039376527
-0.06985976 0.056973606 -0.17875177 -0.04229016 0.019127896 0.031221405 -0.06261385 -0.03357625
0.022298932 0.06893964 0.24732584 -0.1060289 0.37593663 -0.19692014 -0.066639595 0.13741578
-0.16253445 0.0898117 0.077981904 0.10554637 -0.1471113 -0.07111926 0.0071476963 0.13271593
-0.04329636 0.1992154 -0.06993997 -0.0129590705 0.2823585 0.086188726 0.11525844 0.009836096
-0.0914891 -0.012170486 0.053758636 0.055483185 -0.092937574 -0.25191852 0.13825847 0.11808558
00000000: 3b46 af3e 3e27 3dbe 29dc 86bd f066 5dbe
00000010: 2dd2 533e b495 63bf 1935 ed3d ef15 c3be
00000020: 95ef 7b3e 8f40 99be 5520 fabb e38d da3d
00000030: 1dce fabe 5d4c afbd 9d87 563e 232c cb3e
00000040: e312 803e 2668 c3bd 4aea 4d3d a324 b3be
00000050: c24e f0be d0d1 363f e7bb 79be f3d6 33be
00000060: b734 b9be beee 04be d9db a2bc 1e31 703d
00000070: 8b51 9c3e e7f2 0c3e f88f 56bc 26f7 52bd
00000080: 3e95 41be 5cae b43e b540 02bf e751 ec3e
00000090: 7616 5e3c 81d8 6fbe 2afe cbbe 81ad a83e
000000a0: 6dd9 5e3e ed19 c0be 5e58 273e 29cb 21bf
000000b0: aaa3 35bd 0c3b debe ea12 b83e 3e9b debe
000000c0: c415 e5be a6f8 3cbe 017a d6bb 4568 01be
000000d0: 3607 4dbe 9a46 82bd 058d f83e 943a 70be
000000e0: 3e51 0e3f bcbc 1b3e bc25 d23e b732 e3be
000000f0: 1d0c eb3d eb4e 093f 5a78 9d3c aedb a63c
00000100: 4def f7bd a317 8e3e 1f73 d23d 24d3 aebc
00000110: fb9b 09be bcfa 25bf 5cd4 d7bb f03e 5f3e
00000120: 358f 9bbe 3498 3dbe 85a7 23bf f629 963e
00000130: f237 253d f2e2 003e 93be bfbd a12b 80be
00000140: 9007 303f 6fb6 e6bd 49a7 b83e 9021 ad3e
00000150: 2646 443e f20d 79be 23dc 39be d372 103c
00000160: ae04 ac3e 4b22 f9bd 4139 1abe 5702 413e
00000170: 199e a4be c2a4 4a3e b95b df3d 8930 153e
00000180: eb2b 793e c39f 05bf b691 eebe f213 01be
00000190: 6497 c7be b2e6 823f 8fab 533e 9a92 94be
000001a0: 1647 fd3c 1630 59be 36ad 163d c49b 9bbe
000001b0: 0578 ac3e 2d9c 933e f384 133c f787 aa3c
000001c0: 0f8f 993c fba3 56be 62a7 32be 5306 e13e
000001d0: fc64 15bd 67d6 9dbe d680 8fbe d4ff 083e
000001e0: 2de6 4ebe 472b ac3c 9d1b 93be dfe0 1f3f
000001f0: 6fdc c33e 3dc8 01bf d13b 34be b94a 9e3c
00000200: 3b0c 5d3e 334f e5bc 8c05 8bbd 0668 e23d
00000210: 4c68 cd3d fde2 bb3d e59c a9bd 6c77 a8bb
00000220: 874a f1bd 4603 07bd 140c a33d 313c 64be
00000230: 2346 673d 8827 11bd c043 a2bc e60a e0bd
00000240: 0b80 19be f4d8 c93c f802 8cbc 625d 5e3e
00000250: 58c2 143d cc70 b0bd c05b 343e 7a83 32be
00000260: a90d 8dbd 4b0f 3fbc 43a3 ebbd 72f7 be3d
00000270: af90 27bd 89c7 14bd 541b adbd c8b4 523d
00000280: e81d 233d db74 bb3d 56b6 9f3e be42 d83d
00000290: 6ae1 fe3d 5a33 92bd 0c0a d1bd 811d 733d
000002a0: 3801 8f3d 8261 a5bd 4bab 253e e5d5 aebd
000002b0: ef96 313c 8000 cdbd a57f 103e 04d6 473e
000002c0: 4b6e 9ebd 6074 5d3e ecec 773d 16a3 f23d
000002d0: 5970 553e d5fa f2bd 610b 4f3d 2e61 223e
000002e0: a4a8 abbd 5e27 aa3d c41b b8bc 4f93 133e
000002f0: d0e9 60bd c4ab 5abe def0 c93d 16d0 653d
00000300: ef6a fd3c bf60 cebd 0fda 0a3d 4126 303a
00000310: e5b3 ab3d 1779 1a3e a26a 33bd 4bd8 27be
00000320: feec bdbc 9f14 3d3d 3bd1 b23d 32aa 2abe
00000330: 2238 343e 51ec 48be 99b5 0a3d e7ad 783b
00000340: b7c7 dcbd ab1e bf3d 948e 22be 86de 0e3d
00000350: 243f f9bc 078a d1bd 80c6 bc3d 4849 213d
00000360: a212 8fbd 285d 693d b40a 37be 7238 2dbd
00000370: 1bb2 9c3c 08c4 ff3c b13b 80bd 4087 09bd
00000380: 40ac b63c 3a30 8d3d fc42 7d3e ae25 d9bd
00000390: c47a c03e 6fa5 49be 577a 88bd b9b6 0c3e
000003a0: 6e6f 26be 32ef b73d fab4 9f3d b228 d83d
000003b0: 58a4 16be f9a6 91bd 3937 ea3b afe6 073e
000003c0: 8657 31bd 1fff 4b3e b03c 8fbd 4852 54bc
000003d0: 4b91 903e b783 b03d 9e0c ec3d 9427 213c
000003e0: a35e bbbd b866 47bc 0432 5c3d 5642 633d
000003f0: 0e56 bebd 77fb 80be a193 0d3e dad6 f13d

a2c_network.actor_mlp.2.bias f4 [64]
-0.44437665 0.4060777 0.22852053 0.38219965 0.0077244733 -0.09616695 0.056569245 0.32291442
-0.26149875 -0.56361485 -0.51390344 -0.22059393 -0.06706681 0.028248345 0.14402302 0.14814138
-0.23988973 -0.17478888 -0.79366714 -0.6633957 0.1965086 0.20686059 -0.06710486 0.3441305
-0.034177143 -0.0683027 -0.71890336 -0.09517521 0.27543494 0.5428607 0.26697963 -0.2669817
0.17748234 -0.26143128 -0.37113473 -0.29299134 0.029336454 -0.13674994 -0.7532014 -0.54297507
-0.6177204 -0.14530332 -0.0455665 -0.4044735 0.6264608 -0.2732 -0.13110147 -0.27375722
-0.17653196 -0.1634469 0.15221684 0.24939911 -0.5742167 0.5241273 -0.33286765 0.49353543
0.006513153 0.69226044 -0.3229901 -0.29052383 -0.22619805 -0.67698455 -0.12159412 0.67078483
00000000: 5685 e3be 6be9 cf3e 4901 6a3e acaf c33e
00000010: 941d fd3b 2ef3 c4bd 27b5 673d 0a55 a53e
00000020: 2ae3 85be 1049 10bf 2d8f 03bf 60e3 61be
00000030: 535a 89bd 1369 e73c c57a 133e 60b2 173e
00000040: a7a5 75be dbfb 32be c52d 4bbf 4dd4 29bf
00000050: 8d39 493e 43d3 533e 466e 89bd df31 b03e
00000060: 55fd 0bbd 49e2 8bbd 0d0a 38bf 38eb c2bd
00000070: cf05 8d3e ebf8 0a3f 8eb1 883e d3b1 88be
00000080: eebd 353e 52da 85be 5f05 bebe f602 96be
00000090: 0153 f03c 2d08 0cbe cfd1 40bf 6a00 0bbf
000000a0: ed22 1ebf 65ca 14be f0a3 3abd 2717 cfbe
000000b0: bc5f 203f dfe0 8bbe 773f 06be e829 8cbe
000000c0: cbc4 34be a05e 27be bbde 1b3e 7b62 7f3e
000000d0: deff 12bf 352d 063f a16d aabe adb0 fc3e
000000e0: 4a6c d53b fb37 313f f55e a5be 8abf 94be
000000f0: 76a0 67be dc4e 2dbf 5706 f9bd 8eb8 2b3f

a2c_network.value.weight f4 [1, 64]
0.08675859 0.13430034 0.010296945 -0.07263821 0.0042005437 -0.19090728 0.23663695 -0.12580891
0.16782877 0.11711568 0.114222854 -0.021207135 -0.0348028 0.005436358 0.009959815 0.0128357075
0.0028426268 0.13182619 0.32925245 0.24928562 -0.38327563 -0.3448486 0.1900808 0.21444665
-0.0050623375 0.008896133 0.23484994 -0.032732945 0.43226644 -0.22239417 0.18651307 0.0033503545
0.036485985 -0.006224204 -0.036056515 -0.4657893 0.20582713 -0.15069562 0.3842686 0.13161029
0.23843315 0.02840365 0.0023442274 0.08801847 -0.24667907 0.08369704 -0.04632431 -0.53906304
-0.2512548 0.37338483 -0.112074085 -0.13882132 0.14384228 -0.13102129 -0.2036156 -0.13246453
-0.17900974 -0.24506079 -0.038893413 0.038590692 -0.43865538 0.17440672 -0.17473012 -0.195897
00000000: 7dae b13d 0786 093e 85b4 283c 58c3 94bd
00000010: b7a4 893b 337d 43be f550 723e 0dd4 00be
00000020: 4edb 2b3e 58da ef3d aced e93d 96ba adbc
00000030: 618d 0ebd 7a23 b23b 7e2e 233c dc4c 523c
00000040: 5d4b 3a3b 72fd 063e c793 a83e bb44 7f3e
00000050: b43c c4be ff8f b0be 8ba4 423e e797 5b3e
00000060: f7e1 a5bb 16c1 113c 817c 703e fb12 06bd
00000070: 0752 dd3e 4cbb 63be 48fd 3e3e 9f91 5b3b
00000080: 5472 153d 68f4 cbbb ffaf 13bd ef7b eebe
00000090: 59c4 523e f44f 1abe dbbe c43e d9c4 063e
000000a0: d227 743e c5ae e83c 9ca1 193b 0743 b43d
000000b0: 7099 7cbe 5b69 ab3d 8fbe 3dbd 0900 0abf
000000c0: 78a4 80be 4c2c bf3e 1987 e5bd 2d27 0ebe
000000d0: 644b 133e 722a 06be 9c80 50be c8a4 07be
000000e0: 544e 37be 37f1 7abe b34e 1fbd 4611 1e3d
000000f0: 7097 e0be ad97 323e 74ec 32be 3999 48be

a2c_network.mu.weight f4 [1, 64]
0.4623669 0.37250608 0.0054356665 -0.0028099346 -0.002728189 0.23556219 0.40857926 -0.3618593
0.0056623043 0.105197705 0.6092697 -0.04552674 0.09354822 0.55269146 -0.45147243 -0.14015067
0.00186658 -0.21427062 0.16244845 -0.19660446 -0.01634837 0.07447849 0.12232359 0.31423342
-0.0023812142 0.22357266 0.028933393 -0.0906919 -0.6252558 -0.03529256 0.14340656 1.2330692e-05
0.2413497 -0.16809966 0.00350377 0.24416776 -0.22438274 0.24492262 0.0068324786 -0.17483677
0.04573546 -0.003288905 0.00014660523 0.04702237 -0.05129976 -0.00519728 0.37283105 -0.30371067
-0.14528586 -0.07803682 -0.92538875 0.51989996 -0.08663735 -0.16475001 -0.13514338 0.15473583
0.03181765 -0.19904369 0.5196197 -0.062339716 -0.5862795 0.26142877 0.21718097 0.17774796
00000000: 5bbb ec3e 1eb9 be3e ad1d b23b e126 38bb
00000010: 6bcb 32bb 3737 713e 4d31 d13e 9f45 b9be
00000020: da8a b93b e571 d73d 19f9 1b3f 3f7a 3abd
00000030: 3696 bf3d 307d 0d3f 6527 e7be a883 0fbe
00000040: 08a8 f43a c269 5bbe e358 263e ae52 49be
00000050: 04ed 85bc 2e88 983d ca84 fa3d 34e3 a03e
00000060: 250e 1cbb 3bf0 643e b905 ed3c adbc b9bd
00000070: c410 20bf ee8e 10bd 2bd9 123e ebdf 4e37
00000080: 6024 773e 5122 2cbe 829f 653b 1d07 7a3e
00000090: 97c4 65be ffcc 7a3e fce2 df3b 6908 33be
000000a0: 1b55 3b3d ab8a 57bb 0bba 1939 879a 403d
000000b0: b21f 52bd f24d aabb b6e3 be3e f77f 9bbe
000000c0: d1c5 14be c5d1 9fbd 47e6 6cbf 2a18 053f
000000d0: ec6e b1bd 3ab4 28be 0763 0abe 1273 1e3e
000000e0: 3953 023d 1cd2 4bbe cc05 053f ee57 7fbd
000000f0: 6a16 16bf fed9 853e b064 5e3e 9003 363e

exp_avg f4 [64, 4]
0.0068773613 -0.0004827328 0.008004479 -0.0044008503 -0.0038430034 0.00015070067 -0.0041393177 0.0025858246
-0.0012572322 -0.0006463543 0.0009347344 0.0014847739 0.002129853 -0.0005574099 0.0021970489 -0.0010900376
0.012563343 -0.0002203749 0.012121629 -0.0076327506 1.582775e-05 -0.00022751091 -0.00043812607 2.9564384e-05
0.0006411753 0.0005130546 0.00041422047 -0.0005076183 -0.0009014256 8.8649285e-05 -0.00016435461 0.0005867456
0.0073530427 0.0007193013 0.007475073 -0.0071656248 -0.002599562 0.00032099694 -0.0005740592 0.00017399908
-2.2225531e-05 0.00010439349 0.0005449114 0.00034389657 0.00035884077 0.00071518606 0.0012239111 -0.00049428164
-0.00024533054 -0.00066516927 0.000549294 0.00026706132 -0.014637052 0.00020344893 -0.0148142055 0.00921223
0.0017865063 9.495018e-05 2.6357975e-08 -0.0012002955 0.006779319 -0.0006968315 0.007771295 -0.0039493344
0.0015647522 -0.00047981413 -0.0002672433 -0.00041726732 0.00024096224 6.0916485e-05 0.0003905813 -0.00045007197
-0.008401826 -0.0003781196 -0.006433174 0.0060068024 0.00040261724 -0.000392391 -0.0007491593 -0.00026919524
-0.0037701349 -0.00034022308 -0.0026630051 0.0035017338 -0.000208311 1.5952302e-05 0.00011509723 0.00074086775
-0.0041306587 -4.708461e-05 -0.005797257 0.003120365 -0.0028652279 -0.0008167089 -0.0028080167 0.0021078526
0.0075322133 -9.532087e-05 0.009616114 -0.0052073402 -0.0015283244 -0.0010629995 -0.0006835569 0.0012464669
0.0027540775 0.0006771691 -0.00063648605 -0.0019191101 0.0033272735 -0.00039333254 0.0032044903 -0.0021770883
0.0051823338 -8.067057e-05 0.0052161184 -0.004036609 0.0012417906 0.0011046033 -4.590547e-06 -0.0012481029
-0.0037342808 0.0002407374 -0.002808958 0.002162327 -0.008664957 -0.00052851724 -0.007887147 0.0062823677
-0.003961991 -4.6167806e-06 -0.003309437 0.0027165634 0.005171726 -0.00029403888 0.0059411023 -0.0036150338
0.00039466636 0.0002686415 -3.7002537e-05 -0.0002673561 -0.002325559 -0.00026491802 -0.001980887 0.0019352345
-0.011996489 0.00023745834 -0.017147975 0.009337266 0.00086437736 0.0013656919 0.0021634859 -0.0027775036
-0.010892973 -7.2708855e-05 -0.011213105 0.007773144 -0.0018082489 -0.0020734472 0.0011917824 0.0031118665
0.00070485397 0.00058769 -0.0010183908 -0.0004249703 -0.0005151323 -0.000356764 0.00033278405 0.00017869206
0.0016066338 0.0005438328 0.0011199743 -0.0009862077 -0.000326166 -0.00074591214 0.0011026406 0.00038343715
0.00044371423 0.00061500364 -0.0010773742 -0.00081848045 0.0015206938 0.0004664009 0.00031652648 -0.002018151
0.008114393 -0.0010047235 0.011038539 -0.0049177855 -0.001285762 3.1723717e-05 -0.00040881458 0.0006305596
0.0017079682 6.204039e-05 0.00056584243 -0.0016816282 -0.0013648643 -0.00063007337 -0.0018744678 0.0010147175
0.00039656984 0.00030607526 -0.0010900946 -0.00071196735 -0.0012760374 0.00066554325 -0.002716665 0.0002052083
-0.0024241977 -0.0009388261 0.00039036345 0.002760078 -0.0016972931 -0.00010771702 -0.001046309 0.0007011658
0.005519839 0.00015964772 0.0043435385 -0.004008327 -0.0005796123 -0.00031274577 -2.4778912e-05 0.00014996814
0.0043523908 -0.001219761 0.0044629984 -0.0014468838 0.00011088723 0.00035405078 -0.002290824 -0.0009556369
-0.0053658765 -0.00089239614 -0.0038553344 0.004392341 0.00010585758 -0.00049631204 -0.0005222049 2.7840846e-05
7.719617e-05 -0.00016377668 0.0025290863 0.0005058125 0.0005836649 -0.00028491698 0.00022385428 0.00035531385
-0.00046560433 -0.00037313794 -0.001961423 0.0002069013 0.0043823468 -0.00045116848 0.004882938 -0.0031293754
00000000: 7d5b e13b 4d17 fdb9 3825 033c 0235 90bb
00000010: e6da 7bbb 6705 1e39 1da3 87bb f076 293b
00000020: b6c9 a4ba 1a70 29ba f708 753a bf9c c23a
00000030: 0195 0b3b 251f 12ba 5dfc 0f3b 98df 8eba
00000040: 7bd6 4d3c 7014 67b9 cc99 463c 271c fabb
00000050: d6c5 8437 ff8f 6eb9 49b4 e5b9 0801 f837
00000060: 8c14 283a 837e 063a bb2b d939 b011 05ba
00000070: a64d 6cba 39e9 b938 9b56 2cb9 d5cf 193a
00000080: cbf1 f03b 7e8f 3c3a 75f1 f43b 9ecd eabb
00000090: 6a5d 2abb 7b4b a839 767c 16ba 8673 3639
000000a0: f770 bab7 d4ed da38 63d8 0e3a 044d b439
000000b0: cb22 bc39 537b 3b3a a46b a03a ae92 01ba
000000c0: b59f 80b9 c15e 2eba 7ffe 0f3a 5d04 8c39
000000d0: 3fd0 6fbc e854 5539 48b7 72bc e5ee 163c
000000e0: 3429 ea3a fd1f c738 cd69 e232 3c53 9dba
000000f0: 0d25 de3b 92ab 36ba 59a6 fe3b 6b69 81bb
00000100: 5f18 cd3a 908f fbb9 ca1c 8cb9 acc4 dab9
00000110: cfaa 7c39 9480 7f38 efc6 cc39 a3f7 ebb9
00000120: d0a7 09bc 5b3e c6b9 60cd d2bb b6d4 c43b
00000130: 5f16 d339 d4b9 cdb9 3b63 44ba c622 8db9
00000140: 5e14 77bb f85f b2b9 d085 2ebb 587d 653b
00000150: 0f6e 5ab9 4fd1 8537 5b60 f138 cb36 423a
00000160: 7a5a 87bb b77c 45b8 ebf6 bdbb 0a7f 4c3b
00000170: 8cc6 3bbb 6818 56ba b406 38bb e623 0a3b
00000180: c9d0 f63b 01e7 c7b8 e88c 1d3c 56a2 aabb
00000190: 0f52 c8ba 5854 8bba ba30 33ba 7d60 a33a
000001a0: c17d 343b 0d84 313a dbd9 26ba a68a fbba
000001b0: 630e 5a3b 3338 ceb9 6d02 523b 7bad 0ebb
000001c0: 91d0 a93b af2d a9b8 f9eb aa3b 8845 84bb
000001d0: 94c3 a23a 56c8 903a 8008 9ab6 6297 a3ba
000001e0: d6ba 74bb 746e 7c39 7f16 38bb d4b5 0d3b
000001f0: 77f7 0dbc 318c 0aba 1839 01bc 52dc cd3b
00000200: 97d3 81bb d8e9 9ab6 24e3 58bb 5f08 323b
00000210: 9577 a93b 3b29 9ab9 94ad c23b 34ea 6cbb
00000220: 39eb ce39 74d8 8c39 2c33 1bb8 ee2b 8cb9
00000230: 6868 18bb b2e4 8ab9 c5d1 01bb b2a7 fd3a
00000240: ec8c 44bc 3dfe 7839 e979 8cbc 55fb 183c
00000250: 6297 623a 0401 b33a 45c9 0d3b c706 36bb
00000260: 7178 32bc 457b 98b8 2cb7 37bc dcb5 fe3b
00000270: c402 edba ace2 07bb 9535 9c3a 75f0 4b3b
00000280: f3c5 383a 350f 1a3a 867b 85ba 8cce deb9
00000290: f209 07ba 0e0c bbb9 8579 ae39 495f 3b39
000002a0: af95 d23a 0090 0e3a 1acc 923a a443 81ba
000002b0: 4201 abb9 5189 43ba 7b86 903a 1008 c939
000002c0: 51a2 e839 3238 213a ae36 8dba 4b8f 56ba
000002d0: 0452 c73a 4587 f439 77f3 a539 f542 04bb
000002e0: 3bf2 043c edb0 83ba fdda 343c 6025 a1bb
000002f0: 0387 a8ba 150f 0538 2a56 d6b9 234c 253a
00000300: e7dd df3a ae1b 8238 0b55 143a 146a dcba
00000310: 3fe5 b2ba 822b 25ba b4b0 f5ba 4500 853a
00000320: b4ea cf39 ba78 a039 81e1 8eba 52a3 3aba
00000330: b640 a7ba da77 2e3a 130a 32bb 2f2d 5739
00000340: 4adf 1ebb 8e1b 76ba b2a9 cc39 6de2 343b
00000350: b577 deba 22e6 e1b8 4e24 89ba 71ce 373a
00000360: c4df b43b 1c67 2739 3e54 8e3b 4958 83bb
00000370: 1ff1 17ba 07f8 a3b9 4fdc cfb7 c440 1d39
00000380: 809e 8e3b 63e0 9fba 583e 923b 5da5 bdba
00000390: 218c e838 e49f b939 a621 16bb b583 7aba
000003a0: 3cd4 afbb b1ef 69ba c7a9 7cbb a0ed 8f3b
000003b0: dbff dd38 f01a 02ba 94e4 08ba c38b e937
000003c0: 61e4 a138 78bb 2bb9 07bf 253b 8198 043a
000003d0: 1701 193a e960 95b9 6dba 6a39 6b49 ba39
000003e0: 5b1c f4b9 baa1 c3b9 388b 00bb a5f3 5839
000003f0: ca99 8f3b cf8a ecb9 0e01 a03b 3516 4dbb

exp_avg_sq f4 [64, 4]
6.982701e-05 9.055363e-06 0.0002445108 7.16886e-05 3.6456062e-05 8.21679e-06 0.00015240743 4.2358704e-05
4.138225e-05 2.3183182e-05 0.00018914229 3.7272956e-05 1.9895155e-05 9.1532465e-06 4.5921897e-05 1.2443962e-05
0.0004339575 3.4629593e-05 0.0015762164 0.00036241554 1.4458296e-05 6.772809e-05 3.80788e-05 7.431058e-06
2.5575773e-05 1.9793233e-05 6.471837e-05 9.951529e-06 4.063558e-05 1.2198931e-05 0.00019026017 3.7452926e-05
0.00015036842 2.5665535e-05 0.00077676174 0.00019849966 4.1714713e-05 1.3216202e-05 7.5026444e-05 8.741957e-06
1.148631e-05 6.202961e-06 3.6859743e-05 5.404125e-06 2.1129626e-05 2.5515905e-05 0.00012330484 1.2233288e-05
6.7663027e-06 1.6555883e-05 6.5641057e-06 4.0157015e-06 0.000565093 3.499263e-05 0.0019364645 0.00045751152
3.6901612e-05 2.997418e-05 0.00010113202 4.0892726e-05 8.1832266e-05 3.226347e-05 0.00026918948 6.919192e-05
6.470682e-05 2.4261028e-05 6.827071e-05 2.1240423e-05 3.3634064e-05 6.6073812e-06 1.6833772e-05 1.657597e-05
0.00014695695 3.5742367e-05 0.0004896231 0.00012600461 1.9137822e-05 3.355465e-05 4.2711188e-05 1.3053966e-05
7.3654395e-05 4.1272764e-05 0.0003284296 9.367057e-05 5.4522374e-05 2.0912898e-05 0.000308554 5.820075e-05
8.498992e-05 6.8138097e-06 0.00020873605 5.8159745e-05 3.7721125e-05 1.6411705e-05 0.00017049543 5.7577498e-05
0.00017129353 2.5231342e-05 0.0008056063 0.00017974438 1.994347e-05 2.8111765e-05 0.00010041411 3.7608206e-05
6.1626735e-05 2.9611996e-05 0.00011603735 4.0061557e-05 5.031416e-05 1.4930129e-05 0.00014951297 2.7256534e-05
7.7587414e-05 3.4834135e-05 0.00030445645 8.998281e-05 2.162691e-05 5.043417e-05 8.665008e-05 1.8087612e-05
4.9329323e-05 1.1535185e-05 0.00012605256 2.3070148e-05 0.00024988045 2.8864417e-05 0.0009483363 0.00022805418
3.98254e-05 2.2470767e-05 0.0001400829 3.1601012e-05 6.1210594e-05 3.7900572e-05 0.00021914887 6.770639e-05
1.0987545e-05 1.5598851e-05 7.7449746e-05 2.5210535e-05 2.3885957e-05 1.6462192e-05 8.437721e-05 1.9001762e-05
0.0003581508 5.0006885e-05 0.0017218634 0.0005273601 8.861329e-05 8.666142e-05 0.00093233003 0.00017080782
0.00024060627 2.8388413e-05 0.00084622373 0.00020783872 0.00014142063 7.677784e-05 0.00062446727 0.00016318598
1.7724431e-05 2.4107954e-05 3.3276683e-05 1.1116041e-05 1.0672935e-05 1.8983463e-05 2.5726527e-05 3.461305e-06
9.89457e-06 1.7993532e-05 3.6503596e-05 2.2828838e-06 9.094693e-06 1.8818113e-05 1.8738989e-05 3.473797e-06
2.3550281e-05 3.0113168e-05 8.413341e-05 1.7192193e-05 5.1163082e-05 2.3957706e-05 0.00025401628 5.112672e-05
0.000110880195 1.2826255e-05 0.00040968848 9.6930075e-05 1.3636483e-05 7.0329993e-06 9.613986e-05 2.0430203e-05
2.2973112e-05 1.3562097e-05 8.453661e-05 1.7880033e-05 2.5179595e-05 8.128367e-06 7.69022e-05 2.5429832e-05
1.5652779e-05 1.8481356e-05 3.923124e-05 2.6248332e-05 1.658672e-05 2.8510947e-05 7.607524e-05 1.5324229e-05
0.00013907421 0.00012750342 0.00051931833 0.00011892167 1.6928036e-05 1.0009292e-05 3.3065295e-05 1.4145081e-06
8.201034e-05 2.588548e-05 0.0002939202 4.9877144e-05 7.815845e-06 4.305546e-06 4.570592e-05 1.2472953e-05
5.3375792e-05 5.2067604e-05 0.00024463533 4.792212e-05 4.0866526e-05 3.9835417e-05 0.00014891678 3.2522836e-05
0.00027359344 4.890614e-05 0.0011785954 0.0002518228 3.8543418e-05 2.263604e-05 7.22317e-05 2.041537e-05
1.711357e-05 1.2888158e-05 6.8809895e-05 1.5889022e-05 2.292595e-05 2.5180443e-05 9.899975e-05 1.8736808e-05
2.558691e-05 3.263743e-05 0.00013393705 1.5561403e-05 5.5867054e-05 2.4653515e-05 0.00021049472 4.9550657e-05
00000000: 1770 9238 7dec 1737 af31 8039 8657 9638
00000010: 66e8 1838 d8da 0937 8fcf 1f39 50aa 3138
00000020: da91 2d38 8179 c237 7f54 4639 8855 1c38
00000030: 85e4 a637 e590 1937 439c 4038 69c6 5037
00000040: ca84 e339 3e3f 1138 0c99 ce3a 9702 be39
00000050: e991 7237 3e09 8e38 cdb6 1f38 4d58 f936
00000060: 8e8b d637 a509 a637 69b9 8738 7ef5 2637
00000070: 1f70 2a38 02aa 4c37 9380 4739 c616 1d38
00000080: 37ac 1d39 514c d737 999f 4b3a 5924 5039
00000090: d5f6 2e38 28bb 5d37 8457 9d38 6baa 1237
000000a0: 53b5 4037 0723 d036 d999 1a38 1555 b536
000000b0: 873f b137 fd0a d637 644b 0139 923d 4d37
000000c0: 190a e336 7de1 8a37 3d41 dc36 9dbe 8636
000000d0: c022 143a 0dc5 1238 f7d0 fd3a 28de ef39
000000e0: cec6 1a38 1071 fb37 d716 d438 3b84 2b38
000000f0: 5d9d ab38 a352 0738 0022 8d39 211b 9138
00000100: 36b3 8738 2984 cb37 8f2c 8f38 762d b237
00000110: 4d12 0d38 f9b4 dd36 4036 8d37 a00c 8b37
00000120: 7518 1a39 13ea 1538 0d5a 003a 1b20 0439
00000130: 298a a037 08bd 0c38 ca24 3338 5b02 5b37
00000140: e776 9a38 4b1c 2d38 1331 ac39 0171 c438
00000150: f4ae 6438 1b6e af37 6bc5 a139 941c 7438
00000160: 9e3c b238 2ea2 e436 28e0 5a39 8df0 7338
00000170: c036 1e38 deab 8937 05c7 3239 5e7f 7138
00000180: 429d 3339 e5a7 d337 532f 533a c479 3c39
00000190: 474c a737 8ed1 eb37 6a95 d238 81bd 1d38
000001a0: 9a3d 8138 4767 f837 1459 f338 c507 2838
000001b0: 6b08 5338 6a7c 7a37 95c6 1c39 f6a4 e437
000001c0: 6db6 a238 de1a 1238 749f 9f39 27b5 bc38
000001d0: 706b b537 4789 5338 e8b7 b538 daba 9737
000001e0: f5e6 4e38 3e87 4137 fa2c 0439 c486 c137
000001f0: 6302 8339 dd21 f237 c699 783a d421 6f39
00000200: 330a 2738 9b7f bc37 38e3 1239 548b 0438
00000210: 305e 8038 6ef7 1e38 54cb 6539 97fd 8d38
00000220: 2557 3837 47da 8237 846c a238 367b d337
00000230: b45e c837 4a18 8a37 abf3 b038 f965 9f37
00000240: 30c6 bb39 7cbe 5138 26b0 e13a 8a3e 0a3a
00000250: e6d5 b938 ffbd b538 9c67 743a e01a 3339
00000260: 414b 7c39 a723 ee37 1dd5 5d3a 48ef 5939
00000270: 504a 1439 ca03 a138 4ab3 233a e71c 2b39
00000280: edae 9437 703b ca37 9192 0b38 087f 3a37
00000290: e80f 3337 ad3e 9f37 4ccf d737 c448 6836
000002a0: db00 2637 d1f0 9637 701b 1938 a533 1936
000002b0: 6995 1837 97db 9d37 ac31 9d37 611f 6936
000002c0: d88d c537 899b fc37 c870 b038 f437 9037
000002d0: f197 5638 c8f8 c837 7d2d 8539 e670 5638
000002e0: 5a88 e838 5930 5737 75cb d639 f046 cb38
000002f0: 40c8 6437 01fd eb36 b29e c938 8761 ab37
00000300: 62b6 c037 c388 6337 3f49 b138 14fd 9537
00000310: c538 d337 125f 0837 8e46 a138 2652 d537
00000320: 164e 8337 6908 9b37 398c 2438 dd2f dc37
00000330: b623 8b37 cb2a ef37 958a 9f38 888c 8037
00000340: 73d4 1139 70b2 0539 dd22 083a 9665 f938
00000350: ae00 8e37 95ed 2737 97af 0a38 21da bd35
00000360: f7fc ab38 a524 d937 4d19 9a39 2d33 5138
00000370: cc20 0337 5c78 9036 5cb4 3f38 ed42 5137
00000380: d2df 5f38 2a63 5a38 6642 8039 fcff 4838
00000390: 1968 2b38 f414 2738 8b26 1c39 2169 0838
000003a0: 1771 8f39 9120 4d38 197b 9a3a 1607 8439
000003b0: aea9 2138 87e2 bd37 197b 9738 ac41 ab37
000003c0: 1d8f 8f37 383a 5837 084e 9038 6a49 8537
000003d0: 1a51 c037 973a d337 169e cf38 fd2c 9d37
000003e0: 79a3 d637 2ce4 0838 7471 0c39 dc89 8237
000003f0: cb52 6a38 05cf ce37 3fb8 5c39 9dd4 4f38

exp_avg f4 [64]
-0.0002956955 7.849494e-06 -0.0013734599 -0.0008423453 0.0008048507 -0.0018739606 0.00096442905 -0.00064817694
-0.0007097423 -0.0017334571 0.00010086606 7.042111e-05 -0.0010881347 -0.0019541369 0.00033474545 -0.0013073348
0.0025575992 0.00032010648 -0.0005662496 0.00064955535 -7.5908324e-06 -0.00022704256 -0.0011551733 -0.0007457214
-0.0011975381 -0.00086089526 0.0020704851 -0.00033315524 -0.0008271148 0.00042733108 -0.0009758505 -0.0019265058
0.00042428027 -0.0008076366 0.0015260656 5.8593476e-05 0.0023978278 -0.0013373276 0.00013830661 -0.0028227507
0.0009617224 -0.0012289125 0.00039953014 -0.0014175616 0.0007389681 -0.0003657534 -0.0010450972 -0.0006173474
-8.882466e-05 -0.00089264533 0.0005906116 0.00024485614 0.0005367035 -0.00044539827 -0.0003369304 -0.0007680727
-0.00039212403 0.00035475992 -0.0010279533 0.00019926291 -0.00026315494 0.00024739455 -0.00012155897 -0.0012239943
00000000: 9407 9bb9 52b1 0337 ab05 b4ba d6d0 5cba
00000010: 9efc 523a af9f f5ba bdd1 7c3a 6bea 29ba
00000020: 000e 3aba 2b35 e3ba 0e88 d338 0caf 9338
00000030: be9f 8eba fa10 00bb c680 af39 e05a abba
00000040: 659d 273b f7d3 a739 5e70 14ba ec46 2a3a
00000050: c1b4 feb6 4612 6eb9 2f69 97ba 847c 43ba
00000060: b6f6 9cba b4ad 61ba fab0 073b 57ab aeb9
00000070: bcd2 58ba 680b e039 38d0 7fba cf82 fcba
00000080: ef71 de39 93b7 53ba 4406 c83a 44c2 7538
00000090: e024 1d3b 4549 afba 6606 1139 e6fd 38bb
000000a0: 191c 7c3a 7613 a1ba 0778 d139 79cd b9ba
000000b0: 4fb7 413a 97c2 bfb9 a5fb 88ba 7cd5 21ba
000000c0: 6047 bab8 6a00 6aba 46d3 1a3a 0960 8039
000000d0: 90b1 0c3a 5884 e9b9 08a6 b0b9 7d58 49ba
000000e0: ff95 cdb9 12ff b939 64bc 86ba 3bf1 5039
000000f0: 0ff8 89b9 bcb4 8139 7aed feb8 6f6e a0ba

exp_avg_sq f4 [64]
6.633629e-05 3.615456e-05 5.08176e-05 9.36483e-06 0.0004942987 3.9608327e-05 3.249239e-05 2.4154491e-05
8.356261e-05 8.947558e-05 5.4850852e-06 1.7917664e-05 1.660707e-05 0.0008244409 2.2809898e-05 3.2821663e-05
0.00013680899 1.2479142e-05 0.0001627913 3.376099e-05 4.4933295e-05 2.874209e-05 0.00014236178 6.489261e-05
9.915866e-05 3.4372963e-05 0.00014935888 3.1012427e-05 4.247195e-05 2.3959388e-05 8.55645e-05 0.00037951715
1.3693098e-05 2.702742e-05 3.292676e-05 1.6768267e-05 0.00018115698 6.7559486e-05 0.00018729227 0.0003597307
2.6709724e-05 1.8449675e-05 1.4253966e-05 2.01698e-05 2.4739995e-05 2.2057828e-05 7.086429e-05 3.143753e-05
1.2121177e-05 6.383528e-05 2.2850156e-05 1.292132e-05 4.7746104e-05 1.1275404e-05 3.3420372e-05 2.2707167e-05
3.6357684e-05 1.683484e-05 0.00032093402 1.5790783e-05 7.014293e-06 1.3291878e-05 2.4643772e-05 1.5360685e-05
00000000: 061e 8b38 aaa4 1738 fc24 5538 a31d 1d37
00000010: d393 013a 1e21 2638 7048 0838 609f ca37
00000020: 563e af38 d6a4 bb38 860c b836 e44d 9637
00000030: 694f 8b37 4b1f 583a e257 bf37 fea9 0938
00000040: 6274 0f39 825d 5137 f5b2 2a39 969a 0d38
00000050: c276 3c38 2b1b f137 f346 1539 f416 8838
00000060: 66f3 cf38 b02b 1038 389d 1c39 5713 0238
00000070: e923 3238 65fc c837 1771 b338 eef9 c639
00000080: 68bb 6537 f1b8 e237 d71a 0a38 94a9 8c37
00000090: f5f4 3d39 b9ae 8d38 e363 4439 3d9a bc39
000000a0: b20e e037 60c4 9a37 5124 6f37 5132 a937
000000b0: bc88 cf37 d308 b937 fa9c 9438 cadb 0338
000000c0: 0f5c 4b37 4edf 8538 56ae bf37 a6c8 5837
000000d0: fd42 4838 7e2b 3d37 da2c 0c38 457b be37
000000e0: c47e 1838 8b38 8d37 0943 a839 7376 8437
000000f0: 515c eb36 2e00 5f37 19ba ce37 d2da 8037

exp_avg f4 [64, 64]
0.00023088795 -0.00026972985 -0.0007385243 -0.00057658093 0.0004303588 0.0009026075 -0.00071709626 -0.0010645053
-0.0005572039 0.0004340455 -0.00056089147 -0.0003132387 0.0009769002 -0.00024203096 -0.0008314157 -0.00033487615
0.00073586416 0.0010846817 0.0002903607 0.0009229556 -0.0006081889 0.0004887174 -2.6614229e-05 -0.0009969623
0.00026922964 -0.0011148343 -0.00058566267 0.00038740117 0.0004062691 -0.00041616938 -0.00025549703 -0.00033095837
0.00062975194 6.253438e-05 0.000915533 0.0003471069 -0.0004872778 0.00083979656 -0.00025725158 0.0005895221
-0.0006844692 0.000778987 -7.5781696e-05 0.00078670605 -0.0007309436 -0.00022220817 0.00019723695 -0.0010402049
-0.0003415755 -0.0009795392 -0.00089487503 -0.0002799442 -0.00029417445 0.0003092241 7.1267e-06 -0.0011177695
-0.00030586097 0.00070244854 0.0002597653 -0.0009902273 0.00091371685 0.00091996917 0.0003697201 0.00012758275
-0.00021266026 0.0002040595 0.00022088928 -0.00025454 -0.0002327034 0.00010111983 -6.17878e-05 7.01917e-05
-0.00026980936 0.00018142241 0.00018151102 6.578958e-05 0.0001259182 0.00023642513 -0.0002288017 -0.00023455475
-0.00017793613 -0.00017380429 0.00024342877 2.4919933e-05 0.00022320326 0.00017187675 6.314346e-05 -4.4068216e-05
-0.00023229705 -2.899237e-05 -0.00021233305 -0.00018078276 -0.00022096383 -6.0691425e-05 0.00018881497 0.00023131366
0.00023707529 -0.00024830038 -2.7077338e-06 0.00019224382 0.00022559418 -4.1346593e-05 0.00023678703 0.000234044
-0.00011932041 0.00013869825 2.2537572e-05 0.00014160597 -0.00014497933 -0.00017196515 -0.00019066036 -7.3058865e-05
-0.00015836958 -0.00022474462 -0.00022666449 5.1180188e-05 0.00025210623 1.3247125e-06 -0.00027760962 -0.00010928925
-8.113374e-05 -0.00022733705 0.00022190182 -0.00018121304 0.0002609932 -1.2531054e-06 -4.926451e-05 -0.00023034136
2.022767e-05 -9.163401e-06 -2.4684025e-05 -1.2274397e-06 -1.6586454e-06 1.1201342e-05 -2.4643286e-05 -4.6325582e-05
5.7580082e-06 -8.4765215e-06 -1.5615222e-05 -2.3782244e-05 1.3640376e-05 -1.4129195e-07 -4.9172777e-06 1.7108112e-05
8.486487e-06 3.9304763e-05 -1.3373549e-05 2.0680744e-05 -3.0241683e-05 2.4992392e-05 -6.780689e-07 -1.8319233e-05
-1.5424377e-05 -2.0669064e-05 -3.5169933e-06 6.734375e-06 2.232196e-05 -1.41476075e-05 -3.036331e-05 -4.8381385e-06
-9.126571e-06 2.3615034e-05 2.0464351e-05 1.2163883e-05 1.0597082e-05 -9.367128e-06 -1.79246e-05 2.5471794e-05
-2.6991986e-05 3.2629669e-06 4.451e-06 6.9525654e-06 -3.576211e-05 -1.0254965e-05 1.9723391e-05 -3.6923597e-05
-5.937479e-06 -1.566623e-05 -8.066754e-06 -2.2552942e-05 -2.371654e-05 -2.4517287e-06 1.606233e-05 -2.8713506e-05
1.1786964e-05 3.0262667e-05 2.1895094e-05 -3.89739e-05 -5.58608e-06 3.747819e-05 2.5859445e-05 1.2959771e-05
-0.00016060458 6.0340968e-05 7.0886716e-05 -0.00017418058 9.1071655e-05 0.00013100132 0.000110214954 0.00032507136
-0.0003169081 0.0001940192 9.50748e-05 0.0002804733 8.163011e-05 7.280465e-06 -0.00017425112 -0.00029195254
8.97175e-05 -0.0003056597 0.00024399975 3.176909e-05 0.00018031687 -0.00011681497 -5.0893716e-05 -0.00017263691
0.00023765797 -0.00022737884 -8.091651e-05 -4.3059354e-05 -0.00015008717 0.0001329385 0.00019065985 -2.4594128e-06
0.00028811945 -0.00027862214 2.3115267e-06 -7.324291e-05 -0.0002561848 0.00037294166 0.0001909498 -0.00013008149
0.00021757219 0.00017051751 5.660932e-05 0.00014041064 0.00028627354 4.40885e-05 -0.0002803976 0.00015571127
-3.7422717e-05 -0.00021007922 -0.00012526872 0.00021399459 0.00024474034 2.6368372e-05 -0.0003034459 2.2995715e-05
-0.00029599277 -0.00020891363 -0.00010098538 0.00028987607 0.0003347111 -0.00024034003 -0.00027326608 -0.00014649761
00000000: 831a 7239 876a 8db9 8799 41ba b125 17ba
00000010: c8a1 e139 f79c 6c3a 84fb 3bba df86 8bba
00000020: 5211 12ba 9a90 e339 ca08 13ba 303a a4b9
00000030: 550b 803a b1c9 7db9 5df3 59ba 5192 afb9
00000040: 02e7 403a e12b 8e3a 8e3b 9839 80f2 713a
00000050: de6e 1fba 451d 003a 9f41 dfb7 81ac 82ba
00000060: 6427 8d39 a21f 92ba 2887 19ba 1b1c cb39
00000070: 8400 d539 4f31 dab9 3bf4 85b9 7b84 adb9
00000080: f015 253a e424 8338 6100 703a e6fb b539
00000090: 5279 ffb9 cb25 5c3a b9df 86b9 298a 1a3a
000000a0: f36d 33ba ef34 4c3a fdec 9eb8 f33a 4e3a
000000b0: cb9c 3fba 8d00 69b9 64d1 4e39 7c57 88ba
000000c0: 7d15 b3b9 e263 80ba 0c96 6aba 79c5 92b9
000000d0: 6d3b 9ab9 5b1f a239 e321 ef36 1f82 92ba
000000e0: f75b a0b9 8624 383a 1c31 8839 84ca 81ba
000000f0: 8086 6f3a 162a 713a fed6 c139 bcc7 0539
00000100: 8efd 5eb9 cef8 5539 849e 6739 c873 85b9
00000110: d801 74b9 4c10 d438 1394 81b8 e233 9338
00000120: 3375 8db9 353c 3e39 fe53 3e39 83f8 8938
00000130: e908 0439 e3e8 7739 7dea 6fb9 d0f2 75b9
00000140: 5e94 3ab9 3c3f 36b9 ea40 7f39 260b d137
00000150: ab0b 6a39 d039 3439 e36b 8438 e3d5 38b8
00000160: c494 73b9 a434 f3b7 b8a5 5eb9 8190 3db9
00000170: 87b2 67b9 ec8e 7eb8 a2fc 4539 ca8c 7239
00000180: 6a97 7839 502e 82b9 83b6 35b6 0f95 4939
00000190: 7a8d 6c39 916b 2db8 094a 7839 b569 7539
000001a0: a83b fab8 876f 1139 110f bd37 107c 1439
000001b0: 9805 18b9 8b51 34b9 00ec 47b9 2e37 99b8
000001c0: 0310 26b9 6da9 6bb9 c9ac 6db9 4faa 5638
000001d0: 202d 8439 c6cc b135 228c 91b9 3832 e5b8
000001e0: 5826 aab8 5361 6eb9 51ae 6839 0104 3eb9
000001f0: ead5 8839 6030 a8b5 5da1 4eb8 ca87 71b9
00000200: 97ae a937 82bc 19b7 8a10 cfb7 82be a4b5
00000210: 9f9e deb5 66ed 3b37 0eb9 ceb7 b74d 42b8
00000220: ea34 c136 6236 0eb7 6ffd 82b7 fb7f c7b7
00000230: f8d8 6437 09b6 17b4 18ff a4b6 6483 8f37
00000240: 2f61 0e37 2bdb 2438 f55e 60b7 8f7b ad37
00000250: 85af fdb7 c1a6 d137 8a04 36b5 41ac 99b7
00000260: 9963 81b7 7a62 adb7 7c05 6cb6 d7f7 e136
00000270: 0b40 bb37 835b 6db7 b6b4 feb7 4b57 a2b6
00000280: 531e 19b7 e618 c637 dcaa ab37 7b13 4c37
00000290: 1fca 3137 8227 1db7 c95c 96b7 43ac d537
000002a0: d96c e2b7 58f9 5a36 cd59 9536 154a e936
000002b0: 46ff 15b8 bd0c 2cb7 a973 a537 69de 1ab8
000002c0: 8e3a c7b6 f96a 83b7 7256 07b7 1330 bdb7
000002d0: e2f2 c6b7 6188 24b6 97bd 8637 c9dd f0b7
000002e0: a0c0 4537 95dc fd37 5bab b737 e877 23b8
000002f0: 1070 bbb6 e631 1d38 bcec d837 cb6d 5937
00000300: f767 28b9 9f16 7d38 04a9 9438 3ea4 36b9
00000310: b9fd be38 665d 0939 3423 e738 576e aa39
00000320: af26 a6b9 a271 4b39 e562 c738 7d0c 9339
00000330: d530 ab38 b84a f436 2eb7 36b9 3511 99b9
00000340: b726 bc38 f340 a0b9 2fda 7f39 cd3f 0538
00000350: 7113 3d39 8ffa f4b8 b676 55b8 de05 35b9
00000360: d333 7939 8b6c 6eb9 b8b1 a9b8 a19a 34b8
00000370: b860 1db9 6865 0b39 ddeb 4739 640c 25b6
00000380: bd0e 9739 0814 92b9 ba1f 1b36 fd99 99b8
00000390: 8b50 86b9 6287 c339 b239 4839 7c66 08b9
000003a0: 1724 6439 f2cc 3239 cb6f 6d38 323b 1339
000003b0: fc16 9639 abeb 3838 5402 93b9 6d46 2339
000003c0: 56f6 1cb8 b648 5cb9 915a 03b9 bc63 6039
000003d0: 7e50 8039 a631 dd37 d217 9fb9 ece6 c037
000003e0: 7a2f 9bb9 d30f 5bb9 1dc8 d3b8 82fa 9739
000003f0: 2a7c af39 c903 7cb9 2745 8fb9 279d 19b9

exp_avg_sq f4 [64, 64]
1.7656955e-06 1.568443e-06 3.96164e-06 2.5656202e-06 3.3593078e-06 5.0187105e-06 2.3809023e-06 3.6577853e-06
4.054624e-06 3.3798603e-06 5.2045584e-06 6.9789835e-06 4.3270425e-06 3.0477013e-06 3.3947367e-06 1.933086e-06
5.8697988e-06 4.4158996e-06 3.008406e-06 4.1118055e-06 3.0768092e-06 2.0944099e-06 2.632077e-06 4.0666237e-06
3.243043e-06 4.375772e-06 4.172833e-06 3.2372895e-06 2.3059984e-06 3.801955e-06 2.1904618e-06 2.7257756e-06
2.419887e-06 3.1242928e-06 3.816538e-06 2.6766884e-06 4.0380055e-06 3.1820016e-06 3.2880628e-06 4.959482e-06
4.6697764e-06 3.1966317e-06 4.2117163e-06 4.2106462e-06 4.059925e-06 1.3675702e-06 2.1743067e-06 3.4341624e-06
1.0657918e-06 3.849068e-06 4.8817765e-06 2.3151945e-06 4.4761778e-06 4.2759243e-06 4.9084115e-06 4.0277755e-06
1.631889e-06 4.9278297e-06 2.3867665e-06 4.3571963e-06 4.152965e-06 2.689053e-06 6.7469914e-06 2.6074238e-06
1.1336076e-06 1.0314742e-06 1.3213122e-06 1.1668045e-06 1.3718235e-06 7.534309e-07 8.374725e-08 8.812761e-07
1.3626023e-06 1.0089797e-06 8.6011585e-07 4.9597196e-07 4.951546e-07 1.3620961e-06 1.1066869e-06 1.1362536e-06
9.714829e-07 1.1061572e-06 1.301168e-06 2.761874e-07 1.3019026e-06 4.624131e-07 5.571145e-07 6.6977685e-07
1.2876736e-06 7.320474e-07 1.1268494e-06 6.4662976e-07 1.1981895e-06 4.3625047e-07 1.0755754e-06 1.3185538e-06
1.1516133e-06 1.2724462e-06 2.2083769e-07 8.238667e-07 1.1880675e-06 2.1650952e-07 1.3698376e-06 1.2202589e-06
5.4883833e-07 7.638565e-07 5.6611555e-07 8.2265234e-07 4.92986e-07 5.997851e-07 1.0114821e-06 5.4326335e-07
5.344371e-07 6.3643165e-07 1.1923471e-06 8.0337145e-08 1.3015385e-06 5.921743e-07 1.3636545e-06 3.7275288e-07
4.2308454e-07 1.2760853e-06 1.0448907e-06 3.996955e-07 1.3125757e-06 3.5716923e-07 4.6836763e-07 1.1010643e-06
1.2063e-07 3.624563e-08 9.014012e-08 2.8686165e-07 1.910175e-07 3.043769e-07 1.628543e-07 7.243002e-07
6.4476166e-07 2.1704747e-07 2.6663227e-07 1.0505908e-06 1.6152505e-07 6.568667e-08 2.5733797e-07 6.03671e-07
1.5749207e-07 5.87753e-07 3.2999492e-07 9.598077e-08 2.4165612e-07 1.6786781e-07 1.8758455e-07 5.135646e-07
5.6838036e-07 7.4786044e-07 8.142563e-08 6.8087395e-08 1.7813834e-07 2.7352772e-07 2.1742525e-07 4.6250584e-08
5.804624e-07 6.2296385e-07 1.0889767e-07 8.572511e-08 8.291616e-07 1.1672126e-06 2.5637084e-07 2.623124e-07
4.698285e-07 2.5227547e-07 1.8159875e-07 2.4305302e-07 6.825277e-07 3.934567e-08 4.5336688e-07 1.8049275e-07
2.140516e-08 5.109442e-07 2.4467394e-07 4.582842e-07 6.075183e-07 1.021491e-07 8.259068e-07 7.356817e-08
5.6021105e-07 3.6158568e-07 1.8999746e-07 6.6926435e-07 7.3431113e-07 4.9415627e-07 9.736024e-07 2.0585088e-07
3.3911897e-07 7.568762e-08 2.5614938e-07 9.2297046e-07 5.5535145e-07 9.4829363e-07 5.053388e-07 2.3832724e-06
1.916328e-06 6.548563e-07 8.368849e-07 3.2549353e-06 4.8480115e-07 1.5275948e-07 8.1911395e-07 1.9017418e-06
4.9287405e-07 1.8499567e-06 1.0010374e-06 2.7209057e-07 7.338965e-07 5.6551204e-07 6.138632e-07 1.5584988e-06
1.7822704e-06 2.3016248e-06 1.9846722e-07 1.6752111e-07 5.3218184e-07 7.3565343e-07 6.9709046e-07 9.928041e-08
1.8755541e-06 1.9364631e-06 3.0268245e-07 2.2065251e-07 2.5730571e-06 3.6982983e-06 7.346219e-07 7.6439045e-07
1.3740637e-06 8.084854e-07 4.2057115e-07 7.6267787e-07 2.1573142e-06 1.0813814e-07 1.3356569e-06 6.07588e-07
4.955999e-08 1.6197214e-06 7.3320865e-07 1.4083364e-06 1.8753769e-06 2.2422223e-07 2.5260067e-06 2.2650116e-07
1.7516351e-06 1.0807934e-06 6.2260193e-07 2.1876685e-06 2.317208e-06 1.6632598e-06 3.0375825e-06 6.255841e-07
00000000: d6fc ec35 4b83 d235 3aee 8436 052d 2c36
00000010: 7870 6136 6566 a836 97c7 1f36 4678 7536
00000020: f40c 8836 8fd1 6236 d1a2 ae36 032d ea36
00000030: 0331 9136 1c87 4c36 22d1 6336 2aba 0136
00000040: 30f5 c436 4a2c 9436 06e4 4936 24f8 8936
00000050: 2e7b 4e36 b08d 0c36 bda2 3036 0874 8836
00000060: 0ea3 5936 98d3 9236 5d04 8c36 3640 5936
00000070: c0c0 1a36 1725 7f36 d9ff 1236 78ec 3636
00000080: 5865 2236 f1aa 5136 d00f 8036 28a1 3336
00000090: 347e 8736 5f8a 5536 7da8 5c36 a069 a636
000000a0: 13b1 9c36 b785 5636 5e52 8d36 2d49 8d36
000000b0: 7d3a 8836 5b8d b735 4eea 1136 7676 6636
000000c0: 540c 8f35 3e27 8136 24ce a336 bd5e 1b36
000000d0: 1332 9636 e979 8f36 efb2 a436 5426 8736
000000e0: 4707 db35 bc59 a536 562c 2036 0834 9236
000000f0: b359 8b36 9475 3436 3764 e236 33fb 2e36
00000100: 7626 9835 2f71 8a35 f157 b135 199b 9c35
00000110: 7f1f b835 613f 4a35 8ad8 b333 d590 6c35
00000120: a9e2 b635 476c 8735 b6e2 6635 ef22 0535
00000130: c4ea 0435 44d1 b635 7989 9435 6081 9835
00000140: e663 8235 4677 9435 cba3 ae35 e846 9434
00000150: 08bd ae35 9341 f834 9e8c 1535 b7ca 3335
00000160: 21d4 ac35 ea81 4435 403e 9735 0f94 2d35
00000170: 7ad1 a035 cf35 ea34 7d5c 9035 2af9 b035
00000180: 2291 9a35 ebc8 aa35 671f 6d34 b027 5d35
00000190: b075 9f35 af79 6834 43db b735 c7c7 a335
000001a0: e253 1335 d20b 4d35 2af7 1735 3dd4 5c35
000001b0: bd55 0435 eb00 2135 43c2 8735 c6d4 1135
000001c0: 3d76 0f35 40d7 2a35 bc08 a035 d085 ac33
000001d0: 86b0 ae35 e8f5 1e35 d006 b735 c41e c834
000001e0: 4c24 e334 f545 ab35 2c3e 8c35 bb95 d634
000001f0: c22b b035 f7c0 bf34 f573 fb34 48c8 9335
00000200: 8686 0134 7eac 1b33 0e93 c133 f701 9a34
00000210: 7e1a 4d34 3e69 a334 0ddd 2e34 886d 4235
00000220: af13 2d35 8e0d 6934 a925 8f34 0602 8d35
00000230: ab6f 2d34 a10f 8d33 4328 8a34 f50b 2235
00000240: 171b 2934 14c6 1d35 282a b134 fd1d ce33
00000250: f7bc 8134 273f 3434 d96a 4934 e4db 0935
00000260: cd92 1835 94c0 4835 37dc ae33 7137 9233
00000270: 4b46 3f34 5dd9 9234 6675 6934 0ea5 4633
00000280: 13d1 1b35 c039 2735 21db e933 e117 b833
00000290: 8d93 5e35 1fa9 9c35 57a3 8934 f1d3 8c34
000002a0: bd3c fc34 7a70 8734 7cfd 4234 f47c 8234
000002b0: f236 3735 06fd 2833 4566 f334 78cd 4134
000002c0: 72de b732 d127 0935 bb5b 8334 1a0a f634
000002d0: 5714 2335 105d db33 e2b3 5d35 87fc 9d33
000002e0: 6961 1635 f51f c234 1b02 4c34 7fa7 3335
000002f0: 7a1d 4535 29a6 0435 b9ac 8235 dc07 5d34
00000300: 2810 b634 b689 a233 e784 8934 0cc2 7735
00000310: 7613 1535 3e8e 7e35 9ea6 0735 4ff0 1f36
00000320: 449a 0036 62c9 2f35 4ba6 6035 5d6f 5a36
00000330: 4823 0235 3506 2434 15e1 5b35 5a3f ff35
00000340: 0c4e 0435 074c f835 625b 8635 d813 9234
00000350: fc00 4535 b1cd 1735 5cc8 2435 9c2d d135
00000360: 5836 ef35 9d75 1a36 411a 5534 dadf 3334
00000370: 42db 0e35 b879 4535 b11f 3b35 fc33 d533
00000380: 8cbb fb35 2ff4 0136 5c80 a234 80ec 6c34
00000390: c9ac 2c36 4830 7836 d532 4535 8330 4d35
000003a0: 786c b835 b206 5935 dcca e134 d3ba 4c35
000003b0: 60c6 1036 9239 e833 d244 b335 2119 2335
000003c0: c9db 5433 3465 d935 b7d1 4435 1206 bd35
000003d0: 76b5 fb35 bdc1 7034 7784 2936 2a34 7334
000003e0: b919 eb35 c70f 9135 e120 2735 dccf 1236
000003f0: 5581 1b36 2c3d df35 45d9 4b36 d0ed 2735
