eval/eval_rl/runs/CartpolePPO/nn/last_CartpolePPO_ep_350_rew_957.5163.pth (torch, 70478 bytes, 24 tensors)

value_mean_std.running_mean f8 [1]
425.3848610332229
00000000: 27f3 0a64 2896 7a40

value_mean_std.running_var f8 [1]
16668.325420365432
00000000: bff0 afd3 1447 d040

value_mean_std.count f8 []
45875201.0
00000000: 0000 0008 00e0 8541

running_mean_std.running_mean f8 [4]
0.6989169276688015 -0.0524922912644082 0.2128193627196524 0.13617249985025046
00000000: 65aa 5e08 875d e63f 8aa4 8b04 45e0 aabf
00000010: 6811 6b35 aa3d cb3f 8756 bcb8 196e c13f

running_mean_std.running_var f8 [4]
0.9657998174354263 0.6560906435101439 1.428548371300185 3.544545816677001
00000000: 0ec6 cb04 d5e7 ee3f 22ce 22ce b1fe e43f
00000010: 52d0 7789 55db f63f 2069 4ed6 3a5b 0c40

running_mean_std.count f8 []
22937601.0
00000000: 0000 0010 00e0 7541

a2c_network.actor_mlp.0.weight f4 [64, 4]
0.01226941 0.6379497 0.17384231 0.5291221 -0.029274113 -0.5108077 -0.23044589 -0.24659364
-0.31678924 -0.9135303 -0.12599891 0.124703236 0.11726477 0.36569118 -0.24380243 0.08663839
0.24075444 1.4180014 0.22505005 0.33605674 0.5769821 0.2540789 0.6694731 -1.7413435
-0.18599261 0.34142262 -0.0072964397 0.11396481 -0.3169128 0.094788395 -0.41813406 -0.6237513
-0.2700251 0.6936317 0.2357012 0.15780626 0.15619606 -0.70995736 -0.09906625 -1.130693
-0.4417987 -0.22496259 0.1262464 0.40338904 0.32219145 0.33500925 0.18956548 0.63771117
0.35783103 0.13346279 0.7491348 -0.4731913 -0.10710832 -1.1795118 -0.27403814 -0.5233021
0.0035552098 0.3089362 -0.50002366 0.507051 -0.052505497 0.29098302 -0.032643046 0.26570836
0.32926363 1.1620036 0.12346535 -0.78376263 0.056944076 0.40519336 0.7085488 0.92101675
-0.033600077 -0.95733804 -0.13868359 -0.5489025 -0.051050194 0.38892567 0.43906462 -0.5975765
-0.27864116 -0.70293105 -0.15455689 -0.16292189 0.05790397 -0.4359114 -0.034294568 0.14013918
0.3455391 -0.50789464 -0.65214443 -0.2551216 -0.36239317 -0.4816676 -0.5086488 -0.6957248
0.35376036 0.996729 0.008766374 -0.034891266 -0.4496939 -0.5373376 -0.52004164 -0.7065851
0.08003839 0.56307536 -0.16746636 0.7099194 -0.1030443 0.31145096 0.05861333 -0.22268507
0.20024623 0.55238044 0.10015694 0.1321808 0.23078954 0.2207744 -0.17180607 0.39850494
-0.19072352 -0.5395688 -0.16450217 -0.8781127 -0.20942788 -0.8956994 -0.09894841 -0.13026147
0.012087205 -0.34710827 0.20698312 -0.28410137 -0.02970801 0.42012265 -0.04971809 0.0600381
0.90729636 -0.030839974 -0.058658466 -0.20317678 -0.1234621 -0.3005524 0.098463885 -0.18221428
-0.3208114 -1.4735117 -0.20267366 -0.48177686 0.33475733 0.5665064 0.061451264 -0.15120001
-0.066315256 -0.90484965 -0.22618909 -0.27929056 -4.285614e-05 -1.0688276 -0.05218165 -0.8443987
-0.17000617 0.23388223 -0.34178406 0.69320047 0.11805368 -0.15643351 0.15123394 -1.0406073
0.39218608 0.059965555 -0.045496836 0.7127242 0.16322508 0.37905005 0.47172326 -1.3540137
-0.38913608 0.6064445 -0.10658061 0.30882692 0.020684779 0.32720125 -0.0063277185 -0.022517666
-0.41209167 0.4913317 0.45122042 0.4960785 -0.23356797 0.25737464 -0.40346128 -0.60041255
-0.031582877 0.2313202 0.0030882594 0.04146404 0.026174262 0.04200846 -0.35862672 -0.22560844
-0.39186403 0.7818268 -0.51148766 0.79448867 0.1787343 0.2972276 0.015068736 0.07115265
0.00071598496 -0.48112398 0.07557557 0.18124732 -0.09078954 -0.26146758 0.20569468 -1.2419375
-0.23991095 0.6379628 -0.03312069 -0.22900344 -0.26972947 0.17628421 -0.41408074 -0.36817616
-0.30181313 -0.18648057 0.18332797 0.44844088 0.272627 0.61420274 0.08017152 -0.23958991
0.22075465 -0.6580634 -0.1464806 0.10617232 -0.2715052 0.68605703 -0.076335415 0.09208066
0.08871034 -0.7988366 0.06593675 -0.5812598 0.30037627 -0.45263523 0.0018599612 0.45156622
0.2482879 -0.50166315 -0.09598772 -0.8023743 -0.020597033 0.30973008 -0.051096387 -0.06958287
00000000: a305 493c ac50 233f b803 323e 8c74 073f
00000010: 44d0 efbc 4bc4 02bf 02fa 6bbe 0b83 7cbe
00000020: 3332 a2be 1fdd 69bf dc05 01be 6964 ff3d
00000030: 8328 f03d e03b bb3e 58a7 79be 786f b13d
00000040: 5588 763e 1281 b53f 8573 663e a10f ac3e
00000050: 19b5 133f a116 823e 9762 2b3f 58e4 debf
00000060: d974 3ebe f2ce ae3e f916 efbb 6266 e93d
00000070: 6542 a2be 6b20 c23d ab15 d6be 2aae 1fbf
00000080: bb40 8abe d991 313f a85b 713e f797 213e
00000090: dcf1 1f3e c4bf 35bf 3fe3 cabd 8cba 90bf
000000a0: 7033 e2be 985c 66be bc46 013e 0289 ce3e
000000b0: 47f6 a43e 5586 ab3e 741d 423e 0a41 233f
000000c0: a135 b73e 78aa 083e 4cc7 3f3f 2146 f2be
000000d0: 9b5b dbbd 3efa 96bf ba4e 8cbe 20f7 05bf
000000e0: 86fe 683b e32c 9e3e 8d01 00bf 18ce 013f
000000f0: 0110 57bd bafb 943e b7b4 05bd ed0a 883e
00000100: 3e95 a83e 89bc 943f 67db fc3d aba4 48bf
00000110: 313e 693d 8175 cf3e 7463 353f c1c7 6b3f
00000120: 3ca0 09bd 1b14 75bf 1203 0ebe e084 0cbf
00000130: 021a 51bd 4421 c73e 14cd e03e c6fa 18bf
00000140: 0eaa 8ebe 4af3 33bf 2944 1ebe ffd4 26be
00000150: b72c 6d3d c72f dfbe 7678 0cbd a580 0f3e
00000160: 80ea b03e 6205 02bf f0f2 26bf 4c9f 82be
00000170: 998b b9be 239d f6be cf36 02bf 051b 32bf
00000180: 1420 b53e a229 7f3f d6a0 0f3c 25ea 0ebd
00000190: 473e e6be f58e 09bf 7321 05bf c3e2 34bf
000001a0: 2beb a33d b525 103f 4d7c 2bbe 47bd 353f
000001b0: e408 d3bd 8076 9f3e 8814 703d 8e07 64be
000001c0: 590d 4d3e ce68 0d3f 151f cd3d 675a 073e
000001d0: 1854 6c3e af12 623e eeed 2fbe d708 cc3e
000001e0: 074d 43be 2e21 0abf 4273 28be fecb 60bf
000001f0: 4374 56be 8e4c 65bf 77a5 cabd 4363 05be
00000200: 6a09 463c 2db8 b1be 62f3 533e bc75 91be
00000210: 365e f3bc 511a d73e 32a5 4bbd 83ea 753d
00000220: 9344 683f 1da4 fcbc dc43 70bd 930d 50be
00000230: b3d9 fcbd 01e2 99be 6fa7 c93d 6196 3abe
00000240: 6441 a4be 089c bcbf af89 4fbe 75ab f6be
00000250: 5065 ab3e 9006 113f 52b4 7b3d 2dd4 1abe
00000260: 4bd0 87bd 3aa4 67bf 1d9e 67be 2cff 8ebe
00000270: 6ec0 33b8 58cf 88bf 6dbc 55bd 832a 58bf
00000280: 1916 2ebe d37e 6f3e 52fe aebe 9675 313f
00000290: 21c6 f13d 1b30 20be 12dd 1a3e 9f32 85bf
000002a0: 9dcc c83e 719e 753d e45a 3abd 1875 363f
000002b0: 7a24 273e d912 c23e b685 f13e 5250 adbf
000002c0: d83c c7be f23f 1b3f ef46 dabd 901e 9e3e
000002d0: 2073 a93c ec86 a73e c058 cfbb f876 b8bc
000002e0: aefd d2be d48f fb3e 5d06 e73e 00fe fd3e
000002f0: 712c 6fbe 9cc6 833e 7a92 cebe a3b4 19bf
00000300: 0c5d 01bd 34df 6c3e 6564 4a3b 32d6 293d
00000310: 686b d63c 1011 2c3d ec9d b7be e605 67be
00000320: 67a2 c8be cd25 483f dbf0 02bf 9c63 4b3f
00000330: 2006 373e 372e 983e dce2 763c 7bb8 913d
00000340: f0b0 3b3a e255 f6be 5dc7 9a3d e698 393e
00000350: deef b9bd 14df 85be a0a1 523e cff7 9ebf
00000360: 37ab 75be 8851 233f 90a9 07bd e17f 6abe
00000370: fb19 8abe d983 343e 6402 d4be 9681 bcbe
00000380: 4087 9abe c3f4 3ebe 54ba 3b3e 0b9a e53e
00000390: c495 8b3e 643c 1d3f f730 a43d 0f57 75be
000003a0: 820d 623e d876 28bf 03ff 15be e070 d93d
000003b0: bb02 8bbe 6fa1 2f3f be55 9cbd c994 bc3d
000003c0: c4ad b53d 8e80 4cbf d909 873d 71cd 14bf
000003d0: ebca 993e cebf e7be f1c9 f33a b033 e73e
000003e0: 2f3f 7e3e ff6c 00bf 3695 c4bd 6768 4dbf
000003f0: 1cbb a8bc f194 9e3e 724a 51bd 7781 8ebd

a2c_network.actor_mlp.0.bias f4 [64]
-0.30906764 0.09454946 0.3206595 -0.8618093 0.16364421 -0.2392091 0.5081591 1.3282756
-0.76468116 0.3738722 1.0209873 1.2870623 0.09420983 0.039317988 -0.3397629 -0.8202698
0.07860774 -0.8307826 0.4970171 0.05098533 0.49819386 -0.5608637 -0.46010113 -0.50302434
0.79248244 -0.74592227 -0.13449839 -0.09890328 -0.39116135 0.50641084 0.5035488 0.020254532
0.8277582 -0.86193097 -0.30415535 -0.17504743 -0.76698637 1.5155656 0.42470828 -0.4770053
0.7480824 0.2527868 0.2088571 -0.031218586 1.3016583 0.21344663 -0.47729528 0.59486544
-0.011929417 -0.86115265 -0.21101376 0.73146266 0.8455721 0.0054461863 -1.1588322 0.24952407
-0.7967912 -0.5800521 -0.4751117 1.4407197 0.88701165 -1.1776476 -1.199044 -0.46231908
00000000: 1d3e 9ebe 26a3 c13d 7b2d a43e 899f 5cbf
00000010: 5992 273e 3bf3 74be b716 023f ef04 aa3f
00000020: 25c2 43bf 2d6c bf3e b6af 823f 75be a43f
00000030: 15f1 c03d e60b 213d 67f5 adbe 34fd 51bf
00000040: 18fd a03d 2bae 54bf 0679 fe3e fed5 503d
00000050: 4413 ff3e c394 0fbf 6092 ebbe 34c6 00bf
00000060: 21e0 4a3f c3f4 3ebf f2b9 09be ce8d cabd
00000070: 4d46 c8be 24a4 013f 93e8 003f d5ec a53c
00000080: f6e7 533f 82a7 5cbf 40ba 9bbe a23f 33be
00000090: 3859 44bf 0efe c13f 5d73 d93e 0a3a f4be
000000a0: 5482 3f3f 456d 813e a3de 553e 1fbe ffbc
000000b0: bd9c a63f c191 5a3e 0c60 f4be 1a49 183f
000000c0: 9a73 43bc 8074 5cbf fe13 58be 2341 3b3f
000000d0: 6a77 583f ec75 b23b 9d54 94bf 3d83 7f3e
000000e0: 82fa 4bbf 4b7e 14bf d741 f3be 8169 b83f
000000f0: 3213 633f 28bd 96bf 467a 99bf 16b5 ecbe

a2c_network.actor_mlp.2.weight f4 [64, 64]
0.38490573 -0.25136012 -0.18192835 -0.09208831 0.07368264 -0.76986355 0.19971617 -0.38748667
0.2739969 -0.43475363 -0.14317648 0.22537677 -0.4526009 0.039242838 0.33344734 0.38548782
0.35097584 0.011133864 0.05397346 -0.12372645 -0.555498 0.7980996 -0.26025575 -0.38310206
-0.48547316 -0.37503445 0.043283485 0.13127263 0.39899054 0.23591208 -0.19780405 -0.027547747
-0.274784 0.45590916 -0.59874 0.38129735 0.13776015 -0.2587862 -0.4082699 0.37929845
0.32536456 -0.26172853 0.14691076 -0.46718198 0.052218083 -0.38200685 0.36316377 -0.4570732
-0.3607642 -0.1835818 0.06684452 0.0021215128 -0.38099357 0.00945101 0.65206635 -0.22047861
0.3798253 0.31985807 0.51351196 -0.5322484 0.055866573 0.6852971 -0.111330144 0.13400364
-0.0760026 0.2937113 0.09488186 -0.0054945946 -0.12137404 -1.0239537 0.15721661 0.2991778
-0.27951214 -0.26732466 -0.5232694 0.3044214 -0.011647652 0.09999994 -0.11798761 -0.22305597
0.64901865 -0.16362372 0.32221553 0.19445866 0.21298935 -0.23737131 -0.112912565 0.1584504
0.29976782 0.026873387 -0.16081755 0.17239846 -0.3253463 0.2926576 0.095249265 0.13467875
0.24030496 -0.49679828 -0.6326139 -0.15176435 -0.36059886 0.9566273 0.18313341 -0.31148663
0.2618616 -0.37292635 0.12218812 -0.6841553 0.5280339 0.30910242 0.022000851 0.04639998
0.068634786 -0.38343826 -0.23498021 0.4286136 -0.053453643 -0.4138069 -0.26524332 0.13185218
-0.10814589 0.013944284 -0.3254929 0.65289015 0.37476438 -0.47627175 -0.1964002 0.03957082
0.24481368 -0.057978276 -0.08624678 0.07749014 0.12985393 0.07115131 0.025812494 -0.0029045905
-0.047330935 -0.04832357 0.2167383 -0.2538092 0.053627606 -0.06174452 0.02812013 -0.13582872
-0.33446318 0.03207248 -0.09011582 0.38258794 -0.011321705 0.031933356 0.01687478 -0.20743547
-0.20748353 -0.046901412 -0.043353427 -0.008875545 -0.0035541435 -0.02244519 -0.03257151 0.04541669
0.051493373 0.1139462 0.38505435 0.11024876 0.2062539 -0.10405064 -0.17228097 -0.025010457
0.09907978 0.005768343 0.07476225 -0.02427445 0.05347316 -0.22475415 0.23012502 0.21244128
-0.11803393 0.10753936 0.20876461 0.16536307 0.21662182 0.032777376 0.021358764 0.14883152
-0.07388908 0.042551283 0.10052066 0.07155487 -0.083971664 -0.2561608 0.09592102 0.035207454
-0.12438816 0.0061232797 0.21288133 0.2365214 -0.11916425 0.24569675 0.10452104 -0.39401203
0.31072313 0.18185328 -0.09924544 -0.26556927 0.40137425 0.13818684 0.20623483 -0.017900154
-0.39995578 0.36880296 -0.1985528 0.2327404 0.2150356 -0.19400382 0.04771512 0.06774284
-0.2576736 0.059162196 -0.037048504 0.28458345 -0.14294246 -0.019510904 0.20491436 0.0845449
-0.101107776 0.21779162 0.21890546 -0.19991943 0.7287011 -0.08704866 -0.014035585 0.118464634
-0.15151665 0.2614754 -0.1255112 0.1398068 -0.2981869 0.10847201 0.39814717 -0.045320377
0.23793909 0.5293866 0.22513878 0.11838343 0.084068656 0.60376674 0.5593474 -3.898039e-05
0.29393038 -0.14401123 0.07626768 -0.15737198 -0.26067445 -0.017575419 -0.09799992 0.2826816
00000000: 5d12 c53e 46b2 80be 6d4b 3abe cc98 bcbd
00000010: ede6 963d c715 45bf 6582 4c3e a764 c6be
00000020: 5249 8c3e 0798 debe db9c 12be 2bc9 663e
00000030: 4ebb e7be 19bd 203d 9cb9 aa3e a95e c53e
00000040: 1bb3 b33e cf6a 363c 4613 5d3d 4b64 fdbd
00000050: 1e35 0ebf 4150 4c3f 3e40 85be f425 c4be
00000060: f08f f8be 8404 c0be 064a 313d 556c 063e
00000070: 7d48 cc3e f092 713e 258d 4abe d0ab e1bc
00000080: 7db0 8cbe ed6c e93e 0647 19bf 6839 c33e
00000090: ff10 0d3e a07f 84be c108 d1be 6833 c23e
000000a0: 2f96 a63e 4801 86be c66f 163e 7a32 efbe
000000b0: a1e2 553d 6796 c3be 9af0 b93e 8005 eabe
000000c0: 16b6 b8be defc 3bbe c8e5 883d 1409 0b3b
000000d0: 9711 c3be 69d8 1a3c d2ed 263f 25c5 61be
000000e0: 7678 c23e 70c4 a33e 8575 033f 6e41 08bf
000000f0: 59d4 643d a16f 2f3f 0f01 e4bd 4038 093e
00000100: 40a7 9bbd 5461 963e 6c51 c23d 000c b4bb
00000110: f492 f8bd ea10 83bf 64fd 203e d52d 993e
00000120: 371c 8fbe c7de 88be fcf4 05bf 1fdd 9b3e
00000130: cbd5 3ebc c5cc cc3d 7da3 f1bd c968 64be
00000140: 1626 263f fa8c 27be 6ff9 a43e 2c20 473e
00000150: e119 5a3e 7711 73be b43e e7bd d240 223e
00000160: 2b7b 993e 9425 dc3c 5bad 24be 3989 303e
00000170: ca93 a6be 38d7 953e 0c12 c33d 3ae9 093e
00000180: 8112 763e 585c febe fcf2 21bf 1d68 1bbe
00000190: 6aa0 b8be 87e5 743f 5387 3b3e 2d7b 9fbe
000001a0: b912 863e 34f0 bebe c43d fa3d cd24 2fbf
000001b0: 3b2d 073f ac42 9e3e 213b b43c e80d 3e3d
000001c0: 6590 8c3d 0552 c4be a79e 70be 3e73 db3e
000001d0: 35f2 5abd 7fde d3be f9cd 87be 4204 073e
000001e0: 987b ddbd 9176 643c 01a7 a6be cf23 273f
000001f0: 1ee1 bf3e e4d9 f3be 221d 49be 0315 223d
00000200: 70b0 7a3e a17a 6dbd 27a2 b0bd 27b3 9e3d
00000210: 6ef8 043e c7b7 913d b974 d33c f15a 3ebb
00000220: 15de 41bd f0ee 45bd a5f0 5d3e 48f3 81be
00000230: 9fa8 5b3d d2e7 7cbd 305c e63c af16 0bbe
00000240: c23e abbe 6f5e 033d a58e b8bd 91e2 c33e
00000250: ac7e 39bc 8dcc 023d fb3c 8a3c f769 54be
00000260: 9076 54be b21b 40bd 5d93 31bd bc6a 11bc
00000270: a2ec 68bb fade b7bc b469 05bd da06 3a3d
00000280: b7ea 523d a05c e93d d825 c53e 1aca e13d
00000290: 3934 533e 8018 d5bd 6c6a 30be bbe2 ccbc
000002a0: 57ea ca3d 5e04 bd3b f31c 993d 36db c6bc
000002b0: ac06 5b3d f425 66be e5a5 6b3e 358a 593e
000002c0: c6bb f1bd 993d dc3d 64c6 553e f054 293e
000002d0: 1cd2 5d3e 9241 063d 93f8 ae3c 4a67 183e
000002e0: 2853 97bd 414a 2e3d c7dd cd3d 5c8b 923d
000002f0: 56f9 abbd 8227 83be 3d72 c43d b135 103d
00000300: 38bf febd cba5 c83b 90fd 593e aa32 723e
00000310: 630c f4bd ee97 7b3e 210f d63d f2bb c9be
00000320: 1a17 9f3e bf37 3a3e 3141 cbbd b2f8 87be
00000330: ed80 cd3e da80 0d3e 392f 533e 58a3 92bc
00000340: 01c7 ccbe bed3 bc3e 6d51 4bbe 8053 6e3e
00000350: 4b32 5c3e f0a8 46be ee70 433d c2bc 8a3d
00000360: cbed 83be 0f54 723d 2cc0 17bd ecb4 913e
00000370: 825f 12be 55d5 9fbc 12d5 513e e025 ad3d
00000380: 9811 cfbd c404 5f3e c128 603e aeb7 4cbe
00000390: 288c 3a3f 9146 b2bd 83f5 65bc 969d f23d
000003a0: 2e27 1bbe 1be0 853e 0286 00be 8429 0f3e
000003b0: f4ab 98be 9326 de3d f2d9 cb3e dca1 39bd
000003c0: 4ea6 733e e185 073f c88a 663e 0373 f23d
000003d0: 302c ac3d 7590 1a3f 6431 0f3f e07e 23b8
000003e0: 0b7e 963e ae77 13be 3b32 9c3d 1f26 21be
000003f0: 1f77 85be 53fa 8fbc 2fb4 c8bd a5bb 903e

a2c_network.actor_mlp.2.bias f4 [64]
-0.32418162 0.39401346 0.30345246 0.5280411 0.032422032 0.04670966 -0.032463137 0.44800347
-0.5836643 -0.6374018 -0.581067 -0.18614803 -0.0140288295 0.02589424 0.20326237 0.0968933
-0.16402113 -0.18448484 -0.862246 -0.7250918 0.45082805 0.6127879 -0.23857166 0.31988135
-0.005489519 -0.048611067 -0.9839294 -0.15326025 0.28239772 0.7060101 0.35584018 -0.27370286
0.20799658 -0.3415355 -0.3283021 -0.3354342 0.12235941 -0.24765712 -0.898109 -0.64111376
-0.7906844 -0.20931406 -0.00221892 -0.40065214 0.7953294 -0.33269566 -0.064757355 -0.15261455
-0.08719459 -0.26904252 0.11323058 0.5034977 -0.80445284 0.5225581 -0.3990777 0.44729665
0.093422085 0.72375953 -0.4058168 -0.24557607 -0.1810889 -0.73062253 -0.044955317 0.69551104
00000000: 22fb a5be 22bc c93e 1f5e 9b3e b42d 073f
00000010: f7cc 043d a152 3f3d 11f8 04bd b660 e53e
00000020: 066b 15bf c42c 23bf cfc0 14bf 979d 3ebe
00000030: 2dd9 65bc 2820 d43c 0324 503e ff6f c63d
00000040: 28f5 27be 98e9 3cbe 27bc 5cbf 9e9f 39bf
00000050: efd2 e63e abdf 1c3f 214c 74be 7dc7 a33e
00000060: 6ce1 b3bb 661c 47bd cce2 7bbf 41f0 1cbe
00000070: 6f96 903e 14bd 343f af30 b63e c822 8cbe
00000080: 0efd 543e bedd aebe 3617 a8be 08be abbe
00000090: 9297 fa3d d499 7dbe 79ea 65bf 0820 24bf
000000a0: 4b6a 4abf 6d56 56be 4d6b 11bb 4722 cdbe
000000b0: b59a 4b3f 1657 aabe 819f 84bd fd46 1cbe
000000c0: 1493 b2bd f1bf 89be 6fe5 e73d 3ae5 003f
000000d0: 9ff0 4dbf 5ec6 053f ea53 ccbe 1104 e53e
000000e0: 1454 bf3d 4e48 393f 38c7 cfbe 4b78 7bbe
000000f0: 5e6f 39be 140a 3bbf 1123 38bd 030d 323f

a2c_network.value.weight f4 [1, 64]
0.10867089 0.031555805 0.012296686 -0.22353373 0.02255903 -0.30980098 0.26749745 -0.1989297
0.26132727 0.22525147 0.034819227 0.006803215 -0.06869551 0.061467748 -0.009513628 0.010184757
0.18778054 0.089083016 0.4377752 0.3201399 -0.81216425 -0.51544535 0.24765852 0.18940566
-0.0063219774 -0.0040014256 0.33002594 -0.064866595 0.672819 -0.2718422 0.066834144 -0.007827029
0.043854382 0.008454389 -0.08812206 -0.64638096 0.27599025 -0.09539696 0.43711543 0.13824289
0.33362618 0.07357323 -0.015541833 0.06861357 -0.3735479 0.13008642 -0.09763656 -0.53670067
-0.22831503 0.6352581 0.017293353 0.029167172 0.18471237 -0.08664242 -0.21443586 -0.15334588
-0.39860705 -0.39147633 0.037507396 -0.045682997 -0.42943427 0.5355206 -0.22258307 -0.28174284
00000000: d88e de3d a940 013d 0a78 493c 07e6 64be
00000010: b7cd b83c 3c9e 9ebe 6df5 883e 3ab4 4bbe
00000020: b0cc 853e 52a8 663e 9b9e 0e3d 81ed de3b
00000030: 3bb0 8cbd 9bc5 7b3d 0cdf 1bbc f8dd 263c
00000040: 8b49 403e 2871 b63d 1224 e03e 61e9 a33e
00000050: ffe9 4fbf 3af4 03bf 329a 7d3e 8ff3 413e
00000060: 9728 cfbb 641e 83bb 29f9 a83e c7d8 84bd
00000070: de3d 2c3f e72e 8bbe 57e0 883d f03c 00bc
00000080: a7a0 333d 4784 0a3c 5779 b4bd 3979 25bf
00000090: 984e 8d3e 7b5f c3bd 98cd df3e 8b8f 0d3e
000000a0: 0dd1 aa3e 90ad 963d 2ca3 7ebc 4585 8c3d
000000b0: ac41 bfbe 6035 053e adf5 c7bd 3765 09bf
000000c0: 6acb 69be 46a0 223f caaa 8d3c feef ee3c
000000d0: 3d25 3d3e 9571 b1bd 1395 5bbe b406 1dbe
000000e0: 3916 ccbe 966f c8be 5ba1 193d 181e 3bbd
000000f0: cfde dbbe e117 093f d1ec 63be 9940 90be

a2c_network.mu.weight f4 [1, 64]
0.43609217 0.37478393 0.0042910846 -0.021950586 0.0038613123 0.16579118 0.4565053 -0.3326977
0.024734082 0.12881173 0.5194477 -0.058519553 0.07218807 0.47592628 -0.35804206 -0.046754394
-0.038019434 -0.22283837 0.18295246 -0.1894903 0.022773491 0.0368579 0.102293715 0.31081188
-0.0013797439 0.24277462 0.022795098 -0.035239797 -0.67005503 -0.046480007 0.12900846 -0.0012619986
0.2083545 -0.11754542 0.0673158 0.23312025 -0.25395983 0.21489406 -0.03487334 -0.13499485
0.007390614 0.010296131 -0.005664054 0.0335194 -0.031722024 -0.028973496 0.38328257 -0.22632462
-0.12503436 -0.008723119 -0.8994988 0.57515246 -0.05985359 -0.17689769 -0.12506919 0.1525249
0.014873528 -0.19158001 0.47166875 -0.20482367 -0.5832312 0.24294303 0.214369 0.16922906
00000000: 7947 df3e aee3 bf3e 3a9c 8c3b b7d1 b3bc
00000010: 120e 7d3b 2ac5 293e 10bb e93e 5a57 aabe
00000020: 219f ca3c 39e7 033e 86fa 043f 33b2 6fbd
00000030: 57d7 933d 9cac f33e 4a51 b7be 8981 3fbd
00000040: 44ba 1bbd be2f 64be e457 3b3e bf09 42be
00000050: 798f ba3c 4ff8 163d 5e7f d13d bc22 9f3e
00000060: 86d8 b4ba e999 783e c9bc ba3c 9b57 10bd
00000070: ba88 2bbf d261 3ebd cb1a 043e a569 a5ba
00000080: e25a 553e a7bb f0bd dedc 893d 13b7 6e3e
00000090: 0607 82be 300d 5c3e 59d7 0ebd 173c 0abe
000000a0: f72c f23b 1ab1 283c 8799 b9bb a34b 093d
000000b0: f4ee 01bd d359 edbc 9d3d c43e a4c1 67be
000000c0: 0209 00be 6aeb 0ebc 8e45 66bf 313d 133f
000000d0: 0a29 75bd ab24 35be 2312 00be 7d2f 1c3e
000000e0: 19b0 733c 8d2d 44be 917e f13e 4cbd 51be
000000f0: a44e 15bf 0fc6 783e 8c83 5b3e 624a 2d3e

exp_avg f4 [64, 4]
0.0010134212 0.0004710855 -0.0003253887 -0.0004938178 -0.0010179745 0.0013178053 -0.0012537831 -0.0018749525
-0.00044840795 7.2214716e-05 0.0010052129 -0.0005901001 0.0009331671 0.000736413 0.0020009233 -0.0011746198
0.0014764201 -0.001580108 0.00042905673 0.002770434 -0.0009722822 -0.002529581 0.0028075653 -0.00025946213
-0.0010048704 -0.0015182804 0.0019616892 0.002284508 -0.001118412 0.00013766189 0.00016014212 -0.0006468739
0.0021223594 -0.0005199889 0.00029704566 0.00061156566 0.00012119806 -0.0016210577 0.004730732 0.00057908735
-9.49113e-05 -7.82592e-06 0.000319877 -0.00036957636 -0.0012133364 2.1777325e-06 -0.003125695 0.0016230701
-0.0002110396 -0.001046669 0.0008307201 -5.197071e-05 -0.0019096659 0.0033921532 -0.0043343566 -0.004391312
-0.00059052533 0.00033494984 -0.0004853823 -0.0005584564 0.0014995013 0.0007165241 0.001864744 -0.0016402225
0.0013141236 -0.00019795532 -0.0012272068 -5.330904e-05 0.00061311014 -0.00022588507 -0.00064883474 0.00094084156
-0.002551999 0.0013901186 -0.0031292941 -0.00082711666 -0.00064916146 -0.0024547605 0.003934864 0.00095190125
-0.00043073614 0.00061272306 -0.00030268868 -0.0012482996 0.0027987538 0.0011591825 6.947266e-05 -0.00216958
-8.70385e-05 -0.00033475147 0.00034723998 -0.0010304481 -0.0004418877 0.0007924731 -0.00087160873 -0.00011899293
-0.0017937354 -0.0006820307 -0.0007080596 0.0016694893 -0.00032061167 0.00085809134 -0.0015656381 0.00014734326
0.00012893269 -0.00031547828 -9.22043e-05 0.0011421371 -5.1222007e-05 -0.00020640384 0.0018447964 0.00046406756
0.00039390524 -0.0005036028 0.0010767268 0.00068250543 -0.00043603516 -0.00123361 0.0008273654 0.002445344
-0.0016153525 -0.0010271631 0.000770812 0.0011006173 -0.00091481657 0.00083335047 0.00030873227 -0.0013702969
-0.0002187855 -0.0008505245 -0.0016478973 0.0016403485 0.0007546774 0.0005235074 0.0020307188 -0.0015464884
0.00015179033 -0.0017194024 0.003329623 0.0009558206 0.0010330136 0.0008549092 -0.00025328438 -0.00084018306
0.0019447142 0.003140149 -0.0050921156 -0.0046851584 -0.005835014 -0.0069473367 0.003144968 0.008794082
-0.0012382288 0.0008903116 -0.0010131355 -0.0011520926 -1.6697211e-05 0.0054225493 -0.0053315465 -0.006624497
-0.00021544404 -4.6109624e-05 0.0022246372 0.0015209 0.00035616857 -0.0019003389 0.0034584762 0.00037418763
-0.00022784698 -0.0008234273 0.00021086152 0.00026138857 0.00016869711 -0.0026885981 0.0037491247 0.00036914466
-0.0009621259 -0.0019572421 0.0056465464 0.0034243874 -0.0018272017 -0.001072979 0.000586237 0.0017090528
0.0011518529 0.00063163275 -0.0010276632 -0.00052020716 -0.0006404697 -7.174222e-06 0.0016274386 -0.0006365846
-0.0011333739 -0.00019935501 0.0007347392 -0.00034585263 0.00096884987 -0.0006298515 0.0022232514 -0.0011488774
-0.00023704287 -0.00045551898 -6.2826315e-05 0.00079223 -0.000925275 -0.001239486 0.001336777 0.002437044
-0.0005058599 -0.0006575473 -0.0015178372 0.0006542467 0.0006170948 -0.0016248372 0.0031004392 0.00042944378
0.0021687218 -0.0001457307 0.0012235425 -0.00028367728 -0.00059706846 -0.00014129032 0.00084455614 -0.00035947707
0.0023610424 0.0023585716 0.001046425 -0.0021488406 0.00012323297 0.0002453225 -0.0002633529 8.1633065e-05
0.0014584886 0.0026053772 -0.0018989729 -0.0038743762 -0.0021567794 -0.0012077624 0.0022490257 0.0025768932
-0.00064194726 -0.0009078353 -0.0010222745 0.0012461023 0.0023688714 0.0013293112 0.00045115664 -0.0017575795
0.00034916002 0.00052113883 -5.359284e-05 -0.0008388804 -0.00015676527 0.00037380133 0.0010492236 -0.0006768954
00000000: c6d4 843a 07fc f639 ef98 aab9 8d73 01ba
00000010: 8e6d 85ba 35ba ac3a fb55 a4ba f7c0 f5ba
00000020: 4c18 ebb9 fb71 9738 59c1 833a f3b0 1aba
00000030: c99f 743a d70b 413a ec21 033b b3f5 99ba
00000040: 7084 c13a a01b cfba 05f3 e039 2b90 353b
00000050: c1e0 7eba 54c7 25bb 21ff 373b 6b08 88b9
00000060: dbb5 83ba 0901 c7ba af8f 003b afb7 153b
00000070: ae97 92ba 5559 1039 d3eb 2739 f992 29ba
00000080: 4817 0b3b dd4f 08ba cbbc 9b39 7a51 203a
00000090: b72b fe38 ac79 d4ba 4204 9b3b e5cd 173a
000000a0: 1e0b c7b8 124c 03b7 2ab5 a739 b3c3 c1b9
000000b0: d008 9fba 2925 1236 76d8 4cbb 32bd d43a
000000c0: 834a 5db9 6230 89ba afc4 593a 20fb 59b8
000000d0: c14d faba e34e 5e3b 3807 8ebb ffe4 8fbb
000000e0: 7ccd 1aba 359c af39 e97a feb9 6065 12ba
000000f0: ea8a c43a 1ed5 3b3a 6d6a f43a bcfc d6ba
00000100: ac3e ac3a 3a92 4fb9 3ada a0ba 2598 5fb8
00000110: 20b9 203a 90db 6cb9 9016 2aba cfa2 763a
00000120: 703f 27bb a434 b63a d814 4dbb dcd2 58ba
00000130: 7d2c 2aba 0ce0 20bb 08f0 803b 0389 793a
00000140: 6dd4 e1b9 269f 203a 30b2 9eb9 fc9d a3ba
00000150: 4c6b 373b b6ef 973a dab1 9138 832f 0ebb
00000160: 7088 b6b8 9581 afb9 c30d b639 1a10 87ba
00000170: 2aad e7b9 f8bd 4f3a ac7c 64ba d88b f9b8
00000180: c61b ebba 4eca 32ba 139d 39ba c4d2 da3a
00000190: c517 a8b9 89f1 603a 1936 cdba 2880 1a39
000001a0: 1b32 0739 c766 a5b9 ce5d c1b8 c3b3 953a
000001b0: 36d7 56b8 1c6e 58b9 18cd f13a 184e f339
000001c0: 1185 ce39 3604 04ba f520 8d3a 2aea 323a
000001d0: a69b e4b9 15b1 a1ba 8de3 583a 1142 203b
000001e0: 3cba d3ba e0a1 86ba 5110 4a3a 9742 903a
000001f0: 4dd0 6fba 3475 5a3a 58dd a139 899b b3ba
00000200: c969 65b9 bcf5 5eba 42fe d7ba f600 d73a
00000210: 8bd5 453a fd3b 093a cf15 053b 8ab3 caba
00000220: e829 1f39 925d e1ba ce35 5a3b 0990 7a3a
00000230: 2f66 873a fc1b 603a 41cb 84b9 bb3f 5cba
00000240: c8e5 fe3a f5ca 4d3b c3db a6bb f585 99bb
00000250: a533 bfbb 7ca6 e3bb cf1b 4e3b 0e15 103c
00000260: 104c a2ba cd63 693a 30cb 84ba d001 97ba
00000270: fd10 8cb7 a4af b13b 41b4 aebb 4f12 d9bb
00000280: d2e8 61b9 d565 41b8 38cb 113b f058 c73a
00000290: 23bc ba39 cb14 f9ba 9aa7 623b 9d2e c439
000002a0: 35ea 6eb9 45db 57ba b51a 5d39 fb0a 8939
000002b0: 49e4 3039 3133 30bb e0b3 753b c289 c139
000002c0: 2d37 7cba 1345 00bb aa06 b93b b06b 603b
000002d0: b77e efba 33a3 8cba b3ad 193a 4c02 e03a
000002e0: c5f9 963a 2894 253a a8b2 86ba 835e 08ba
000002f0: 32e5 27ba 19ba f0b6 c74f d53a 78e0 26ba
00000300: b88d 94ba f409 51b9 839b 403a 8e53 b5b9
00000310: 6afa 7d3a 9e1c 25ba f8b3 113b ee95 96ba
00000320: b68e 78b9 b9d2 eeb9 9fc1 83b8 a8ad 4f3a
00000330: 278e 72ba 4076 a2ba cb36 af3a d0b6 1f3b
00000340: af9b 04ba 415f 2cba 2af2 c6ba c181 2b3a
00000350: 88c4 213a 7df8 d4ba bd30 4b3b f826 e139
00000360: 1d21 0e3b 49cf 18b9 465f a03a 85ba 94b9
00000370: 9684 1cba 5527 14b9 3465 5d3a 3278 bcb9
00000380: b8bb 1a3b 4492 1a3b 3228 893a 90d3 0cbb
00000390: 1938 0139 a19e 8039 a112 8ab9 6b32 ab38
000003a0: c22a bf3a fabe 2a3b f5e6 f8ba 3fe9 7dbb
000003b0: c158 0dbb c84d 9eba 6464 133b 18e1 283b
000003c0: 5a48 28ba ccfb 6dba d7fd 85ba 4154 a33a
000003d0: 113f 1b3b 483c ae3a 3889 ec39 955e e6ba
000003e0: 770f b739 099d 083a e0c8 60b8 50e8 5bba
000003f0: 5b61 24b9 c4fa c339 1a86 893a ae71 31ba

exp_avg_sq f4 [64, 4]
4.959144e-05 1.324642e-05 0.00015129628 3.0481719e-05 2.1602571e-05 3.4005112e-05 7.64235e-05 6.0007074e-05
1.1884027e-05 1.6306941e-06 2.952979e-05 4.210585e-06 2.8511531e-05 9.866426e-06 7.561036e-05 1.6927734e-05
0.00034304193 7.5453114e-05 0.0011607831 0.00020383245 2.8791388e-05 0.000118073025 0.00021825836 2.0563712e-05
2.2650349e-05 0.00010083646 0.00018700807 5.2110878e-05 0.000104187166 2.5041394e-05 0.00017494263 5.1141964e-05
0.00014817572 1.969691e-05 0.00030463262 6.861295e-05 3.412806e-05 7.064517e-05 0.00024429153 2.4902212e-05
1.7746095e-05 4.471209e-06 3.0969768e-05 7.547472e-06 4.5709017e-05 2.5339177e-05 0.00015119254 1.7058781e-05
9.135091e-06 4.9940987e-05 2.1488682e-05 2.8477709e-05 0.00050441077 0.00018576237 0.0019374663 0.000430583
1.1420178e-05 1.4493656e-05 1.0182205e-05 2.4957671e-05 4.8116395e-05 2.090914e-05 0.0001012068 2.7902153e-05
4.672927e-05 1.4679404e-05 2.9505041e-05 2.2824075e-05 5.3810592e-05 7.699709e-06 4.5675508e-05 1.8444212e-05
0.00011076319 4.5867342e-05 0.00029332488 0.00010987975 3.0646752e-05 6.825528e-05 0.0001786282 2.7136262e-05
2.2857237e-05 1.770269e-05 0.00010373396 3.178877e-05 8.104959e-05 0.0001308788 0.0006110078 9.6688134e-05
6.78979e-05 1.8896848e-05 7.7696146e-05 1.6289729e-05 3.0804684e-05 1.6761247e-05 9.229942e-05 2.7056736e-05
0.00022068483 0.00013467416 0.0013439265 0.00016686211 2.1737173e-05 2.5038837e-05 7.642497e-05 2.2095292e-05
3.191292e-05 4.0298928e-05 8.568073e-05 4.91989e-05 7.7933124e-05 1.5962658e-05 0.00013476114 2.066465e-05
2.3125955e-05 1.852346e-05 9.638399e-05 2.8772798e-05 2.3745153e-05 0.00012068928 0.0003120706 8.366337e-05
3.056727e-05 1.9587022e-05 0.00012328508 1.9689278e-05 0.00012612659 2.6452935e-05 0.0004319008 7.722733e-05
2.578721e-05 1.9012512e-05 0.00010628219 3.3223405e-05 4.7818834e-05 1.3790154e-05 6.749846e-05 2.2678647e-05
8.613975e-06 4.226891e-05 0.00013859771 3.372399e-05 1.7388604e-05 4.250042e-05 0.000118677526 2.256441e-05
0.0004000314 0.000337323 0.0027717515 0.0005096031 0.00024407922 0.0006201833 0.0026164004 0.0005212416
0.000113524235 1.9493187e-05 0.00024697452 5.5328062e-05 0.00015642482 0.00051499956 0.0022387647 0.00046115502
2.5744697e-05 0.00010008598 0.00026982976 5.1394818e-05 2.3576617e-05 4.816013e-05 9.351272e-05 8.277419e-06
5.87306e-06 1.2700684e-05 2.0619575e-05 4.002089e-06 2.8808365e-05 4.7407146e-05 0.00011769241 9.728941e-06
6.0114384e-05 0.00028982514 0.0007891361 0.00017027298 5.2349576e-05 6.754047e-05 0.0003539883 5.3800042e-05
5.896672e-05 3.1473217e-05 0.00016235087 2.8464041e-05 1.2011183e-05 6.8295376e-06 6.6318185e-05 1.569255e-05
2.4242308e-05 3.376834e-05 8.849989e-05 2.4123892e-05 5.0779876e-05 8.327508e-06 0.00018463867 4.82725e-05
3.5017167e-06 1.930474e-05 9.804508e-06 3.2132026e-05 3.42935e-05 0.00021079823 0.0002619615 8.02107e-05
6.395953e-05 2.3496848e-05 6.620418e-05 1.3388812e-05 1.7635091e-05 2.2534237e-05 8.156862e-05 7.430175e-06
6.104885e-05 1.1348892e-05 9.644076e-05 1.4963604e-05 1.5864925e-05 4.328264e-06 2.3532493e-05 7.393401e-06
0.00010198281 0.00011523019 0.00043528047 5.8926802e-05 1.4063167e-05 3.810938e-06 1.5899703e-05 3.259743e-06
0.00019456557 0.0002030323 0.0014812619 0.00020425128 0.00020060457 0.0001420735 0.0005310432 9.466459e-05
1.5228633e-05 9.331828e-06 0.000107288375 2.3966015e-05 7.559326e-05 0.00013472058 0.0003017691 4.522709e-05
3.666894e-05 4.979441e-05 0.00012716708 1.1159103e-05 3.9625484e-05 7.991512e-06 4.4615554e-05 8.744513e-06
00000000: 6700 5038 f13c 5e37 49a5 1e39 feb2 ff37
00000010: 2b37 b537 b6a0 0e38 8e45 a038 1bb0 7b38
00000020: 8261 4737 39de da35 beb6 f737 a648 8d36
00000030: 0c2c ef37 fa87 2537 0191 9e38 0800 8e37
00000040: 4fda b339 953c 9e38 6b25 983a dbbb 5539
00000050: 0985 f137 f99d f738 48dc 6439 3c80 ac37
00000060: 4101 be37 2a78 d338 9917 4439 a191 5a38
00000070: 0f7f da38 fc0f d237 ce70 3739 4481 5638
00000080: 9e5f 1b39 cb3a a537 19b7 9f39 4ce4 8f38
00000090: ba24 0f38 5627 9438 4114 8039 18e5 d037
000000a0: 73dd 9437 6507 9636 89e5 0138 4a40 fd36
000000b0: afb7 3f38 788f d437 7089 1e39 7419 8f37
000000c0: eb42 1937 ba77 5138 9842 b437 6ae3 ee37
000000d0: 6f3a 043a 35c9 4239 95f2 fd3a dfbf e139
000000e0: 4b99 3f37 c729 7337 3dd4 2a37 315c d137
000000f0: 96d0 4938 0966 af37 fd3e d438 6b0f ea37
00000100: 2cff 4338 8f47 7637 9881 f737 5476 bf37
00000110: afb2 6138 002e 0137 b493 3f38 a5b8 9a37
00000120: 8949 e838 af61 4038 66c9 9939 3e6f e638
00000130: b38a 0038 4624 8f38 244e 3b39 aea2 e337
00000140: 8bbd bf37 3d80 9437 bf8b d938 ef54 0538
00000150: 2bf9 a938 833c 0939 0a2c 203a 0cc5 ca38
00000160: 6864 8e38 ac84 9e37 cdf0 a238 eda5 8837
00000170: 4734 0138 819a 8c37 e090 c138 e6f7 e237
00000180: a267 6739 5237 0d39 b126 b03a b5f7 2e39
00000190: 3958 b637 7e0a d237 5846 a038 4759 b937
000001a0: 3dda 0538 a506 2938 7eaf b338 eb5a 4e38
000001b0: 0770 a338 8ce7 8537 ab4e 0d39 ff58 ad37
000001c0: 9cfe c137 d462 9b37 c321 ca38 1d5d f137
000001d0: 5430 c737 901a fd38 689d a339 6e74 af38
000001e0: 5b35 0038 cf4e a437 1646 0139 672a a537
000001f0: d940 0439 3fe7 dd37 be70 e239 1bf5 a138
00000200: 9d51 d837 0f7d 9f37 d1e3 de38 5c59 0b38
00000210: 1591 4838 435c 6737 f68d 8d38 063e be37
00000220: be84 1037 e649 3138 8a54 1139 dc72 0d38
00000230: bedd 9137 7a42 3238 83e2 f838 b448 bd37
00000240: 4ebb d139 bada b039 46a6 353b e396 053a
00000250: 84ef 7f39 cc93 223a ea77 2b3b efa3 083a
00000260: dc13 ee38 4d85 a337 5c7c 8139 0e10 6838
00000270: f805 2439 0901 073a 3db8 123b 2ec7 f139
00000280: 51f6 d737 40e5 d138 f077 8d39 c490 5738
00000290: 66c6 c537 8cff 4938 421c c438 3edf 0a37
000002a0: 3411 c536 0615 5537 33f8 ac37 af49 8636
000002b0: 7ea9 f137 09d7 4638 a2d1 f638 7c39 2337
000002c0: 5423 7c38 acf3 9739 07de 4e3a 4e8b 3239
000002d0: ee91 5b38 84a4 8d38 8197 b939 5ba7 6138
000002e0: 0953 7738 1c02 0438 bb3c 2a39 10c6 ee37
000002f0: a383 4937 4829 e536 4e14 8b38 7fa3 8337
00000300: f65b cb37 7ba2 0d38 0499 b938 aa5d ca37
00000310: 7afc 5438 60b6 0b37 919b 4139 3478 4a38
00000320: 09ff 6a36 9df0 a137 0b7e 2437 80c5 0638
00000330: 5ed6 0f38 b809 5d39 e157 8939 cb36 a838
00000340: 0322 8638 191b c537 19d7 8a38 82a0 6037
00000350: 12ef 9337 e807 bd37 d20f ab38 b850 f936
00000360: 5a07 8038 1f67 3e37 3d40 ca38 310c 7b37
00000370: ab15 8537 813b 9136 a567 c537 d514 f836
00000380: 9bdf d538 bda7 f138 5b36 e439 2c28 7738
00000390: d8f0 6b37 6bbf 7f36 5a60 8537 f5c1 5a36
000003a0: 4c04 4c39 11e5 5439 e726 c23a 492c 5639
000003b0: 6159 5239 91f9 1439 b535 0b3a aa86 c638
000003c0: 7b7e 7f37 e58f 1c37 0200 e138 a00a c937
000003d0: d387 9e38 c843 0d39 c336 9e39 38b2 3d38
000003e0: f9cc 1938 57da 5038 2758 0539 fc37 3b37
000003f0: 8a33 2638 4813 0637 9621 3b38 66b5 1237

exp_avg f4 [64]
-0.0008626942 -0.00025777775 0.0005594461 0.00080520276 -0.0031263814 0.002096406 0.00091819774 -0.00023011914
-0.0014734415 0.0011993222 -0.00038955893 -7.853989e-05 6.765151e-05 0.0018476862 0.0014292484 -0.0001533531
-0.002550188 0.0002249349 0.0012069772 0.0021162517 -0.00013032157 -0.0014657156 0.0024123187 0.0017848383
-0.0004914514 0.0014002494 0.0008700108 0.0013375265 0.00045896095 0.00028429693 0.001334999 0.0013368932
-0.00053441175 0.00018836814 0.00065846316 -0.0019092228 -0.00012926011 0.0038493224 0.00097194355 -0.00046658635
-0.00042474162 0.0002941519 0.00061428914 0.001269853 0.0004118608 0.0021420517 -0.0015470206 0.0008124971
0.0021097807 0.0012051269 0.0014210122 -5.1627136e-05 -0.0006419051 0.00019728695 -0.0009360055 0.0021728908
-0.0021257289 0.0009092538 -0.00030231103 -1.9024419e-05 -0.00016538032 -0.0006203674 0.00022039241 0.0010001434
00000000: 6e26 62ba 5826 87b9 cba7 123a 3e14 533a
00000010: fae3 4cbb db63 093b 35b3 703a 234c 71b9
00000020: 7e20 c1ba 9332 9d3a b73d ccb9 c8b5 a4b8
00000030: 21e0 8d38 102e f23a 9e55 bb3a 69cd 20b9
00000040: 0e21 27bb 81dc 6b39 6f33 9e3a d0b0 0a3b
00000050: eea6 08b9 411d c0ba fe17 1e3b 3cf1 e93a
00000060: bfd4 00ba 9388 b73a 7011 643a f14f af3a
00000070: b2a0 f039 b00d 9539 22fb ae3a b13a af3a
00000080: c417 0cba b084 4539 b79c 2c3a e33e faba
00000090: ff89 07b9 ea44 7c3b 07ca 7e3a 29a0 f4b9
000000a0: dbaf deb9 6638 9a39 3f08 213a 3271 a63a
000000b0: 05ef d739 aa61 0c3b 66c5 caba c2fd 543a
000000c0: 3f44 0a3b 59f5 9d3a 4241 ba3a 378a 58b8
000000d0: 8645 28ba d0de 4e39 445e 75ba 0f67 0e3b
000000e0: d04f 0bbb fd5a 6e3a 807f 9eb9 a196 9fb7
000000f0: f169 2db9 27a0 22ba 2319 6739 3e17 833a

exp_avg_sq f4 [64]
3.4057088e-05 1.05683575e-05 1.9203753e-05 2.6066462e-05 0.00048131627 0.00020304332 1.9837249e-05 2.2740725e-05
4.1645322e-05 8.599248e-05 9.959673e-06 1.9157216e-05 4.3275722e-05 0.00047022256 1.1906341e-05 9.785407e-06
0.00022395731 1.0957994e-05 8.216e-05 0.00012017713 1.3873699e-05 7.285103e-05 0.00024297109 0.00013211112
8.553847e-05 7.682665e-05 5.6294644e-05 9.6082906e-05 9.660949e-06 2.8403929e-05 7.3892275e-05 0.00011700232
1.2424854e-05 6.272873e-06 2.1004633e-05 3.3238823e-05 0.00015768928 0.00018555285 6.699335e-05 0.00021504732
3.2924978e-05 5.8649486e-05 2.164846e-05 0.00010987848 5.703602e-05 8.7941284e-05 2.9457236e-05 4.2330557e-05
6.3909814e-05 7.020338e-05 1.134063e-05 3.2767985e-05 2.0364456e-05 6.0268198e-05 1.0536804e-05 0.00011522236
6.248992e-05 2.2245173e-05 0.00012686611 5.7300364e-05 7.481643e-06 3.7282516e-05 1.80335e-05 2.2055377e-05
00000000: 85d8 0e38 c04e 3137 bf17 a137 4da9 da37
00000010: 2d59 fc39 07e8 5439 2b68 a637 56c3 be37
00000020: 53ac 2e38 dc56 b438 7818 2737 cfb3 a037
00000030: f482 3538 3488 f639 58c1 4737 012c 2437
00000040: 15d6 6a39 3ad8 3737 504d ac38 9b07 fc38
00000050: 15c3 6837 99c7 9838 0ec6 7e39 4f87 0a39
00000060: 1e63 b338 fe1d a138 ea1d 6c38 1e80 c938
00000070: 7615 2237 f944 ee37 9df6 9a38 245f f538
00000080: 5774 5037 927b d236 1b33 b037 ea69 0b38
00000090: 6559 2539 f790 4239 c87e 8c38 537e 6139
000000a0: ed18 0a38 68fe 7538 b799 b537 8f6e e638
000000b0: f639 6f38 1e6d b838 ef1a f737 178c 3138
000000c0: 5207 8638 273a 9338 a343 3e37 5b70 0938
000000d0: 56d4 aa37 7cc8 7c38 3bc7 3037 89a3 f138
000000e0: 050d 8338 259b ba37 5d07 0539 cc55 7038
000000f0: d30a fb36 cc5f 1c38 a546 9737 9003 b937

exp_avg f4 [64, 64]
2.0444611e-05 6.5411885e-05 -6.7716326e-05 0.00020183357 5.725125e-05 -0.00013808403 -0.00012626502 -0.00013677211
0.00011681443 -3.0559066e-05 -0.00029657237 -0.0003347738 -0.00015798115 -2.9172472e-05 0.0001007618 0.00022513488
7.095012e-05 -8.950624e-05 -7.440763e-05 -0.00018149854 -7.3113944e-05 8.342126e-05 0.0002986532 0.00026148223
3.106129e-05 0.00027431824 5.84513e-05 5.0725255e-05 7.45185e-05 -1.1630033e-05 -1.2440782e-05 -4.9266535e-05
-0.00019916677 0.00020231973 0.0002704844 -2.8298662e-05 -2.456872e-05 -0.00022373906 -5.1540523e-05 -1.691985e-05
-3.3288634e-05 -0.00011163699 -8.416396e-05 -0.000110227615 -0.00015781613 -1.1182016e-05 -0.00016420268 4.9201142e-05
2.0834113e-05 0.00031217778 1.2210393e-05 -0.00016253736 -0.00018586626 -9.273752e-05 0.0002022381 7.628923e-05
2.246619e-05 0.00011706939 7.0279726e-05 -0.00014550674 -9.258324e-05 0.00020127352 0.0003253182 0.00015991824
0.0005085602 -0.00025343074 -0.0008076032 0.0009625228 0.0007243458 -0.00075690314 0.0003010772 8.837285e-05
0.0008461842 -0.00057075126 -0.0008642377 -0.0004150806 -0.00080872123 -0.0005667485 0.0009543786 0.0008718378
0.00080654555 -3.185059e-05 -0.00084405363 -0.0003731327 -0.0006872678 -0.00022329908 0.00026652095 0.00023632024
0.0006263948 0.00026513194 0.0008538082 0.00047490702 0.0006817754 0.0002808284 -0.0003019164 -0.0007544389
-0.0009453133 0.000936472 -3.085787e-05 -0.00056621333 -0.00046275317 -0.00047250246 -0.00072894525 -0.000640315
0.00062658876 -0.0005673078 -0.00011963297 -0.00036079105 0.00040723546 0.00042020055 0.00021155947 0.0003920459
0.00045231907 0.00080358225 0.0009893228 -0.00017458643 -0.00094004767 -0.00046521166 0.0009659643 0.00047918037
0.00012402864 0.0008191552 -0.00044625206 0.00027577014 -0.0009565032 5.290069e-05 8.4827596e-05 0.00082087977
3.568376e-05 -1.9804535e-05 -6.0364535e-05 7.3660514e-05 4.3806755e-05 1.0830069e-05 -4.861364e-07 -2.8434519e-05
6.4970896e-05 -3.6990474e-05 -7.8347985e-05 -4.9691982e-05 -1.6432801e-05 -4.0946772e-05 4.7886926e-05 5.6068326e-05
4.4144443e-05 1.5177725e-05 -5.8295434e-05 -1.08800505e-05 -5.631259e-05 2.2484214e-06 3.295312e-05 1.9048804e-05
2.0334142e-05 2.5118672e-05 3.9805866e-05 2.644857e-05 5.1994662e-05 -4.133111e-07 -4.034717e-05 -5.021549e-05
-6.259761e-05 6.944783e-05 2.9888322e-05 -2.6993375e-05 -2.316392e-05 -3.5188456e-05 -5.3942967e-05 -2.4870782e-05
-1.07444e-05 -2.5531594e-05 -2.0395244e-06 7.925697e-07 -1.1879184e-05 1.8951567e-05 1.3912178e-05 -6.358059e-07
2.4469158e-05 6.3963314e-05 4.269912e-05 -1.4983901e-05 -7.28333e-05 -2.189454e-05 7.623261e-05 1.0357252e-05
1.8493976e-05 6.5953434e-05 -6.1829996e-06 -1.8589211e-05 -6.396907e-05 3.2624084e-05 3.6975453e-05 5.683591e-05
-0.00012814991 9.683229e-06 0.000308592 -0.00034805233 -0.00021378306 8.340961e-05 -7.193228e-05 -0.00015479483
-0.0002167031 9.118724e-05 0.00030334058 0.00017250315 0.00020647417 0.00014650417 -0.00030997864 -0.0002805313
-0.00025419515 9.961386e-05 0.00026704185 0.00016211753 0.00023186237 6.267972e-05 -0.0002637635 -0.0001542846
-0.00017657207 -0.00016389931 -0.00027833134 -0.000129866 -0.00021749405 -8.578292e-05 8.652271e-05 0.0002453594
0.00033339407 -0.00028873456 2.2234291e-05 0.00018795219 0.00011543181 0.00019191066 0.00021161864 0.00012163322
-6.7788606e-05 0.0001117332 6.912899e-05 5.2031424e-05 -9.8024255e-05 -0.00012307079 7.1375216e-05 -0.00020206692
-0.00012506804 -0.0003123579 -0.00022125752 6.394338e-05 0.00028177674 9.870177e-05 -0.00023448518 -0.00017767347
4.1513573e-05 -0.00031646554 0.00010875076 -9.663155e-05 0.00030303188 6.12735e-05 -0.00018094399 -0.00025013438
00000000: 7880 ab37 bd2d 8938 ed02 8eb8 49a3 5339
00000010: 1021 7038 a6ca 10b9 0266 04b9 7c6a 0fb9
00000020: 45fa f438 8c2c 00b8 457d 9bb9 9484 afb9
00000030: bea7 25b9 68b7 f4b7 1450 d338 2f12 6c39
00000040: 0ecb 9438 4cb5 bbb8 4b0b 9cb8 a550 3eb9
00000050: c054 99b8 73f2 ae38 8e94 9c39 8d17 8939
00000060: ce47 0238 5fd2 8f39 9b29 7538 d4c1 5438
00000070: d146 9c38 9d1e 43b7 c0b8 50b7 8aa3 4eb8
00000080: 6cd7 50b9 ca25 5439 cdcf 8d39 ea62 edb7
00000090: ed18 ceb7 7f9b 6ab9 372d 58b8 1aef 8db7
000000a0: 669f 0bb8 a71e eab8 2f81 b0b8 002a e7b8
000000b0: 727b 25b9 659a 3bb7 d22d 2cb9 535d 4e38
000000c0: ebc4 ae37 cbab a339 3ddb 4c37 ca6e 2ab9
000000d0: 18e5 42b9 147c c2b8 e00f 5439 78fd 9f38
000000e0: c775 bc37 2683 f538 2463 9338 2b93 18b9
000000f0: 4029 c2b8 f30c 5339 788f aa39 baaf 2739
00000100: e650 053a e6de 84b9 55b5 53ba d051 7c3a
00000110: 06e2 3d3a e96a 46ba e6d9 9d39 d054 b938
00000120: 76d2 5d3a 789e 15ba 038e 62ba 2d9f d9b9
00000130: 5d00 54ba d991 14ba 442f 7a3a 0b8c 643a
00000140: 5b6e 533a 5097 05b8 7b43 5dba 06a1 c3b9
00000150: c329 34ba 6425 6ab9 d6bb 8b39 bbcc 7739
00000160: a534 243a 6801 8b39 19d2 5f3a f1fc f839
00000170: 2cb9 323a 263c 9339 894a 9eb9 8ac5 45ba
00000180: e7ce 77ba 927d 753a 636d 01b8 ef6d 14ba
00000190: ae9d f2b9 35ba f7b9 b016 3fba d0da 27ba
000001a0: a941 243a 62b7 14ba 76e3 fab8 8e28 bdb9
000001b0: 3882 d539 5d4e dc39 10d6 5d39 838b cd39
000001c0: 3d25 ed39 7ea7 523a 2aac 813a 3011 37b9
000001d0: 886d 76ba a7e7 f3b9 c438 7d3a 803a fb39
000001e0: af0d 0239 93bc 563a f0f6 e9b9 3e95 9039
000001f0: d8bd 7aba afe1 5d38 78e5 b138 4f30 573a
00000200: 25ab 1538 ea21 a6b7 ed2f 7db8 307a 9a38
00000210: 25bd 3738 cbb2 3537 0a7f 02b5 aa86 eeb7
00000220: fc40 8838 3826 1bb8 c14e a4b8 5c6c 50b8
00000230: 2cd9 89b7 43be 2bb8 32da 4838 e82a 6b38
00000240: bc27 3938 d5a3 7e37 3f82 74b8 7689 36b7
00000250: 2f31 6cb8 96e3 1636 2537 0a38 ffca 9f37
00000260: 3d93 aa37 f0b5 d237 39f5 2638 dfdd dd37
00000270: d814 5a38 0ce5 ddb4 723a 29b8 799e 52b8
00000280: d646 83b8 85a4 9138 afb8 fa37 d56f e2b7
00000290: 2450 c2b7 5197 13b8 d240 62b8 99a1 d0b7
000002a0: d942 34b7 ae2c d6b7 c3de 08b6 fac0 5435
000002b0: b54c 47b7 2efa 9e37 5968 6937 40ac 2ab5
000002c0: 1e43 cd37 0b24 8638 d517 3338 5d63 7bb7
000002d0: 15be 98b8 2baa b7b7 12df 9f38 0fc4 2d37
000002e0: 8323 9b37 7b50 8a38 9077 cfb6 07f0 9bb7
000002f0: 2227 86b8 d8d5 0838 1716 1b38 1863 6e38
00000300: fb5f 06b9 2775 2237 84ca a139 cb7a b6b9
00000310: f42a 60b9 32ec ae38 59da 96b8 6c50 22b9
00000320: cc3a 63b9 c73b bf38 af09 9f39 f6e1 3439
00000330: fd80 5839 ea9e 1939 a184 a2b9 4614 93b9
00000340: 7f45 85b9 c9e7 d038 c001 8c39 18fe 2939
00000350: 1520 7339 eb72 8338 bd49 8ab9 75c7 21b9
00000360: 3426 39b9 63dc 2bb9 00ed 91b9 a42c 08b9
00000370: 1d0f 64b9 5be6 b3b8 8773 b538 95a3 8039
00000380: 65cb ae39 4c61 97b9 c783 ba37 0815 4539
00000390: fb13 f238 a03b 4939 f2e5 5d39 5615 ff38
000003a0: bb29 8eb8 4e52 ea38 58f9 9038 513c 5a38
000003b0: 5f92 cdb8 900c 01b9 47af 9538 ede1 53b9
000003c0: b224 03b9 f8c3 a3b9 5d01 68b9 5719 8638
000003d0: 6fbb 9339 1cfe ce38 23e0 75b9 dc4d 3ab9
000003e0: dc1e 2e38 49eb a5b9 1f11 e438 aba6 cab8
000003f0: 40e0 9e39 f67f 8038 c8bb 3db9 7824 83b9

exp_avg_sq f4 [64, 64]
1.8844291e-06 1.3677515e-06 7.2695752e-06 7.195197e-06 5.753768e-06 3.2443124e-06 7.326817e-07 4.3781533e-06
5.811626e-06 1.7281138e-06 7.6741035e-06 7.150373e-06 5.4648926e-06 3.6005956e-06 6.8781255e-06 5.476702e-06
8.084627e-06 5.1874667e-06 5.5231058e-06 2.1017352e-06 4.863884e-06 2.0331945e-06 5.6529943e-06 5.901978e-06
5.2578716e-06 6.0241236e-06 5.3217327e-06 4.175929e-06 4.320145e-06 1.222561e-06 1.8151018e-06 5.8700525e-06
6.8670465e-06 6.9996613e-06 2.9783953e-06 2.793052e-06 3.6933739e-06 1.7873639e-06 5.1593083e-06 3.4907039e-06
1.8431418e-06 1.0098012e-06 3.4449936e-06 3.4876475e-06 1.3540572e-06 2.4008104e-06 2.6880418e-06 7.141526e-06
1.6897113e-06 7.209421e-06 7.5350413e-06 1.0009209e-06 7.684985e-06 1.3997994e-06 7.938384e-06 6.796736e-06
3.981407e-06 7.295906e-06 2.8579414e-06 2.3837563e-06 7.271744e-06 2.0129662e-06 6.1338214e-06 6.2081326e-06
2.44522e-06 1.9381305e-06 5.2671917e-06 6.774698e-06 4.356617e-06 3.6639244e-06 1.0025584e-06 3.944776e-06
5.626342e-06 2.9062774e-06 5.001873e-06 4.767455e-06 5.2560845e-06 3.0724327e-06 6.719394e-06 5.784316e-06
5.32387e-06 4.5458387e-06 5.239004e-06 1.6379805e-06 3.4024124e-06 1.191475e-06 3.9382558e-06 4.677869e-06
3.2758026e-06 4.7565227e-06 5.3973345e-06 2.8160998e-06 3.2576222e-06 8.904801e-07 2.3941343e-06 4.5083134e-06
6.697961e-06 6.4860164e-06 1.6059823e-06 2.3530092e-06 2.7285346e-06 2.6161879e-06 4.2425604e-06 3.488915e-06
2.7185226e-06 2.4466133e-06 2.7652575e-06 1.9208683e-06 2.226432e-06 1.762642e-06 2.7716726e-06 4.7205044e-06
1.8573701e-06 5.7739862e-06 7.034391e-06 1.1908295e-06 6.604173e-06 1.9769566e-06 6.979992e-06 4.829358e-06
1.5793906e-06 5.1584857e-06 2.5677648e-06 2.3189473e-06 6.8624126e-06 1.4771662e-06 2.7758895e-06 5.294063e-06
2.6048172e-08 9.917059e-09 3.906163e-08 8.3970534e-08 2.3379577e-08 4.1312134e-08 4.041596e-08 1.3210764e-07
8.486986e-08 3.283634e-08 1.0514848e-07 1.3032374e-07 2.1338046e-08 1.3646319e-08 2.6598403e-08 8.751898e-08
2.759029e-08 9.5564744e-08 5.0277908e-08 1.6159929e-08 5.246678e-08 4.580902e-08 2.7595984e-08 3.973689e-08
7.993961e-08 6.374898e-08 1.5693148e-08 1.5701357e-08 3.745381e-08 4.5470216e-08 4.7848108e-08 1.7752589e-08
8.2316674e-08 9.424403e-08 3.4041204e-08 1.2489236e-08 7.795102e-08 1.3964522e-07 4.5440956e-08 4.0183e-08
7.973956e-08 2.3444727e-08 2.370062e-08 2.3326006e-08 1.2633238e-07 1.3574838e-08 4.768003e-08 6.631534e-08
4.6813726e-09 8.076417e-08 2.341357e-08 6.9536526e-08 9.347918e-08 1.7716276e-08 1.2416682e-07 3.2333382e-08
8.015909e-08 6.68252e-08 3.8770338e-08 1.3384353e-07 9.249807e-08 1.1151268e-07 1.2348028e-07 4.322272e-08
2.3709477e-07 1.9738856e-07 7.9408335e-07 9.531026e-07 6.2882674e-07 4.1282942e-07 1.4839203e-07 5.7056906e-07
6.2422515e-07 3.029004e-07 8.3975965e-07 7.262919e-07 7.3676836e-07 3.7470903e-07 9.4197964e-07 7.573749e-07
8.5887575e-07 6.642843e-07 6.552725e-07 2.7972666e-07 5.4935094e-07 2.9895727e-07 7.0576e-07 7.4201023e-07
5.8162226e-07 7.5333645e-07 7.239535e-07 4.2088453e-07 4.875769e-07 1.4340314e-07 3.3184767e-07 6.1509377e-07
9.23417e-07 8.651702e-07 3.8303017e-07 3.1188677e-07 4.6420894e-07 3.4310793e-07 5.312008e-07 4.0973873e-07
3.0113802e-07 2.722691e-07 4.1692007e-07 3.778658e-07 2.39278e-07 2.5636004e-07 3.1089252e-07 7.070957e-07
2.0501687e-07 8.860864e-07 9.609386e-07 1.6747103e-07 8.7368505e-07 2.7213446e-07 9.0862164e-07 7.495339e-07
3.5943654e-07 8.0758207e-07 4.278644e-07 3.3303147e-07 9.493593e-07 3.8926547e-07 5.5462726e-07 6.870488e-07
00000000: 7eec fc35 9593 b735 2ded f336 466e f136
00000010: 7e10 c136 ddb8 5936 81ad 4435 0de8 9236
00000020: 7d01 c336 8af1 e735 06c0 0037 3ded ef36
00000030: 125f b736 c3a1 7136 a6ca e636 83c4 b736
00000040: 35a3 0737 0010 ae36 1e53 b936 890b 0d36
00000050: 7234 a336 0472 0836 daae bd36 9b09 c636
00000060: c66c b036 d422 ca36 5691 b236 f51e 8c36
00000070: c3f5 9036 e016 a435 6c9e f335 5ef7 c436
00000080: 7b6b e636 a2de ea36 71e0 4736 4570 3b36
00000090: aedb 7736 5be5 ef35 1f1e ad36 d641 6a36
000000a0: df61 f735 8188 8735 8a30 6736 540d 6a36
000000b0: 0dbd b535 9c1d 2136 3564 3436 3ea1 ef36
000000c0: 0aca e235 74e8 f136 83d5 fc36 6157 8635
000000d0: c2ee 0037 bee0 bb35 1a2f 0537 850f e436
000000e0: 0798 8536 5bcf f436 0fcb 3f36 9ff8 1f36
000000f0: ceff f336 7f16 0736 20d1 cd36 744f d036
00000100: 8f18 2436 d410 0236 d5bc b036 3652 e336
00000110: 0e2f 9236 bee1 7536 a58f 8635 5e5d 8436
00000120: e9c9 bc36 7709 4336 c3d5 a736 20f8 9f36
00000130: 6c5d b036 fe2f 4e36 2877 e136 e516 c236
00000140: b2a3 b236 7588 9836 b4ca af36 95d8 db35
00000150: 0055 6436 c5ea 9f35 5c25 8436 97f6 9c36
00000160: dcd5 5b36 389a 9f36 c01a b536 3afc 3c36
00000170: 869d 5a36 5409 6f35 eaaa 2036 1e46 9736
00000180: 0cbf e036 75a2 d936 228d d735 64e8 1d36
00000190: de1b 3736 c491 2f36 515b 8e36 1a23 6a36
000001a0: dd6f 3636 7f30 2436 c392 3936 44e8 0036
000001b0: cf69 1536 eb93 ec35 f900 3a36 d364 9e36
000001c0: c04a f935 2abe c136 f508 ec36 97d4 9f35
000001d0: 6a99 dd36 dbab 0436 ad35 ea36 df0b a236
000001e0: 73fb d335 0e17 ad36 dd51 2c36 369f 1b36
000001f0: ad43 e636 0b43 c635 6b49 3a36 a8a3 b136
00000200: 89c0 df32 b05f 2a32 b7c4 2733 4a53 b433
00000210: 3cd4 c832 2c6f 3133 d195 2d33 79d9 0d34
00000220: b341 b633 f007 0d33 fdcd e133 1eef 0b34
00000230: dc4a b732 2571 6a32 827a e432 11f2 bb33
00000240: b0ff ec32 4639 cd33 25f1 5733 0fd0 8a32
00000250: d657 6133 8dbf 4433 360c ed32 2cab 2a33
00000260: 44ab ab33 5fe6 8833 99cd 8632 a6df 8632
00000270: e6dc 2033 084b 4333 8d81 4d33 5b7e 9832
00000280: 12c6 b033 3463 ca33 b334 1233 3e90 5632
00000290: 0766 a733 63f1 1534 dc2a 4333 ad95 2c33
000002a0: 493d ab33 8063 c932 3796 cb32 6e5e c832
000002b0: fba5 0734 c536 6932 bfc8 4c33 3e69 8e33
000002c0: cad9 a031 9270 ad33 fc1e c932 1c54 9533
000002d0: b9be c833 812e 9832 b752 0534 eede 0a33
000002e0: ed23 ac33 8b81 8f33 7084 2633 a1b6 0f34
000002f0: 5aa3 c633 bf78 ef33 0096 0434 e2a3 3933
00000300: 1d94 7e34 c1f1 5334 fe28 5535 b6d8 7f35
00000310: a5cc 2835 d8a2 dd34 b155 1f34 3529 1935
00000320: 6d90 2735 509e a234 d86b 6135 66f6 4235
00000330: 56c6 4535 9e2b c934 59dc 7c35 684e 4b35
00000340: 7e8d 6635 4551 3235 fce5 2f35 572d 9634
00000350: 1c77 1335 6080 a034 7573 3d35 8e2e 4735
00000360: c720 1c35 e338 4a35 b555 4235 eef5 e134
00000370: 08e2 0235 5bfa 1934 cc28 b234 ec1c 2535
00000380: bce0 7735 0b3e 6835 44a3 cd34 6471 a734
00000390: 6438 f934 6534 b834 d797 0e35 10fa db34
000003a0: 18ac a134 612c 9234 0fd5 df34 7bdd ca34
000003b0: 1e76 8034 dba1 8934 bee8 a634 3fcf 3d35
000003c0: 9c22 5c34 65db 6d35 99f9 8035 16d2 3334
000003d0: 2e87 6a35 e019 9234 01e8 7335 9433 4935
000003e0: 95f8 c034 9ec8 5835 3cb5 e534 7fcb b234
000003f0: 79d7 7e35 3dfc d034 b2e1 1435 a26d 3835
