eval/eval_rl/runs/CartpolePPO/nn/last_CartpolePPO_ep_200_rew_1185.4141.pth (torch, 70524 bytes, 24 tensors)

value_mean_std.running_mean f8 [1]
000000 f3 f8 71 3e 04 92 79 40
       409.1260361148881

value_mean_std.running_var f8 [1]
000000 78 6d dd 60 d2 81 d4 40
       20999.287162167457

value_mean_std.count f8 []
000000 00 00 00 10 00 00 79 41
       26214401.0

running_mean_std.running_mean f8 [4]
000000 88 bd e4 e7 3f 3c e3 3f b0 30 01 fc d1 f1 98 bf
       0.6011046914263014 -0.024359971052306306
000010 83 04 f8 73 fc 6c cc 3f e5 3c 32 99 c0 00 5e 3f
       0.22207599318065627 0.0018312340587590067

running_mean_std.running_var f8 [4]
000000 59 0e be b8 73 25 ee 3f 11 8b a2 4e 0f 78 e8 3f
       0.9420717819452405 0.7646557365263523
000010 f4 d4 af 02 32 c6 f6 3f 7d 63 2e 9c e1 27 0f 40
       1.423387537475091 3.8944732858330426

running_mean_std.count f8 []
000000 00 00 00 20 00 00 69 41
       13107201.0

a2c_network.actor_mlp.0.weight f4 [64, 4]
000000 f7 cb 9c 3c 2a 38 2d 3f 30 bc 3c 3e c6 73 f3 3e
       0.019140227 0.67663825 0.18431163 0.47549266
000010 aa 4c c0 bb 55 19 f5 be 35 bb db bd 15 f7 15 be
       -0.005868514 -0.4787089 -0.10729066 -0.14645036
000020 3c 09 a9 be b0 4f 3d bf 4e e3 85 bc e3 0a 0b 3c
       -0.33014858 -0.7394972 -0.016343739 0.008486482
000030 1d b3 c6 3d 6a eb c6 3e bb 38 67 be 7f 6b d9 3d
       0.09702132 0.38851482 -0.22580235 0.106162064
000040 83 03 70 3e d0 86 ad 3f 4a 06 45 3e 84 84 95 3e
       0.2343884 1.3556767 0.1924068 0.29202664
000050 7e 5c ca 3e c6 52 ed 3c d0 cf 0d 3f 50 8d ec bf
       0.3952369 0.028970134 0.5539522 -1.8480625
000060 35 9c 60 be 7b 91 30 3e b2 9e a5 3b c7 2d f1 3d
       -0.21934588 0.17242996 0.0050543183 0.117763095
000070 43 df 91 be 20 90 8c bd 28 ae e8 be c6 5d 21 bf
       -0.28490648 -0.06863427 -0.4544537 -0.6303371
000080 54 b1 ab be 0a e6 34 3f f8 7c 11 3e e6 5f 7b 3e
       -0.33533728 0.7066351 0.14207828 0.24548301
000090 81 76 4a 3d 3e 36 06 bf 4d 19 1f 3c b7 d1 5e bf
       0.04942942 -0.52426517 0.009710622 -0.8703875
0000a0 9e f6 e6 be e2 a0 90 be e1 0f 1a 3e 1a a3 0f 3f
       -0.4511003 -0.28247744 0.1504512 0.5610825
0000b0 56 ca 2a 3e ca b4 8e 3e 54 f4 60 3e f1 c9 3f 3f
       0.16678748 0.27872306 0.21968204 0.74917513
0000c0 77 59 95 3e b5 70 08 3c cc b4 16 3f 61 d1 28 bf
       0.2916982 0.008327653 0.58869624 -0.65944487
0000d0 c4 03 bb bd 59 7d 9d bf 9f 6a 58 be 73 ec a8 be
       -0.091315776 -1.2303878 -0.21134423 -0.32992896
0000e0 a2 f9 70 3d db 9e d1 3e 72 96 5a be 00 a6 ee 3e
       0.05883182 0.4094151 -0.21346453 0.46611023
0000f0 3e 80 ad 3b a0 cb a2 3e 6c bc d1 bc 3a 13 8b 3e
       0.0052948287 0.3179598 -0.025602542 0.27163106
000100 9c 1f af 3e 0a 4b 70 3f bb 42 77 3d 77 78 66 bf
       0.34203804 0.938645 0.060366374 -0.90027565
000110 32 8b 9d 3d d4 32 05 3f 14 a8 33 3f 54 28 36 3f
       0.07692565 0.5203068 0.7017834 0.71155286
000120 ff fa 0c 3c 67 87 60 bf 07 ec e3 bd fc 64 0a bf
       0.008604764 -0.8770661 -0.11129003 -0.5406034
000130 90 9a fb bd 10 c0 30 3e 49 5e 0a 3f 39 74 ee be
       -0.1228534 0.17260766 0.5405012 -0.46573046
000140 df 35 0d be b9 3c 23 bf db 4a d9 bd fa 5e 17 be
       -0.13790081 -0.6376453 -0.10609981 -0.14782324
000150 96 de 13 3e b4 15 d0 be 48 73 20 3c d9 13 ff 3d
       0.14440379 -0.40641558 0.00979311 0.124549575
000160 ea 09 d0 3e 26 42 d7 be da e4 d9 be 0c bc c5 be
       0.40632564 -0.42042655 -0.42557412 -0.3862003
000170 f5 9e 70 be 93 42 aa be e8 d7 00 bf 10 fe 44 bf
       -0.23498137 -0.33253917 -0.50329447 -0.7695017
000180 af 72 97 3e eb 2e 6f 3f bb 66 8a 3c 25 37 f0 3b
       0.29579684 0.93430966 0.016894689 0.0073307925
000190 15 ab aa be d2 b7 f1 be 1d 64 0c bf 7f 79 44 bf
       -0.3333365 -0.47210556 -0.5484026 -0.7674789
0001a0 ab 98 08 3e ff 1f 2b 3f ea d3 11 be ad be 23 3f
       0.13339488 0.668457 -0.14240995 0.63962823
0001b0 a3 a6 0a be c1 d5 c1 3e f4 13 a7 3d 34 f3 4b be
       -0.1354013 0.37858394 0.08158103 -0.19916993
0001c0 25 46 bc 3d c2 a3 fe 3e ae dd 80 3d ae 9e f7 3d
       0.091930665 0.49734312 0.06292282 0.120908126
0001d0 28 56 90 3e 9e be 2f 3e bf b1 96 bd af 6f da 3e
       0.28190732 0.17162558 -0.07358121 0.42663333
0001e0 79 a7 82 be c9 e6 11 bf ed 4f d8 bd 36 47 20 bf
       -0.25518396 -0.56992775 -0.1056212 -0.6260866
0001f0 f8 5d 1a be 2a 32 5a bf 37 7a a1 bd 60 cd 1a be
       -0.15074909 -0.85232794 -0.07884639 -0.15117407
000200 af 31 89 bd 95 08 b4 be 28 25 1d 3e 4d c9 ba be
       -0.066989295 -0.35162798 0.15346205 -0.36481705
000210 f9 d4 7c bc 6e cf db 3e 78 b1 af 3b 5a 4c ce 3d
       -0.015431636 0.42931694 0.005361732 0.10073157
000220 16 c5 51 3f 37 f5 07 bd fc 10 0b bd 6d b8 30 be
       0.81941354 -0.03319284 -0.033951744 -0.17257853
000230 37 f5 3b be eb 04 b4 be 35 19 12 3e eb 7f 10 be
       -0.18355261 -0.35160002 0.14267428 -0.14111297
000240 4d d3 95 be 73 61 a5 bf 51 bf 95 be 27 26 0c bf
       -0.29262772 -1.2920364 -0.29247525 -0.54745716
000250 32 17 cc 3e 97 f1 0c 3f a2 1c 9a 3d 98 44 2d be
       0.39861447 0.55056137 0.075249925 -0.16920698
000260 86 03 a5 3b 22 78 6c bf 54 34 27 be fc 1c 81 be
       0.0050358204 -0.9237081 -0.16328555 -0.25217426
000270 1a 59 10 3d bf ba 93 bf 75 ea d5 bc f7 93 38 bf
       0.035241224 -1.1541365 -0.026112774 -0.72100776
000280 b0 f7 b2 bd 5c 77 8b 3e 93 7e c6 be bf 63 08 3f
       -0.08738649 0.272395 -0.38768443 0.532772
000290 b0 ce 8d 3c c9 5c b2 bd 4f a2 7f 3e f8 85 50 bf
       0.01731047 -0.087091036 0.2496426 -0.8145442
0002a0 cd 52 1b 3f 90 5d 2d bc e9 fd 10 be 32 7b 52 3f
       0.6067322 -0.010581389 -0.14159359 0.8221923
0002b0 7d c5 65 3d fa 35 d4 bd 4f b7 c4 3e b0 a7 a5 bf
       0.056096543 -0.10361858 0.38421103 -1.2941799
0002c0 e3 4f c8 be 88 b0 00 3f fa 1d 0a be c8 8a a7 3e
       -0.3912345 0.50269365 -0.13487998 0.3272307
0002d0 79 e9 0c 3d d6 e8 9f 3e 43 ce 04 bd ad be 89 3c
       0.034402344 0.31232327 -0.03242327 0.016814554
0002e0 bc 9f 9d be 3d 44 ed 3e a5 aa d1 3e a2 32 0e 3f
       -0.3078593 0.46341124 0.40950504 0.5554601
0002f0 eb db 84 be da 7a 01 3e 4b a7 a4 be ba 82 1b bf
       -0.25949034 0.1264452 -0.32158884 -0.6074635
000300 18 17 88 bd 0e fc 62 3e 69 97 4f 3a df 53 b9 3d
       -0.0664503 0.22166464 0.0007918985 0.090492
000310 b1 b2 2d bd c4 00 22 3e 6c ae b3 be a2 f8 80 be
       -0.04240674 0.15820605 -0.3509401 -0.25189692
000320 7b 4e 1d be 47 46 4d 3f ec 95 92 be 42 00 5a 3f
       -0.15361969 0.8018536 -0.28630006 0.85156643
000330 2b ba 94 3d 89 dc c9 3d 05 1b ba bc e3 ab 29 3d
       0.07262071 0.09856517 -0.022717962 0.04142369
000340 79 01 c4 bc 8d 82 fa be 84 5c f6 3c b6 b2 b9 3d
       -0.023926483 -0.48927727 0.030073412 0.090672895
000350 cd f4 92 be 33 d5 0d bd 60 d1 4a 3e 3b ea 62 bf
       -0.28702393 -0.03462715 0.19806433 -0.8863866
000360 08 57 37 be bc d2 1d 3f bd 5a ea bb ee 6b 0b be
       -0.17904294 0.6164968 -0.00715193 -0.1361539
000370 e4 f0 a4 be d6 8e 14 3e 7f 69 b8 be 0e 03 b1 be
       -0.32215035 0.14507613 -0.36017987 -0.34572643
000380 bd 9d 92 be 38 d6 b7 bd 7f 09 44 3e 74 61 e2 3e
       -0.2863597 -0.08976406 0.19144247 0.44214976
000390 9f 37 06 3e 88 37 14 3f 0f ef 02 3e 65 d8 3c be
       0.13107155 0.57897234 0.12786506 -0.18441923
0003a0 48 86 6a 3e c4 10 2c bf 89 57 2a be d6 4b 44 3c
       0.22902787 -0.6721308 -0.16634955 0.011980971
0003b0 63 ba 67 be 5b 92 2a 3f 8e 16 ba be 8e 2b e3 bd
       -0.22629695 0.6662957 -0.36345333 -0.11092292
0003c0 b4 b8 b4 3d 62 ba 48 bf 0b c5 44 3d 0d 89 2c bf
       0.08824292 -0.784094 0.048039477 -0.6739662
0003d0 a7 c5 d5 3e 32 0a 7c be 24 0e 1d 3e d8 c9 a3 3e
       0.4175236 -0.24613264 0.15337425 0.31989932
0003e0 3c 3d 32 3e 68 69 90 be 15 fc 3e be 2a 4d 45 bf
       0.17406172 -0.2820542 -0.18650849 -0.7707087
0003f0 f8 d7 b5 3c f4 61 c3 3e d5 53 b2 bc f0 9b b6 bc
       0.022197708 0.3816067 -0.02176849 -0.022291154

a2c_network.actor_mlp.0.bias f4 [64]
000000 e2 a0 83 be 1b bc 5c 3d 1f 5d 8f 3e e3 a8 20 bf
       -0.2570868 0.05389033 0.28000733 -0.627577
000010 3a 0b 47 3e fd b7 7f 3e 54 88 ad 3e e5 16 8f 3f
       0.19437876 0.2497253 0.33893073 1.1178862
000020 71 7f 2d bf 84 13 ab 3e 3e 71 21 3f d5 3d 8c 3f
       -0.67772585 0.33413327 0.6306342 1.095637
000030 f5 8a 29 3e fe ac b4 bc 68 b0 da be 14 5c 35 bf
       0.16556914 -0.022055145 -0.42712712 -0.70843625
000040 ca 7d e3 3d bb 26 67 bf 39 af f2 3e 41 2a df 3d
       0.11107977 -0.90293473 0.4739931 0.10896731
000050 dd 42 db 3e c6 60 ae be 0b 16 01 bf 1e ee 0e bf
       0.4282445 -0.34058207 -0.5042426 -0.5583209
000060 cf 1b 1d 3f cf b6 45 bf 75 11 31 be e5 e2 df bd
       0.6137056 -0.7723207 -0.17291816 -0.109319486
000070 1a bb af be 41 74 a4 3e 42 fc e7 3e 2e eb 6e 3c
       -0.34322435 0.32119945 0.45309645 0.014582438
000080 1a e4 42 3f d7 b1 3c bf 37 b7 99 be 7c 61 b1 bd
       0.76129305 -0.7370886 -0.30022594 -0.08661172
000090 df 88 48 bf 5b ed 9f 3f 72 b2 c9 3e c5 f9 ca be
       -0.7833385 1.249431 0.39393955 -0.39643684
0000a0 bd d8 12 3f ca e6 b4 3e 6f 4c 90 3d 62 f7 97 3e
       0.57361966 0.35332328 0.070458286 0.29680926
0000b0 c8 51 76 3f 67 bb 7f 3d ce f2 f0 be 3c 12 f3 3e
       0.9621854 0.06243458 -0.47060245 0.4747485
0000c0 7d 55 aa bd 3e 6a 33 bf 5b 42 94 be 30 27 12 3f
       -0.08317087 -0.7008399 -0.28956875 0.57091045
0000d0 66 46 43 3f f3 6b 58 3d b3 fb 6a bf f4 d5 93 3d
       0.76279294 0.052837323 -0.9179031 0.07218543
0000e0 b3 e9 1d bf f0 7e 14 bf 75 7b d2 be 93 79 85 3f
       -0.6168472 -0.5800619 -0.41109815 1.0427727
0000f0 71 9b 55 3f c7 5d 50 bf 1b a6 89 bf 78 66 da be
       0.8344031 -0.8139309 -1.0753816 -0.42656302

a2c_network.actor_mlp.2.weight f4 [64, 64]
000000 6a 73 c4 3e 4f 2f 44 be ad be d1 bd 20 84 36 be
       0.38369304 -0.19158672 -0.10241447 -0.17823839
000010 65 59 4f 3e 4d 84 68 bf ec 5f c2 3d 79 39 d7 be
       0.20248945 -0.90826875 0.09490952 -0.42036036
000020 da 22 6c 3e 5b d0 a9 be f8 ac 13 bd ba 25 f0 3d
       0.2306017 -0.33166775 -0.036053628 0.11725946
000030 36 05 e9 be 85 74 b4 bd bb 21 64 3e bb 20 cb 3e
       -0.45511788 -0.08811287 0.22278492 0.3967341
000040 56 ad 96 3e 09 74 c3 bd fb 46 d4 3c d3 71 9e be
       0.2942912 -0.09543616 0.025912752 -0.30946216
000050 f9 88 fc be 53 9f 40 3f 7e fc 55 be 53 31 48 be
       -0.49323252 0.7524311 -0.208971 -0.19550066
000060 bc ec bc be bf 7c 2c be c7 ff 01 bc 98 c1 33 3d
       -0.36899364 -0.16844462 -0.007934517 0.043885797
000070 8e 0b a5 3e 6e 85 2c 3e fe 33 be bd 72 28 7c bd
       0.32235378 0.16847774 -0.092872605 -0.06156201
000080 1a 1e 57 be e8 8d b4 3e 3a d6 e4 be 36 21 dd 3e
       -0.21007577 0.35264516 -0.44694692 0.431894
000090 5d 1a 96 bc 3f bf 58 be 9f 42 d2 be e8 82 a9 3e
       -0.018323118 -0.21166705 -0.41066453 0.33107686
0000a0 c0 b5 40 3e ad 6b ba be 30 8e 3a 3e 45 4c 1d bf
       0.18819332 -0.36410275 0.18218303 -0.61444503
0000b0 8f 95 9c bd ab ba d9 be ff ee 9a 3e f0 1f e2 be
       -0.076457135 -0.4252523 0.30260465 -0.4416499
0000c0 0e 7e e3 be fe f1 20 be 61 ce e6 bc a5 68 d7 bd
       -0.4443211 -0.15717313 -0.028174581 -0.10518006
0000d0 de 7e 5b be 17 a5 a4 bd 6e 8c fb 3e 6d 71 6a be
       -0.21435115 -0.08039301 0.49130577 -0.22894831
0000e0 83 20 ff 3e 34 fb 31 3e e1 6a ea 3e b7 94 fa be
       0.49829492 0.17380983 0.45784667 -0.48941585
0000f0 e4 2e c4 3d 16 39 1b 3f 1e 5f 19 3c ac f9 e0 3c
       0.09579256 0.6063398 0.009361057 0.027462803
000100 34 a2 da bd 78 af 8e 3e a3 a0 cb 3d 35 1d b0 bc
       -0.10675469 0.27868247 0.099427484 -0.021498302
000110 1f cd 0d be 40 a7 51 bf 80 44 e4 3b 0b 39 4a 3e
       -0.13847779 -0.8189583 0.0069661736 0.19748323
000120 61 f6 9c be 7d 54 64 be 64 2d 27 bf a7 be 93 3e
       -0.30656722 -0.22297855 -0.65303636 0.28856394
000130 19 20 aa bc 8c 87 03 3e 08 32 da bd f3 76 7c be
       -0.020767258 0.12844676 -0.10654074 -0.2465475
000140 5c fa 2d 3f 3e 84 69 bd 03 bc b6 3e 49 78 8d 3e
       0.67960143 -0.05701088 0.35690317 0.27630833
000150 f1 0f 43 3e d2 4b 70 be cc f5 39 be ea c5 ee 3c
       0.1904905 -0.23466423 -0.1816017 0.029147107
000160 dc 47 ab 3e 8f 1a d4 bd 00 d1 1c be db cc 2d 3e
       0.33453262 -0.10356628 -0.15314102 0.16972677
000170 8b d1 a3 be 76 e4 77 3e 79 64 a2 3d 8e 4a 14 3e
       -0.31995806 0.24208245 0.0792932 0.14481565
000180 0d e6 7f 3e 00 43 05 bf ea 96 f5 be 63 d0 fa bd
       0.24990101 -0.5205536 -0.479667 -0.12246778
000190 cf 0a c5 be 2a 19 73 3f 9b 53 51 3e 38 da 8c be
       -0.3848481 0.9496027 0.20442049 -0.27510238
0001a0 6a ca e3 3d ca 56 92 be c8 50 64 3d 16 9d ca be
       0.11122592 -0.2858184 0.0557411 -0.39572972
0001b0 7a 3c c3 3e a8 64 90 3e ce 14 f5 3c ec 47 5a 3d
       0.38132077 0.28201795 0.029917147 0.053291246
0001c0 6a 1b 88 3c e8 17 32 be a6 83 4e be 6a 32 d9 3e
       0.016614635 -0.17391932 -0.20167407 0.42421275
0001d0 ae da 11 bd 61 3c b6 be 0e 86 91 be ad dd 38 3e
       -0.03560894 -0.3559294 -0.28422588 0.18053313
0001e0 74 2f 41 be fb be 51 3c f9 93 8b be e6 d5 2a 3f
       -0.18865758 0.012801881 -0.27261332 0.66732633
0001f0 8b 54 c6 3e cc fa 01 bf e1 8b 42 be 00 98 9c 3c
       0.38736376 -0.5077331 -0.18998672 0.019115448
000200 6e 0b 68 3e 3c f5 a5 bc b8 16 c2 bc d5 65 b1 3d
       0.2266061 -0.020258538 -0.023692474 0.08662001
000210 6f 02 a6 3d 80 17 74 3d de a1 76 bd f2 25 8b bc
       0.08105933 0.059592724 -0.060212962 -0.016985867
000220 eb cb ca bd 6b ab 4e bd 2d 5a dc 3d ca dc 5e be
       -0.099021755 -0.050456446 0.10759387 -0.21763912
000230 f7 da 96 3d 52 61 be bc cc 6b 22 bd 90 fa e3 bd
       0.07365983 -0.023239765 -0.039653584 -0.111317754
000240 c3 68 2f be 01 9a 1c 3d 7d 11 81 bc 12 22 7c 3e
       -0.17129807 0.038232807 -0.01575541 0.24622372
000250 22 81 58 3d 3f 6b a0 bd bd 73 f6 3d a2 10 44 be
       0.052857526 -0.078329556 0.12033794 -0.1914697
000260 52 ca b5 bd c6 4c cf bc 0e 49 09 be 24 0c d5 3d
       -0.0887648 -0.025305163 -0.13406774 0.10402706
000270 b8 1c 61 bd 0c 83 30 bd 34 9e 97 bd 47 f3 af 3d
       -0.05495903 -0.043093726 -0.07403222 0.08591323
000280 bd 70 4b 3d 29 67 bd 3d b1 37 87 3e b5 b1 26 3e
       0.049668062 0.09248192 0.26409677 0.16278727
000290 3b 5d 03 3e 10 65 aa bd b1 0e ce bd a5 ae 56 3d
       0.12828533 -0.083200574 -0.10061396 0.052412648
0002a0 20 0f 8d 3d 6a 8b 9d bd 2d 50 16 3e a5 0a b5 bd
       0.068876505 -0.07692607 0.14679022 -0.08839921
0002b0 a1 78 ba 3c 61 8f 0f be 48 37 34 3e 3b 23 2f 3e
       0.022762598 -0.14019538 0.17599213 0.17103283
0002c0 53 79 94 bd 48 a9 51 3e d5 fd 67 3d 6a 78 dd 3d
       -0.07249703 0.20474732 0.056638557 0.10813983
0002d0 6b aa 52 3e 46 52 d8 bd 94 9c 6f 3d 0e ea fb 3d
       0.20572822 -0.105625674 0.058498934 0.12300502
0002e0 69 e2 56 bd d5 7a 8a 3d 3e f5 13 bd 04 1c 02 3e
       -0.052462015 0.067617096 -0.036122553 0.12706
0002f0 28 91 5d bd 0c 7b 5a be 78 f6 aa 3d a2 4c 4d 3d
       -0.05409351 -0.21336001 0.083477914 0.05012191
000300 ed 73 3e 3d 55 b2 27 be e2 3c 67 3d da cf b4 3c
       0.046497274 -0.16376622 0.056454547 0.022071768
000310 77 36 16 3e 86 91 61 3e 74 25 36 bb ac bf 2a be
       0.14669214 0.22028169 -0.002779332 -0.1667468
000320 80 2d 52 3c a6 e1 53 3d 68 94 ef 3d 7d 2a 4a be
       0.012828231 0.051728867 0.11698228 -0.1974277
000330 2d 03 2c 3e 4a 8f 99 be b8 7e 82 3d bd 9c e5 3b
       0.16798086 -0.29992133 0.06371826 0.00700721
000340 4e 65 af bd 36 a5 ff 3d 67 4e 3c be 80 7c d5 3d
       -0.08564244 0.12482683 -0.18389283 0.10424137
000350 c8 17 e7 bc c4 f1 25 be e3 80 92 3d 10 92 81 3d
       -0.028209582 -0.16205508 0.071534894 0.06326687
000360 f9 3b 48 bd f5 8c a5 3d e1 2e 10 be 0f ed 98 3d
       -0.04888532 0.08083526 -0.14080383 0.0746709
000370 94 c2 ab 3c 2e f9 da b9 1c 07 20 bd 5a e3 b2 bd
       0.020966806 -0.00041765854 -0.03906928 -0.0873477
000380 ae a1 16 3c f1 b1 97 3d ed e1 1b 3e 5c 4e f1 bd
       0.009193821 0.074069865 0.15222903 -0.11782524
000390 7c be bb 3e 3e 19 4d be dd c3 cd bd 9d e9 be 3d
       0.36668766 -0.2002916 -0.100471236 0.09321902
0003a0 c7 b0 28 be 93 7f cd 3d 97 90 d9 bc 4d 26 14 3e
       -0.16473685 0.100340985 -0.026558204 0.14467736
0003b0 61 15 06 be d1 3a 4e bc 3c 55 4b 3d c7 fb 15 3e
       -0.13094093 -0.012587265 0.049641833 0.14646827
0003c0 f2 99 19 3d 1e 12 65 3e 65 02 ad bc f5 a6 d2 39
       0.03750033 0.22370192 -0.021119306 0.00040178714
0003d0 d8 35 90 3e c2 00 42 3e eb a0 13 3e b7 e0 94 3d
       0.2816608 0.18945602 0.14416854 0.072694235
0003e0 4b 0c 94 bd b9 1f bb bc e5 e8 4b bb 53 71 97 3d
       -0.07228907 -0.022842275 -0.0031114158 0.07394662
0003f0 9f 50 e3 bd c7 a4 89 be b8 07 16 3e d1 d8 ff 3d
       -0.11099362 -0.26883528 0.14651382 0.12492526

a2c_network.actor_mlp.2.bias f4 [64]
000000 20 4e dd be ac d4 d2 3e 18 d6 62 3e bb dd ca 3e
       -0.43223667 0.4117788 0.22151983 0.39622292
000010 a8 24 9b 3b 61 4f f1 bd 6d 8f bf 3c 25 a7 a7 3e
       0.0047345944 -0.117827184 0.02338382 0.3274471
000020 98 64 97 be 15 70 0f bf 08 03 09 bf 02 b7 5c be
       -0.29568934 -0.560304 -0.5352025 -0.21554187
000030 3d ff 98 bd c0 d9 6a 3d cc a7 21 3e 9e d6 22 3e
       -0.07470558 0.05733657 0.15786666 0.15902182
000040 6d 97 77 be 73 70 3a be 54 ad 48 bf db 3b 28 bf
       -0.24178858 -0.18206958 -0.7838948 -0.6571633
000050 b6 2b 7d 3e 0e 78 a2 3e 9c 49 3f bd ab fc ae 3e
       0.24723706 0.3173222 -0.04670106 0.34177145
000060 c5 a3 9d bc 8c c1 2d bd 9c b1 3f bf 08 02 a5 bd
       -0.01924313 -0.04242091 -0.74880385 -0.08057028
000070 bd 53 8f 3e 4c 71 08 3f b1 e2 86 3e c1 9c 86 be
       0.27993575 0.5329788 0.26344827 -0.2629147
000080 b5 27 3f 3e c9 a9 93 be f9 ee c1 be 42 c3 ab be
       0.18667491 -0.28840473 -0.37877634 -0.33547407
000090 95 fe 41 bb c1 3e 1f be 7f 54 46 bf 8d e7 10 bf
       -0.0029601206 -0.15551282 -0.7747268 -0.5660332
0000a0 db ce 27 bf 5c 59 1d be 15 59 19 bd c7 f9 dc be
       -0.6555001 -0.15366119 -0.03743847 -0.43159315
0000b0 50 e5 1d 3f 9a f6 93 be a3 19 13 be e7 93 83 be
       0.6167803 -0.2889908 -0.14365248 -0.25698778
0000c0 8d d3 2e be bd 58 80 be a8 fc 18 3e 2e 48 85 3e
       -0.17072888 -0.25067702 0.1494013 0.2603163
0000d0 d3 a1 22 bf f5 e9 11 3f a2 67 b3 be c9 76 e1 3e
       -0.63528174 0.56997615 -0.35040003 0.44035938
0000e0 07 23 07 3d 2f 69 35 3f eb 36 af be 2f 91 a4 be
       0.03299239 0.7086362 -0.34221587 -0.32142016
0000f0 0d 76 5b be f8 e7 33 bf f8 82 03 be b7 bd 20 3f
       -0.21431752 -0.7027583 -0.1284293 0.6278948

a2c_network.value.weight f4 [1, 64]
000000 33 ce 85 3d 18 3e d1 3d 38 5d 8b bb 7e 4d 8b bd
       0.0653347 0.102169216 -0.004253056 -0.0680189
000010 00 57 9a 3b bb 39 72 be ee 39 80 3e 5c 68 f4 bd
       0.0047100782 -0.23654835 0.25044197 -0.119339675
000020 07 0f 22 3e 89 d4 f8 3d 48 49 f4 3d 88 20 f7 bc
       0.15826045 0.12149913 0.1192804 -0.03016688
000030 46 cd 8c bc 62 a2 66 3b d8 b2 d6 bc 18 f5 7f 3c
       -0.017187726 0.0035192003 -0.026208326 0.0156224
000040 6b 4e 9d 3c df 78 08 3e 81 fa a6 3e 40 11 8e 3e
       0.019202432 0.13327359 0.32612994 0.27747536
000050 33 0d c6 be 82 e0 b1 be 54 f9 40 3e 00 e0 59 3e
       -0.38681945 -0.34741598 0.18845111 0.21276855
000060 b5 b0 16 3c 8c 33 20 3c ec 95 79 3e 74 d1 f3 bb
       0.009197404 0.009777915 0.24373597 -0.0074407402
000070 45 a4 e3 3e 68 da 61 be c3 c8 30 3e 68 e7 80 3c
       0.44461265 -0.22055972 0.17264085 0.015735343
000080 17 e8 89 3b 1c 3e 30 bb ce ff 50 bd 6a d8 f5 be
       0.0042085755 -0.0026892489 -0.051025204 -0.48016673
000090 8f 56 59 3e 9b 27 fd bd dc 7e c5 3e a4 1c 1b 3e
       0.21224426 -0.1236107 0.3857335 0.15147644
0000a0 52 2c 86 3e 6b 2e 97 3d 6e 6d 01 3c 70 f1 9d 3d
       0.2620569 0.073819004 0.007899625 0.07712066
0000b0 e8 7b 82 be c9 5e e6 3d e3 dc 6c bd e2 36 0c bf
       -0.25485158 0.112485476 -0.05782784 -0.54771245
0000c0 34 27 75 be 03 7b e0 3e 83 8a b2 bd 71 e3 e9 bd
       -0.23940736 0.4384385 -0.08717825 -0.11420334
0000d0 00 e0 0e 3e fb 72 06 be fa 78 3a be f1 4f 02 be
       0.13952637 -0.13129799 -0.18210211 -0.12725808
0000e0 8a 3b 39 be eb fe 86 be d4 d5 04 bd dc e7 61 3d
       -0.18089119 -0.26366362 -0.032430485 0.05515276
0000f0 4a 5f e2 be d7 79 2e 3e 7a cd 1b be 89 1e 56 be
       -0.44213325 0.17038666 -0.15215102 -0.20910086

a2c_network.mu.weight f4 [1, 64]
000000 b0 bd ea 3e 4b 52 c0 3e a0 50 84 b8 f7 74 79 bc
       0.45847845 0.37562785 -6.309268e-05 -0.0152256405
000010 fb d8 3f 3b 6b 55 6d 3e fd fb d7 3e f7 ce b4 be
       0.0029273618 0.23177116 0.4218444 -0.35314152
000020 4d ba 1d 3c ca 7b d7 3d bf 82 16 3f 57 ae 4d bd
       0.009626937 0.10521658 0.5879325 -0.05021509
000030 51 22 f9 3d 5c cf 07 3f 3d 4c d6 be 23 5d dc bd
       0.121647485 0.5305078 -0.4185504 -0.10759952
000040 fb e7 bd 3a 6c e6 60 be a1 d6 28 3e f0 f3 4b be
       0.0014488691 -0.21962899 0.16488124 -0.19917274
000050 b5 19 1c bc aa b4 81 3d 38 26 fc 3d 58 57 a5 3e
       -0.009527613 0.06333287 0.12311977 0.322932
000060 6c 7e 87 ba ed a6 71 3e 95 fd c3 3c 7d db cf bd
       -0.0010337359 0.23598833 0.023924628 -0.10149286
000070 90 46 22 bf f8 64 0a bd a0 34 0a 3e 7d 76 05 3b
       -0.6338892 -0.033787698 0.13496637 0.0020364814
000080 fa 51 7d 3e 80 00 20 be ca aa 8c 3c 24 a9 86 3e
       0.24738303 -0.1562519 0.017171282 0.2630092
000090 4f e0 62 be 0d c0 7c 3e 63 b3 d7 3b e8 c2 33 be
       -0.2215588 0.24682637 0.006582664 -0.1755482
0000a0 12 69 28 3d d3 38 09 bb 44 66 45 3a 5d 58 28 3d
       0.041115828 -0.002093841 0.00075301924 0.041099895
0000b0 ba 75 5c bd 03 75 72 bb bb df bc 3e 61 2d 98 be
       -0.05382321 -0.0036996014 0.36889443 -0.2972212
0000c0 fd 55 17 be 4b eb a2 bd 53 10 66 bf 08 d0 08 3f
       -0.14778896 -0.07955035 -0.8986866 0.5344243
0000d0 8a 70 b2 bd ca 0c 28 be d2 91 0a be b5 df 1d 3e
       -0.087128714 -0.16411129 -0.13532189 0.15417369
0000e0 8a aa ac 3c 6c 93 47 be 83 7f 03 3f 90 5e 92 bd
       0.021077413 -0.1948983 0.5136644 -0.071469426
0000f0 93 b1 17 bf bd 78 84 3e b8 8c 53 3e ab 9a 3b 3e
       -0.5925533 0.25873366 0.20659149 0.1832072

exp_avg f4 [64, 4]
000000 0a d6 3a ba b8 58 ae 3a f4 11 76 3a 2b 89 14 bb
       -0.0007127231 0.0013301587 0.00093868305 -0.0022664766
000010 ba dd 27 3a 82 e6 cd b9 01 d9 23 37 e5 21 26 3a
       0.0006403584 -0.0003927239 9.766082e-06 0.0006337448
000020 55 4e f9 ba 1f 3b 67 3a 8e bb e5 bb 98 1d ec b6
       -0.0019020537 0.00088207604 -0.0070108837 -7.0367932e-06
000030 f3 f6 63 3a 1a 02 c8 ba 38 70 08 3b f4 5b 08 3b
       0.0008696161 -0.0015259415 0.002081884 0.0020806761
000040 35 81 58 bb 83 fd c5 3a 85 da 19 ba 1b 1d 1f bb
       -0.0033035998 0.001510546 -0.0005869049 -0.0024278823
000050 d7 e1 07 3b e4 1a eb ba aa 6b 14 3b 85 bc 6f 39
       0.0020733976 -0.0017937091 0.002264718 0.00022863045
000060 92 95 0b ba 64 49 2f 3b b9 22 97 bb 38 73 67 bb
       -0.0005324717 0.0026746625 -0.0046122936 -0.0035316478
000070 4d e0 bc 3a a9 df 74 3a d4 a4 94 3a 6b 37 2d bb
       0.0014410109 0.0009341189 0.0011340627 -0.0026430737
000080 80 0a 1e 3a 83 50 ea b9 47 b3 ab 3b ac 58 1e 39
       0.00060287863 -0.00044691944 0.0052398774 0.00015101087
000090 9f 53 1f 3b a0 cc 19 39 48 5a d3 b9 c0 8e 0b b9
       0.0024311317 0.00014667446 -0.0004031232 -0.00013309252
0000a0 3d 18 97 ba bc 45 a2 36 87 13 9d bb ed 48 f4 ba
       -0.0011527609 4.8360944e-06 -0.0047935876 -0.0018637456
0000b0 d9 53 ce ba b8 b9 7c 3b 9a 20 8e bb 35 cb 9d bb
       -0.0015741541 0.0038562845 -0.0043373825 -0.004815484
0000c0 73 4b 59 3a 19 99 58 ba f8 fe 61 3a 1f cb bd 39
       0.0008289136 -0.00082625594 0.0008621062 0.00036200226
0000d0 6a 43 4d 3b 3d d5 0a bb 79 9d e2 3a 0d c9 41 3b
       0.00313207 -0.0021184229 0.0017289362 0.0029569298
0000e0 c0 fc 3f 39 5f cc 01 3a 21 98 50 3b d9 eb 05 bb
       0.00018309336 0.0004951413 0.0031828957 -0.0020434766
0000f0 90 a1 9d 38 2a ba ec b9 62 bc ae 3b 55 8b 97 3a
       7.516437e-05 -0.0004515213 0.0053325156 0.001156191
000100 38 5c 46 bb 17 b5 07 3b d5 72 a5 ba 61 62 64 3a
       -0.003026737 0.0020707303 -0.0012622724 0.00087121694
000110 72 f9 89 b8 54 1e 74 ba db e2 c6 ba b7 34 ec 3a
       -6.579132e-05 -0.00093123806 -0.0015173809 0.0018021081
000120 40 3d ad 3a e9 0f 02 bb 39 34 5e bb 4b 94 67 3b
       0.0013217106 -0.001984591 -0.003390564 0.0035336192
000130 53 8a f1 3a 4e f8 64 3a bb 84 9a ba 4e 70 cf ba
       0.0018428065 0.000873451 -0.0011788824 -0.0015826316
000140 fd 18 0a ba 54 3a 6a ba ad 57 bb bb ec c6 19 3b
       -0.0005268006 -0.0008935083 -0.005717239 0.0023464514
000150 2a ee 2e b9 87 d5 c5 b9 7e 48 09 3b 6a 76 2b b9
       -0.00016682656 -0.00037733858 0.002094775 -0.00016351943
000160 7c 38 92 3a 9b 91 21 bb ec af 7a 3b d8 f6 84 3b
       0.001115575 -0.0024653438 0.003825183 0.0040577464
000170 ab 18 8c 38 ce 5f 31 bb 78 b8 0b 39 e6 fe 36 3b
       6.680315e-05 -0.002706516 0.00013324793 0.0027922927
000180 1d 6d 36 bb ce 1e 19 3a b6 aa 1e bb 87 aa ac ba
       -0.0027836033 0.0005841077 -0.0024210638 -0.001317338
000190 37 18 43 b8 7c 43 99 bb a7 3c 57 b9 3a be ad 3b
       -4.6514175e-05 -0.004677234 -0.00020526593 0.005302218
0001a0 27 e2 9b ba a2 b0 49 3b 87 d1 6a ba 77 81 86 bb
       -0.001189296 0.0030775447 -0.00089576136 -0.004104789
0001b0 50 08 f6 39 ce f1 0f ba 9a 42 ba 39 77 24 9a 3a
       0.0004692697 -0.0005491049 0.00035526307 0.0011760135
0001c0 d1 73 8b 39 0d a3 80 3a ec 6d b6 3b 17 41 1d bb
       0.00026598436 0.0009814218 0.005567303 -0.0023995095
0001d0 fc 95 a2 ba 4a 56 a5 3b ad 6b a4 bb 15 bf a6 bb
       -0.0012404318 0.005045687 -0.0050177188 -0.0050886967
0001e0 c9 f9 c4 b9 5c 4f 8a ba e1 b8 6f ba 51 1d 9c 3a
       -0.00037570138 -0.0010552215 -0.00091446756 0.0011910592
0001f0 e0 94 cd 39 9d 89 07 ba bd 60 33 bb ec 4f 00 3b
       0.00039211567 -0.0005170347 -0.0027370893 0.0019578887
000200 69 6e d8 ba 10 fc 9c 3a a9 c6 e9 bb a1 d8 76 ba
       -0.0016512397 0.0011976976 -0.007134278 -0.00094164355
000210 55 14 2c 3a 1c 59 5c 3a c1 4d c7 3b fb 59 76 ba
       0.0006564309 0.00084056123 0.006082267 -0.00093975634
000220 72 7c 54 3a 5c 17 c4 ba d2 ce f9 ba 05 85 e5 b9
       0.0008105702 -0.0014960575 -0.001905883 -0.0004377739
000230 55 a1 d3 b9 77 72 0d bb 89 e0 93 36 8c 7c 68 3b
       -0.00040365258 -0.002158312 4.4070807e-06 0.0035474626
000240 75 a4 03 3b b3 84 9b bb 8d ce 96 3b 00 27 f5 3b
       0.0020087038 -0.0047460436 0.0046022595 0.007481456
000250 41 16 9d ba 38 72 48 3b 0f 2f 96 bb 0d 00 c6 ba
       -0.0011984782 0.0030585658 -0.0045832465 -0.0015106216
000260 6a fe bb 39 6a f7 a5 37 72 d6 a0 bb ed be 64 3a
       0.00035856973 1.9784744e-05 -0.0049083764 0.000872596
000270 38 77 39 3b 13 a8 d8 bb 67 ad 1e 3c f6 35 13 3c
       0.002829982 -0.006611833 0.009684897 0.008985033
000280 07 4f 86 b9 2c 6e 42 3b 80 1c 2f bb 1c 5c 35 bb
       -0.00025617352 0.0029667718 -0.0026719868 -0.002767331
000290 61 f6 f5 3a e4 73 77 39 a4 05 1a ba af 41 1b ba
       0.0018765443 0.00023598928 -0.00058754743 -0.00059225684
0002a0 62 48 88 b8 47 ee 91 3a c9 e0 39 ba 93 de 78 b9
       -6.498468e-05 0.0011133634 -0.00070906855 -0.00023734038
0002b0 8b bc d1 3a 2e 88 a4 39 6b 2b 86 b9 8c ef bf b9
       0.0016001625 0.0003138198 -0.0002559082 -0.00036608835
0002c0 10 70 32 3a 1f 1a 44 3b f0 9b 51 bb 36 0c 38 bb
       0.000680686 0.0029922796 -0.0031983815 -0.002808345
0002d0 a7 49 62 39 12 8b 4c 3a 73 42 98 3a d0 f8 1b bb
       0.00021580477 0.00078027055 0.0011616483 -0.0023799427
0002e0 24 20 d6 ba c1 9e da ba de 14 a3 3a 73 f5 6b 3a
       -0.0016336483 -0.0016679392 0.0012442132 0.00090011134
0002f0 2e 83 3a 37 d3 3e e0 b9 0f 73 d5 ba 08 f5 ad 39
       1.1117007e-05 -0.00042771417 -0.00162849 0.00033179694
000300 09 d7 90 3a 56 5e ce b8 33 a4 96 3a 26 18 cc b9
       0.0011050414 -9.840417e-05 0.0011493027 -0.00038927904
000310 3a 21 a9 3a 1f e8 34 bb 28 b8 f2 39 12 59 7b 3b
       0.0012903579 -0.0027604175 0.00046295044 0.003835265
000320 ed d6 28 ba 18 4d 36 3b 24 84 2b bb 79 8f 84 bb
       -0.0006440718 0.0027816948 -0.0026171291 -0.0040454236
000330 2d b5 ec 38 2f 35 3a 3b ef f0 2c bb 50 c8 85 bb
       0.000112871036 0.0028413048 -0.0026388725 -0.004082717
000340 0a db 7f bb e1 7b 73 3a 48 f5 81 bc 3a ef 88 b8
       -0.003904047 0.0009288174 -0.01586403 -6.529545e-05
000350 c4 85 8c 3a ed 32 7d ba 84 d5 3c 3a 7b c6 eb 38
       0.0010721018 -0.00096587726 0.0007203447 0.00011242643
000360 84 30 ef b9 89 29 e4 b8 88 1e 98 3b 55 08 0a 3b
       -0.0004562178 -0.00010879624 0.0046423115 0.0021062095
000370 d0 7b 37 39 86 f8 d8 b8 bf 49 5c 39 f8 89 a2 39
       0.00017498364 -0.00010345974 0.00021008308 0.00031001843
000380 ae bc 26 bb bf dd bb ba b9 9d 55 3a c2 8d 8c 3a
       -0.0025442052 -0.0014333053 0.00081488077 0.00107234
000390 90 bc 4d 3b c2 24 08 bb 3e 19 08 3c 77 64 fd 3a
       0.003139291 -0.0020773862 0.008306799 0.0019332309
0003a0 fe 93 b5 38 dc e3 8b ba b4 92 4f 3b 3b 18 3a 3b
       8.658318e-05 -0.0010672766 0.0031673135 0.002839579
0003b0 c5 c6 03 3a fa f2 e2 3a 7a 28 8a 3a 75 7d a8 ba
       0.00050268724 0.0017314844 0.0010540627 -0.0012854772
0003c0 3a 47 c4 ba 5a 30 9c 3a ea c5 92 bb 9f 1d 35 ba
       -0.001497484 0.0011916265 -0.0044791596 -0.0006909016
0003d0 9b 36 a0 ba 0b e5 c0 ba 18 7c d3 3a 34 96 70 3a
       -0.0012223305 -0.0014716698 0.0016135005 0.00091776554
0003e0 2b c5 2c 3b ba 9c 87 bb 7c a4 e5 3b c0 f4 ab 3b
       0.0026362638 -0.0041385563 0.0070081335 0.0052476823
0003f0 20 f8 90 3a 79 9d a5 ba 56 81 e5 3b dc 65 4c 3a
       0.0011060275 -0.0012635431 0.0070039434 0.00077971607

exp_avg_sq f4 [64, 4]
000000 23 e5 86 38 64 3c 89 37 9f e5 5c 39 99 df 84 38
       6.432298e-05 1.6359794e-05 0.00021066375 6.335899e-05
000010 d8 e9 fd 37 34 f5 31 37 e8 86 0d 39 4e 0e 1b 38
       3.0268842e-05 1.0607113e-05 0.00013497064 3.6968202e-05
000020 35 b5 5c 38 4a a1 b7 37 8f 12 7b 39 5f d2 20 38
       5.262085e-05 2.1890406e-05 0.00023944139 3.8342896e-05
000030 2d 87 a4 37 e7 ea 4d 37 e7 cd 3a 38 53 9b 21 37
       1.961327e-05 1.2273645e-05 4.4537617e-05 9.632512e-06
000040 16 9c c4 39 a5 d2 f3 37 a8 04 a2 3a 45 41 82 39
       0.00037500326 2.9065946e-05 0.0012361007 0.00024844162
000050 1b ca 94 37 19 f6 af 38 dd 43 9d 38 83 16 38 37
       1.7737088e-05 8.3904895e-05 7.498984e-05 1.0972496e-05
000060 df 33 c2 37 a3 ef 82 37 59 f8 39 38 d5 04 59 37
       2.3150757e-05 1.5608797e-05 4.433873e-05 1.2935333e-05
000070 c1 28 8e 38 f0 64 1e 37 55 37 29 39 d2 65 17 38
       6.778679e-05 9.441035e-06 0.00016137709 3.6096033e-05
000080 4b 16 ed 38 63 ad f3 37 15 99 29 3a b7 6d 1c 39
       0.00011305193 2.9048597e-05 0.00064696494 0.00014918191
000090 26 6c 50 38 76 44 47 37 a7 47 9b 38 79 35 01 37
       4.9691786e-05 1.1877264e-05 7.404322e-05 7.701449e-06
0000a0 36 31 18 37 6e 87 f1 36 f9 f7 1c 38 bb ef 02 37
       9.071364e-06 7.198126e-06 3.742424e-05 7.80442e-06
0000b0 70 c7 fc 37 83 f0 c4 37 59 86 ed 38 88 26 9e 37
       3.0133611e-05 2.3477018e-05 0.00011326065 1.885301e-05
0000c0 b4 89 0f 37 fb de 00 38 fc 3a 41 37 8b 71 a2 36
       8.555526e-06 3.0725245e-05 1.151743e-05 4.8411944e-06
0000d0 48 87 0f 3a fb 81 ec 37 1e eb cd 3a 27 ef ad 39
       0.00054751756 2.819392e-05 0.0015710329 0.00033175314
0000e0 66 c7 3f 38 de 9b 1b 38 2d 74 09 39 20 a5 34 38
       4.5723653e-05 3.7100042e-05 0.00013108617 4.306913e-05
0000f0 ef 5b 5b 38 83 e1 22 38 53 95 4a 39 bb 92 4a 38
       5.229929e-05 3.8833834e-05 0.00019319849 4.8297206e-05
000100 d8 11 6b 38 65 06 8c 37 53 ec 2c 38 16 54 7d 37
       5.6044984e-05 1.6692278e-05 4.122809e-05 1.5099553e-05
000110 62 fa 73 38 f3 5a 11 37 c4 b7 15 38 16 ea cb 37
       5.8168902e-05 8.663849e-06 3.5695513e-05 2.430849e-05
000120 80 11 11 39 12 80 41 38 46 c6 f3 39 1c f3 ea 38
       0.00013834797 4.613406e-05 0.00046496297 0.00011203272
000130 db d2 d6 37 cd 5e 61 38 7e fc 3c 38 50 f7 70 37
       2.5608975e-05 5.373247e-05 4.5057845e-05 1.4362697e-05
000140 82 30 82 38 a5 66 30 38 9f 27 af 39 f4 cd af 38
       6.207918e-05 4.2057265e-05 0.0003340812 8.383012e-05
000150 a6 f8 3a 38 90 e9 6b 37 11 2f 71 39 74 d2 31 38
       4.4577428e-05 1.4061472e-05 0.00023001085 4.239609e-05
000160 b8 b3 b1 38 06 64 2b 37 25 eb 2a 39 d5 53 10 38
       8.473493e-05 1.0215683e-05 0.00016300062 3.441035e-05
000170 14 19 0f 38 e0 e6 93 37 ba 62 0c 39 2e c6 23 38
       3.4117213e-05 1.7631275e-05 0.00013388219 3.9046798e-05
000180 dd fc 0f 39 3d c4 b4 37 a1 bb 0d 3a be 16 dd 38
       0.00013731742 2.1549053e-05 0.0005406682 0.00010542337
000190 b8 ef 75 37 0e 8e 05 38 a0 9f 75 38 fc a7 d9 37
       1.4658952e-05 3.184197e-05 5.8561214e-05 2.594664e-05
0001a0 bf 0f a8 38 cc ad 43 38 38 48 40 39 0f 09 7c 38
       8.013797e-05 4.6653484e-05 0.0001833745 6.008992e-05
0001b0 d2 c3 4c 38 64 8c 1b 37 d9 5a 3b 39 75 fd 09 38
       4.8819762e-05 9.271407e-06 0.00017867553 3.2899396e-05
0001c0 46 d2 88 38 a0 89 2d 38 1b df a4 39 b9 13 a8 38
       6.524152e-05 4.1374587e-05 0.00031446744 8.014538e-05
0001d0 69 58 ad 37 52 f1 0e 38 e8 85 8b 38 44 93 a1 37
       2.0664376e-05 3.4080185e-05 6.6529785e-05 1.9261272e-05
0001e0 43 a4 39 38 77 ee 83 37 d4 de ff 38 4d 55 02 38
       4.4260418e-05 1.572746e-05 0.000122008525 3.1073858e-05
0001f0 4d 35 89 39 37 ac dc 37 5b f5 61 3a 79 45 39 39
       0.00026170388 2.6306237e-05 0.00086196297 0.00017668855
000200 10 33 39 38 a9 cc 0b 38 d7 fe 30 39 4f b0 f9 37
       4.4154993e-05 3.3330787e-05 0.00016879603 2.9765213e-05
000210 fd 36 40 38 c7 44 41 38 43 19 52 39 9b 94 5f 38
       4.582758e-05 4.607884e-05 0.00020036571 5.3305743e-05
000220 2e e7 26 37 1e 65 63 37 7b 6e 20 39 54 5b 1d 38
       9.948197e-06 1.35537975e-05 0.00015299946 3.7516773e-05
000230 15 b8 c1 37 8e 5e 8c 37 df bf 80 38 3a b3 b0 37
       2.3093113e-05 1.6733331e-05 6.1392544e-05 2.1064294e-05
000240 99 58 9b 39 b8 10 4c 38 fd 07 96 3a e8 10 a1 39
       0.00029629914 4.865296e-05 0.0011446472 0.0003072091
000250 d6 12 84 38 c8 28 a7 38 cb 4d 1c 3a 74 ea ec 38
       6.297759e-05 7.970777e-05 0.000596252 0.00011297027
000260 f9 f4 54 39 2c 08 04 38 47 a4 3f 3a 9d 00 1f 39
       0.00020309155 3.1478863e-05 0.0007310551 0.0001516365
000270 e3 4f 1d 39 04 b2 e3 38 34 91 0f 3a b0 62 36 39
       0.00015002447 0.000108573615 0.0005476654 0.00017393637
000280 69 99 ba 37 d4 db 8b 37 92 9d d9 37 b6 9f 4a 37
       2.2244365e-05 1.6672457e-05 2.594179e-05 1.2077324e-05
000290 5e fc 5f 37 23 bf b2 37 62 75 fa 37 c4 7a 98 36
       1.3350595e-05 2.1308259e-05 2.9856983e-05 4.544245e-06
0002a0 d8 35 da 36 99 3d 65 37 3e c7 a4 37 c1 99 26 36
       6.5031745e-06 1.36638055e-05 1.9643103e-05 2.4825424e-06
0002b0 77 56 4c 37 96 a3 d6 37 c5 88 f7 37 56 ca a3 36
       1.2179479e-05 2.5586964e-05 2.9508383e-05 4.8813336e-06
0002c0 c9 90 b6 37 e4 14 f6 37 e2 99 9f 38 93 fe a6 37
       2.1763512e-05 2.9335213e-05 7.610374e-05 1.9907287e-05
0002d0 a7 33 43 38 d5 ee b2 37 0b c7 67 39 39 5b 2a 38
       4.6539728e-05 2.1330468e-05 0.00022104026 4.0616116e-05
0002e0 62 5f 96 38 0a 6f 11 37 a6 93 a7 39 30 0c 91 38
       7.170324e-05 8.668527e-06 0.0003196273 6.916409e-05
0002f0 2a 30 1c 37 8d 90 65 36 43 60 78 38 4d 95 5a 37
       9.309539e-06 3.4207799e-06 5.921746e-05 1.3028574e-05
000300 81 46 ec 37 a8 2c a0 37 40 9b b1 38 2e cf 90 37
       2.8166223e-05 1.9094281e-05 8.468935e-05 1.7262613e-05
000310 1b 76 2e 38 25 a6 19 37 2d b1 b8 38 34 3b c4 37
       4.1594827e-05 9.158194e-06 8.806805e-05 2.339259e-05
000320 fe e0 8f 37 96 07 e6 37 fc 00 37 38 1a 94 34 38
       1.7151699e-05 2.7421669e-05 4.3631517e-05 4.3053275e-05
000330 f6 71 5d 37 d8 f9 ca 37 2a f6 2e 38 c2 25 5f 37
       1.319916e-05 2.4196619e-05 4.171409e-05 1.3300627e-05
000340 65 d1 36 39 51 35 11 39 3d c4 3b 3a b4 6e f0 38
       0.00017434878 0.0001384814 0.00071627257 0.00011464712
000350 a8 f5 4e 37 6f 58 c5 36 b1 60 b2 37 db e5 b9 35
       1.2335753e-05 5.8813525e-06 2.1264279e-05 1.3850471e-06
000360 fa 90 72 38 cf 1e b6 37 5e 4f 75 39 aa e0 25 38
       5.7832316e-05 2.1710437e-05 0.00023394587 3.95483e-05
000370 5f 2d 36 36 d8 7a 30 36 a7 b2 b3 37 9f 54 df 36
       2.7146523e-06 2.6297548e-06 2.1421654e-05 6.655769e-06
000380 10 54 6d 38 63 68 2f 38 2c d2 3a 39 3c 81 03 38
       5.6583493e-05 4.182047e-05 0.00017816637 3.1353193e-05
000390 f9 e7 1d 38 94 22 22 38 db cc 34 39 c0 ac f5 37
       3.764776e-05 3.8656013e-05 0.00017242452 2.9286719e-05
0003a0 92 b3 62 39 b7 a5 47 38 23 2c 54 3a 8a f6 23 39
       0.00021619935 4.759963e-05 0.0008093735 0.00015636734
0003b0 e1 4f aa 38 b3 ed 54 37 c5 90 b1 38 3f b2 b7 37
       8.12111e-05 1.2691528e-05 8.466983e-05 2.1898302e-05
0003c0 6a 5d d7 37 af 78 a3 37 65 30 ba 38 77 90 a2 37
       2.5673497e-05 1.9487312e-05 8.878185e-05 1.9379177e-05
0003d0 6a d8 96 37 09 bf b6 37 03 e6 52 38 aa a4 4d 37
       1.7982169e-05 2.1785048e-05 5.0282117e-05 1.2257291e-05
0003e0 69 98 b3 37 02 87 c2 37 9e 16 b9 38 36 01 83 37
       2.1409434e-05 2.318947e-05 8.8257e-05 1.561698e-05
0003f0 93 62 33 38 fe 27 15 38 3a cc 59 39 7d a3 1f 38
       4.276873e-05 3.5561614e-05 0.00020770813 3.8060814e-05

exp_avg f4 [64]
000000 07 66 30 3b ba 75 f2 ba 09 e1 07 bb c7 1f ff b9
       0.0026916282 -0.001849822 -0.0020733497 -0.00048661066
000010 47 9d 00 3c e1 98 87 bb 03 52 47 3b b1 bc d5 ba
       0.007849998 -0.0041380976 0.0030413873 -0.0016306845
000020 f2 38 e5 3a 0b 7a 7e bb d5 a0 7c 3a b2 5a 38 3b
       0.0017488285 -0.0038830067 0.0009637003 0.002813023
000030 e2 56 37 bb 03 18 33 bc 92 96 4d 3a a4 04 4a 3a
       -0.002797537 -0.010931018 0.0007842566 0.000770638
000040 d4 a5 79 3b 6b 58 13 3a 3e c2 95 bb fe be 84 3a
       0.0038093226 0.000562078 -0.0045702746 0.0010127721
000050 01 20 fb ba 76 57 f3 ba 04 85 9d bb 91 f0 16 bb
       -0.0019159318 -0.0018565494 -0.0048071165 -0.0023031572
000060 0c 32 6e 3b d0 69 05 bb f9 d3 be 3b 2e c8 28 3b
       0.0036345748 -0.0020357259 0.005823609 0.0025754082
000070 97 2d 0c 3b 34 8d 09 3b 81 29 5d bb c9 db 02 bc
       0.0021389478 0.0020988705 -0.0033746662 -0.007986971
000080 c0 33 eb 39 fb ad cc 3a b4 30 69 3a bc 10 06 bb
       0.0004486125 0.0015615815 0.0008895502 -0.0020456752
000090 70 17 8f bb b7 61 c5 39 1b f6 95 bb 99 38 03 bc
       -0.0043668076 0.0003764757 -0.004576457 -0.008009099
0000a0 fc ab ef 3a 08 ca 0f bb ae 4d 40 39 c9 2d 28 bb
       0.0018285508 -0.0021940488 0.00018339485 -0.0025662056
0000b0 1d 32 20 3a 86 db 80 3a 49 ef 25 3b 9a 23 10 bb
       0.0006110983 0.0009831048 0.0025319627 -0.0021993876
0000c0 5d 58 7b 3a 5e d6 41 bb 31 87 53 3b 2f d4 c1 b9
       0.00095880573 -0.0029577236 0.0032276625 -0.00036969918
0000d0 b8 1a f5 b7 e3 1c 11 ba 33 9f d7 3a ae a6 59 ba
       -2.9218718e-05 -0.00055356155 0.0016450643 -0.000830273
0000e0 4c 12 d0 3a 9c 1e f8 b9 2e e4 d0 bb 61 2d 03 ba
       0.0015874594 -0.00047325052 -0.0063748574 -0.00050040154
0000f0 d7 cc 09 3a 71 fd 54 3a 4d ad 71 bb 9b 6b b2 39
       0.0005256659 0.0008124924 -0.0036876977 0.00034030978

exp_avg_sq f4 [64]
000000 f2 29 a4 38 22 f5 1b 38 29 8c a4 38 52 61 c6 36
       7.827942e-05 3.7183177e-05 7.846236e-05 5.9121894e-06
000010 80 45 15 3a a7 2d ad 38 bd 8c 4a 38 2b de a0 37
       0.0005694255 8.257786e-05 4.8291626e-05 1.9176941e-05
000020 82 a3 95 38 88 4c e4 38 d6 25 a6 36 e9 9a 72 37
       7.135329e-05 0.00010886142 4.95159e-06 1.4460392e-05
000030 74 8e 78 38 0a b3 8c 3a f0 8f 10 38 35 f1 06 38
       5.9260477e-05 0.001073451 3.4466328e-05 3.217273e-05
000040 b5 7b 03 39 db c6 45 37 af 3b 51 39 3c 78 19 38
       0.00012539218 1.1788415e-05 0.00019954027 3.659002e-05
000050 e9 87 56 38 c8 d0 15 38 f9 3a 1e 39 14 b1 60 38
       5.1148152e-05 3.571881e-05 0.00015090023 5.357068e-05
000060 7b 26 c7 38 0b 47 f8 37 90 c8 8a 39 08 8c 64 38
       9.496227e-05 2.9596986e-05 0.00026470842 5.448985e-05
000070 82 a3 58 38 95 50 af 37 d2 af d3 38 01 ec 1c 3a
       5.165069e-05 2.089915e-05 0.00010094013 0.0005986095
000080 0e ba 8d 37 f6 b7 0a 38 49 0e cd 37 bb ec f3 37
       1.6895148e-05 3.307309e-05 2.4444556e-05 2.9078094e-05
000090 7f 98 3e 39 d4 8c 38 38 45 c3 6f 39 d0 f1 df 39
       0.00018176621 4.4000175e-05 0.0002286556 0.0004271404
0000a0 27 3b 1f 38 fd 6c 05 38 7e d8 5a 37 3e e5 2b 38
       3.7963644e-05 3.1811174e-05 1.3044219e-05 4.0983075e-05
0000b0 a4 d2 c8 37 a4 c5 b8 37 fb 6e 75 38 95 39 09 38
       2.3939945e-05 2.2026543e-05 5.851591e-05 3.2716973e-05
0000c0 56 28 cf 37 fb a1 4d 38 11 80 6a 38 34 ab 29 37
       2.4695106e-05 4.9026665e-05 5.590922e-05 1.0113046e-05
0000d0 fd 9e 4c 38 79 be 6b 37 07 e2 0c 38 49 4a e8 36
       4.878546e-05 1.4051439e-05 3.3589105e-05 6.9227867e-06
0000e0 c1 dc b3 37 51 34 95 37 34 2c c4 39 38 19 9e 37
       2.144126e-05 1.7786546e-05 0.00037416967 1.8846811e-05
0000f0 0b 39 e3 36 b3 47 07 37 63 32 9f 37 77 c9 8e 37
       6.771768e-06 8.063321e-06 1.897774e-05 1.7021533e-05

exp_avg f4 [64, 64]
000000 7d ff 2e b8 0a a2 be 37 72 78 d4 39 c3 15 e9 b9
       -4.1722775e-05 2.272522e-05 0.0004052553 -0.00044457437
000010 89 7e 8f b8 40 ab 2a ba 96 fd 00 3a bb 6b f4 39
       -6.8423404e-05 -0.00065105036 0.00049206 0.00046619572
000020 72 54 b7 37 05 1e f0 37 18 2b 41 3a 5b c5 63 3a
       2.1854623e-05 2.8624208e-05 0.0007368787 0.0008688771
000030 83 58 34 b9 c9 8e 00 38 01 03 9b b9 fd 2d ea b9
       -0.00017199111 3.0650557e-05 -0.00029566142 -0.00044666222
000040 c2 4e b6 b9 c8 4b b1 b9 31 84 ed 38 f6 b6 bb 38
       -0.00034772424 -0.00033816532 0.00011325663 8.950934e-05
000050 56 8f 94 39 7c 87 dd b8 f7 6e 5a ba ba 88 0c ba
       0.00028335553 -0.00010563337 -0.0008332575 -0.000536095
000060 bd 61 17 b9 92 53 0b ba f7 08 56 b9 26 82 90 36
       -0.00014436893 -0.0005314882 -0.0002041197 4.3066857e-06
000070 4c 05 8c b9 3a 98 cb 37 cd 8e de 39 f9 ed ec 38
       -0.00026706827 2.4270372e-05 0.00042449535 0.00011297683
000080 b7 82 08 3a 90 08 b6 b9 18 53 82 ba 43 f5 91 39
       0.00052074663 -0.00034720125 -0.0009942977 0.0002783929
000090 0c 1c d1 b7 20 0b 5b 38 98 b1 44 38 0f d5 e2 38
       -2.4927802e-05 5.222403e-05 4.689544e-05 0.00010816205
0000a0 ca f8 9b 39 e8 f5 2c b8 41 7e 9e b9 88 20 b0 b9
       0.00029749266 -4.1237014e-05 -0.00030230175 -0.00033593574
0000b0 94 4f c5 39 2e 3e ca b8 e2 ad b9 39 87 8d 8c 38
       0.00037634058 -9.6436925e-05 0.00035415502 6.702082e-05
0000c0 67 ce ce b6 a3 44 04 ba 1f 17 3c b9 df a2 cf 39
       -6.163307e-06 -0.0005045628 -0.0001793769 0.00039603465
0000d0 ae bb bf 39 38 21 8f b7 f1 f0 ed b8 77 8b f4 b7
       0.0003657019 -1.7062397e-05 -0.000113459195 -2.915201e-05
0000e0 ba fd a3 39 87 12 e8 b9 0b 91 4a b9 52 d2 8f b8
       0.00031278824 -0.00044264292 -0.00019318254 -6.8579466e-05
0000f0 75 59 5b 39 05 bb c1 b9 1d 6b 7b ba 66 58 9c b9
       0.00020918793 -0.0003695117 -0.0009590851 -0.000298205
000100 91 55 b5 39 0e bb a9 b9 dc 22 a4 b9 ea 42 91 39
       0.00034586762 -0.00032373558 -0.0003130649 0.0002770641
000110 21 5f ac 39 c8 bf 05 ba ad c4 3e 39 06 e2 e5 b9
       0.00032877273 -0.0005102125 0.0001819308 -0.00043846684
000120 ae 06 a0 39 b3 40 c3 b9 25 39 f3 38 5f 9e c8 39
       0.00030522555 -0.00037241503 0.00011597787 0.00038264968
000130 47 44 9b b9 c9 6a a9 b9 91 b6 a4 39 90 65 a1 39
       -0.00029614774 -0.00032313753 0.0003141654 0.00030783983
000140 59 80 2d 39 62 d3 de 39 ca aa a4 b9 7b 2f e7 37
       0.00016546379 0.00042500632 -0.00031407765 2.7559456e-05
000150 b9 1d a4 b9 c8 1e 10 b9 1c cb dc b9 f7 b3 ed b9
       -0.00031302663 -0.00013744377 -0.00042112998 -0.00045338247
000160 c3 14 aa 39 c1 e6 f0 b9 70 5b ab 39 1b db 54 39
       0.00032440395 -0.00045948292 0.00032683788 0.00020299519
000170 0f 3c a2 39 99 d2 ad 39 a6 30 b9 b9 05 c7 a6 b9
       0.00030943795 0.0003315404 -0.00035322196 -0.00031810268
000180 df 55 9f b9 b0 c2 9b 39 59 cf a4 b8 c9 85 87 b9
       -0.00030390822 0.00029708957 -7.858751e-05 -0.00025848884
000190 a5 1e ba b9 a1 14 bd 38 f5 e7 a2 b9 1a b3 a7 b9
       -0.00035499517 9.016065e-05 -0.0003107187 -0.00031986163
0001a0 75 57 9e 39 91 3f cd b9 90 fc b7 39 fe 1b e3 b9
       0.0003020127 -0.00039148008 0.00035092654 -0.0004331767
0001b0 f0 02 a6 39 01 7b 6e 39 d3 1d d2 39 d7 b0 d6 b9
       0.00031664176 0.00022743271 0.00040076542 -0.00040949017
0001c0 ce 4f 86 39 b7 12 13 b9 64 a3 a7 39 08 8b 07 b8
       0.0002561793 -0.00014025984 0.00031974458 -3.231599e-05
0001d0 5d 59 96 b9 61 82 c8 b9 9f 93 98 39 3e 2f b5 b9
       -0.0002867681 -0.00038244113 0.00029101686 -0.00034558208
0001e0 7a dd cf 39 c3 45 a0 39 d9 36 a4 b9 3e 89 43 b8
       0.0003964713 0.00030569555 -0.00031321382 -4.661944e-05
0001f0 ad 4f a0 b9 cd f9 b1 39 23 ea d1 b9 a0 32 90 39
       -0.0003057694 0.00033946187 -0.00040038032 0.0002750354
000200 17 2f 7c b6 19 6e 92 36 6c aa 7b 36 51 8e 9a b5
       -3.7578336e-06 4.363956e-06 3.7501113e-06 -1.1515314e-06
000210 76 a8 27 b7 ca f4 b7 36 c9 78 66 b6 d4 eb 21 b5
       -9.993199e-06 5.482322e-06 -3.4342977e-06 -6.032035e-07
000220 a4 a1 c8 35 69 76 31 36 ca 5b 00 34 ad e0 26 b7
       1.4948205e-06 2.644398e-06 1.1954322e-07 -9.946682e-06
000230 54 a5 a6 36 4c 56 d0 36 67 98 4d b6 5b 40 ba 34
       4.9664322e-06 6.2089293e-06 -3.063609e-06 3.4692025e-07
000240 8c de 01 b7 da 10 7e b6 1f 28 ef 35 f5 c0 8d 36
       -7.740815e-06 -3.7858758e-06 1.7818564e-06 4.2245906e-06
000250 ec 6c f0 35 db 1d 9c 36 22 39 b6 36 a0 d1 30 37
       1.7913094e-06 4.652638e-06 5.430674e-06 1.0539225e-05
000260 eb c0 55 b7 d5 e7 51 37 21 85 b5 b6 12 77 76 b6
       -1.2740707e-05 1.2511348e-05 -5.4097186e-06 -3.6726165e-06
000270 99 b9 1a b6 57 5c 04 b7 d7 09 46 36 a9 ba e3 36
       -2.305582e-06 -7.889313e-06 2.9510027e-06 6.7868573e-06
000280 bc 48 91 32 aa 00 4b b4 26 c5 50 b5 86 aa 85 36
       1.6913297e-08 -1.890609e-07 -7.7772927e-07 3.9835604e-06
000290 c1 d6 65 37 47 d6 24 b7 ec 98 02 36 02 62 ab 36
       1.3699465e-05 -9.825052e-06 1.9460522e-06 5.1076067e-06
0002a0 29 9a de b6 b2 92 57 36 a8 97 1a b6 7b 7a af 36
       -6.634062e-06 3.2122884e-06 -2.3036064e-06 5.229665e-06
0002b0 a8 df b8 b6 74 ba 78 b6 1d 83 89 b5 e7 90 31 35
       -5.5096643e-06 -3.706341e-06 -1.0245454e-06 6.61485e-07
0002c0 ff c6 1b b6 5e dd 6c 36 5f 97 59 b6 da 56 9b b6
       -2.321263e-06 3.5295593e-06 -3.242363e-06 -4.629471e-06
0002d0 18 4c 9a 34 cb 13 6e 36 89 a2 a1 b5 ef 2e 7a 36
       2.87401e-07 3.5476285e-06 -1.2042739e-06 3.7280222e-06
0002e0 ba 2b bd 35 57 d1 bc 34 68 fb fc 36 bf 60 3c b6
       1.4094323e-06 3.5170044e-07 7.539453e-06 -2.8070497e-06
0002f0 23 d5 6e 34 ea cb 12 35 5c 20 1c 37 c8 42 c7 b5
       2.2243016e-07 5.468597e-07 9.305859e-06 -1.4846091e-06
000300 59 ec 61 b8 75 ab ca 38 e4 f2 59 38 c9 42 d9 b7
       -5.3864296e-05 9.664047e-05 5.196304e-05 -2.5899515e-05
000310 15 8e 58 b9 15 f1 d8 38 b5 7d 03 b9 ca 7d 06 b9
       -0.00020652295 0.00010344588 -0.00012539963 -0.00012826096
000320 49 99 a1 b7 21 65 72 38 38 58 46 b8 9a d8 32 b9
       -1.9264075e-05 5.779148e-05 -4.728904e-05 -0.00017056093
000330 12 97 e8 38 0a d1 22 39 ad 2e b5 b8 b9 63 df 37
       0.00011090761 0.00015527397 -8.6394466e-05 2.6630109e-05
000340 c3 05 bc b8 88 24 4e 38 a0 59 51 38 7d 2c 9e 38
       -8.965612e-05 4.914825e-05 4.9912953e-05 7.542314e-05
000350 c1 64 ba 37 d8 63 29 39 a5 9c e5 38 c8 35 e1 38
       2.2219845e-05 0.0001615429 0.00010948748 0.000107388536
000360 57 1f 89 b9 63 eb 09 39 0b 64 10 b9 92 3a b2 b8
       -0.00026154026 0.00013153027 -0.00013770179 -8.498611e-05
000370 70 87 16 b8 26 58 ef b8 21 f5 55 36 dd c9 1c 39
       -3.5888923e-05 -0.00011412827 3.1882157e-06 0.00014952519
000380 de 5f 47 b6 09 80 8f 37 6d 5e 5b 38 85 85 05 39
       -2.9709113e-06 1.710655e-05 5.230161e-05 0.00012733608
000390 b7 92 89 39 ad 8c 58 b9 c5 53 7e 38 a1 2c 57 39
       0.00026239987 -0.00020651771 6.0636336e-05 0.00020520623
0003a0 08 58 47 b9 6a f1 6a 38 86 18 60 37 c4 b6 c6 38
       -0.00019010913 5.6014782e-05 1.335715e-05 9.4754185e-05
0003b0 f3 3e 49 b9 22 08 ec b8 d1 42 9e 37 52 b2 bb b8
       -0.00019192304 -0.00011254872 1.8866182e-05 -8.9500696e-05
0003c0 8a 2a 97 b8 bf e0 fb 37 45 1b 08 b9 f7 60 0e b9
       -7.2081646e-05 3.0026187e-05 -0.0001298013 -0.00013578298
0003d0 e4 42 9f b7 43 51 3a 38 08 26 cd b7 24 dc 84 b8
       -1.8985425e-05 4.4421537e-05 -2.4455614e-05 -6.335255e-05
0003e0 3c ad 90 38 12 a6 23 38 3f d1 47 39 e0 a6 4b b9
       6.8987225e-05 3.9016893e-05 0.00019056069 -0.00019421754
0003f0 a3 4c 0d 38 d2 f3 11 39 44 67 40 39 69 cd d3 b7
       3.3688393e-05 0.00013919108 0.00018349016 -2.5248812e-05
