eval/eval_rl/runs/CartpolePPO/nn/last_CartpolePPO_ep_500_rew_987.14624.pth (torch, 70524 bytes, 24 tensors)

value_mean_std.running_mean f8 [1]
0	0x407b1dd74120526f	433.8650523436144

value_mean_std.running_var f8 [1]
0	0x40cd0bf0d6378f77	14871.881537385036

value_mean_std.count f8 []
0	0x418f400008000000	65536001.0

running_mean_std.running_mean f8 [4]
0	0x3fe41945968b5b54	0.6280849399871422
1	0xbfb1ddbee0967349	-0.06978981955621778
2	0x3fc4ee04bcf0162a	0.16351374841194516
3	0x3fcb5fc430c06c7d	0.21386005764438556

running_mean_std.running_var f8 [4]
0	0x3febb2386cbf2021	0.8655054210621566
1	0x3fe39f38534cf444	0.613186037727822
2	0x3ff7e79b0c440399	1.4940443495872613
3	0x400a35f79125190c	3.2763511027761805

running_mean_std.count f8 []
0	0x417f400010000000	32768001.0

a2c_network.actor_mlp.0.weight f4 [64, 4]
0	0xbc3213f1	-0.010869012
1	0x3f4b2a80	0.79361725
2	0x3e19d8f2	0.15024164
3	0x3efe0637	0.49614117
4	0xbd4c42d3	-0.049868416
5	0xbf0f63dd	-0.56011754
6	0xbe74cad6	-0.23905501
7	0xbe8a4fe6	-0.27014083
8	0xbeb6aa95	-0.3567702
9	0xbf73ef80	-0.95287323
10	0xbdb63a93	-0.08897891
11	0x3e64036f	0.22266935
12	0x3dd92a11	0.10603727
13	0x3f01327c	0.5046766
14	0xbe852176	-0.2600209
15	0x3cb48d98	0.022040173
16	0x3e785954	0.24252826
17	0x3fbf893c	1.4963756
18	0x3e660eba	0.22466555
19	0x3ea6519f	0.32484147
20	0x3f36b87a	0.7137524
21	0x3ecc82f9	0.39943674
22	0x3f39fc38	0.7265048
23	0xbfd5c598	-1.6700926
24	0xbe2adb7e	-0.16685292
25	0x3eb80a51	0.3594537
26	0xbc7861de	-0.015160052
27	0x3e2481e7	0.16065179
28	0xbe9809cc	-0.29694974
29	0x3e6d4329	0.23170151
30	0xbea01ec7	-0.3127348
31	0xbf1c14ba	-0.60969126
32	0xbe7bf3e4	-0.24604756
33	0x3f3536f2	0.70786965
34	0x3e9fb23f	0.31190678
35	0x3e202021	0.15637256
36	0x3d73b708	0.059500724
37	0xbf5b8ae9	-0.85758835
38	0xbe0f423e	-0.13990113
39	0xbfa4f6e3	-1.2887844
40	0xbf331e3d	-0.69968015
41	0xbe92c6be	-0.28667253
42	0x3e2983a1	0.16554119
43	0x3eb38442	0.35061842
44	0x3ecf0fe6	0.40441817
45	0x3edfbb93	0.43697795
46	0x3e42e002	0.19030765
47	0x3f04058d	0.5157097
48	0x3d7f5730	0.062339008
49	0x3c099add	0.008398739
50	0x3f325f5e	0.6967677
51	0xbf10eca5	-0.5661109
52	0xbda9581f	-0.08268761
53	0xbfa07919	-1.2536956
54	0xbe8762f5	-0.26442686
55	0xbf0bebe6	-0.5465683
56	0x3de65de3	0.11248376
57	0x3e786f1b	0.24261133
58	0xbf0de539	-0.5542789
59	0x3ef6946b	0.4816011
60	0xbe1aca93	-0.15116338
61	0x3ebe0217	0.3711097
62	0xbd795323	-0.0608703
63	0x3e7dd64e	0.24788782
64	0x3ebf7168	0.3739121
65	0x3f9f7ebc	1.2460551
66	0x3e429779	0.19003095
67	0xbf4a401a	-0.7900406
68	0x3dfad8be	0.122483715
69	0x3e90870e	0.2822804
70	0x3f2d4710	0.6768656
71	0x3f74a629	0.9556604
72	0x3caf9a2d	0.021435821
73	0xbf7a4a58	-0.9776969
74	0xbdeca0cc	-0.11554107
75	0xbf2831bf	-0.65700907
76	0xbe821772	-0.25408512
77	0x3ef326bc	0.4749049
78	0x3ec350db	0.38147625
79	0xbf306a29	-0.6891199
80	0xbe95bf15	-0.29247347
81	0xbf442b2b	-0.7662837
82	0xbe2b52f5	-0.16730864
83	0xbe3cb381	-0.1842785
84	0xbca59303	-0.020211702
85	0xbee66f04	-0.45006573
86	0xbd3f6694	-0.046728685
87	0x3e3b9d63	0.18321757
88	0x3ed81cfd	0.42209616
89	0xbf19d685	-0.60092956
90	0xbf0aae4c	-0.54172206
91	0xbe4c0a5b	-0.19925825
92	0xbe76d207	-0.24103557
93	0xbf1324ba	-0.57477915
94	0xbee1a7f2	-0.44073445
95	0xbf48b0c0	-0.783947
96	0x3ecb6197	0.39722893
97	0x3f7b3a86	0.98136175
98	0xba6b9789	-0.0008987119
99	0xbd35b699	-0.04436359
100	0xbea486b8	-0.32134032
101	0xbf1b21e6	-0.605986
102	0xbec467e4	-0.38360512
103	0xbf566c4f	-0.83759016
104	0x3e1e5d57	0.15465294
105	0x3f1d6a5c	0.61490417
106	0xbe3bb748	-0.18331635
107	0x3f392ece	0.72337043
108	0xbd06d0ff	-0.032914158
109	0x3e98bb50	0.29830408
110	0x3db44452	0.088020936
111	0xbe8933da	-0.26797372
112	0x3e2a83f8	0.16651905
113	0x3f174e9f	0.5910434
114	0x3e07730c	0.1322748
115	0x3e0e7bdd	0.13914438
116	0x3e274e8e	0.1633856
117	0x3e893b17	0.26802894
118	0xbe5e3ba6	-0.21702442
119	0x3ef08ccd	0.46982422
120	0xbd23550e	-0.039876036
121	0xbf2a744f	-0.6658372
122	0xbe26f3a4	-0.16303879
123	0xbf79b403	-0.975403
124	0xbe49b518	-0.19697988
125	0xbf70fb99	-0.9413391
126	0xbe05b285	-0.13056381
127	0xbdcbd1a4	-0.09952095
128	0x3d08dd09	0.03341392
129	0xbef6d520	-0.48209476
130	0x3e49ceca	0.1970779
131	0xbe3016f7	-0.1719626
132	0xbda47670	-0.08030403
133	0x3ef234b0	0.47305822
134	0xbdff610e	-0.124696836
135	0x3dfffdc1	0.124995716
136	0x3f8cf414	1.1011987
137	0xbd7c8606	-0.061651252
138	0xbd60fc00	-0.054927826
139	0xbe8bc806	-0.27301043
140	0xbe2216f5	-0.1582907
141	0xbeb43515	-0.35196748
142	0x3e069b50	0.13145185
143	0xbe5b9238	-0.21442497
144	0xbe8ebd09	-0.27878597
145	0xbfbdcfd9	-1.4829055
146	0xbe351e32	-0.176873
147	0xbf02eb4f	-0.511403
148	0x3ebf7038	0.37390304
149	0x3f0425a0	0.5161991
150	0x3df5bf8f	0.119994275
151	0xbe58a47c	-0.21156496
152	0xbe0de956	-0.13858542
153	0xbf6e7bde	-0.93157756
154	0xbe837e6b	-0.25682387
155	0xbe8eee24	-0.27916062
156	0xbc5f3aa6	-0.013624823
157	0xbf913c91	-1.1346608
158	0xbcc6d15c	-0.024269752
159	0xbf5e3eb7	-0.86814445
160	0xbe156429	-0.1458899
161	0x3e976e54	0.2957636
162	0xbec77e86	-0.38963717
163	0x3f34bf9c	0.7060487
164	0x3dbcf0bc	0.09225604
165	0xbe74532d	-0.23859854
166	0x3e57c9b4	0.21073037
167	0xbfa29107	-1.2700509
168	0x3ef50d33	0.47861633
169	0x3e3c4d21	0.18388797
170	0x3cd30a0a	0.025761623
171	0x3f30f72a	0.6912714
172	0x3e28f01d	0.16497846
173	0x3ef00a3c	0.46882808
174	0x3f1bed55	0.60909015
175	0xbfabdf25	-1.3427473
176	0xbeb4671e	-0.35234922
177	0x3f231138	0.6369815
178	0xbe1043f9	-0.1408843
179	0x3e990cc2	0.29892546
180	0x3d8b07c4	0.067885906
181	0x3eaedf32	0.3415466
182	0xbbf6fd39	-0.0075375107
183	0xbd460a95	-0.048349936
184	0xbed22597	-0.41044304
185	0x3ecb1d9e	0.39671034
186	0x3f0106c9	0.5040098
187	0x3f00d275	0.5032113
188	0xbe56cf84	-0.20977598
189	0x3e054ab5	0.1301678
190	0xbf00cdc6	-0.50313985
191	0xbef6efc7	-0.4822981
192	0x3cb5ab40	0.022176385
193	0x3e8867b6	0.26641625
194	0xbbba68be	-0.005688756
195	0x3b05056c	0.002029742
196	0x3ce0a5d4	0.027422823
197	0x3d9ac27c	0.07556626
198	0xbeb53e68	-0.35399175
199	0xbe956dcc	-0.2918533
200	0xbebaa2e8	-0.36452413
201	0x3f3311d3	0.6994907
202	0xbf195870	-0.5990057
203	0x3f656bf0	0.89617825
204	0x3e4049ab	0.18778102
205	0x3eabb682	0.3353768
206	0x3cfa5436	0.030557733
207	0x3df14ef0	0.11782634
208	0x3d8b938f	0.06815254
209	0xbeee70db	-0.46570477
210	0xbd25e12d	-0.040497947
211	0x3e44f76b	0.19235007
212	0xbe730c19	-0.23735084
213	0xbed3f04d	-0.41394272
214	0x3e44547e	0.19172856
215	0xbfb8cfac	-1.4438376
216	0xbe370ce4	-0.17876011
217	0x3f3558eb	0.70838803
218	0xbdedee47	-0.116177134
219	0xbe202ed1	-0.15642859
220	0xbeaeb923	-0.34125623
221	0x3e6e66ef	0.23281454
222	0xbebdbfec	-0.37060487
223	0xbe67b9e6	-0.22629508
224	0xbebdfed9	-0.37108496
225	0xbe6e6cb5	-0.23283656
226	0x3dddef7b	0.10836693
227	0x3ee2a881	0.44269183
228	0x3ec70989	0.38874462
229	0x3f267a38	0.6503024
230	0xbc3b00c7	-0.01141376
231	0xbe8f4bd0	-0.27987528
232	0x3e5cdc8d	0.21568508
233	0xbf277ccf	-0.6542482
234	0xbe223e63	-0.15844111
235	0x3dff3ead	0.12463126
236	0xbe8bc09f	-0.27295396
237	0x3f31df9e	0.6948184
238	0xbdf0319f	-0.117282145
239	0x3d68afd0	0.056808293
240	0x3d94144a	0.07230432
241	0xbf62da0b	-0.8861396
242	0x3d50b38f	0.05095249
243	0xbee6fc96	-0.45114583
244	0x3eaf21e0	0.34205532
245	0xbf0ce22d	-0.55032617
246	0xbd82385e	-0.063584074
247	0x3eb95850	0.3620019
248	0x3eae4354	0.34035742
249	0xbf0af339	-0.5427738
250	0xbe214a18	-0.15750921
251	0xbf2bf44a	-0.6716963
252	0x3bd21bcf	0.0064120064
253	0x3e832ff1	0.25622514
254	0xbc562fa3	-0.013072881
255	0xbcd62cb0	-0.026144356

a2c_network.actor_mlp.0.bias f4 [64]
0	0xbea2d5c7	-0.31803724
1	0x3ddd1359	0.10794706
2	0x3e9bc954	0.3042704
3	0xbf78e779	-0.972282
4	0x3e419fab	0.18908565
5	0xbeb04abc	-0.34432018
6	0x3f18ff52	0.5976459
7	0x3fbc909d	1.4731632
8	0xbf4582d7	-0.7715277
9	0x3ecc164e	0.39860767
10	0x3f840c6b	1.031629
11	0x3fb4cf0b	1.4125684
12	0x3d8239cb	0.063586794
13	0x3c3776b5	0.011197736
14	0xbe71d8c1	-0.23617841
15	0xbf65cf4f	-0.8976945
16	0x3db01ea9	0.08599598
17	0xbf416223	-0.7554037
18	0x3ef6d6c5	0.4821073
19	0x3d1b362a	0.03789345
20	0x3f07da13	0.5306713
21	0xbf2aa14e	-0.6665238
22	0xbf06ac54	-0.526067
23	0xbf0b1d4b	-0.5434157
24	0x3f6f8804	0.9356692
25	0xbf4a8452	-0.79108155
26	0xbd7de868	-0.061989218
27	0xbe1b3b01	-0.15159227
28	0xbed45610	-0.4147191
29	0x3f1968fe	0.5992583
30	0x3ef62785	0.48077026
31	0x3b177f33	0.0023116588
32	0x3f7da7a6	0.99083936
33	0xbf680ef1	-0.906478
34	0xbe801e3a	-0.2502306
35	0xbe727bdc	-0.23680061
36	0xbf59ab82	-0.85027325
37	0x3fd4fc1c	1.6639438
38	0x3ede26f3	0.4338909
39	0xbeed59f4	-0.4635769
40	0x3f67885f	0.9044246
41	0x3e7124f5	0.23549254
42	0x3e80cc31	0.25155786
43	0xbdc6aab2	-0.09700526
44	0x3fbb7467	1.4644898
45	0x3e8ed051	0.27893308
46	0xbef0937a	-0.46987516
47	0x3f123e98	0.5712676
48	0x3cd819c7	0.02637948
49	0xbf709f18	-0.9399276
50	0xbe1dfccb	-0.15428464
51	0x3f578490	0.8418665
52	0x3f67be77	0.90525
53	0xbd0f6209	-0.035005603
54	0xbfa70360	-1.3047905
55	0x3e8155f7	0.25260898
56	0xbf65099f	-0.89467806
57	0xbf1c2a45	-0.61002
58	0xbf0db63d	-0.553562
59	0x3fd34970	1.6506786
60	0x3f7cecec	0.98799014
61	0xbfa40d46	-1.2816551
62	0xbfae4556	-1.361491
63	0xbee4eabb	-0.44710335

a2c_network.actor_mlp.2.weight f4 [64, 64]
0	0x3ea4ea26	0.3220989
1	0xbe6bac3e	-0.23014924
2	0xbe909cfc	-0.2824477
3	0xbe36e40e	-0.17860433
4	0x3e30d997	0.17270504
5	0xbf63e5ac	-0.89022326
6	0x3e35710a	0.17718902
7	0xbe8a96d7	-0.27068207
8	0x3e953837	0.2914445
9	0xbe7888c8	-0.24270928
10	0xbd99c6f7	-0.07508653
11	0x3eb3905e	0.3507108
12	0xbeb10892	-0.3457685
13	0x3993a9aa	0.00028164434
14	0x3e65fa3f	0.22458743
15	0x3e8bdbd5	0.27316156
16	0x3ee91e70	0.45531034
17	0xbcc0369a	-0.023463536
18	0x3d306576	0.04306551
19	0xbdf1c4b5	-0.11805097
20	0xbf1b9fa1	-0.6079045
21	0x3f46a08b	0.7758872
22	0xbecf8f09	-0.40538815
23	0xbefbd965	-0.49189296
24	0xbed613cd	-0.41811982
25	0xbefb363b	-0.49064812
26	0xbcd53734	-0.0260273
27	0x3e370428	0.17872679
28	0x3ed9206b	0.42407545
29	0x3e8ce261	0.27516463
30	0x3b5262c6	0.003210233
31	0xbdecf03a	-0.11569257
32	0xbe2e4e34	-0.1702202
33	0x3ecbb980	0.39789963
34	0xbf3190d2	-0.69361603
35	0x3edbd987	0.42939398
36	0x3e277b59	0.16355647
37	0xbe2c61df	-0.1683421
38	0xbef88de7	-0.48545763
39	0x3ef0993f	0.46991917
40	0x3ed38611	0.41313222
41	0xbe2fda92	-0.17173222
42	0x3dd09407	0.10184484
43	0xbf12823a	-0.5722996
44	0xbd40e89a	-0.047096826
45	0xbebc1ef1	-0.36742356
46	0x3eb1a237	0.34694073
47	0xbedd03dc	-0.43167007
48	0xbebbb396	-0.3666045
49	0xbea941ef	-0.33058116
50	0x3d48be6d	0.04900973
51	0x3d39515e	0.045243613
52	0xbec388ab	-0.38190207
53	0x3c401d22	0.011725696
54	0x3f241ab2	0.64103234
55	0xbe532409	-0.20619215
56	0x3e93bdc0	0.28855705
57	0x3eaeb1db	0.34120068
58	0x3f039e33	0.5141327
59	0xbf303c60	-0.68842125
60	0x3d8e3e1a	0.06945439
61	0x3f2a5c78	0.66547346
62	0xbe5509bb	-0.20804493
63	0x3dd44276	0.10364239
64	0xbe03c2e8	-0.1286732
65	0x3eb60867	0.35553285
66	0x3d2912bb	0.04127763
67	0xbca559ff	-0.020184515
68	0xbd8cfe24	-0.06884411
69	0xbf9c1982	-1.2195284
70	0x3e1c16d4	0.15243083
71	0x3eb46e89	0.35240582
72	0xbeab201c	-0.33422935
73	0xbe149311	-0.14509226
74	0xbf0ece7b	-0.55783814
75	0x3ea6d3c0	0.32583427
76	0xbda7ace1	-0.08187271
77	0x3de21e67	0.11040955
78	0xbe04c6a8	-0.12966406
79	0xbe8425b1	-0.25810006
80	0x3f3220fa	0.6958157
81	0xbe334f8a	-0.1751081
82	0x3eb494e5	0.35269848
83	0xbdc9e6fc	-0.0985851
84	0x3e4bad9e	0.19890448
85	0xbe4e0f96	-0.20123133
86	0xbd3ae5e0	-0.045629382
87	0x3e1ea603	0.15493016
88	0x3ee610b5	0.4493462
89	0x3cb1e288	0.021714464
90	0xbe32da8e	-0.17466184
91	0x3e08c756	0.1335729
92	0xbea1f8b7	-0.31635067
93	0x3ed55bf1	0.41671708
94	0x3e5930d6	0.21210036
95	0x3dba117a	0.09085365
96	0x3e8559e2	0.26045138
97	0xbf035ff8	-0.5131831
98	0xbf29dc8e	-0.66352165
99	0xbe59ed3e	-0.21281907
100	0xbed968f0	-0.42462873
101	0x3f61ec8c	0.88251567
102	0x3e4c6644	0.19960886
103	0xbe9e7e21	-0.30955604
104	0x3eac6ed9	0.3367832
105	0xbebad626	-0.36491507
106	0x3da6c102	0.08142282
107	0xbf7b79c0	-0.9823265
108	0x3f0e6a93	0.5563137
109	0x3eaff58a	0.3436702
110	0xbdea7ae2	-0.11449219
111	0x3cbd0e87	0.023078216
112	0x3da0b12c	0.07846293
113	0xbed4dea3	-0.41576108
114	0xbe797c15	-0.2436374
115	0x3ee7ad88	0.4524958
116	0xbd37ee7e	-0.04490518
117	0xbedd43b6	-0.43215722
118	0xbe90004b	-0.28125224
119	0x3dbaf162	0.09128071
120	0xbe2de10f	-0.16980384
121	0x3d83c4cc	0.064340204
122	0xbe906351	-0.28200772
123	0x3f2b31c7	0.6687283
124	0x3ec7c761	0.39019302
125	0xbed25add	-0.41084948
126	0xbe18d188	-0.1492368
127	0x3cf9db1f	0.030499993
128	0x3e906a84	0.28206265
129	0xbdf693a8	-0.12039882
130	0xbdd32a88	-0.103108466
131	0x3ca16f31	0.01970634
132	0x3e43380b	0.19064347
133	0xbddee69a	-0.108838275
134	0x3c27537e	0.010212777
135	0xbd641717	-0.055686083
136	0xbcfece79	-0.031104313
137	0xbd534f32	-0.0515892
138	0x3e5e1730	0.21688533
139	0xbe572d7a	-0.21013442
140	0xbe0fd186	-0.1404477
141	0xbd70b45b	-0.05876575
142	0x3cba4006	0.022735607
143	0xbdd20ccf	-0.10256349
144	0xbe8b469f	-0.27202317
145	0xbd06c9f7	-0.032907452
146	0xbdbf3a29	-0.09337265
147	0x3ece9602	0.40348822
148	0xbd08aced	-0.03336804
149	0x3cfa650d	0.030565763
150	0xbd912edc	-0.07089016
151	0xbe671d29	-0.22569717
152	0xbe5120de	-0.20422694
153	0xbd7c9989	-0.06166986
154	0x3bd0be21	0.0063703214
155	0x3d85c4a3	0.06531646
156	0x3d1d4b15	0.038401682
157	0x3d2d153b	0.042256575
158	0xbd087134	-0.033311084
159	0x3b90c29b	0.00441773
160	0x3d9a67d7	0.07539337
161	0x3dffa5dc	0.12482807
162	0x3ef283eb	0.4736627
163	0x3dd68bfc	0.10475919
164	0x3e7515b1	0.23934056
165	0xbdfb3421	-0.12265802
166	0xbe2d7b31	-0.16941525
167	0xbd6cf796	-0.057853304
168	0x3e7a89da	0.24466649
169	0x3d977776	0.07395832
170	0xbdbfded5	-0.09368674
171	0xbd95d88d	-0.073166944
172	0x3d65b090	0.056076586
173	0xbe854634	-0.26030123
174	0x3ece6f1f	0.40319154
175	0x3e885755	0.2662913
176	0xbdeeb1ab	-0.11654981
177	0x3d7ce70f	0.061743792
178	0x3ed127b5	0.40850607
179	0x3dfb2a0e	0.12263881
180	0x3e3ce176	0.18445382
181	0x3de59d9a	0.11211701
182	0x3cdd5226	0.02701671
183	0x3e711ad2	0.23545387
184	0xbd29a1cf	-0.04141408
185	0x3d3af967	0.045648005
186	0x3d072695	0.03299578
187	0x3cf7a943	0.030232077
188	0xbda2e9b0	-0.079547286
189	0xbe6b2aa1	-0.2296548
190	0x3d99df9a	0.07513352
191	0x3da33044	0.0796819
192	0xbe2531f1	-0.16132332
193	0x3da318c4	0.07963708
194	0x3e5e24d0	0.2169373
195	0x3f0751ec	0.5285938
196	0xbe076443	-0.1322184
197	0x3d917437	0.07102244
198	0x3e0688c9	0.13138117
199	0xbe801db8	-0.25022674
200	0x3e9c72c4	0.3055631
201	0x3e8be78c	0.27325094
202	0xbd95228f	-0.07281982
203	0xbe0a7bcc	-0.13523787
204	0x3e97d538	0.2965486
205	0x3e2e5247	0.17023574
206	0x3ea69384	0.3253442
207	0xbd57b92d	-0.05266683
208	0xbede6eb6	-0.4344384
209	0x3e8dd849	0.27704075
210	0xbe2c052d	-0.1679885
211	0x3e8b3bb2	0.2719398
212	0x3e84a900	0.25910187
213	0xbd2ccc32	-0.042186923
214	0x3ecf9bad	0.4054846
215	0x3e0315d4	0.12801296
216	0xbe75bafa	-0.23997107
217	0x3d5b4d04	0.053540245
218	0x3c5be841	0.013422073
219	0x3e263949	0.1623279
220	0xbe4cdd23	-0.20006232
221	0xbcbd062f	-0.023074238
222	0x3e56a1ba	0.20960131
223	0x3dcb2d8d	0.099207975
224	0xbe9be79d	-0.30450144
225	0x3e78795b	0.24265043
226	0x3d8ca8bc	0.06868121
227	0xbea32917	-0.31867287
228	0x3f17b694	0.5926297
229	0xbe36a5d5	-0.17836697
230	0x3c2451d5	0.010029276
231	0x3d42ca32	0.04755611
232	0xbe9e34c5	-0.30899635
233	0x3e5d64b3	0.21620445
234	0x3de69cbd	0.11260364
235	0x3de19268	0.11014253
236	0xbec2a0a1	-0.38013175
237	0x3ddbc91d	0.10731719
238	0x3e798f78	0.24371135
239	0x3d852a98	0.06502265
240	0x3e4ccdcc	0.2000038
241	0x3f4191ad	0.7561291
242	0x3ede9665	0.43474117
243	0x3e0602ad	0.13086958
244	0x3e2f7729	0.171353
245	0x3f13959c	0.5765016
246	0x3ee454d6	0.44595975
247	0x3d9f95ee	0.07792269
248	0x3e6ca221	0.23108722
249	0xbe4959dc	-0.19663185
250	0x3e87e07a	0.2653845
251	0xbddefbbb	-0.108878575
252	0xbe8eaf05	-0.27867904
253	0x3d1bc03f	0.038025137
254	0xbdd5cce1	-0.10439468
255	0x3e552095	0.2081321

a2c_network.actor_mlp.2.bias f4 [64]
0	0xbe3a12e7	-0.18171273
1	0x3ee07a56	0.43843335
2	0x3e71e0df	0.23620938
3	0x3f23ce03	0.63986224
4	0x3aaa0c1a	0.0012973577
5	0x3d8923bb	0.06696268
6	0xbd8e1600	-0.0693779
7	0x3efb4a70	0.4908023
8	0xbf313066	-0.69214475
9	0xbf37f26b	-0.71854275
10	0xbf2392f8	-0.6389613
11	0xbe09c189	-0.13452734
12	0xbc217fc5	-0.009857123
13	0x3d89985e	0.06718515
14	0x3e4a2d6a	0.19743887
15	0xbe16e02e	-0.14733955
16	0xbdf2581b	-0.11833211
17	0xbe457fdb	-0.19287054
18	0xbf7397d5	-0.9515355
19	0xbf368e17	-0.7131056
20	0x3ef735de	0.48283285
21	0x3f2ca5e2	0.6744062
22	0xbe9451dc	-0.28968704
23	0x3e5e7b58	0.2172674
24	0xbab2111c	-0.0013585421
25	0xbdefa928	-0.11702186
26	0xbf8c8265	-1.0977293
27	0xbdfecead	-0.12441764
28	0x3e603ec3	0.21898942
29	0x3f5cff17	0.86326736
30	0x3ed8442c	0.4223951
31	0xbe814d57	-0.25254318
32	0x3e11284e	0.14175531
33	0xbed01caa	-0.4064687
34	0xbeb6c24e	-0.35695118
35	0xbeb98587	-0.36234686
36	0x3e125561	0.14290382
37	0xbe5ae551	-0.2137654
38	0xbf65a171	-0.89699465
39	0xbf431dba	-0.76217234
40	0xbf5443e0	-0.8291607
41	0xbe96d7d3	-0.29461536
42	0x3d2075d1	0.03917486
43	0xbecd8437	-0.40139934
44	0x3f619ca3	0.88129634
45	0xbe9d893f	-0.30768773
46	0xbd907279	-0.07053084
47	0xbe096cf8	-0.13420475
48	0xbd0cc9ca	-0.03437213
49	0xbe64e658	-0.22353494
50	0xbca2d5f1	-0.019877406
51	0x3f1953bd	0.598934
52	0xbf771c2e	-0.96527374
53	0x3f1dc6fe	0.61631763
54	0xbecf9e2c	-0.40550363
55	0x3f11d623	0.5696737
56	0x3dde9529	0.10868294
57	0x3f3da7fa	0.74084437
58	0xbeeca3a0	-0.46218586
59	0xbe825734	-0.25457156
60	0xbe485831	-0.19564892
61	0xbf379431	-0.717105
62	0xbe04d98c	-0.12973613
63	0x3f308d27	0.6896538

a2c_network.value.weight f4 [1, 64]
0	0x3dc9e194	0.09857479
1	0x3c12645d	0.008935061
2	0x3d54591f	0.051842805
3	0xbe92ff02	-0.2871018
4	0x3916e0bd	0.00014388836
5	0xbea3535c	-0.31899536
6	0x3e95159e	0.29118055
7	0xbe83dda7	-0.25755045
8	0x3ecef15c	0.40418518
9	0x3e80b9b5	0.25141683
10	0x3cfd50e0	0.030922353
11	0xbca27487	-0.019830955
12	0xbd542d10	-0.051800787
13	0x3d08a344	0.033358827
14	0x3c267f0a	0.010162124
15	0x3d11a6de	0.035559528
16	0x3e520870	0.20511031
17	0x3d2fbf6c	0.042907164
18	0x3ef7cf95	0.4840056
19	0x3ec05c0e	0.37570232
20	0xbf775458	-0.96613073
21	0xbf119844	-0.56872964
22	0x3ead59e1	0.33857635
23	0x3e313164	0.17303997
24	0xbc1dea67	-0.009638405
25	0xbc2445bf	-0.010026394
26	0x3eb872cc	0.36025083
27	0xbe500cbb	-0.20317356
28	0x3f2b2c67	0.6686463
29	0xbe9bc583	-0.30424127
30	0x3d048af6	0.032359086
31	0xbc91716d	-0.017754281
32	0x3d673fe1	0.056457404
33	0xbc64c445	-0.01396281
34	0xbd21bf7b	-0.03948925
35	0xbf156729	-0.58360535
36	0x3e80150e	0.25016063
37	0xbd78c4eb	-0.06073467
38	0x3eff13ff	0.49819943
39	0x3e1b0bf0	0.15141273
40	0x3ec2664f	0.3796868
41	0x3dc3f4d2	0.0956818
42	0x3c29c29e	0.010361342
43	0x3d3ef69f	0.046621915
44	0xbecd05a5	-0.4004337
45	0x3e17b57e	0.14815328
46	0xbdf24910	-0.11830342
47	0xbf252445	-0.6450847
48	0xbe9bcf2c	-0.30431497
49	0x3f348735	0.7051881
50	0x3d629238	0.055315226
51	0x3ca9adea	0.020712811
52	0x3e5aeb4e	0.21378824
53	0xbdb316a7	-0.08744555
54	0xbe504f89	-0.2034284
55	0xbe462c32	-0.19352797
56	0xbf0c1030	-0.547122
57	0xbed2f226	-0.4120037
58	0x3b656b90	0.003500674
59	0xba33c182	-0.0006857143
60	0xbecaa3be	-0.3957805
61	0x3f25de24	0.64792085
62	0xbe666e1c	-0.22502941
63	0xbea04628	-0.31303525

a2c_network.mu.weight f4 [1, 64]
0	0x3ed8d9af	0.4235358
1	0x3ec906f6	0.39263123
2	0x3c7c3f1b	0.015395905
3	0xbcc37751	-0.023860605
4	0x3b55d5bf	0.0032628623
5	0x3e167d4c	0.14696234
6	0x3eed8133	0.46387634
7	0xbec7181b	-0.3888558
8	0xbc619abf	-0.0137698045
9	0x3e104e8f	0.14092468
10	0x3f02fc4c	0.51166224
11	0xbcf24dcd	-0.029578114
12	0x3de0c914	0.109758526
13	0x3edd682d	0.43243542
14	0xbeace56d	-0.33768788
15	0xbd972a92	-0.073811665
16	0xbd8b07e8	-0.06788617
17	0xbe63a567	-0.22231065
18	0x3e374944	0.17899042
19	0xbe3ebf4c	-0.18627661
20	0xbd42680a	-0.0474625
21	0x3d6b7f53	0.057494473
22	0x3db1e574	0.08686343
23	0x3e959ea9	0.2922261
24	0xbacbd9db	-0.0015552597
25	0x3e53a67b	0.20668976
26	0x3cd8ec6b	0.02647992
27	0xbd44c1fa	-0.048036553
28	0xbf2ed7eb	-0.68298215
29	0xbd52bc3d	-0.05144905
30	0x3dfe1a9a	0.124074176
31	0xbaedd56c	-0.001814527
32	0x3e4c28ef	0.1993749
33	0xbdb3a32c	-0.08771357
34	0x3d970845	0.07374624
35	0x3e68168d	0.22664852
36	0xbe84b5d5	-0.25919977
37	0x3e23f36f	0.16010831
38	0xbd3914c1	-0.045185808
39	0xbe1a9110	-0.150944
40	0xbc2cd8a6	-0.0105497
41	0x3d10f3d5	0.035388786
42	0x3ba031ba	0.0048887404
43	0x3c89cca8	0.01682122
44	0xbc6742fa	-0.01411509
45	0xb9ead4a7	-0.00044790396
46	0x3ebb48f8	0.36579108
47	0xbe44b730	-0.19210505
48	0xbdf0b9f5	-0.117542185
49	0xbd2a7dc9	-0.041623864
50	0xbf6af5c8	-0.9178128
51	0x3f173868	0.59070444
52	0xbd4b550e	-0.04964166
53	0xbe3b898b	-0.18314187
54	0xbdde5755	-0.10856501
55	0x3e18f589	0.14937414
56	0x3c6c39ae	0.014418049
57	0xbe407f71	-0.18798615
58	0x3ef930e5	0.48670116
59	0xbe6a1c50	-0.22862363
60	0xbf120d39	-0.57051426
61	0x3e8bc27d	0.2729682
62	0x3e56b1ab	0.20966212
63	0x3e3768c5	0.1791106

exp_avg f4 [64, 4]
0	0xbb043fb6	-0.0020179576
1	0x3a5b91c0	0.00083759055
2	0xbad730ea	-0.0016417776
3	0xba3b3377	-0.0007141153
4	0x3a80df73	0.0009832218
5	0xba63f589	-0.00086959504
6	0xb9d682fc	-0.00040914852
7	0x3a98ab2e	0.0011647695
8	0x3b00d940	0.001966074
9	0xba65aa3d	-0.0008761024
10	0xb6bff457	-5.7206885e-06
11	0x39e7d668	0.00044219499
12	0x3a7750a1	0.0009434317
13	0x39233fb4	0.00015568623
14	0x3b97b42b	0.004629632
15	0xbae022ab	-0.0017100176
16	0xbbc663b4	-0.006054366
17	0x3af2b3de	0.0018516739
18	0xbbb3c23b	-0.0054858006
19	0xba8baf11	-0.0010657032
20	0xba2f3224	-0.0006683192
21	0x3b02ab27	0.001993844
22	0xbb747032	-0.003729832
23	0xbabcbb4c	-0.001439908
24	0xba94e216	-0.0011358883
25	0x3a86f590	0.0010296572
26	0xbafe8b8d	-0.0019420251
27	0xba851702	-0.0010153952
28	0x3ad763c0	0.0016432926
29	0xba50dcc9	-0.000796747
30	0x3a906b59	0.001101832
31	0x3744b02c	1.1723529e-05
32	0xbb3ebb14	-0.0029103206
33	0x3ae41363	0.0017400797
34	0x3a6cb40e	0.0009029516
35	0xbb0f17be	-0.002183422
36	0xb62cb426	-2.5734857e-06
37	0x3a7fb102	0.0009753854
38	0xbaa725ab	-0.0012752315
39	0xba4b56f8	-0.0007756795
40	0x3a6d77f0	0.00090587046
41	0xb9aff950	-0.00033564353
42	0xbab968aa	-0.0014145572
43	0xb996d8b5	-0.0002877169
44	0xba14913b	-0.0005667393
45	0x3a4789ca	0.000761178
46	0xba2a05d7	-0.00064858556
47	0x3abf72a2	0.0014606307
48	0xba4e309d	-0.00078655203
49	0x3a95e65f	0.0011436454
50	0xbaaaa929	-0.0013020384
51	0xbb20eeac	-0.0024556322
52	0x3bdbd864	0.0067091454
53	0xbb534071	-0.0032234455
54	0x3b704bcb	0.003666627
55	0x3b83808a	0.004013126
56	0xba8da5b8	-0.0010806834
57	0xb9d7da76	-0.00041170762
58	0x393a8c5f	0.00017790635
59	0x3a972b23	0.0011533241
60	0xbb039c6f	-0.0020082255
61	0x3a0ee833	0.00054514705
62	0x3a6576ea	0.00087533763
63	0xba29bc96	-0.000647494
64	0xbb64e030	-0.0034923665
65	0x3a72bda9	0.0009259829
66	0xba7e6457	-0.0009704283
67	0xb9c785ff	-0.00038056073
68	0xbb300f67	-0.002686465
69	0x3ab74aa2	0.0013984034
70	0x3b0b53ba	0.0021259622
71	0xbab587fa	-0.0013849728
72	0x3b298ca7	0.002587119
73	0xbb1d68ea	-0.0024018832
74	0x3a47e42c	0.0007625248
75	0x3b6a829f	0.0035783423
76	0xbabb2ab3	-0.0014279693
77	0x3a0e7bdd	0.0005435327
78	0xbb46fcc0	-0.0030363053
79	0xbadc10eb	-0.001678971
80	0x3b17fb02	0.0023190384
81	0xbabfce3b	-0.0014633605
82	0xbb8157ac	-0.003947219
83	0x3b379cfb	0.0028017152
84	0x3ab31720	0.0013663508
85	0x39d07bef	0.0003976519
86	0x3aa8a54e	0.0012866647
87	0x3a726304	0.0009246322
88	0x3af5b085	0.0018744624
89	0xba8e143f	-0.0010839774
90	0x3b1732db	0.0023071084
91	0x3aa87e00	0.0012854934
92	0x3b2f178b	0.0026716914
93	0xb8647608	-5.446936e-05
94	0x3ba50e35	0.005037094
95	0xba52e4f9	-0.0008044984
96	0xbb59e5af	-0.0033248474
97	0x3b0ffcfd	0.002197086
98	0xbbd6c42c	-0.006554147
99	0x3a3023fb	0.00067192287
100	0x3b0dfebf	0.0021666733
101	0xb77d4efe	-1.5098367e-05
102	0x3ba16bec	0.0049261954
103	0xba77f420	-0.00094586797
104	0xbb8341e0	-0.0040056556
105	0x3ac088ad	0.001468917
106	0xbaa241dc	-0.0012379247
107	0xba95434c	-0.0011387854
108	0xba08af8e	-0.0005214148
109	0x3a4b99c9	0.0007766751
110	0x3ae56d9f	0.0017503983
111	0xb9d0519f	-0.00039733664
112	0xbac3f0c9	-0.0014949079
113	0x3a648281	0.00087169564
114	0x3b5ee182	0.0034008925
115	0xbb091511	-0.0020917098
116	0xbb2aa529	-0.0026038385
117	0x3a757714	0.00093637523
118	0x3a02ba14	0.0004986834
119	0x399c487a	0.00029808638
120	0x3afe74f4	0.0019413517
121	0xb98db19a	-0.0002702594
122	0x3886c716	6.4267006e-05
123	0xb9275169	-0.00015956689
124	0x3b96ebdb	0.004605753
125	0xbadfe005	-0.0017080313
126	0x3b072b6c	0.0020625247
127	0x3a97cffb	0.0011582369
128	0x39895f25	0.00026201564
129	0x39814b47	0.00024660883
130	0xba7e8580	-0.0009709224
131	0xb8ff5ed9	-0.00012177014
132	0xba191520	-0.00058396347
133	0x3921b08a	0.00015419922
134	0x3accf3be	0.0015636606
135	0xb9c82400	-0.00038173795
136	0x3a3752fa	0.00069932605
137	0xb8cfac26	-9.902594e-05
138	0x3a734165	0.0009279459
139	0x3a3e4584	0.00072582834
140	0x3ab98a57	0.0014155608
141	0xba68800b	-0.00088691775
142	0xbaa09463	-0.0012251254
143	0x3997f1d7	0.0002898115
144	0x3b3c6e56	0.0028752289
145	0xbab1bcb9	-0.0013560272
146	0x3c3e4852	0.011613922
147	0xb9a88b14	-0.00032147078
148	0xbb937021	-0.004499451
149	0x3b1f9546	0.0024350449
150	0xbb936a17	-0.004498731
151	0xba23475c	-0.000622859
152	0x3b2ef98c	0.0026699034
153	0xbae231ab	-0.0017257234
154	0xbad87568	-0.0016514482
155	0x3b3dd5a1	0.0028966444
156	0x3bc93d8c	0.00614137
157	0xbb69511e	-0.0035601328
158	0x3afe070b	0.0019380761
159	0x3b8f277f	0.004368722
160	0xbac0f40c	-0.0014721169
161	0x39e6bb90	0.00044008764
162	0xb946a379	-0.0001894365
163	0xb911c260	-0.00013900688
164	0xb956d4ab	-0.00020487855
165	0x3a42f9e9	0.0007437752
166	0xba71543e	-0.00092059735
167	0xb9ff43e1	-0.00048687964
168	0xb9d58003	-0.00040721902
169	0x37498d2d	1.2013404e-05
170	0x3aac9abc	0.0013168673
171	0xb9cdbb18	-0.00039240043
172	0x396e976f	0.00022753862
173	0x3ab8e522	0.0014106373
174	0xbb3497d3	-0.0027556315
175	0xba6f0821	-0.0009118338
176	0xbb59970f	-0.003320161
177	0x3a9466f4	0.0011322186
178	0xbba8da80	-0.0051530004
179	0xbb50aeca	-0.0031842464
180	0xba197482	-0.0005853848
181	0x3a8b1e92	0.0010613969
182	0xb9f62ed5	-0.0004695567
183	0xb89c0b67	-7.4407835e-05
184	0xbb380eb2	-0.002808493
185	0x3a8e260d	0.001084508
186	0xba0831b2	-0.00051953935
187	0xba8565b9	-0.001017741
188	0x3ad086de	0.0015909334
189	0xba179f80	-0.000578396
190	0xbb18f34e	-0.002333838
191	0x3ae84e3e	0.0017723513
192	0xba16be77	-0.00057504274
193	0x3a7e3f9c	0.00096988096
194	0x3ad66fb6	0.0016360197
195	0xba2d864a	-0.0006619437
196	0x3acc6e39	0.0015596814
197	0x39256655	0.00015773748
198	0x3bd38d1f	0.006456032
199	0xbb18c6bd	-0.0023311817
200	0xba598257	-0.0008297315
201	0x39b93a07	0.00035329183
202	0x3711211d	8.650383e-06
203	0xb6b8e81a	-5.5106475e-06
204	0x394d0318	0.00019551476
205	0x3a651324	0.0008738509
206	0xb98a00f1	-0.00026322113
207	0x3a024f27	0.0004970901
208	0x3a35e387	0.0006938506
209	0xbaa6c406	-0.0012723214
210	0xbb17c838	-0.002316011
211	0x3a82eac0	0.0009988174
212	0x3a269914	0.0006355208
213	0x39c56f13	0.00037657525
214	0xbab67a48	-0.0013921941
215	0xb999c708	-0.00029330724
216	0xba41900a	-0.0007383829
217	0x3a9b4860	0.0011847131
218	0x3b8ba99d	0.004262163
219	0xbae2a3a4	-0.00172912
220	0x3a9ed4c2	0.001211785
221	0xb97c686c	-0.00024071493
222	0xbacd4538	-0.0015660888
223	0x3ad1edde	0.0016016325
224	0x3b009e30	0.0019625537
225	0xbb0e876e	-0.0021748203
226	0x3b827f00	0.0039824247
227	0xb98bf208	-0.00026692473
228	0xbac50d2d	-0.0015033834
229	0x3a94f31d	0.0011363957
230	0x3b4911bd	0.003068074
231	0xbabde3ce	-0.0014487447
232	0x3b90861f	0.0044105197
233	0xb9d6e2a4	-0.0004098612
234	0x3b907da9	0.004409511
235	0xbaa07a1d	-0.0012243424
236	0x3957c9ba	0.00020579147
237	0xbafbf0f1	-0.0019221586
238	0x3afd5739	0.0019328363
239	0xbb50aa90	-0.0031839944
240	0x39942fdd	0.0002826442
241	0xba62aaa1	-0.00086466415
242	0xba88822c	-0.0010414771
243	0x3abc047f	0.0014344602
244	0x39f0918d	0.0004588481
245	0xba44a26e	-0.00075010106
246	0xba99b170	-0.0011725854
247	0xb9ac9e40	-0.00032924302
248	0xba59960a	-0.00083002506
249	0xbac11eac	-0.0014733872
250	0x3a7201e8	0.00092318514
251	0x398edf37	0.0002725066
252	0xb88998cd	-6.5611304e-05
253	0x3a3d8e25	0.0007230959
254	0x3b0951b6	0.0020953245
255	0xb9c4fa02	-0.00037570304

exp_avg_sq f4 [64, 4]
0	0x38b7ffb4	8.7737484e-05
1	0x37708a16	1.4337265e-05
2	0x393899f4	0.0001760496
3	0x380f205a	3.4123987e-05
4	0x388523c0	6.348593e-05
5	0x380b5e2b	3.3227883e-05
6	0x39209186	0.00015313001
7	0x38689b9d	5.5458037e-05
8	0x37d510b1	2.5399351e-05
9	0x36044ff1	1.9716065e-06
10	0x37ab7f94	2.0444197e-05
11	0x3672f8ee	3.6205706e-06
12	0x3933ad3e	0.00017135308
13	0x36f9f7e7	7.449638e-06
14	0x39b76a50	0.0003498369
15	0x3854dcbd	5.0750317e-05
16	0x3a3a81fe	0.0007114707
17	0x383d344f	4.5109828e-05
18	0x3a15537b	0.00056963385
19	0x38a67754	7.9377234e-05
20	0x37ca7027	2.4132501e-05
21	0x3906f0da	0.0001286896
22	0x39d64dcd	0.00040875227
23	0x3862806d	5.4002205e-05
24	0x380b58b4	3.3222794e-05
25	0x3914628f	0.00014151096
26	0x3995ad38	0.00028548553
27	0x38a3bff0	7.808197e-05
28	0x389847c3	7.2612915e-05
29	0x37a16f0d	1.9244408e-05
30	0x38bfe1b7	9.1496324e-05
31	0x37f5004c	2.9206414e-05
32	0x38ba64a0	8.887914e-05
33	0x387e7ae5	6.0672774e-05
34	0x3999e408	0.0002935233
35	0x392042dd	0.00015283698
36	0x38afc315	8.380987e-05
37	0x3840522d	4.58529e-05
38	0x39440758	0.00018694752
39	0x37bb76c3	2.234744e-05
40	0x37acd8e1	2.060499e-05
41	0x37665927	1.3729826e-05
42	0x391403ad	0.00014115749
43	0x38562185	5.1052793e-05
44	0x3926e7b1	0.00015917305
45	0x38025537	3.1073778e-05
46	0x39805cea	0.0002448329
47	0x38307ba6	4.2076827e-05
48	0x380ec756	3.4041084e-05
49	0x39645ca2	0.00021778283
50	0x398e26ec	0.0002711335
51	0x39b3ac23	0.00034269792
52	0x3a7f5f40	0.00097416714
53	0x390c48f3	0.00013378616
54	0x3ac14c27	0.0014747427
55	0x3976dd25	0.00023542771
56	0x37af9337	2.0930178e-05
57	0x37b4c13a	2.154765e-05
58	0x37c78f81	2.3789473e-05
59	0x380f2f75	3.4138055e-05
60	0x39052cb9	0.00012700529
61	0x37624f74	1.3489149e-05
62	0x3924c621	0.00015714068
63	0x37e4301c	2.720212e-05
64	0x38d758cb	0.00010268538
65	0x36afb8c3	5.2369155e-06
66	0x37804b3b	1.5293821e-05
67	0x3726f789	9.952005e-06
68	0x37c43e3a	2.3393997e-05
69	0x36a29771	4.8456063e-06
70	0x38ba24f4	8.876054e-05
71	0x37f26d53	2.8899556e-05
72	0x3950384f	0.00019857402
73	0x381bff3d	3.719259e-05
74	0x3994c77b	0.00028377384
75	0x38a100bd	7.677216e-05
76	0x38a71421	7.96693e-05
77	0x38d2084d	0.000100151265
78	0x399a484f	0.00029427043
79	0x388bbd61	6.663311e-05
80	0x3835eab5	4.337235e-05
81	0x378cacf5	1.676984e-05
82	0x39335a87	0.00017104494
83	0x387391ba	5.8071433e-05
84	0x38b7fa31	8.772722e-05
85	0x3950173e	0.00019845084
86	0x3a1b912a	0.0005934412
87	0x3944b5ac	0.00018759695
88	0x38dc2c81	0.00010498707
89	0x38a4a608	7.851055e-05
90	0x396e90f2	0.00022751445
91	0x390139be	0.0001232391
92	0x38fcf445	0.00012061795
93	0x3709d409	8.215205e-06
94	0x3951de9a	0.00020014719
95	0x3831812b	4.2320386e-05
96	0x3a112721	0.00055371417
97	0x38e9e274	0.00011152486
98	0x3a94959d	0.0011336092
99	0x38f84a19	0.00011839363
100	0x38d21f07	0.000100193596
101	0x371d9b6c	9.394116e-06
102	0x3981f0a0	0.00024784077
103	0x385d5927	5.2773536e-05
104	0x38d11aa3	9.970858e-05
105	0x3844e52e	4.694348e-05
106	0x38f8d29d	0.00011864791
107	0x38489934	4.7826397e-05
108	0x382a7277	4.0637762e-05
109	0x37c11895	2.301884e-05
110	0x38bbc521	8.953573e-05
111	0x37e23143	2.6964239e-05
112	0x38069582	3.208733e-05
113	0x3782f9c8	1.5613521e-05
114	0x39091b06	0.00013075405
115	0x381f6260	3.8000173e-05
116	0x38107289	3.4438945e-05
117	0x38ea5054	0.00011172952
118	0x397990a3	0.00023800372
119	0x38837ca3	6.269782e-05
120	0x38b7f31a	8.771401e-05
121	0x37827d1f	1.5555472e-05
122	0x39066506	0.0001281687
123	0x37705f67	1.4327327e-05
124	0x395d4d33	0.00021104961
125	0x37bbc04b	2.238168e-05
126	0x399561b7	0.00028492298
127	0x38327012	4.254288e-05
128	0x392ff2f6	0.0001677981
129	0x37264c30	9.91211e-06
130	0x3990ba0f	0.00027604445
131	0x3837f04a	4.3854387e-05
132	0x38fa4c8c	0.00011935187
133	0x37084614	8.122548e-06
134	0x39256839	0.00015774452
135	0x37b3a342	2.1414486e-05
136	0x3717f846	9.058107e-06
137	0x388d83c7	6.7479494e-05
138	0x3923c022	0.00015616466
139	0x38a5c7f4	7.905057e-05
140	0x37c65ce8	2.3646702e-05
141	0x37fb499c	2.9955809e-05
142	0x38b4bfd9	8.618803e-05
143	0x37a27a1f	1.9368772e-05
144	0x3a7a57ea	0.00095498434
145	0x39895701	0.000261955
146	0x3b41d977	0.0029579082
147	0x39dc7e44	0.00042055745
148	0x3a41c59e	0.0007391813
149	0x3a99c79f	0.0011732465
150	0x3b2d2ead	0.0026425526
151	0x3a953ddf	0.0011386237
152	0x3884c499	6.33087e-05
153	0x3780c1af	1.534898e-05
154	0x3925d8e6	0.00015816427
155	0x38430d70	4.6504138e-05
156	0x3926a901	0.00015893953
157	0x39dc67eb	0.00042039095
158	0x3ad44f4a	0.0016197946
159	0x39b976e8	0.00035374542
160	0x37c3eae0	2.3355184e-05
161	0x38f0d2c1	0.00011483348
162	0x39693f0e	0.00022244101
163	0x38893a44	6.543522e-05
164	0x380b89ca	3.326851e-05
165	0x3855fc75	5.1018276e-05
166	0x38ed6c34	0.00011321195
167	0x375d7c41	1.3201557e-05
168	0x379e26e0	1.885317e-05
169	0x36cacaf8	6.043698e-06
170	0x38761eec	5.867977e-05
171	0x374b6321	1.2122823e-05
172	0x380578cf	3.1822183e-05
173	0x38a7fcb9	8.010254e-05
174	0x397f6c2a	0.0002435899
175	0x3800e707	3.073274e-05
176	0x38cebee5	9.858402e-05
177	0x39efce12	0.00045739167
178	0x3a9c7f83	0.0011939857
179	0x3992444f	0.00027898184
180	0x3891dd14	6.955318e-05
181	0x3871db08	5.7662866e-05
182	0x3992707f	0.00027931106
183	0x386d6f54	5.6608886e-05
184	0x38af853e	8.3694686e-05
185	0x373e547a	1.1344551e-05
186	0x38eb9ce9	0.000112349
187	0x37cc33f7	2.4342893e-05
188	0x371d148a	9.362711e-06
189	0x374a9f73	1.2077263e-05
190	0x3878cb2b	5.9317023e-05
191	0x3798f3ed	1.8233399e-05
192	0x382d3141	4.1292285e-05
193	0x37d5be37	2.5480154e-05
194	0x39058d0f	0.00012736417
195	0x38049f48	3.1619595e-05
196	0x39a1b589	0.00030843567
197	0x36f9380c	7.427303e-06
198	0x3a25d67a	0.000632621
199	0x38c12e7b	9.211615e-05
200	0x366478be	3.4044929e-06
201	0x37ad1a44	2.0635438e-05
202	0x379ac945	1.8451954e-05
203	0x3802e938	3.1211617e-05
204	0x380f7133	3.419928e-05
205	0x39851ecb	0.0002539068
206	0x39af9a9a	0.00033493788
207	0x38d4383f	0.000101194244
208	0x386d3ecd	5.656369e-05
209	0x37d49dcb	2.5345847e-05
210	0x39316738	0.00016918487
211	0x384aa0fc	4.831048e-05
212	0x38819aba	6.1800194e-05
213	0x37de72ab	2.6517859e-05
214	0x38b47c3d	8.60621e-05
215	0x37028209	7.77888e-06
216	0x39559538	0.00020368851
217	0x37340021	1.0728866e-05
218	0x39994c82	0.00029239437
219	0x3820deb4	3.835438e-05
220	0x3750c944	1.2444627e-05
221	0x36c48133	5.856296e-06
222	0x3792fa1e	1.7521026e-05
223	0x3734eb3e	1.0783608e-05
224	0x39667df1	0.00021981426
225	0x38e69d7f	0.000109965906
226	0x3a256c47	0.0006310385
227	0x38b4b18a	8.616138e-05
228	0x37be7b93	2.2707309e-05
229	0x36c27ec6	5.796409e-06
230	0x38e0cebe	0.00010719661
231	0x37de31ee	2.6487713e-05
232	0x39275394	0.00015957496
233	0x394612c7	0.00018889747
234	0x3a8ce3ca	0.0010749039
235	0x390c4c14	0.00013379782
236	0x39462774	0.00018897449
237	0x39ba268a	0.00035505398
238	0x3a7e467f	0.0009699836
239	0x3990a826	0.000275911
240	0x39121d2e	0.00013934515
241	0x372f50f1	1.04496585e-05
242	0x396ce269	0.00022591058
243	0x384954cb	4.8001104e-05
244	0x386cbe37	5.6443936e-05
245	0x3950c825	0.00019910985
246	0x39c76c9e	0.00038037164
247	0x389cacf8	7.4708776e-05
248	0x382fdbe3	4.1928037e-05
249	0x383cafe7	4.4986515e-05
250	0x39135d40	0.00014053751
251	0x380ae7f4	3.3117787e-05
252	0x37f87f83	2.9623281e-05
253	0x37182ae1	9.0698895e-06
254	0x3882178e	6.2032705e-05
255	0x377702d1	1.4723003e-05

exp_avg f4 [64]
0	0x3b26256c	0.0025351895
1	0xb8e44933	-0.000108855216
2	0xbaf475e0	-0.0018650852
3	0xba6ea021	-0.00091028406
4	0x3bc8f038	0.006132152
5	0xbb0f74d0	-0.0021889694
6	0xba63936a	-0.0008681329
7	0x3a0c8124	0.00053598196
8	0x3b44240f	0.002992872
9	0xbb119597	-0.0022214407
10	0x39dd8c95	0.00042257147
11	0x39e97164	0.00044525706
12	0x39fe6455	0.00048521408
13	0xbbc2de10	-0.005946882
14	0x3a0a3abe	0.00052730355
15	0x3ab5f333	0.0013881683
16	0x3b836835	0.004010225
17	0x3aa326b5	0.0012447449
18	0xbb7dc8cc	-0.003872442
19	0xba684e74	-0.0008861788
20	0xbb17e0ff	-0.002317488
21	0x3945231f	0.00018800468
22	0xbb3cc87f	-0.0028806028
23	0xbba14265	-0.004921245
24	0x3a7af491	0.00095731864
25	0xbb94118f	-0.0045186947
26	0x3b304040	0.0026893765
27	0xba208af8	-0.00061242236
28	0x3ab89121	0.0014081338
29	0x3a5f5ba3	0.000852043
30	0xbb2eb51e	-0.0026658247
31	0xbb752a7d	-0.0037409358
32	0xb9ef8745	-0.00045686416
33	0x3a408059	0.0007343344
34	0x3a121258	0.00055721914
35	0xb9ef676e	-0.00045662693
36	0xbb6aa1a8	-0.003580192
37	0xba1c31bc	-0.0005958339
38	0xbb3c4427	-0.0028727145
39	0xbb3c87bd	-0.002876743
40	0xb97e33d4	-0.00024242635
41	0xbaa7ae4d	-0.0012793035
42	0x3a390763	0.00070582906
43	0xbb1ffdca	-0.0024412745
44	0xba8fada9	-0.0010961789
45	0xba40c55d	-0.0007353628
46	0x3b04e4f9	0.002027808
47	0xbacfdb19	-0.0015858143
48	0xb824fd5d	-3.933661e-05
49	0xbb1f31f4	-0.002429125
50	0x3a5a2ce8	0.00083227316
51	0xba4e751a	-0.0007875726
52	0xba3c7ce4	-0.0007190241
53	0xbadf6d2e	-0.0017046088
54	0x3aba9990	0.0014236439
55	0xbb106804	-0.0022034654
56	0x3a828305	0.000995726
57	0x3a827d02	0.0009955468
58	0xbb0231d2	-0.001986612
59	0x3a8da6ad	0.001080712
60	0xba877281	-0.0010333807
61	0x396682dc	0.00021983258
62	0x399d8931	0.0003004759
63	0xb7c8b948	-2.3928136e-05

exp_avg_sq f4 [64]
0	0x3895f3c4	7.1502785e-05
1	0x3759f531	1.2991296e-05
2	0x381f6c3e	3.8009362e-05
3	0x37c088fd	2.2951974e-05
4	0x3a30f983	0.00067510473
5	0x38855e96	6.359552e-05
6	0x37da993c	2.605898e-05
7	0x37237300	9.742333e-06
8	0x389dc555	7.523099e-05
9	0x3851a361	4.998164e-05
10	0x3736ed96	1.0903363e-05
11	0x37efe6e3	2.8598535e-05
12	0x3828a564	4.0208353e-05
13	0x3a0e42f9	0.000542685
14	0x376059b7	1.3372329e-05
15	0x37dac093	2.60773e-05
16	0x399d029c	0.00029947318
17	0x3779db08	1.4892554e-05
18	0x39311c6c	0.00016890623
19	0x380f57c2	3.4175588e-05
20	0x3847d769	4.7645914e-05
21	0x383774fe	4.3739557e-05
22	0x392ecb2a	0.00016669618
23	0x3969ffa6	0.00022315848
24	0x38c03b10	9.166275e-05
25	0x39286a41	0.00016061311
26	0x38f3c817	0.000116244126
27	0x37e92fb3	2.7797976e-05
28	0x37af1df1	2.0875568e-05
29	0x382c1f70	4.1037274e-05
30	0x38ab3506	8.163792e-05
31	0x394963eb	0.00019206076
32	0x379d1e04	1.8729836e-05
33	0x37858ed3	1.5921343e-05
34	0x377a62d4	1.4924171e-05
35	0x37946cf0	1.7693703e-05
36	0x39602841	0.000213773
37	0x3959f966	0.00020787641
38	0x38ca4a5f	9.645963e-05
39	0x39676659	0.00022068004
40	0x37c48227	2.3425628e-05
41	0x37885508	1.625206e-05
42	0x373137b5	1.0562992e-05
43	0x3846b371	4.7373996e-05
44	0x38b0bb44	8.427215e-05
45	0x384e27c2	4.9151255e-05
46	0x387e589c	6.0640843e-05
47	0x3790e8e4	1.7274586e-05
48	0x37cb9f77	2.4273742e-05
49	0x388f2a4d	6.8266505e-05
50	0x3739755e	1.1054186e-05
51	0x381aec4f	3.693654e-05
52	0x37a0b315	1.9156878e-05
53	0x38442c0e	4.677107e-05
54	0x37bb35f0	2.2317254e-05
55	0x386a4058	5.5849872e-05
56	0x38469b70	4.735164e-05
57	0x373eaf62	1.1365717e-05
58	0x38c1433b	9.21548e-05
59	0x389080f5	6.890475e-05
60	0x37a593d5	1.9738372e-05
61	0x38119ba9	3.4715664e-05
62	0x3781aa33	1.5457254e-05
63	0x3733de1b	1.0720944e-05

exp_avg f4 [64, 64]
0	0x39903d75	0.0002751161
1	0xb9c5520c	-0.00037635898
2	0xb935b4cb	-0.00017328856
3	0x39899934	0.00026244821
4	0x3936ba1c	0.00017426204
5	0x39f8dd6d	0.0004746722
6	0x37e3486c	2.7094233e-05
7	0xb92d0d85	-0.00016503602
8	0x39698371	0.00022269577
9	0xb9d9bfa6	-0.00041532255
10	0xb94553fd	-0.00018818672
11	0x382a0fc5	4.0545845e-05
12	0xb8df71ea	-0.00010654687
13	0xb99db0e5	-0.0003007717
14	0x397e4186	0.00024247737
15	0x39279197	0.00015980598
16	0x39140dba	0.00014119493
17	0xb7bb27cf	-2.2310674e-05
18	0xb964cf41	-0.00021820983
19	0x3944e5b8	0.00018777594
20	0xb98f05d7	-0.00027279436
21	0xb90eb865	-0.00013610868
22	0xb930f384	-0.00016875385
23	0xb8fa392d	-0.00011931579
24	0x38fe2091	0.0001211773
25	0xb901b07b	-0.00012368143
26	0x39481603	0.00019081686
27	0x3902ac78	0.00012462016
28	0x398993a6	0.00026240683
29	0x38b374e9	8.557161e-05
30	0xb9e868a5	-0.00044328455
31	0xb9441657	-0.00018700339
32	0xb97520aa	-0.00023377189
33	0x395213da	0.00020034556
34	0x399180bb	0.00027752467
35	0xb919eee2	-0.00014680208
36	0xb987545c	-0.0002581206
37	0x395bb374	0.00020952319
38	0xb9996097	-0.000292544
39	0xb956fd18	-0.00020502915
40	0xb95afd92	-0.00020884562
41	0xb90b1a2a	-0.0001326582
42	0x39903ad0	0.0002750964
43	0x39989373	0.00029101557
44	0xb8f54b0a	-0.000116964875
45	0x39127946	0.00013968823
46	0x39337cf2	0.00017117316
47	0x38d307dc	0.00010062728
48	0x3909b325	0.00013132075
49	0x392fc697	0.00016763281
50	0x39348458	0.0001721544
51	0x393a073d	0.00017741039
52	0xb9187be7	-0.00014542007
53	0xb9cc15fe	-0.00038926298
54	0x3941d573	0.0001848543
55	0x38c25057	9.265605e-05
56	0xb8a407d5	-7.821588e-05
57	0x3978f92d	0.00023743948
58	0xb938b9df	-0.0001761685
59	0xb88aa3ee	-6.610887e-05
60	0xb9677603	-0.0002207384
61	0x374eaff1	1.2319521e-05
62	0x3809bb6f	3.2837906e-05
63	0x39151959	0.0001421919
64	0xb80d953c	-3.3756005e-05
65	0xb8243a77	-3.9155097e-05
66	0x3925f5cd	0.00015827194
67	0xb8e6c363	-0.00011003648
68	0xb8fe4912	-0.00012125274
69	0x376d0156	1.4126612e-05
70	0x381a5561	3.6795976e-05
71	0xb9295da9	-0.00016151987
72	0xb8d13497	-9.975692e-05
73	0xb89973ba	-7.317164e-05
74	0x39bde71b	0.00036221076
75	0x37eab018	2.7976974e-05
76	0x389385ed	7.034452e-05
77	0x383f866c	4.566314e-05
78	0xb8dd7850	-0.00010560511
79	0xb8ca5b40	-9.649107e-05
80	0xb98bb4a7	-0.00026646742
81	0x392617fa	0.00015839926
82	0x388a43e8	6.593001e-05
83	0xb6978c4b	-4.516483e-06
84	0x389ad4cc	7.382929e-05
85	0x38891850	6.5371976e-05
86	0xb8e42b6d	-0.00010879976
87	0xb93bc8aa	-0.00017908463
88	0xb918ee59	-0.00014584641
89	0xb940f94d	-0.00018403419
90	0xb876f679	-5.8880516e-05
91	0xb8c92dda	-9.5929674e-05
92	0xb889f551	-6.578363e-05
93	0x37844388	1.5767073e-05
94	0xb8a4f78f	-7.866241e-05
95	0x38dea1e5	0.0001061594
96	0x38db13cc	0.00010446421
97	0xb8d825d0	-0.00010306726
98	0xb91f04c1	-0.00015165193
99	0x388e2098	6.777159e-05
100	0x3803f449	3.1460342e-05
101	0xb6a29711	-4.8455627e-06
102	0x388c6a31	6.6955e-05
103	0x37472a92	1.1871236e-05
104	0xb788f968	-1.6328602e-05
105	0xb8209b26	-3.8291466e-05
106	0x3926bae3	0.00015900614
107	0xb879ee26	-5.958802e-05
108	0x38742346	5.8206984e-05
109	0xb8b895c2	-8.801698e-05
110	0x38534647	5.037177e-05
111	0xb914fea1	-0.00014209237
112	0xb889746e	-6.554356e-05
113	0xb8bfc655	-9.144532e-05
114	0xb8d6e31c	-0.000102466176
115	0xb7514f51	-1.2475838e-05
116	0x38f2ba18	0.00011574122
117	0xb8f6bba2	-0.000117651434
118	0xb8dbcd77	-0.000104810046
119	0x383a1e55	4.4374105e-05
120	0x3898d227	7.287069e-05
121	0xb95218ad	-0.00020036353
122	0x380e6ccb	3.395676e-05
123	0x3867e5da	5.5288758e-05
124	0x38db002f	0.00010442768
125	0xb79e2795	-1.88535e-05
126	0xb90e3b74	-0.00013564323
127	0xb8c27c2c	-9.27377e-05
128	0xb878c70d	-5.9313188e-05
129	0x38bc4a97	8.978432e-05
130	0x394a6b41	0.00019304176
131	0xb91f9300	-0.00015218183
132	0xb8b7dc3e	-8.767143e-05
133	0xb98698ad	-0.00025672224
134	0x39324f02	0.00017004836
135	0x396fe434	0.00022877828
136	0xb92c7837	-0.00016447982
137	0x366c0296	3.5168246e-06
138	0x39860e0f	0.00025568946
139	0x3943bc61	0.00018666826
140	0xb885c1ac	-6.3780084e-05
141	0x38974b74	7.214295e-05
142	0x366eba92	3.5573362e-06
143	0xb8e79b3b	-0.00011043852
144	0xb90297d2	-0.00012454324
145	0xb97e67ad	-0.0002426195
146	0x386daa18	5.6663615e-05
147	0xb845a3d7	-4.7121048e-05
148	0x3965be1d	0.00021909965
149	0xb8a3b97d	-7.8069956e-05
150	0xb88ca1d5	-6.705864e-05
151	0x33a4986b	7.66457e-08
152	0x388a7e2b	6.6038534e-05
153	0xb8a4cdaa	-7.858437e-05
154	0x37d9bc8e	2.5956218e-05
155	0xb8e0c231	-0.00010717323
156	0xb93e596d	-0.00018153126
157	0x39088081	0.00013017842
158	0x38370510	4.3635315e-05
159	0x38ed9b28	0.00011329941
160	0x390a2a41	0.00013176446
161	0xb919960d	-0.00014647115
162	0xb984363a	-0.00025217404
163	0xb8593184	-5.1782947e-05
164	0xb8bc3b74	-8.9756126e-05
165	0x3928ff1e	0.00016116767
166	0x39475023	0.00019007972
167	0xb9084c69	-0.00012998436
168	0x3961253f	0.00021471547
169	0xb7a1e161	-1.9297646e-05
170	0x37793258	1.4853278e-05
171	0xb8f2533c	-0.00011554963
172	0x3981b6f3	0.00024741105
173	0x37e858e5	2.769795e-05
174	0xb8af204b	-8.350665e-05
175	0x3960f9c8	0.00021455355
176	0xb78da622	-1.6885871e-05
177	0xb9210028	-0.00015354215
178	0x38f7ee64	0.000118222815
179	0x3911b393	0.00013895174
180	0x395eb05e	0.00021237272
181	0xb7ee7778	-2.8427443e-05
182	0xb97600d1	-0.00023460692
183	0x393524df	0.0001727524
184	0xb8838167	-6.27067e-05
185	0xb9620e77	-0.00021558428
186	0xb8a22ee3	-7.733495e-05
187	0x396daaa5	0.00022665651
188	0x39115269	0.00013858978
189	0xb92e07d8	-0.00016596855
190	0xb988036e	-0.00025942497
191	0xb90a8dbb	-0.00013213504
192	0x388f2f48	6.827578e-05
193	0xb9542bc0	-0.00020234194
194	0xb9a3e749	-0.00031262104
195	0xb8b355e8	-8.5513864e-05
196	0x3991d742	0.00027816935
197	0x39768ec7	0.00023513577
198	0xb8c3f01f	-9.3430506e-05
199	0xb9055a59	-0.00012717526
200	0x39b74007	0.00034952184
201	0x39a92677	0.0003226285
202	0xb9803205	-0.0002445133
203	0xb974ede2	-0.00023358272
204	0x3881bfd1	6.186928e-05
205	0xb968ce84	-0.00022202177
206	0xb8b2a004	-8.517507e-05
207	0x35848677	9.873901e-07
208	0x39bd4e19	0.00036107076
209	0x39002310	0.00012220093
210	0x3849293b	4.7960533e-05
211	0x39de47ba	0.0004239658
212	0xb9876ab9	-0.0002582872
213	0xb94e95dd	-0.0001970152
214	0xb9c2dc40	-0.00037166663
215	0xb7e658c7	-2.7459477e-05
216	0x38c579cc	9.4163785e-05
217	0x390c8bd6	0.00013403533
218	0xb960b5b9	-0.00021430002
219	0x39b761d4	0.00034977368
220	0x397f9994	0.00024375907
221	0xb914c8eb	-0.00014189228
222	0x39982dc7	0.00029025806
223	0xb98df941	-0.00027079324
224	0x38b63b93	8.689533e-05
225	0x381e78fa	3.7782804e-05
226	0x3981103d	0.00024616896
227	0x390e86dd	0.00013592416
228	0x37292617	1.0082053e-05
229	0x38c6734a	9.46285e-05
230	0xb98b7af2	-0.00026603747
231	0x38c8330b	9.546251e-05
232	0xb9075d5e	-0.00012909385
233	0x39331c22	0.0001708125
234	0xb9c48f33	-0.00037490725
235	0x392ae6fa	0.00016298509
236	0xb90de3d4	-0.0001353168
237	0x38d6b549	0.00010238082
238	0x3983f3b1	0.0002516783
239	0xb908dd9f	-0.00013052531
240	0x38cb6f29	9.7004995e-05
241	0xb806dd56	-3.2154225e-05
242	0xb72b104a	-1.0196187e-05
243	0xb8a37ca8	-7.795665e-05
244	0xb9aa5ea4	-0.0003249544
245	0x39adcb06	0.00033148396
246	0x39a15611	0.00030772437
247	0xb8c1be54	-9.2384085e-05
248	0xb8d72beb	-0.00010260179
249	0x39984aee	0.00029047526
250	0xb98d4134	-0.00026942196
251	0xb90c7703	-0.00013395776
252	0x383d69bd	4.5159588e-05
253	0xb80a26f2	-3.2938035e-05
254	0x3958063f	0.00020601692
255	0x39435591	0.00018628525
