eval/eval_rl/runs/CartpolePPO/nn/last_CartpolePPO_ep_450_rew_966.263.pth (torch, 70432 bytes, 24 tensors)

value_mean_std.running_mean f8 [1]
00000000: b77d 053d cbfc 7a40
431.79961874146414

value_mean_std.running_var f8 [1]
00000000: 4320 6e70 ecf7 cd40
15343.847181096795

value_mean_std.count f8 []
00000000: 0000 0008 0020 8c41
58982401.0

running_mean_std.running_mean f8 [4]
00000000: 0ada 82b4 f02a e53f 6f08 e429 c1ac b0bf
00000010: 7c0c 8613 8a35 c73f e5ec fca3 ffd0 c83f
0.6614917302711671 -0.0651360251686428 0.18132139161398075 0.19387813098169385

running_mean_std.running_var f8 [4]
00000000: b5ff 4ae6 d219 ec3f 510e 6209 5bf8 e33f
00000010: 2f9f 9faa 0299 f73f a4e1 2e36 2edb 0a40
0.8781523225697955 0.6240668471586536 1.4748560585957866 3.35702173548289

running_mean_std.count f8 []
00000000: 0000 0010 0020 7c41
29491201.0

a2c_network.actor_mlp.0.weight f4 [64, 4]
00000000: f8cc 8d3c aad6 473f 57fc 073e 6975 033f
00000010: 8a3b d1bc 3a0b 15bf 7561 70be a421 68be
00000020: 1bef 9ebe d682 81bf 498a 0abe beb0 5d3e
00000030: 2d44 e03d 8b74 e93e 4c0a 83be da76 593d
00000040: df35 703e d390 be3f 3f27 503e 2136 c03e
00000050: 672a 1e3f 1d74 b13e 811b 363f f857 debf
00000060: 3677 1fbe 51c6 b83e fcc4 9cbb 8adf 183e
00000070: 1ed2 a3be 3731 563e 4b60 c4be 0134 12bf
00000080: d0f9 7fbe 3dd7 303f f593 8f3e 3cf6 4d3e
00000090: 881c ab3c cdd3 54bf 0acc 30be 8514 9dbf
000000a0: 6d01 29bf de2a 8bbe 61ad 3e3e d344 bb3e
000000b0: 1b57 d73e 04b6 d63e 1a20 563e 7102 063f
000000c0: b141 053e 459b 923c b2d1 333f c5f5 10bf
000000d0: 0e50 bdbd a257 9fbf 49b7 7cbe 421d 12bf
000000e0: 353c ba3d 025a 6d3e 24be 08bf 1f2e fc3e
000000f0: d894 fdbd 833c b83e 0e42 39bd ec23 8b3e
00000100: 01c9 b33e 6d2c a13f 630d 3d3e f1d1 4dbf
00000110: cf04 fb3d dd8f a53e ba13 3a3f fe10 6c3f
00000120: 052d ebbc 1361 7abf 9d69 05be 6505 24bf
00000130: c002 3dbe 1468 e43e 507b cf3e 1960 2abf
00000140: 9e39 83be 7507 3fbf 9d8f 31be 5b71 59be
00000150: 2236 cebc d1fc e5be 0b28 58bd 228f 383e
00000160: 1e54 c93e fa28 13bf a7cf 17bf 2cf0 45be
00000170: 08d7 97be f967 01bf c2cb e2be 0f90 4ebf
00000180: 9aa5 c53e 0fcc 7b3f d668 ed3b fdfa 40bd
00000190: 7fa6 c0be df8a 11bf a22f d2be 2e84 56bf
000001a0: e7c2 1f3e eedc 193f 66ea 1ebe 8128 383f
000001b0: 74e3 20bd 7e1a 9c3e 1087 f43d c089 92be
000001c0: 81d4 2b3e e29b 143f b83a 033e 7eb2 213e
000001d0: fa19 fe3d 528d 883e d490 58be 9b49 ea3e
000001e0: 7b2e 8bbd 4dc6 2bbf 1a11 11be 98d7 75bf
000001f0: be9f 3dbe 2e47 72bf ce18 d9bd eb30 1abe
00000200: 8ea8 edbb 03b6 e6be f46b 3f3e f59e 56be
00000210: 1d85 69bd ed95 ec3e b8eb d0bd ecec 1f3e
00000220: 292a 853f 7225 a5bd eb38 85bd 7110 7ebe
00000230: a055 11be 4b98 afbe a5d1 063e e739 5cbe
00000240: 2c24 8ebe ee8f bdbf 4c84 35be 1c35 02bf
00000250: f575 be3e ac68 043f e468 df3d 9dda 51be
00000260: b83a f8bd 83ae 6bbf e708 76be 9746 a6be
00000270: de59 82bc ed12 90bf c234 2ebd f480 5cbf
00000280: a253 2abe 4736 9b3e 0578 c5be 11b5 373f
00000290: 0953 593d 58ad 57be beab 413e 7a40 9bbf
000002a0: a3ae e13e cf29 233e fee1 503c 2614 373f
000002b0: 53a4 153e f295 dc3e 6f91 133f 118b b0bf
000002c0: b690 b3be e1b7 233f d467 05be 2960 a43e
000002d0: a11c 5c3d c54d ae3e 25e5 2ebc cc18 afbc
000002e0: 00a8 dabe 800a d93e f796 ec3e ce27 113f
000002f0: 6a7a 72be 8d2e 223e 9114 e9be 2a3d 12bf
00000300: bf2a 903c 8fa1 853e 6b87 e7bb f853 fd3c
00000310: 065b 913c 6bf7 d23d 5421 b5be a5a3 84be
00000320: b89d dfbe e9d8 2c3f cc12 10bf 4e07 673f
00000330: 8b04 2d3e c36e a83e 6711 453c b4fe c73d
00000340: 1086 2c3d 0b02 e7be df38 acbc d12b 313e
00000350: 85cb 44be 475c d0be e50d 593e 4bf5 b2bf
00000360: 0876 52be 23ad 2a3f aec6 f6bd b819 fabd
00000370: bb5c c2be c3bd 623e aff2 d2be 680d 82be
00000380: 9493 b4be ddef 61be fabc fa3d 9a15 e73e
00000390: d644 ab3e 8d5a 253f 95bb 703d ff8f 95be
000003a0: 2e18 513e 81a7 28bf 9b6e 19be cf3b e23d
000003b0: 9f98 83be a1c8 373f 9f69 abbd 5717 883d
000003c0: 5b29 4e3d 9840 64bf 8910 1b3d cdbf debe
000003d0: 2287 b03e b886 01bf 227d fbbc 2ce8 dc3e
000003e0: b4c8 b83e 410b 0fbf ebcf 97bd 0207 44bf
000003f0: 5baf 44ba 69bf 8a3e f591 e6bc 3c92 efbc
0.01730965 0.78061926 0.13279854 0.5135103 -0.025541086 -0.58220255 -0.23474677 -0.22669083
-0.31041798 -1.0118053 -0.13529314 0.21649453 0.109505035 0.45596728 -0.25593793 0.05309186
0.2345805 1.4887947 0.20327471 0.37541297 0.6178345 0.346589 0.7113572 -1.7370596
-0.15572819 0.36088803 -0.0047842246 0.14929023 -0.31996244 0.20917211 -0.38354716 -0.571106
-0.2499764 0.6907843 0.2804257 0.20113462 0.020887628 -0.8313568 -0.17265335 -1.2271887
-0.660178 -0.27181143 0.18620826 0.36575946 0.42058644 0.41935742 0.20910683 0.52347475
0.1301334 0.017896304 0.70241845 -0.56625015 -0.09243785 -1.2448618 -0.24679293 -0.57075894
0.09093515 0.23178867 -0.5341513 0.49253938 -0.12381905 0.35983667 -0.04522901 0.27175844
0.3511429 1.2591683 0.18462138 -0.8039847 0.122567765 0.3233632 0.7268635 0.9221343
-0.02870799 -0.97804374 -0.1302857 -0.6407073 -0.1845808 0.44610655 0.40523767 -0.66552883
-0.25629896 -0.74620754 -0.1733994 -0.21234648 -0.025172297 -0.44919446 -0.052772563 0.18023351
0.3932199 -0.574844 -0.5930123 -0.193299 -0.29656243 -0.50549275 -0.4429608 -0.80688566
0.38602906 0.98358244 0.0072451634 -0.04711436 -0.37627026 -0.56852525 -0.41051966 -0.8379544
0.15601693 0.60102737 -0.15519103 0.71936804 -0.039279416 0.30488962 0.11939824 -0.2862072
0.16780283 0.5805036 0.12815368 0.15790746 0.124072984 0.2667032 -0.21148998 0.45759282
-0.06795975 -0.6709946 -0.1416668 -0.96032095 -0.18517968 -0.9463986 -0.10600434 -0.15057723
-0.0072527593 -0.4506074 0.18693525 -0.20959075 -0.057011712 0.46208134 -0.1020121 0.15617722
1.0403491 -0.08063783 -0.06504997 -0.2481096 -0.1419282 -0.34295878 0.1316591 -0.21506463
-0.27761972 -1.4809549 -0.17726249 -0.5086229 0.3719937 0.51722217 0.10908678 -0.2049355
-0.12120575 -0.9206316 -0.24026833 -0.3247573 -0.015911993 -1.1255776 -0.042530783 -0.86134267
-0.16633466 0.30314848 -0.3856813 0.7176066 0.053057704 -0.21062219 0.1891317 -1.2129052
0.4407855 0.15933917 0.012749193 0.7151512 0.14613466 0.4308315 0.5764379 -1.379244
-0.35071343 0.6395245 -0.13027889 0.32104614 0.05373824 0.34043708 -0.0106747495 -0.021374129
-0.427063 0.42390823 0.46208927 0.5670136 -0.2367951 0.1583807 -0.45523503 -0.5712458
0.017598508 0.26099822 -0.0070657036 0.030923828 0.017743599 0.103010975 -0.3537699 -0.259061
-0.43675017 0.6751848 -0.5627868 0.9024552 0.16896264 0.32897004 0.012028075 0.09765378
0.04212004 -0.45118746 -0.021023212 0.17301871 -0.19218262 -0.40695402 0.21196707 -1.3981107
-0.20552838 0.66670436 -0.12049614 -0.12211937 -0.37961373 0.22142701 -0.41200778 -0.25400853
-0.35268843 -0.22064157 0.12243076 0.45133668 0.33450955 0.64591295 0.058772642 -0.29211423
0.2041938 -0.6588059 -0.14983599 0.11046564 -0.25702378 0.7179051 -0.08369755 0.06645077
0.05033241 -0.8916106 0.037857566 -0.43505707 0.34478098 -0.5059619 -0.030699316 0.43145883
0.36090624 -0.5587655 -0.07412704 -0.76573193 -0.00075029366 0.2709916 -0.02814577 -0.029244535

a2c_network.actor_mlp.0.bias f4 [64]
00000000: 5a61 a5be ccbd b03d b940 973e b601 72bf
00000010: 04e0 333e f6fe 92be 33d4 143f eadd b53f
00000020: b86c 45bf 0ee7 cf3e afa3 803f 5d56 ab3f
00000030: 98bb e03d 4374 aa3c dc69 84be 671d 61bf
00000040: 87c3 a33d 5191 42bf 4097 f93e e550 7e3d
00000050: 4129 063f cd13 21bf b480 00bf 735a 07bf
00000060: 7f41 693f 2fc6 45bf 3d40 a6bd 6649 e7bd
00000070: a4a4 d0be d244 113f bcca fa3e 0df8 d33b
00000080: 2052 773f 2e27 65bf 7f3f 81be 0c41 53be
00000090: f901 54bf 8077 d13f 895d de3e 9d2d ecbe
000000a0: 591d 593f 987b 7e3e 1f44 6e3e 6f8d 62bd
000000b0: f02f b63f 3e28 813e 1444 ebbe 5e00 0f3f
000000c0: f877 443c 6e1b 6bbf fa56 2abe d65f 4f3f
000000d0: e7a0 643f a5c5 04bc dc41 a3bf e9bd 7b3e
000000e0: 9fa2 62bf 099c 11bf 3fbf 08bf 2091 cb3f
000000f0: 070e 7c3f b5c1 a1bf 2e7a a2bf fb86 e0be
-0.32300836 0.08629951 0.29541567 -0.9453386 0.17565924 -0.28710145 0.5813629 1.4208348
-0.77119017 0.40605968 1.0049952 1.3385731 0.10973281 0.020807391 -0.25862014 -0.8793549
0.07996278 -0.76002985 0.48748207 0.062088866 0.524067 -0.6292084 -0.50196385 -0.5287239
0.91115564 -0.7725553 -0.08117721 -0.112932965 -0.4075061 0.56745636 0.489828 0.006468779
0.9660969 -0.8951291 -0.25243756 -0.20630282 -0.8281551 1.6364594 0.43430737 -0.4612855
0.84810406 0.24851835 0.23268174 -0.055310663 1.4233379 0.25226015 -0.45950377 0.55859935
0.011991493 -0.9183873 -0.16634741 0.8100561 0.8930802 -0.008103763 -1.2754474 0.24584164
-0.8852939 -0.56878716 -0.5341682 1.5903664 0.98458904 -1.263724 -1.2693536 -0.43852982

a2c_network.actor_mlp.2.weight f4 [64, 64]
00000000: d253 9c3e 9a0b 4cbe 77cd 80be 4bc0 33be
00000010: 4423 0c3e 9e00 58bf 3adc 263e f33a 93be
00000020: 510f 883e fc27 7abe cb7d b4bd bae3 a43e
00000030: e261 bcbe b33a 0f3d c3b0 7e3e 85f9 913e
00000040: ba01 d33e 09e8 99bc b994 893d 159d 27be
00000050: 1ec1 17bf e636 493f 4289 bbbe f6a2 ecbe
00000060: 0460 dcbe ea29 ecbe 37e2 adbc c07b 253e
00000070: 847c d23e 6bac 993e 136b 873a 2f30 aebd
00000080: 3d93 37be db09 ce3e ba4f 1dbf e4ad d53e
00000090: c90c 2b3e 3125 35be 8b50 e8be ceaa f23e
000000a0: 36ee cf3e 7bcf 4fbe e009 083e 045c 0dbf
000000b0: 5dcf 15bd 2706 bebe d71d a23e 7234 e2be
000000c0: c116 bfbe e7cc 9ebe c913 243d 24a9 503d
000000d0: b023 c0be 7b44 f9bc f31c 243f 43a5 63be
000000e0: 558f 913e 69ca ac3e dce3 093f 4192 27bf
000000f0: 29e8 9f3d 51bf 303f 9adc 3abe 4188 d43d
00000100: 017b b1bd b3fc 9f3e b065 733d 5bc7 8fbb
00000110: 2c21 9bbd 7938 91bf 5756 453e 92ad aa3e
00000120: c4bd 98be 14f6 62be a389 0abf f825 993e
00000130: 690f 9bbd 6a50 a83d 3ac6 ecbd 2bf4 76be
00000140: a47d 2a3f e551 3bbe 1c47 a93e ba55 5fbc
00000150: b782 453e 9d83 51be b1f4 91bd bc68 263e
00000160: e3f4 d03e 1d77 f73c 6298 29be f53b 1b3e
00000170: 8d76 9cbe dfe8 c83e 50c1 163e 749a c33d
00000180: a98d 7a3e 45af febe 3a8f 33bf c2fe 51be
00000190: d15f d8be 8cbc 663f f19d 303e 7f85 a9be
000001a0: c17c a73e cff0 c7be 4de8 b73d c327 63bf
000001b0: 815f 113f d02d af3e 3525 4dbd 5c2a 283d
000001c0: 2bf4 ba3d dfdf ccbe 368b 67be a8be e23e
000001d0: 4a04 6ebd bfec ecbe b6cb 87be b02a fe3d
000001e0: 486c d5bd d7d0 3d3d 0b6f a0be 0323 2b3f
000001f0: 4aa8 bf3e 5e59 d3be 9a2f 41be 8a05 353d
00000200: 2da6 8a3e 05e9 efbd 58ea e2bd f5be 883c
00000210: 93ae 223e 3bf1 8fbd b9f2 5eba e8e4 22bd
00000220: 0189 40bd 246c 41bd ff5f 453e 969f 5abe
00000230: 8fed f2bd 4ee7 a8bc 100b 09bc e383 eebd
00000240: be82 79be 73e9 9abc 611c afbd 8fc1 cf3e
00000250: d351 1abd 4ffa da3c a9f7 a1bd b55e 7dbe
00000260: 60bd 4bbe 5a0d a5bd 20fb a0bc 28c2 883d
00000270: 5a86 153d 9494 f73c f4f8 ffbc 1244 8a3c
00000280: ba8f aa3d 752a e23d 7ea1 fb3e 5e5f f03d
00000290: 387b 7e3e f934 d7bd f23d 32be b90e 25bd
000002a0: 2352 5c3e 1160 893d d822 27bd 4f20 e0bc
000002b0: e44e 543d f2e2 7cbe d920 b73e 9f7f 793e
000002c0: 38b7 fbbd a29a 703d a193 a53e a224 0b3e
000002d0: ffeb 473e 27b7 fc3d a161 4d3c 5136 573e
000002e0: 9931 88bd 6095 563d 933e 3d3d 8d80 2c3d
000002f0: 8e6a 8bbd f786 70be b084 b43d 286f 893d
00000300: 838b 13be 512f c63d c779 793e aa6f de3e
00000310: db7d 13be 4b0c f43d 86d7 223e d561 6dbe
00000320: 9ead 8e3e e86b 813e c784 4fbd 6e40 cbbd
00000330: b985 a23e 18ae 213e 5c94 aa3e d227 c2bc
00000340: 9f43 f2be 698f 8c3e ac22 46be e8b1 443e
00000350: 9d4a 8f3e 3588 01be 79ba 913e b517 fb3d
00000360: 056c 8dbe c26e 8b3d b40f 2d3d 829b 163e
00000370: c004 61be 47c7 b33c 6810 653e f068 f13d
00000380: 28aa 89be af8f 703e 7cda 8e3d ac7f a9be
00000390: 8bc5 1f3f 0db1 08be 38c1 0d3d e483 223d
000003a0: 4bef 94be f675 633e c04f 2d3d c2bd 9d3d
000003b0: 8b34 b6be 979f 083e 3f3d 843e f0bf 3d3d
000003c0: 6f0e 703e 73bb 263f afed ba3e 8707 3d3e
000003d0: c9db 403e ec0b 123f 2747 ed3e 7f56 243d
000003e0: b056 8b3e 5086 58be e695 253e b23c bdbd
000003f0: bec0 96be 3259 27bd d96c c5bd 1019 543e
0.305327 -0.199263 -0.25156757 -0.17553823 0.13685328 -0.8437594 0.16294947 -0.28755912
0.26574185 -0.24429315 -0.088130556 0.32204992 -0.3679343 0.03496809 0.24872117 0.2851068
0.41212255 -0.0187874 0.0671782 -0.16368516 -0.5927905 0.78599393 -0.36628157 -0.4621808
-0.43042004 -0.46125728 -0.021226032 0.16160488 0.41110623 0.30014357 0.0010331593 -0.08505284
-0.1792726 0.40241894 -0.6144978 0.4173423 0.16704096 -0.17689969 -0.4537395 0.4739594
0.40611428 -0.20293991 0.13285017 -0.5521853 -0.03657471 -0.3711407 0.3166339 -0.44180638
-0.37322047 -0.31015703 0.04005793 0.050942555 -0.37527227 -0.030428162 0.64106673 -0.22231011
0.28429666 0.33748177 0.5386331 -0.6545754 0.07807953 0.69041926 -0.18248215 0.10377551
-0.08666039 0.31247482 0.05942315 -0.0043877787 -0.075746864 -1.1345359 0.19271217 0.3333555
-0.2983228 -0.22164184 -0.54116267 0.2991178 -0.07571299 0.08218463 -0.11561246 -0.2411658
0.6659796 -0.18292959 0.33062065 -0.013631279 0.19288145 -0.20460363 -0.07126749 0.1625089
0.40811834 0.030208165 -0.16562036 0.1515959 -0.30559197 0.39240167 0.1472218 0.09550944
0.24468102 -0.49743095 -0.7014042 -0.20507339 -0.42260602 0.9013145 0.1724775 -0.33109662
0.32712367 -0.3905091 0.08979855 -0.88732547 0.5678635 0.3421464 -0.05008431 0.041056022
0.091286026 -0.4001455 -0.22611699 0.44286084 -0.05810956 -0.46274373 -0.26522607 0.12410486
-0.10421044 0.046341743 -0.3133472 0.668503 0.37433082 -0.4127912 -0.18865815 0.044194736
0.27079907 -0.11714367 -0.11079854 0.016692618 0.15886907 -0.07028433 -0.00085047964 -0.039769083
-0.047005657 -0.04722227 0.19274901 -0.2134994 -0.11861717 -0.020618107 -0.008364454 -0.11646249
-0.2436628 -0.018910145 -0.08550335 0.4057736 -0.03767569 0.026730685 -0.079085656 -0.24743159
-0.1989646 -0.08059187 -0.019650996 0.06677657 0.03650508 0.030222215 -0.03124664 0.016878162
0.08328195 0.11043254 0.49146646 0.1173694 0.24851692 -0.105081506 -0.17406443 -0.040297244
0.21515708 0.06707776 -0.040804714 -0.027359156 0.05183305 -0.24695948 0.35767248 0.2436509
-0.122908056 0.05874122 0.32339194 0.13588193 0.19523619 0.12339621 0.012535484 0.21016814
-0.06650085 0.05238855 0.046202254 0.042114783 -0.06807433 -0.23488985 0.08814371 0.067106545
-0.14408688 0.09676994 0.2436286 0.43444568 -0.14403479 0.11916407 0.15902528 -0.23181851
0.27866834 0.25277638 -0.050663736 -0.09924398 0.31742647 0.15789068 0.33316314 -0.023700628
-0.47317216 0.27453163 -0.19349164 0.19208491 0.27986613 -0.12649615 0.2846258 0.12260381
-0.27621475 0.06808235 0.042251304 0.14707759 -0.21974468 0.021945609 0.2236954 0.11787593
-0.2688763 0.23492311 0.06975266 -0.33105218 0.624108 -0.1334879 0.034608096 0.039676562
-0.29088816 0.22212967 0.042312384 0.07702209 -0.35586962 0.13342129 0.25827977 0.046325624
0.23443006 0.65129775 0.36509463 0.18459903 0.18833841 0.5704944 0.46343347 0.04012155
0.27214575 -0.21144986 0.16170463 -0.09240092 -0.29443926 -0.040856548 -0.09639902 0.20712686

a2c_network.actor_mlp.2.bias f4 [64]
00000000: 5b4a 53be 2104 d83e 944c 7a3e 85c1 273f
00000010: f3df 3a3c 1c44 143d a8a1 91bd 7c00 f63e
00000020: 320e 29bf 7f77 35bf 4f4f 1abf b671 19be
00000030: e39f 05bc a23b 493d b520 4a3e c243 eabd
00000040: 8cc1 0cbe 86df 40be 2393 6cbf 0fa5 39bf
00000050: f8c5 f43e 38fc 253f cd9d 91be 4426 8b3e
00000060: aa17 85bc da9b b6bd 10f9 8abf c9dc 19be
00000070: 16f4 733e 0fa9 553f 5888 d03e cb21 87be
00000080: 3268 2f3e db3c b8be cc8d aebe 86fe b9be
00000090: 3b3d 113e 1f0b 6abe 2f31 67bf 00e0 3ebf
000000a0: 6434 5abf 1232 93be c9fc 393d c911 cfbe
000000b0: f13b 633f f343 9ebe 6af2 95bd a580 f6bd
000000c0: 5db7 75bd 462f 82be e943 353d 1910 0e3f
000000d0: 210c 70bf 2c56 133f fc88 c7be d1c4 073f
000000e0: 8505 033e b245 3e3f 9877 e5be de8d 72be
000000f0: 7ebd 34be 5935 3bbf 8e68 64bd f17a 2a3f
-0.20633833 0.4219065 0.24443275 0.6552966 0.011405933 0.036197767 -0.071109116 0.48047245
-0.66037285 -0.7088546 -0.60277265 -0.14984784 -0.008155796 0.049129136 0.19739039 -0.11438705
-0.13745707 -0.18835267 -0.9241201 -0.72517484 0.47807288 0.6483798 -0.28440705 0.27177632
-0.016246635 -0.08916445 -1.0857258 -0.15025629 0.2382358 0.8346109 0.40729022 -0.2639297
0.17129591 -0.3598393 -0.34092557 -0.36326998 0.14183514 -0.22855805 -0.90309423 -0.74560547
-0.8523619 -0.28749138 0.04540709 -0.40443256 0.8876334 -0.30911216 -0.073216274 -0.12036256
-0.059989322 -0.25426692 0.044254217 0.55493313 -0.9376851 0.5755336 -0.38971698 0.53034693
0.12795074 0.74325097 -0.44817805 -0.2368693 -0.1765041 -0.7312828 -0.055763774 0.66593844

a2c_network.value.weight f4 [1, 64]
00000000: ec13 f33d 6e60 ad3c cb99 af3c 2c72 8bbe
00000010: 4e0b 953c a2d9 9cbe 112a 933e 2afb 7cbe
00000020: 7efb b83e 1b44 803e cfc3 023d 5687 b0bc
00000030: 6c87 84bd 1d72 e53c f0ee 32ba 0c17 ba3c
00000040: ef7a 483e dff7 583d ca1a f43e 7678 b93e
00000050: fe94 6dbf 0aa5 0cbf a178 aa3e d917 423e
00000060: d9cd bfbc dac3 1fbc abc4 b63e 0a87 2cbe
00000070: e236 2d3f c625 9abe 5269 263d 3387 83ba
00000080: a31f 1a3d 0759 01bb daff 6ebd 7b85 19bf
00000090: 0237 833e 87bf 7cbd fb3e ef3e 6f3a 1c3e
000000a0: bf81 bd3e 2689 a63d 78b3 a9bb 9bc5 093d
000000b0: 5e7f c7be d62b 103e 504c e0bd 955a 1ebf
000000c0: f848 93be 037e 2d3f 6088 2e3d 5eb8 0b3d
000000d0: f823 583e e75c a2bd a9bc 55be 0636 35be
000000e0: 3132 00bf 2106 d3be 88f2 a73c 8c86 65bc
000000f0: 13bd d1be d46b 1b3f 2bae 66be 2df1 9ebe
0.11869034 0.021164145 0.021435639 -0.27235544 0.018193867 -0.3063479 0.28743032 -0.24705186
0.36129373 0.2505196 0.03192502 -0.021548908 -0.06471142 0.028008515 -0.00068257656 0.022716068
0.19578145 0.052970763 0.47676688 0.36224717 -0.9280547 -0.5493933 0.33295158 0.1895441
-0.023413585 -0.0097512845 0.3569692 -0.16848388 0.6766187 -0.30106944 0.040627785 -0.0010034799
0.037627827 -0.0019736902 -0.058349468 -0.599693 0.25627905 -0.061706092 0.46727738 0.15256666
0.3701305 0.08131628 -0.005178865 0.033635717 -0.3896436 0.14079222 -0.109520555 -0.6185697
-0.28766608 0.67770404 0.042610526 0.034111373 0.21107471 -0.07927876 -0.2087275 -0.1769639
-0.50076586 -0.41215613 0.02050139 -0.014009129 -0.40964565 0.6071141 -0.22527377 -0.31043378

a2c_network.mu.weight f4 [1, 64]
00000000: 6158 d33e 47bf c53e c551 23bc 0d37 b6bc
00000010: 83d6 e1bb 0d12 1e3e 7494 f03e 26bf bdbe
00000020: 8d87 efbc d1ad 0a3e 36e0 ff3e fce7 82bd
00000030: dc9d bb3d 7f42 e43e 3b9b b6be 5ffb 9cbd
00000040: 4f31 86bd 782e 67be 93db 333e 6551 3bbe
00000050: 8a13 eebc e7f6 2f3d 8911 b83d bd7d 963e
00000060: c753 623b d6b0 703e 1912 ce3c 20ca 72bd
00000070: 91f6 2fbf 02ce 47bd d430 043e 2306 4c3b
00000080: b6ad 603e 0331 b5bd 1c44 933d 31fb 673e
00000090: 5853 84be f6af 513e d1eb 26bd fe2b 1dbe
000000a0: a39a 37bc 114c a73c d928 4a3b 13a2 d93c
000000b0: 6b03 2cbc b901 6abb fc65 bb3e f25a 48be
000000c0: 3bfd ebbd 6255 f0bc 1cef 68bf a7ab 163f
000000d0: 0f5b 58bd c13a 35be ab14 f2bd dabd 1c3e
000000e0: 980f b53c b427 3cbe 6d84 f93e dadb 62be
000000f0: 28ce 12bf 4dae 8a3e 4378 543e e819 353e
0.41278365 0.38622496 -0.009968226 -0.022243047 -0.006892027 0.15436573 0.4698826 -0.37059897
-0.02923944 0.13542868 0.49975747 -0.06391904 0.09160969 0.44581982 -0.35665306 -0.07665133
-0.065523736 -0.2257632 0.1756423 -0.18292768 -0.029062051 0.042960074 0.089877196 0.29392806
0.0034534798 0.23504958 0.025155114 -0.059274793 -0.68735605 -0.04878045 0.12909251 0.0031131587
0.21941265 -0.08847239 0.07190725 0.22654416 -0.25844836 0.2047728 -0.040752236 -0.15348813
-0.011206302 0.020422013 0.00308471 0.02656654 -0.010498862 -0.0035706593 0.36601245 -0.19565943
-0.11522909 -0.029337589 -0.9098985 0.5885567 -0.052821215 -0.17698194 -0.11820348 0.15306798
0.022102162 -0.1837452 0.48733845 -0.22154179 -0.5734582 0.27086106 0.20749001 0.17685664

exp_avg f4 [64, 4]
00000000: 47c5 58ba ae0e 3a3a 4435 bcba 2e5d dfb9
00000010: 4fb9 f939 5388 75ba 3dd7 0f3b d11f 753a
00000020: e8ac 36b9 02cd 9638 3f66 9639 920e ad38
00000030: 10d8 e7ba e1d7 fb38 2d78 c4ba f5ce 0db9
00000040: 0f93 8fba 989e b43a c2b2 65bb ed71 a1ba
00000050: 3d83 52b9 5b70 ceb8 f3ab f537 f809 93b8
00000060: f17b 0039 1db5 0c3a b479 33b9 359c 04bb
00000070: 2bf6 6e39 aa37 273a 5e81 033b f47d 4cba
00000080: 13d6 05ba 3630 8239 dbff e3b9 214d acb9
00000090: c07a 6d3a 392f f9b9 22d7 1d39 bed2 533a
000000a0: d920 2bb9 688e ebb9 25f9 c139 40ba e6b9
000000b0: c59f d53a 63b6 3aba f4c1 4f3a 1b80 5f39
000000c0: 4e1c 88b8 2de2 3ebb 1f2b 13ba 9307 c0b9
000000d0: ac80 833b d3d5 75bb 9a9a 053c a0f5 713b
000000e0: ab8b 65ba b220 263a 7fd2 11ba 8530 f9b9
000000f0: c9b5 92ba e871 6238 35af 94ba 4220 0aba
00000100: e1f7 b9b9 d1cf ad39 9a21 9339 b6a2 3439
00000110: 431d f839 64bf e8b9 d08e 6539 a50d aab8
00000120: 40ab 243b b63e 98b9 da36 553b dfdb 03ba
00000130: e7c1 c139 7ea5 02ba 1f17 d4ba 01ee b0ba
00000140: e4c6 0039 1188 35ba a476 e43a 70d6 a03a
00000150: 850e cb39 990d 143a 007c 3c3b 53a8 293b
00000160: 3ac2 bbb8 61be d53a 8238 fbba b678 e0ba
00000170: e27f dbb9 79ea 9b39 6600 32ba 6b3d 4738
00000180: 5460 69ba 2f0f cc3a 12a4 28bb 35f0 97ba
00000190: 0466 0ab9 2bf7 bb39 2ae8 0b3a f06f 09ba
000001a0: b55b 0dba 5922 b93a daa8 1ebb 911c c3ba
000001b0: 7c56 91ba ecbe 7cb9 9033 0cbb adfd d7ba
000001c0: 2609 87b9 76a3 683a 6016 eeba bb4b c2ba
000001d0: c1d7 013a 4552 0c39 e4be c7ba ed3e 2cba
000001e0: 7921 d339 b511 e3b9 b734 c93a 7704 033a
000001f0: 88b3 5e3a 1a60 73ba 6a0d 2f3b 4143 5f3a
00000200: 5d38 183b 8467 c4b9 ca89 1f3b a7b2 81b8
00000210: 1deb 17bb 0d1a 9039 13b6 16bb 544e 23b9
00000220: cbb5 b2b9 3354 70ba 3e77 3a39 0c06 69ba
00000230: d40d 8938 1e25 0aba 6e0c 643a d309 6d3a
00000240: 88c5 f03a 0336 8fbb 5f10 263c 20b0 8a3b
00000250: ff2c bbb9 012c 16ba a907 29bc 18a5 04bc
00000260: d721 7439 beb6 a1ba 1c99 883a f611 0d3b
00000270: 9a89 1b39 d58e 8fbb 92bf f13b f95e b03b
00000280: bedf b1b9 8433 c33a b32c 46bb b6ad d8ba
00000290: 6eb4 a33a dcb7 c6b9 5a71 e239 a502 c439
000002a0: 89ac 0a3a f290 6fb9 bcf7 2339 c0e3 35b9
000002b0: c0ee fc38 3d34 08b9 f1b9 f837 90f8 bfb8
000002c0: 8cfe beb8 136a 4a3b 565c aebb b5f0 adbb
000002d0: 6153 3aba 7106 1e3a 86d1 20bb 6177 d3ba
000002e0: 34f4 5aba 6d3f a5b9 9a28 e3b9 52d6 e138
000002f0: e4de e0b9 b20f be39 2b8a 03ba bf60 8639
00000300: 3cdf 68ba 19ee c139 5a25 9db9 9824 a9ba
00000310: f7f5 16ba d7a9 b0b8 cfd7 2aba 9c10 3ab9
00000320: c761 2339 30d8 01ba 76ac a139 3458 f639
00000330: 06f0 e7b9 2a28 dcba 29e2 ceba 8ddc 0d3a
00000340: 3f83 673a 393b 1b3a ef70 14b9 a0cb a73a
00000350: d4f5 0cb9 23df 98b9 9b02 9eb9 674a 9839
00000360: dc72 3cbb a6bf 77b9 96e2 5ebb b900 cc39
00000370: 4d33 a0b8 3fdd 9138 6f53 04ba 0e0f 9fb8
00000380: d38f e4ba 665e ae39 7ff6 dcb9 af3b 313a
00000390: 1934 a9b9 4b95 5db8 f316 80ba 824a 99b6
000003a0: f1eb 9339 8fbf 1bbb 55ad 813b 4191 283b
000003b0: af3c 8b3a 2518 253a fd10 c1ba 6890 6abb
000003c0: a023 023b 4534 8438 9f6d fc3a c313 57ba
000003d0: 256d b7b9 ea64 2b3a 6c91 2138 1639 5b39
000003e0: 6f8e 6cba 6df6 b23a d167 1abb b87e 01ba
000003f0: 02f4 b8ba ae93 2eb6 ccdc bdba 0993 7eba
-0.00082691427 0.00070975244 -0.0014359136 -0.000426033 0.00047631047 -0.0009366322 0.002194836 0.00093507493
-0.00017421285 7.190743e-05 0.0002868641 8.251997e-05 -0.0017688293 0.00012008823 -0.0014989428 -0.00013523905
-0.0010953861 0.0013780175 -0.0035049175 -0.0012317278 -0.0002007605 -9.843773e-05 2.9286346e-05 -7.011363e-05
0.00012253203 0.0005367564 -0.00017116108 -0.0020234708 0.00022789153 0.0006378839 0.0020066123 -0.0007800751
-0.0005105447 0.00024831452 -0.0004348744 -0.00032863862 0.00090591237 -0.00047528165 0.0001505283 0.0008080414
-0.00016320068 -0.00044928794 0.00036997456 -0.00044007786 0.0016298225 -0.00071225147 0.00079253246 0.0002131466
-6.4902575e-05 -0.002912651 -0.00056140305 -0.00036626737 0.0040131416 -0.0037511482 0.008154536 0.0036920086
-0.0008756469 0.00063372694 -0.00055626774 -0.0004752913 -0.0011193092 5.3988682e-05 -0.001134372 -0.0005269089
-0.00035470634 0.00033151967 0.0002806306 0.00017226752 0.00047324048 -0.00044393085 0.00021892344 -8.108773e-05
0.0025126487 -0.00029038423 0.0032533915 -0.0005030017 0.00036956297 -0.00049837667 -0.0016181207 -0.0013498665
0.00012281124 -0.00069248775 0.0017430377 0.0012270939 0.00038729995 0.0005647778 0.0028760433 0.0025887683
-8.9530324e-05 0.0016307348 -0.0019166621 -0.0017125818 -0.00041866215 0.000297386 -0.00067902205 4.7502497e-05
-0.00089025986 0.001556849 -0.002573256 -0.0011591973 -0.0001319871 0.00035851574 0.00053370243 -0.0005242815
-0.00053923886 0.0014124616 -0.002420953 -0.0014885833 -0.0011088396 -0.00024103717 -0.0021393038 -0.00164788
-0.00025756023 0.0008874455 -0.0018164627 -0.0014823595 0.00049531093 0.00013382088 -0.0015239385 -0.0006570656
0.00040269995 -0.00043310007 0.0015350793 0.0004997919 0.000849538 -0.00092840346 0.0026710876 0.00085167965
0.0023226955 -0.00037461158 0.0024343603 -6.184476e-05 -0.002318091 0.0002748523 -0.0022996708 -0.00015574071
-0.00034086252 -0.000916782 0.00017782763 -0.00088891457 6.535245e-05 -0.0005269813 0.0008699362 0.00090422964
0.0018369416 -0.0043704524 0.010135739 0.0042324215 -0.00035700944 -0.0005728603 -0.010316768 -0.008096002
0.0002328226 -0.0012337787 0.0010421607 0.0021525598 0.00014833212 -0.0043810406 0.0073775733 0.0053824154
-0.00033926772 0.0014892672 -0.0030239045 -0.0016531262 0.0012489685 -0.0003790249 0.00043190533 0.00037386004
0.0005289992 -0.00022846812 0.0001563718 -0.00017346349 0.00012060767 -0.00012989431 2.965049e-05 -9.153888e-05
-9.107319e-05 0.003088598 -0.005321066 -0.0053082355 -0.00071077613 0.00060281815 -0.0024538948 -0.00161336
-0.0008352429 -0.00031518508 -0.00043327064 0.00010768756 -0.00042890676 0.00036251318 -0.0005017842 0.00025630553
-0.0008883362 0.00036989225 -0.00029973203 -0.0012904583 -0.00057586975 -8.423969e-05 -0.00065171433 -0.0001774453
0.00015581316 -0.0004953174 0.00030836806 0.00046986493 -0.00044238585 -0.0016796638 -0.0015783954 0.0005411588
0.0008831508 0.00059216056 -0.00014156451 0.0012801774 -0.00013443019 -0.0002915795 -0.0003013805 0.00029047133
-0.0028754985 -0.0002362715 -0.0034009567 0.0003891045 -7.63895e-05 6.955349e-05 -0.0005047833 -7.584515e-05
-0.0017437882 0.00033258199 -0.00042145324 0.00067609077 -0.00032273008 -5.2829546e-05 -0.0009772464 -4.568429e-06
0.00028213815 -0.00237653 0.0039574304 0.0025721344 0.0010622944 0.00062978483 -0.0014729794 -0.003579164
0.001985766 6.3039864e-05 0.0019258744 -0.0008204544 -0.000349858 0.00065381697 3.8520826e-05 0.00020906734
-0.000902391 0.0013653763 -0.0023560415 -0.0004939842 -0.0014110806 -2.6013981e-06 -0.0014485358 -0.0009711241

exp_avg_sq f4 [64, 4]
00000000: ad54 ab38 9880 1b37 9b45 3739 da83 e337
00000010: 056d 1b38 9130 ff37 e026 e538 377d 4338
00000020: 5432 bf37 48d1 0336 6431 3837 43ac c435
00000030: 5a54 e538 4b01 3837 f018 7539 11fa 0f38
00000040: a58b 163a 0185 3138 2879 223a 55fc 9738
00000050: 49f5 8b37 a099 d938 0145 5e39 cbf2 c337
00000060: 5e30 bd37 60df e338 fa3d 6a39 ed54 7f38
00000070: 09f4 7138 d7e0 6637 fba6 ea38 d4df da37
00000080: 6e55 9138 0f9a 2238 dc6e 5639 75d5 c538
00000090: ab06 cc38 66f3 2738 9d47 6139 a5e1 b537
000000a0: 3dee 6137 fd17 7c37 694a b238 a8e1 2938
000000b0: 8a42 f338 6f03 ec37 dcc3 7539 9b4b 1438
000000c0: 0717 ad37 e641 2039 5ab6 3c39 2645 7139
000000d0: c2b4 723a 2785 0f39 dbd5 ce3a 9887 8239
000000e0: 9fe4 7c37 1b0a c737 d1fa c837 0098 0e38
000000f0: 1b9f c138 24ba 9637 9850 0b39 e540 0638
00000100: 391a 8538 c4a2 ae36 1d36 9637 8409 1b37
00000110: 235b b537 1a5e 8236 58c3 ee37 5844 0737
00000120: 82d0 5539 9908 0838 69dd af39 3411 8c38
00000130: 3e0c 9f38 c43d cf38 8d55 8939 e69d 7138
00000140: 15bb bc37 e73c 3e37 5336 c438 06be f437
00000150: ae33 a838 bf6d 1e39 16ec 0f3a e03c 1039
00000160: 10f6 b038 299c 0638 e848 ea38 b8f8 4b38
00000170: 21be 8638 f4c0 0437 0deb ec38 085f b437
00000180: dd35 dc39 37ea a638 4b7e 843a df4e d138
00000190: 9dfa 6b38 e38b 1837 3c04 2839 992d f537
000001a0: 3c3e ad38 b787 3b38 1c07 ec38 f1d5 4d38
000001b0: 2962 3538 29ff b537 ac5d ce38 6099 cb37
000001c0: 084f 9a37 9d7e 4837 9c0d ac38 6ebe be37
000001d0: 76e3 ab37 586e d138 47cd 5939 9d8e 9d38
000001e0: f54a 0939 dc39 9337 88da 6139 47fb bb37
000001f0: c86d 4139 4718 a137 971d 9e39 705d 2d38
00000200: 536a f238 06ab 8a37 fc84 8539 723c 4d38
00000210: 33c8 af38 6a7d 4c37 b164 df38 fa6b b437
00000220: 41b6 0837 a02d 8138 3dae fc38 5fc4 9a38
00000230: 4493 de37 5dea c837 03c7 9138 bbab a537
00000240: ad88 1f3a aa83 4c39 8c91 083b 5bea 9839
00000250: c0cf 133a 8d52 623a 2897 303b 0342 683a
00000260: 53e8 5238 cd2c 6d37 f21f dd38 0b16 0138
00000270: 709c fd38 771d b639 a60c bc3a 3241 a039
00000280: 74ae 9037 ecd7 ce38 5acf 5439 4719 a738
00000290: d20a 5438 f7e7 2c38 15ce c738 bf2c 1a37
000002a0: 87dd 8837 c91b 9536 8567 1238 e8a2 a436
000002b0: 2fa5 d237 537d 8438 37e7 1739 1789 6a37
000002c0: d997 5238 ad95 a439 7ab6 6b3a f21d 4b39
000002d0: 08b3 8338 4d96 4638 af7e 7b39 488f 3438
000002e0: 23e4 6a38 21b7 1437 21ab ec38 d427 a937
000002f0: e10a f236 5ea6 1a37 67cd 6238 2e24 6837
00000300: 56a4 1338 8359 c237 5144 ce38 9d1e dd37
00000310: 0801 4f39 6bf5 1737 ea0d d039 63b5 6038
00000320: 4c8b 7336 483c ca37 0937 c937 2e53 1538
00000330: 0e16 d737 aea7 6339 819b 9439 903a d838
00000340: 5472 0039 8ddc 2338 0a95 0e39 7371 1d38
00000350: 4739 4538 d31c bb37 f1b2 9b38 47ca 0437
00000360: a1fb e238 364a 1037 5f7e 4339 d9ce e637
00000370: 75a2 4437 42de 6a36 f3cb 0837 62dc d636
00000380: cf0f 6039 0265 a538 fd28 2d3a 3ae6 a638
00000390: 6bd1 4c37 4af4 9936 1585 4238 7977 1537
000003a0: 58c2 fa38 cac3 0439 20e0 523a baa3 c138
000003b0: e330 0c39 8142 5239 c06f 0d3a cf99 1c39
000003c0: 47ae b338 f652 3337 eb5d 4939 3a13 2238
000003d0: 430e 6538 c947 0439 b249 a939 a130 1138
000003e0: f18f fc37 134a 5638 4b2b f638 d9de 9537
000003f0: acbb 1e38 0526 4637 fbaa 3838 d958 4b37
8.1696875e-05 9.2686605e-06 0.0001747817 2.7121907e-05 3.7056412e-05 3.0420984e-05 0.00010926812 4.660824e-05
2.279241e-05 1.964234e-06 1.0978754e-05 1.4653273e-06 0.000109352826 1.0967556e-05 0.0002337431 3.432675e-05
0.00057428546 4.2323958e-05 0.0006197863 7.2472416e-05 1.6684311e-05 0.00010375981 0.00021197276 2.335887e-05
2.2553078e-05 0.0001086581 0.00022339067 6.087583e-05 5.7686153e-05 1.3761418e-05 0.00011189092 2.6091853e-05
6.930051e-05 3.8767288e-05 0.00020449929 9.4334515e-05 9.72872e-05 4.0042585e-05 0.0002148435 2.1681955e-05
1.3466514e-05 1.5025956e-05 8.5015614e-05 4.05029e-05 0.00011599537 2.8134991e-05 0.00023437984 3.5356363e-05
2.063393e-05 0.00015283338 0.00017997008 0.00023009311 0.00092585024 0.00013687146 0.0015780287 0.00024896557
1.50736005e-05 2.3727354e-05 2.3958653e-05 3.3997e-05 9.232593e-05 1.7968072e-05 0.00013286097 3.2008527e-05
6.3468186e-05 5.2045525e-06 1.7906592e-05 9.2409355e-06 2.161932e-05 3.885257e-06 2.8462775e-05 8.06254e-06
0.00020390938 3.2432934e-05 0.00033543564 6.6789245e-05 7.583991e-05 9.882034e-05 0.00026194417 5.7605932e-05
2.2498463e-05 1.1339062e-05 9.356127e-05 2.9175553e-05 8.02049e-05 0.00015108938 0.00054901966 0.00013755588
8.438167e-05 3.2093525e-05 0.00011171569 4.863061e-05 6.425032e-05 7.9127385e-06 0.000112971386 2.1501924e-05
0.000420018 7.959123e-05 0.0010108439 9.9805875e-05 5.6261768e-05 9.092476e-06 0.00016023306 2.9227509e-05
8.260875e-05 4.471067e-05 0.00011254681 4.9075057e-05 4.324518e-05 2.16957e-05 9.840293e-05 2.4270907e-05
1.8395032e-05 1.1950408e-05 8.204134e-05 2.273844e-05 2.0490708e-05 9.98645e-05 0.00020771204 7.512907e-05
0.00013093262 1.7550708e-05 0.00021539081 2.2409147e-05 0.00018446811 1.9204e-05 0.00030158155 4.1333435e-05
0.00011559264 1.6530521e-05 0.00025466818 4.8932103e-05 8.38194e-05 1.2188548e-05 0.00010652224 2.1507953e-05
8.148666e-06 6.159698e-05 0.00012048751 7.379869e-05 2.6533038e-05 2.3950992e-05 6.9512076e-05 1.9749501e-05
0.0006085735 0.00019504005 0.0020838706 0.00029166308 0.0005638562 0.0008633517 0.0026945565 0.0008859934
5.028427e-05 1.4136732e-05 0.000105440515 3.0776526e-05 0.00012093119 0.00034735698 0.0014347031 0.00030566152
1.7247374e-05 9.863064e-05 0.0002029514 7.967889e-05 5.0554816e-05 4.122403e-05 9.527445e-05 9.189534e-06
1.631562e-05 4.4437807e-06 3.4905523e-05 4.9065457e-06 2.511087e-05 6.317594e-05 0.00014486616 1.3979406e-05
5.020932e-05 0.00031392035 0.00089917297 0.00019370744 6.279914e-05 4.7346857e-05 0.00023984419 4.3048785e-05
5.6002416e-05 8.864125e-06 0.00011285232 2.0164916e-05 7.2134285e-06 9.217851e-06 5.4073895e-05 1.3836701e-05
3.520058e-05 2.3168284e-05 9.8355704e-05 2.6359508e-05 0.00019741443 9.057442e-06 0.00039683218 5.357469e-05
3.6290903e-06 2.4108347e-05 2.3986695e-05 3.5601835e-05 2.5640267e-05 0.00021710873 0.0002834462 0.00010310591
0.00012249622 3.9067632e-05 0.00013597697 3.7537375e-05 4.7021804e-05 2.230556e-05 7.4243064e-05 7.9149095e-06
0.00010823389 8.600347e-06 0.00018643726 2.7514458e-05 1.1720335e-05 3.4998088e-06 8.153717e-06 6.403353e-06
0.00021368194 7.886627e-05 0.0006605534 7.95838e-05 1.2208106e-05 4.5881943e-06 4.6377147e-05 8.908909e-06
0.00011957128 0.00012661438 0.00080442615 9.2334536e-05 0.00013369652 0.00020051935 0.0005395375 0.00014934618
8.567847e-05 1.0688547e-05 0.00019203841 3.8641716e-05 5.4611137e-05 0.00012615243 0.000322891 3.4615983e-05
3.0107769e-05 5.1090563e-05 0.00011738258 1.7865956e-05 3.784492e-05 1.1810572e-05 4.4028257e-05 1.2120429e-05

exp_avg f4 [64]
00000000: 6415 92ba a160 bc3a f2ad 4b3a bd2c 153a
00000010: 757e 21bb 1b0d 783a ed0a b9b8 8920 9739
00000020: 1eb3 00ba e4ac 713a b0d7 5939 9019 27ba
00000030: 104e 743a 0ba3 2d3b 946b 29ba 6b72 10ba
00000040: d61f 9dba 2b10 f2b9 efc8 a13a d1c0 ff38
00000050: f4dd bd3a 2a81 68b8 6fdd b33a 4a44 a33a
00000060: acd8 91ba 1fa7 6e3a 4315 37bb 6a9c c337
00000070: 31f5 a6ba cf8d a9ba f4e9 c03a 8b40 e23a
00000080: 7989 a4b9 4134 3338 82a6 723a 66de 553a
00000090: fd6c 1c3b 2ce7 2eba 71a1 a43a 653e 7a3b
000000a0: 0a6d 93ba e0ad ce39 18e4 4eba ca36 643a
000000b0: 1ac1 91ba 22fc 5ab9 d85d 1fb7 9543 f839
000000c0: d71c 69b9 7632 7d3a 8b22 91ba dd22 3a3a
000000d0: 7b17 ffb8 1592 6f3a 6dce e639 f454 e139
000000e0: d726 0c3a 9b25 02ba bb8e cb3a 15cb 30b9
000000f0: d8ff a4b8 693a 65b9 835a 2b39 ee65 f537
-0.0011145291 0.0014372059 0.00077697553 0.00056905654 -0.0024642025 0.0009462402 -8.8235225e-05 0.00028825205
-0.0004909503 0.0009219183 0.00020775083 -0.00063743535 0.00093194935 0.0026494886 -0.0006462869 -0.00055102137
-0.0011987637 -0.00046169883 0.0012343208 0.000121952624 0.0014485703 -5.5433404e-05 0.0013722609 0.0012456265
-0.0011127195 0.00091038825 -0.0027936257 2.3318647e-05 -0.0012737868 -0.0012935939 0.0014718161 0.0017261667
-0.00031382943 4.272559e-05 0.0009256379 0.0008158445 0.0023868673 -0.00066720205 0.001256032 0.0038184163
-0.0011247706 0.0003942093 -0.0007892265 0.0008705674 -0.0011120171 -0.00020884027 -9.498988e-06 0.000473526
-0.00022231355 0.00096587033 -0.0011072917 0.0007100532 -0.00012163721 0.00091388944 0.00044022818 0.0004297864
0.0005346364 -0.000496471 0.0015530208 -0.00016860322 -7.867784e-05 -0.00021860901 0.00016341549 2.925374e-05

exp_avg_sq f4 [64]
00000000: 7f0a dd38 74e1 5637 20bb 4e38 732b cf37
00000010: 7c92 833a 19fc 1539 f258 d137 a4ea 5137
00000020: d163 ab38 2bc3 cc38 d5b4 8937 be60 fb37
00000030: a928 3f38 0095 6f3a 91c4 8137 21b4 ac37
00000040: c10c ec39 ff88 8837 c45d 7139 04bb a438
00000050: 75cd 5438 e6a4 5438 084a b139 2780 a339
00000060: 5b8d a738 b7b6 5639 6bd4 1939 fa7e 9e38
00000070: dbdc 9b37 a3d5 2438 8db0 2239 128a 8339
00000080: fc3d 7f37 4612 2537 d267 0838 a3d6 9037
00000090: 1e85 3639 ebd3 2739 995e 0b39 577e a539
000000a0: 0607 fc37 d4af 0f38 49dd 0a38 78fb a338
000000b0: 33b2 7c38 df86 c538 eba1 8d38 c9f7 1038
000000c0: 8b75 4b38 989b c338 2335 c637 c0d9 0538
000000d0: 60a9 d737 88f0 ac38 4454 6f37 4d16 1439
000000e0: ed0c 5038 6467 2337 74b9 da38 ae1c 4238
000000f0: 486c 6037 d82f e537 c3d5 9b37 737b b937
0.00010540056 1.2807886e-05 4.92885e-05 2.4696556e-05 0.0010038163 0.00014303661 2.495616e-05 1.2512002e-05
8.172508e-05 9.763831e-05 1.641588e-05 2.996658e-05 4.5575816e-05 0.0009139329 1.5469532e-05 2.0587877e-05
0.0004502293 1.6276257e-05 0.00023018481 7.854964e-05 5.0736086e-05 5.0698312e-05 0.00033815228 0.00031185264
7.98951e-05 0.00020476697 0.00014670349 7.557678e-05 1.8580284e-05 3.929961e-05 0.00015515294 0.00025089137
1.5213616e-05 9.839021e-06 3.2521617e-05 1.7266086e-05 0.00017406463 0.00016005307 0.00013291313 0.00031565383
3.0044012e-05 3.425761e-05 3.310785e-05 7.8192854e-05 6.0247443e-05 9.418814e-05 6.7535635e-05 3.4563043e-05
4.8508442e-05 9.327306e-05 2.3628183e-05 3.1912467e-05 2.5708869e-05 8.2464016e-05 1.426513e-05 0.00014122688
4.9603103e-05 9.73963e-06 0.000104295934 4.6279914e-05 1.3376652e-05 2.7321206e-05 1.857698e-05 2.2111204e-05

exp_avg f4 [64, 64]
00000000: ad0f c2b8 c4f2 2839 6ffe 3638 1436 66b7
00000010: 4de4 5bb8 4604 1eb9 9b97 8db8 2e3c e238
00000020: 043f 3cb8 a999 7739 ae1a 5a38 ef77 21b9
00000030: 5a77 90b8 d720 db38 3075 30b8 e46e e236
00000040: 771e b2b7 dd8a 67b9 986c 6538 605e c2b8
00000050: 15fe d338 089f e238 4975 d338 f639 8039
00000060: 8b53 fab8 2880 8039 8192 f8b8 7641 68b8
00000070: cf1d d8b8 136b a5b8 7363 5239 aca0 8838
00000080: d21e 2cb5 1f0a 64b6 99e6 09b9 156f be38
00000090: 8748 2739 394e 6cb9 ffda bb38 a38e 2a39
000000a0: d93e 6a37 d88b 2e38 bc12 3ab9 a5d8 dab8
000000b0: 7410 afb8 2a44 afb8 b00f a8b8 942d 9438
000000c0: fa36 86b8 818f 1438 993d 61b8 91cc 10b9
000000d0: 9767 c537 df91 2539 4139 4bb3 3187 9738
000000e0: 0b90 eb38 63da 89b8 4950 bb38 a103 f4b8
000000f0: 5e2b 6636 cfc7 ef37 6490 7938 e6b7 f9b7
00000100: f656 0ab9 a6f3 0ab9 cf76 ba37 be51 80b9
00000110: e7cc ccb7 5c25 5939 1a28 9d37 2c83 50b9
00000120: 239c bfb8 7fb5 b038 a73d 7839 c644 8739
00000130: 4f8a 8c39 f71e 0738 ecb4 84b9 c6c2 75b9
00000140: ea9f 0cb7 6ebe a839 2e67 4939 b10e 5039
00000150: 2b64 2938 d4e3 9fb8 798a c6b9 6ac0 94b9
00000160: ce40 acb3 b2ef 91b9 9071 5cb9 baf4 1538
00000170: 5c64 48b8 844a 19b9 aa7d ba38 c740 4d38
00000180: a31e 8039 9503 7ab9 63cf 0938 b96e 2c39
00000190: b5f6 a9b8 09c2 7c39 50c4 f937 f37b 1539
000001a0: 7acd 5cb9 f7ec 0939 ef47 ad38 ad64 3239
000001b0: 80a7 6bb8 2092 eab7 949b 8939 e63a 8db9
000001c0: d29c 8ab8 4040 88b9 a27d 81b9 e485 1d39
000001d0: bd3b 4139 fcba da38 9001 7cb9 d7f0 8cb9
000001e0: 8bc4 3b37 b088 8bb8 e82b bfb8 0f04 1f38
000001f0: 042e 7e39 ed67 9fb8 75fb 34b9 08ac 2fb9
00000200: 5dd4 7bb7 b1ca 4cb7 45f8 8fb8 f62d 33b4
00000210: 7051 b238 53ac 0d38 93df 74b6 d610 a538
00000220: 742a ab37 ba28 e438 eb94 84b8 2133 aeb5
00000230: c3d8 09b5 39e4 09b8 e742 adb7 8451 c8b7
00000240: 0326 cc38 4d35 87b8 603d 8037 7003 a438
00000250: b255 12b8 ad44 a1b8 3c24 84b7 aefd 5bb7
00000260: a40e f438 c748 b5b7 6cde 49b8 d4cf 8d38
00000270: 4f86 1f38 510a e4b7 ca48 ca38 7578 99b8
00000280: 0bd5 8e37 638e 18b6 9af1 ce37 27b2 0fb7
00000290: e511 9ab8 d068 bb38 2602 13b8 1d93 4f37
000002a0: 047d 9636 abfe eb38 8be2 5db8 7edb 9c38
000002b0: 8035 8c37 0462 3c38 23e7 98b8 4c41 5838
000002c0: 6946 dc37 03c5 1bb7 b48b 2037 2c1a 4937
000002d0: 1685 22b8 d018 d038 4aba 7a36 e237 3938
000002e0: cd45 f6b8 95b4 6838 39f5 80b8 c214 1a38
000002f0: 5f46 2737 3a1f 90b8 8b1f 1838 c4f3 0938
00000300: 0411 b8b8 b0fd 4f39 9648 9a39 5060 01b9
00000310: b1f2 4db9 be45 6fb9 b755 1f39 6b26 3839
00000320: d95d 75b9 74f3 81b8 e24a a839 7199 a837
00000330: a2a4 7fb9 5b24 1239 bc7b 1639 4e81 46b8
00000340: 58ad afb9 72bd 67b9 736e b438 dd79 9eb9
00000350: 54f3 9639 dcb6 29b7 6362 c237 77f6 3a39
00000360: 8762 0cb9 aae2 2439 1583 9038 3308 4ab9
00000370: fee2 85b9 feb5 6a39 69f3 ca37 55c4 4c39
00000380: 34a2 8f38 e4bf 86b8 1bb4 38b9 fa2c 93b8
00000390: 5569 2638 c00f 9937 482a 9239 4ad6 cbb8
000003a0: e82f 7239 1a38 82b9 afac 3338 fff6 c3b9
000003b0: 10f4 2d39 ad48 92b6 64de b9b8 0b26 4039
000003c0: 4db0 ccb7 d5a4 5eb8 4f2f 6b38 8d21 e838
000003d0: 261d 5e39 785b 74b9 ea98 3ab8 ddce 1c39
000003e0: 7bcc 3b38 9445 95b9 ccfe f1b7 4656 1939
000003f0: 55a7 0c38 c227 23b9 c13b 5ab9 4982 f9b8
-9.253561e-05 0.00016112166 4.362914e-05 -1.3721659e-05 -5.242629e-05 -0.00015069646 -6.751643e-05 0.00010787729
-4.488138e-05 0.00023612998 5.2000098e-05 -0.00015398835 -6.888686e-05 0.00010448851 -4.207081e-05 6.7482342e-06
-2.123344e-05 -0.00022081607 5.469899e-05 -9.2682196e-05 0.000101085905 0.00010806142 0.0001008311 0.00024457247
-0.0001193649 0.00024509546 -0.0001185285 -5.5374076e-05 -0.00010305235 -7.887757e-05 0.00020064208 6.514913e-05
-6.411984e-07 -3.3980539e-06 -0.00013151242 9.080597e-05 0.0001595338 -0.00022535854 8.957646e-05 0.000162656
1.396212e-05 4.1615072e-05 -0.00017745321 -0.00010435403 -8.347715e-05 -8.357347e-05 -8.013786e-05 7.0656795e-05
-6.399858e-05 3.5419598e-05 -5.3701548e-05 -0.00013809117 2.3532468e-05 0.00015789967 -4.7316693e-08 7.2254225e-05
0.00011232503 -6.573347e-05 8.931809e-05 -0.000116355026 3.4297914e-06 2.8584063e-05 5.95007e-05 -2.9768747e-05
-0.00013193101 -0.00013251472 2.2228252e-05 -0.00024474965 -2.441411e-05 0.0002070865 1.8734532e-05 -0.00019885291
-9.1366725e-05 8.42614e-05 0.0002367409 0.00025800447 0.0002680593 3.2215346e-05 -0.000253118 -0.0002343758
-8.381883e-06 0.00032185338 0.00019207291 0.00019841899 4.038603e-05 -7.624147e-05 -0.00037868673 -0.0002837212
-8.021162e-08 -0.00027835142 -0.0002102314 3.5752288e-05 -4.7777183e-05 -0.00014618976 8.892578e-05 4.8936137e-05
0.0002443689 -0.00023843192 3.285649e-05 0.00016444446 -8.104501e-05 0.00024104877 2.9774528e-05 0.00014255922
-0.00021057381 0.00013153614 8.2626815e-05 0.00017012907 -5.6184363e-05 -2.7963019e-05 0.0002624659 -0.00026937498
-6.609563e-05 -0.0002598781 -0.000246984 0.00015022565 0.00018428169 0.000104298786 -0.00024033175 -0.0002688232
1.119183e-05 -6.6534965e-05 -9.115768e-05 3.7912334e-05 0.0002424047 -7.6010685e-05 -0.00017259813 -0.00016753387
-1.50102105e-05 -1.220654e-05 -6.865015e-05 -1.6687395e-07 8.50287e-05 3.377751e-05 -3.648897e-06 7.870949e-05
2.0404557e-05 0.00010879473 -6.3219886e-05 -1.2978891e-06 -5.1351907e-07 -3.2875894e-05 -2.0654361e-05 -2.3879817e-05
9.734558e-05 -6.44723e-05 1.5287369e-05 7.82077e-05 -3.4888923e-05 -7.68987e-05 -1.57525e-05 -1.3112482e-05
0.00011637554 -2.1610771e-05 -4.812928e-05 6.762115e-05 3.803364e-05 -2.7184522e-05 9.6456686e-05 -7.3180454e-05
1.7026925e-05 -2.2732645e-06 2.4669618e-05 -8.5649435e-06 -7.346625e-05 8.936378e-05 -3.5049532e-05 1.2372414e-05
4.484902e-06 0.00011253109 -5.290149e-05 7.479543e-05 1.6714213e-05 4.4913977e-05 -7.2909774e-05 5.1559226e-05
2.6258831e-05 -9.28459e-06 9.56927e-06 1.1986627e-05 -3.8747756e-05 9.9228346e-05 3.7361337e-06 4.4159482e-05
-0.000117431955 5.548129e-05 -6.149192e-05 3.6735793e-05 9.97036e-06 -6.8722715e-05 3.6269e-05 3.289037e-05
-8.776973e-05 0.00019835564 0.0002942725 -0.00012338278 -0.00019640733 -0.00022818797 0.00015195353 0.00017561919
-0.00023399982 -6.196546e-05 0.0003209925 2.0098612e-05 -0.00024380026 0.00013937188 0.0001435121 -4.7327303e-05
-0.00033507752 -0.0002210045 8.6036416e-05 -0.00030226904 0.00028791523 -1.011576e-05 2.3172417e-05 0.00017830158
-0.00013388145 0.00015724698 6.890871e-05 -0.00019267276 -0.0002553686 0.00022383776 2.4193623e-05 0.00019528095
6.848984e-05 -6.42536e-05 -0.00017614702 -7.017884e-05 3.9675582e-05 1.8246355e-05 0.00027878792 -9.719709e-05
0.00023096765 -0.0002483733 4.283775e-05 -0.00037377325 0.00016589486 -4.3595996e-06 -8.862911e-05 0.00018324719
-2.4400792e-05 -5.3082436e-05 5.6072426e-05 0.000110688714 0.00021182428 -0.00023303728 -4.4488268e-05 0.00014954382
4.477471e-05 -0.00028471334 -2.8848088e-05 0.00014623356 3.353444e-05 -0.00015559702 -0.0002081236 -0.00011897513

exp_avg_sq f4 [64, 64]
00000000: 9bd6 1736 0d5e 8d35 8828 8f36 0a9e 9136
00000010: 7ca0 7636 b968 ee35 2ace cc34 40d9 2136
00000020: 0f67 3f36 56f8 c635 69fc 9136 994d 5436
00000030: 9154 5836 6ad7 2336 4cc8 8236 7c8d 7836
00000040: 60a0 9736 2b39 4836 0c79 5e36 5f87 8135
00000050: 4440 4536 3430 8a35 f295 4036 4b64 4836
00000060: 56c9 4636 7a75 4536 5ad6 3c36 29af 0436
00000070: 1104 2d36 fd05 1c35 615a ad35 37ed 6836
00000080: 145f 8e36 37e7 8b36 284c b635 e9b7 0136
00000090: e749 1c36 1d7a c935 48c3 3136 ace8 1236
000000a0: 879b a635 45c9 cb34 4776 d835 dd5b cc35
000000b0: c5d3 4335 8648 b635 210d fd35 fc73 8136
000000c0: 9014 a935 dd22 8e36 e522 9136 5ec1 1135
000000d0: 81d1 8b36 6603 4b35 aee6 9736 920a 8236
000000e0: 92ba b435 ef1a 8c36 0294 e835 9aba 7d35
000000f0: d72b 9536 8ea6 8635 2f85 3636 a9a6 4c36
00000100: aec3 df35 501c 8735 b17d 2d36 54a3 5536
00000110: 346a 1336 c728 f835 4205 c434 0e33 1c36
00000120: ccc8 1136 9135 b335 0e8a 2636 46ce 2036
00000130: 75ec 2c36 a5ab cb35 56f6 4b36 2f26 4436
00000140: a639 3036 4476 3f36 30a8 2136 aa27 2535
00000150: 5759 e435 ec30 cf34 250d 2236 c1a2 3c36
00000160: dbc4 c035 c18e 3d36 d259 1736 f888 8035
00000170: 2065 d135 20f5 0b35 137d a435 ddc5 0a36
00000180: 83e2 5436 adc8 5036 3fa2 9835 98ff a735
00000190: 2106 b235 96ff fb35 b385 da35 15af df35
000001a0: de32 d335 0b17 a635 a8b2 f635 9c8d 8c35
000001b0: 2ec2 7435 ac0a 3735 2c36 ed35 83d2 2336
000001c0: 4ace 5835 a47d 3736 9266 5b36 b7a6 3f35
000001d0: 0fa5 4336 cac1 a235 a5b2 5b36 3459 2036
000001e0: 20b8 3f35 8692 2236 c653 9835 b2b8 2735
000001f0: ce5c 5836 ce22 2e35 4853 bf35 1152 0c36
00000200: a9c4 0134 c732 5933 a2f8 3834 52f1 f834
00000210: 0ac1 a033 58ac 4c34 e515 8a34 ce8c 3235
00000220: 9807 cb34 ab4a 4934 9548 0e35 de86 1c35
00000230: d320 9833 f0cc 3033 3381 d633 5821 e334
00000240: 9026 ec33 1bd5 e334 453b 6b34 e660 af33
00000250: a406 9834 986f 8a34 2b87 4734 3f47 2e34
00000260: 2df7 d234 f298 9834 8b36 8f33 f656 8f33
00000270: 893a 5534 46dd 8134 5530 7434 5b34 8333
00000280: 2663 fe34 f914 ec34 4e2c 2b34 a6ee 8c33
00000290: 5b2d ba34 f19c 3435 9c37 6e34 0f70 3c34
000002a0: c876 e834 3ec3 0634 bab2 8e33 0f06 e433
000002b0: d3fd 3335 82af 8d33 1fae 4734 7c28 ab34
000002c0: e093 8832 ab6b e134 b819 a833 fbbc c134
000002d0: fcff fa34 63f3 bd33 d7fb 1d35 d7c2 3334
000002e0: 08c1 d234 a75d a534 6ff5 6a34 a779 3b35
000002f0: 86ff 0135 c214 1d35 7856 2935 36c4 3c34
00000300: 1219 2235 e536 6d35 79d8 e535 0a87 4235
00000310: 945a 9335 720f d335 a899 3c35 0e6d bf35
00000320: aaa8 b035 cfee 2335 d2fb d735 4d56 f134
00000330: 07cc bc35 a39b 6535 ac39 c635 1869 2835
00000340: eb19 e835 3bd7 c235 bf64 4335 6554 a235
00000350: e657 d235 a510 7b34 840d 9235 35e4 4f35
00000360: 2fc4 1d35 4597 0935 866a 9535 a381 7d35
00000370: 40ee ab35 defc 8e35 740b d434 7e29 8935
00000380: 7fc2 3c35 03e6 4335 7a4d a335 be2c 4735
00000390: 59bf 2335 2f99 9534 25e5 bf35 bc34 8c35
000003a0: 6a9a b035 c786 9335 076c 1535 ef51 c435
000003b0: e35d ab35 ea6f 7834 98b8 5835 3467 b835
000003c0: 6c2c 5834 5fda 2e35 9196 d635 8880 c734
000003d0: 7b6e c935 82ef 9735 3ac6 8435 c609 bb35
000003e0: 16e0 ab34 393a e935 c2a3 f634 82ce a235
000003f0: 5f53 5a35 b0fc 1a35 fac3 bb35 2d56 3335
2.262567e-06 1.0532691e-06 4.2664506e-06 4.339735e-06 3.675027e-06 1.776286e-06 3.8147965e-07 2.4117326e-06
2.8521206e-06 1.4824425e-06 4.350721e-06 3.163563e-06 3.2235732e-06 2.441428e-06 3.8976195e-06 3.7037235e-06
4.518821e-06 2.9835599e-06 3.3151036e-06 9.650647e-07 2.9392695e-06 1.029583e-06 2.869751e-06 2.98607e-06
2.9621492e-06 2.9423668e-06 2.8138952e-06 1.977149e-06 2.5781376e-06 5.812324e-07 1.2915808e-06 3.4708771e-06
4.2429983e-06 4.1694398e-06 1.3582221e-06 1.9329548e-06 2.3288828e-06 1.5011207e-06 2.6488724e-06 2.1891128e-06
1.2413228e-06 3.795814e-07 1.6127677e-06 1.522592e-06 7.2951326e-07 1.3581164e-06 1.885379e-06 3.858002e-06
1.2597466e-06 4.2359884e-06 4.325399e-06 5.4298096e-07 4.1669123e-06 7.562834e-07 4.5270053e-06 3.8755325e-06
1.3465344e-06 4.1754606e-06 1.7328423e-06 9.4521386e-07 4.4456497e-06 1.0032252e-06 2.7197636e-06 3.0495378e-06
1.6671745e-06 1.0066524e-06 2.585217e-06 3.1834543e-06 2.1966525e-06 1.8489308e-06 3.651167e-07 2.327553e-06
2.1723563e-06 1.3352129e-06 2.4816286e-06 2.3961925e-06 2.5767633e-06 1.5174634e-06 3.0392744e-06 2.9228502e-06
2.62596e-06 2.8530058e-06 2.4088768e-06 6.152501e-07 1.7013325e-06 3.859235e-07 2.4147532e-06 2.8108918e-06
1.4362407e-06 2.8246288e-06 2.2553036e-06 9.576606e-07 1.5601145e-06 5.213824e-07 1.2255354e-06 2.0678774e-06
3.172231e-06 3.1111224e-06 1.1372102e-06 1.2516857e-06 1.3263817e-06 1.8775343e-06 1.6281177e-06 1.666575e-06
1.5735529e-06 1.237467e-06 1.8380424e-06 1.0472027e-06 9.117965e-07 6.818834e-07 1.7673642e-06 2.4411427e-06
8.076646e-07 2.7342257e-06 3.2693247e-06 7.1395647e-07 2.915334e-06 1.2126341e-06 3.2737528e-06 2.389378e-06
7.142098e-07 2.422517e-06 1.1349264e-06 6.2481115e-07 3.2240528e-06 6.48707e-07 1.4254847e-06 2.0909395e-06
1.2085606e-07 5.057043e-08 1.7226787e-07 4.6369183e-07 7.485694e-08 1.9061679e-07 2.5720433e-07 6.6515065e-07
3.7817222e-07 1.8746748e-07 5.3004743e-07 5.8310786e-07 7.084022e-08 4.1164583e-08 9.988653e-08 4.2306306e-07
1.0996621e-07 4.24371e-07 2.1907643e-07 8.166698e-08 2.8317038e-07 2.5785698e-07 1.8582493e-07 1.6230932e-07
3.9295392e-07 2.842349e-07 6.668878e-08 6.6747745e-08 1.9858466e-07 2.418912e-07 2.2741854e-07 6.109686e-08
4.7383327e-07 4.3973685e-07 1.5941734e-07 6.562668e-08 3.46782e-07 6.7283605e-07 2.2185708e-07 1.7549631e-07
4.3299792e-07 1.2550751e-07 6.6449005e-08 1.06181794e-07 6.705206e-07 6.597749e-08 1.8596664e-07 3.1880688e-07
1.589973e-08 4.1987855e-07 7.827788e-08 3.6086553e-07 4.6752382e-07 8.84527e-08 5.8853533e-07 1.6741556e-07
3.9255997e-07 3.0801786e-07 2.1882236e-07 6.9839956e-07 4.842808e-07 5.8517264e-07 6.3083235e-07 1.7580246e-07
6.0386185e-07 8.836926e-07 1.7124831e-06 7.246714e-07 1.0978715e-06 1.572522e-06 7.0259057e-07 1.4262348e-06
1.316211e-06 6.1069744e-07 1.6092038e-06 4.495254e-07 1.4066471e-06 8.553563e-07 1.4768934e-06 6.273781e-07
1.729289e-06 1.4516767e-06 7.2789766e-07 1.2094503e-06 1.5671801e-06 2.3382252e-07 1.0881781e-06 7.7445594e-07
5.877254e-07 5.1256603e-07 1.1132367e-06 9.443849e-07 1.2809833e-06 1.0653418e-06 3.949641e-07 1.0219371e-06
7.0318487e-07 7.297787e-07 1.2166995e-06 7.4198385e-07 6.100068e-07 2.7864868e-07 1.4297299e-06 1.044616e-06
1.3157962e-06 1.0991579e-06 5.5664026e-07 1.4626984e-06 1.2767817e-06 2.3137514e-07 8.073489e-07 1.3739104e-06
2.0132728e-07 6.5137823e-07 1.5988063e-06 3.7160157e-07 1.5007821e-06 1.1320083e-06 9.892458e-07 1.393543e-06
3.2014276e-07 1.7376798e-06 4.594022e-07 1.2130042e-06 8.133265e-07 5.773718e-07 1.3989622e-06 6.68081e-07
