eval/eval_rl/runs/CartpolePPO/nn/last_CartpolePPO_ep_400_rew_937.43005.pth (torch, 70524 bytes, 24 tensors)

value_mean_std.running_mean f8 [1]
000000 92 fc b2 e8 c3 d4 7a 40
       429.29782934109346

value_mean_std.running_var f8 [1]
000000 74 b2 a1 ba ae 22 cf 40
       15941.365070545326

value_mean_std.count f8 []
000000 00 00 00 08 00 00 89 41
       52428801.0

running_mean_std.running_mean f8 [4]
000000 2d cb ba 82 16 e9 e5 3f fe c3 a2 b5 dd 6a ae bf
       0.6847031167329526 -0.059409073278750654
000010 f3 13 a3 dd f4 38 c9 3f 03 62 17 ee 0e 93 c5 3f
       0.1970506746494319 0.16855036378434826

running_mean_std.running_var f8 [4]
000000 f6 f0 df c7 98 35 ed 3f 90 c4 8f 89 35 63 e4 3f
       0.9127925781063186 0.6371104895353188
000010 69 a0 4f a8 b0 20 f7 3f 47 39 0c 11 29 96 0b 40
       1.4454809736871772 3.448320515809573

running_mean_std.count f8 []
000000 00 00 00 10 00 00 79 41
       26214401.0

a2c_network.actor_mlp.0.weight f4 [64, 4]
000000 4e 37 37 3d 2f 33 35 3f 41 37 13 3e 46 bf 02 3f
       0.044730477 0.70781225 0.14376546 0.5107311
000010 4f 8e 87 ba 85 a2 11 bf 73 bd 5f be 8f 5c 5e be
       -0.0010342094 -0.5688861 -0.21849613 -0.21714996
000020 14 1c 97 be 21 10 83 bf 9a 30 2e be 86 c2 67 3e
       -0.2951361 -1.0239297 -0.17010728 0.22632799
000030 51 f7 cf 3d 74 89 c9 3e ae a6 7e be 15 34 bc 3d
       0.10154594 0.3936268 -0.24868271 0.09189621
000040 04 cf 73 3e 20 6d ba 3f 39 eb 5b 3e 2b 84 b8 3e
       0.23809439 1.4564552 0.21476449 0.36038336
000050 8e 80 0b 3f a2 42 8a 3e d9 9b 29 3f 16 36 e3 bf
       0.54493034 0.27003962 0.6625343 -1.7750881
000060 e0 27 e5 bd ec 71 b7 3e fc 65 71 3a d7 f9 0f 3e
       -0.11189246 0.35829103 0.0009208617 0.1406015
000070 15 74 a6 be c3 83 23 3e 22 08 ba be 68 9e 1d bf
       -0.3251044 0.15968232 -0.3633433 -0.61569834
000080 28 e0 85 be 37 76 33 3f 59 4b 83 3e c3 1c 35 3e
       -0.2614758 0.70102257 0.25643423 0.17686753
000090 3d cc 4a ba 5d 42 41 bf 03 e7 24 be 45 be 99 bf
       -0.00077361224 -0.7549189 -0.16103749 -1.2011191
0000a0 29 a0 11 bf c0 fa 85 be 73 93 33 3e d9 cc af 3e
       -0.5688501 -0.2616787 0.17536716 0.34335974
0000b0 c4 b9 c6 3e dc a7 d6 3e 2f 54 62 3e ea 15 04 3f
       0.38813603 0.41924942 0.22102426 0.5159594
0000c0 4b 2c 43 3e 2a f3 fa 3d a3 02 35 3f 5a 45 0d bf
       0.19059865 0.12253411 0.7070715 -0.5518395
0000d0 fa 43 ce bd 90 21 9b bf 48 f5 7b be d1 9a 11 bf
       -0.10071559 -1.2119617 -0.24605286 -0.56876856
0000e0 1e ca aa 3d c2 b8 9b 3e 75 c6 fd be e6 9e fb 3e
       0.08339332 0.30414397 -0.49565473 0.49144667
0000f0 ed 90 d5 bd 32 19 b2 3e 5d 42 0b bd 77 a4 87 3e
       -0.10428033 0.34784847 -0.033998836 0.26492664
000100 e7 5a a2 3e 84 2d a0 3f 66 1d 6e 3e d2 0f 47 bf
       0.31709978 1.251389 0.23253402 -0.77758515
000110 8e 78 e3 3c 88 12 b1 3e 7c 46 32 3f 69 0b 7e 3f
       0.027767446 0.3458445 0.696388 0.9923616
000120 f3 24 60 bd f9 dd 7c bf 35 78 0a be 10 f1 15 bf
       -0.054722738 -0.98776203 -0.13522418 -0.5857096
000130 f1 4f 03 be d6 c3 cc 3e c9 47 da 3e 1f d8 29 bf
       -0.12823464 0.3999316 0.42632893 -0.663454
000140 d9 3e 50 be c4 12 41 bf 5e e6 32 be 16 7a 47 be
       -0.20336474 -0.7541926 -0.1747069 -0.19480166
000150 4e 08 82 3c af f3 e3 be e6 6a 15 bd ff 2d 2c 3e
       0.0158731 -0.44521853 -0.0364789 0.16814421
000160 90 3f b9 3e 86 15 0f bf d4 86 24 bf 7f d1 13 be
       0.36181307 -0.5589222 -0.6426823 -0.14435385
000170 8e ca a6 be b2 6e eb be 8c 92 e5 be 39 aa 46 bf
       -0.32576412 -0.4598289 -0.4483837 -0.7760349
000180 34 4f bd 3e 74 d7 80 3f ed 54 ce 3b c0 66 4a bd
       0.3697449 1.0065751 0.006296745 -0.049414396
000190 67 15 ca be 55 27 03 bf 5a df d3 be 71 3b 53 bf
       -0.39469454 -0.5123189 -0.4138134 -0.82512575
0001a0 47 b1 0c 3e 71 a8 1c 3f e9 db 23 be 35 67 30 3f
       0.13739501 0.6119452 -0.16001858 0.6890748
0001b0 d2 9c 59 bd 99 a9 9a 3e 32 56 6f 3d 04 f5 89 be
       -0.05312807 0.30207518 0.05843181 -0.26944745
0001c0 b1 35 17 3e 4d 12 13 3f 5e 0d f6 3d e9 c8 23 3e
       0.14766575 0.574498 0.12014268 0.1599461
0001d0 e3 d5 fe 3d ba 92 86 3e 9f 1a 3f be 9a 72 dd 3e
       0.124431394 0.26283818 -0.18662499 0.43251497
0001e0 e5 f7 13 be c9 c6 0e bf 9a d4 40 be 75 cf 6a bf
       -0.14450033 -0.5577207 -0.18831101 -0.91722804
0001f0 c5 7e 46 be e0 62 6e bf 59 82 d8 bd 69 bb 14 be
       -0.19384296 -0.9311962 -0.10571737 -0.14524616
000200 90 a9 c5 bc 6e 05 d6 be 54 e6 3a 3e 1b 08 6f be
       -0.024128705 -0.41801018 0.18251926 -0.23342936
000210 4d 98 4b bd 6c 38 e9 3e 4c e4 b0 bd 99 23 05 3e
       -0.049705792 0.4555086 -0.08637294 0.1300186
000220 53 62 77 3f ed 9e d9 bc b1 da c0 bd 61 ef 6b be
       0.96634406 -0.02656504 -0.09416712 -0.23040535
000230 ff 25 07 be 64 9a aa be 58 12 ec 3d a7 dd 58 be
       -0.13198088 -0.33320916 0.11526936 -0.21178304
000240 37 cb 87 be d2 c5 bd bf 13 91 27 be 85 d9 01 bf
       -0.26522228 -1.4825995 -0.16363935 -0.50722533
000250 06 e3 ba 3e e9 e3 08 3f 68 33 d4 3d ce 64 3f be
       0.3650133 0.53472763 0.103613675 -0.18690798
000260 83 42 a4 bd a3 54 72 bf 39 d5 71 be 55 3c 8e be
       -0.080204986 -0.94660395 -0.23616494 -0.27780405
000270 03 7f 14 bd 7a 84 8d bf 1f 3e 30 bd cf 57 59 bf
       -0.03625394 -1.1056054 -0.043027993 -0.8489961
000280 46 ae 29 be 4b fb 9a 3e 11 08 b1 be cb 42 33 3f
       -0.16570386 0.30269846 -0.34576467 0.70023793
000290 5c 0a 49 bb e2 9d 3a be dc fb 14 3e de ae 97 bf
       -0.003067634 -0.1822429 0.14549202 -1.185024
0002a0 2b 87 f6 3e 19 c8 07 3e b4 ca ef 3c d2 c0 30 3f
       0.4815 0.13259925 0.029271461 0.6904422
0002b0 85 43 a9 3d cf d0 bf 3e 33 f2 fd 3e 5f 51 b2 bf
       0.082648315 0.37463996 0.49598846 -1.3931082
0002c0 45 20 c0 be 90 53 1f 3f 0b c8 fb bd a1 df ac 3e
       -0.3752462 0.6223688 -0.122940145 0.33764365
0002d0 e2 9c 4d 3d 17 34 ad 3e 58 17 b0 bc 5a 69 aa bb
       0.050198443 0.33828804 -0.021495506 -0.005200547
0002e0 c4 5c b7 be 54 0b cc 3e d6 ab f9 3e 8b bf 12 3f
       -0.35812962 0.39852393 0.48763913 0.5732352
0002f0 d1 b6 4d be e0 31 1b 3e d9 57 c3 be e5 8d 22 bf
       -0.2008927 0.15155745 -0.3815296 -0.63497764
000300 28 cd a6 ba f6 c3 81 3e bd 70 a9 bc 49 c3 43 3d
       -0.0012725936 0.2534482 -0.02068364 0.04779366
000310 6d 53 af bc 3b 84 a8 3d 37 c7 b6 be 77 0c 5b be
       -0.021402085 0.08228346 -0.35698864 -0.21391474
000320 64 22 f8 be ba ab 40 3f dd e1 1f bf dd 18 4f 3f
       -0.48463738 0.75262034 -0.62454015 0.80897313
000330 e4 5b 26 3e 72 ea a7 3e ee 23 83 3c c2 b1 d6 3d
       0.16245991 0.32796055 0.016008344 0.10483123
000340 92 49 4c bc 51 a1 e1 be 4e 1b df bc c2 08 3f 3e
       -0.012468712 -0.44068387 -0.0272347 0.18655685
000350 76 c7 39 be c7 63 b3 be 60 e7 5a 3e 70 71 b1 bf
       -0.18142495 -0.35037062 0.21377325 -1.3862743
000360 16 f6 86 be cb 9e 27 3f 39 25 a8 bd c3 88 d6 bd
       -0.26359624 0.65476674 -0.08210225 -0.10475304
000370 f3 74 bf be d7 03 32 3e 5a 7c d0 be 32 62 9e be
       -0.37393913 0.17384277 -0.40719873 -0.30934292
000380 40 08 9f be 5c d9 80 be 97 bf 20 3e bb 54 eb 3e
       -0.31060982 -0.25165832 0.15698086 0.45963082
000390 c8 83 9a 3e e9 8d 2c 3f de da 0d 3e 57 a1 98 be
       0.30178666 0.6740404 0.13853022 -0.29810593
0003a0 77 77 4e 3e 8b 38 2b bf b2 25 11 be c2 17 c5 3d
       0.2016276 -0.6688315 -0.14174536 0.09623672
0003b0 7b e5 7d be 93 91 35 3f dc a1 67 bd 80 e4 55 3d
       -0.24794571 0.70925254 -0.056550846 0.052219868
0003c0 91 19 84 3d cd 69 5b bf 68 13 42 3d 5d 41 ef be
       0.06450189 -0.85708314 0.04738179 -0.46729556
0003d0 25 04 96 3e 64 52 fe be b9 18 56 bd 84 da fb 3e
       0.29300037 -0.49672234 -0.05226967 0.49190152
0003e0 d0 c4 b1 3e 89 a2 09 bf d9 0b 99 bd ef 4f 45 bf
       0.3472047 -0.53763634 -0.07472963 -0.77075094
0003f0 1c af 50 bc 1f 6e 90 3e cd 47 ef bc 14 02 03 bd
       -0.012737062 0.28209016 -0.029209042 -0.031984404

a2c_network.actor_mlp.0.bias f4 [64]
000000 cb 75 a6 be 29 36 bb 3d 3f eb 9b 3e 90 d3 6b bf
       -0.32511744 0.091411896 0.30452916 -0.92119694
000010 35 ec 2d 3e 29 9e 87 be 74 fb 12 3f eb bc af 3f
       0.16984637 -0.26487854 0.57414937 1.3729528
000020 3e 0f 49 bf 66 d4 c3 3e bf ab 82 3f bb eb a7 3f
       -0.7853888 0.38247985 1.0208663 1.3118814
000030 d0 c5 b0 3d 42 d8 bf 3c 0c df 9b be b0 73 57 bf
       0.0863148 0.02341855 -0.3044361 -0.841609
000040 66 9e 97 3d 0a 4f 41 bf 72 7e fb 3e 34 6a 47 3d
       0.07403259 -0.7551123 0.49119908 0.048685268
000050 ff 2d 06 3f d8 e7 1b bf 06 ae f4 be 18 67 04 bf
       0.52413934 -0.6090064 -0.4778902 -0.5171981
000060 19 cc 5d 3f da bd 44 bf 3c 36 d2 bd c1 6e e3 bd
       0.86639553 -0.7685219 -0.10264251 -0.11105109
000070 e3 47 d5 be 9b dd 08 3f 0f d7 ff 3e 88 5f ff 3b
       -0.41656408 0.53463143 0.49968764 0.0077933706
000080 10 75 6f 3f 6f 0d 5f bf 40 23 ad be ce 14 48 be
       0.93538 -0.87129873 -0.33815956 -0.19539186
000090 88 21 51 bf 9c 87 cc 3f 35 96 dc 3e ad d0 f3 be
       -0.8169179 1.5978885 0.4308335 -0.47620144
0000a0 11 9e 4e 3f 59 d2 66 3e a3 db 51 3e ab aa 58 bd
       0.8070994 0.22541179 0.20493941 -0.052897137
0000b0 51 1d b2 3f 55 3c 7a 3e 35 b3 02 bf e6 bf 14 3f
       1.3915197 0.24437077 -0.510547 0.58105314
0000c0 a2 6e 07 3c c8 55 65 bf 69 e2 1c be 6f 73 49 3f
       0.008266123 -0.89584017 -0.15320744 0.7869176
0000d0 8a 34 62 3f 50 1c c3 bb 8f 04 9b bf 99 ed 79 3e
       0.8836142 -0.005954303 -1.2110766 0.24407043
0000e0 73 f8 58 bf 55 e2 12 bf 8b 24 04 bf f2 43 c5 3f
       -0.84754103 -0.57376605 -0.5161826 1.541136
0000f0 c4 05 73 3f 5c e0 9b bf a5 bc 9c bf 03 57 e7 be
       0.9493067 -1.2177844 -1.224507 -0.45183572

a2c_network.actor_mlp.2.weight f4 [64, 64]
000000 52 46 af 3e e1 24 8c be 9a 55 6c be 6d 3d 1f be
       0.34233338 -0.27371886 -0.2307953 -0.15550776
000010 1f 25 03 3e a5 d5 38 bf 75 7b 22 3e 4e e4 a7 be
       0.1280713 -0.72200996 0.15867408 -0.3279137
000020 6b f4 95 3e 61 21 ba be 12 e6 ea bd 08 99 8d 3e
       0.2928804 -0.3635359 -0.11469664 0.27655816
000030 44 bb e2 be 0f 6c 82 3b 4c d5 93 3e 34 e4 a1 3e
       -0.44283497 0.0039801667 0.2887367 0.31619418
000040 63 c4 c6 3e 05 be 1a bd 94 ad 71 3d dc 4e 07 be
       0.38821706 -0.037778873 0.059003428 -0.13213676
000050 bb 98 18 bf e9 ab 49 3f 41 88 a8 be 02 c2 d4 be
       -0.5960805 0.7877794 -0.32916453 -0.41554266
000060 60 e6 e4 be bb f9 d3 be 11 01 21 bb e4 7e 29 3e
       -0.44707012 -0.41401467 -0.0024567286 0.16552311
000070 87 0c d8 3e 8c 45 8e 3e ed bc de bd a1 74 97 bd
       0.42197058 0.27787435 -0.108758785 -0.07395292
000080 03 27 50 be 06 78 d7 3e bc 27 11 bf 6e 45 d5 3e
       -0.20327382 0.42083758 -0.56701255 0.41654533
000090 c6 40 07 3e e8 28 3a be 3a 2a ed be 70 f7 db 3e
       0.13208303 -0.18179667 -0.4632128 0.42962217
0000a0 86 71 b2 3e 51 fe 89 be 47 49 22 3e 03 d5 f8 be
       0.34852237 -0.2695184 0.15848266 -0.48600015
0000b0 be 36 5a bd ee fd c0 be 2f 33 aa 3e 04 46 e7 be
       -0.053274862 -0.37693733 0.33242175 -0.45170605
0000c0 76 1a be be ff a2 89 be 79 3f 82 3d b6 eb 32 3d
       -0.37129563 -0.2688217 0.06359763 0.043681823
0000d0 4d ee c5 be f2 39 ad bd 4c e4 27 3f 73 d5 5f be
       -0.38658372 -0.08458318 0.6558273 -0.21858768
0000e0 97 ac a8 3e 10 04 aa 3e 05 b1 05 3f f9 95 23 bf
       0.32944176 0.33206224 0.52223235 -0.63900715
0000f0 5f c6 9d 3d 98 cb 38 3f a4 37 10 be c8 60 f4 3d
       0.07703852 0.7218566 -0.14083725 0.11932522
000100 af 0e 95 bd e6 93 8a 3e 18 ab cd 3d 6e 12 b9 bc
       -0.07278191 0.27065963 0.10042399 -0.022591796
000110 f1 de fa bd 55 b0 84 bf 8c 7a 45 3e 23 4c 92 3e
       -0.12249554 -1.0366312 0.19285029 0.28573713
000120 0a f6 93 be 8b 8d 8f be ae ef 00 bf 14 9d b0 3e
       -0.2889865 -0.28037676 -0.5036572 0.3449484
000130 25 06 82 bc 6e 50 c8 3d dd b9 06 be 4c ed 76 be
       -0.01587207 0.09780966 -0.13156839 -0.24113959
000140 d1 e6 20 3f 90 fb 1e be 42 b9 a9 3e b2 bd f4 3d
       0.628522 -0.15525651 0.33149153 0.11950244
000150 e8 df 64 3e 10 30 5f be 0f 37 f6 bd 96 e1 00 3e
       0.22351038 -0.21795678 -0.1202222 0.12586054
000160 a4 f2 a4 3e 0a ba 2f bc 9c 42 2c be c1 5d 13 3e
       0.3221637 -0.0107255075 -0.16822284 0.14391233
000170 9c c5 a9 be 96 b5 ba 3e 9c c0 d4 3d b0 0d 0a 3e
       -0.33158576 0.36466664 0.103883 0.13481784
000180 11 33 83 3e b3 b6 02 bf 89 1c 2f bf a2 10 31 be
       0.25624898 -0.51060027 -0.68402916 -0.17291501
000190 b6 8a be be a3 99 78 3f 18 85 40 3e 96 fc a6 be
       -0.37215203 0.9710943 0.18800771 -0.32614583
0001a0 74 28 98 3e 11 ec cc be bb 37 14 3e d0 13 4b bf
       0.29718363 -0.40023854 0.14474384 -0.79327106
0001b0 16 14 0d 3f 8e 0e a3 3e 25 e3 ee 3c da 3f 95 3c
       0.55108774 0.31847042 0.029161045 0.018218923
0001c0 d1 92 9c 3d 33 fa da be c3 78 7a be 7d 48 f3 3e
       0.076451905 -0.42769012 -0.2446013 0.47516242
0001d0 25 72 14 bd 08 2e eb be 90 90 91 be 0b 1a c0 3d
       -0.03624167 -0.45933557 -0.28430605 0.09379967
0001e0 d7 ab 91 bd 3d 8c 75 39 a9 7c a4 be 39 3c 29 3f
       -0.07112854 0.00023417264 -0.32126358 0.6610752
0001f0 98 77 c5 3e c2 4a e1 be fe 0b 71 be b0 ad d5 3c
       0.38567805 -0.44002348 -0.23539731 0.026083797
000200 d8 70 86 3e 8e 6c a7 bd d2 cd c3 bd 86 43 47 3d
       0.26257968 -0.08175002 -0.095607415 0.04864838
000210 2d e7 09 3e e9 46 5a 3c 8d 31 80 3c 60 b6 88 bc
       0.13467093 0.01332257 0.015648628 -0.016688526
000220 bf c8 50 bd 4f c9 88 bd df af 55 3e 59 16 66 be
       -0.050972696 -0.066790216 0.20867871 -0.22469462
000230 4a ff 6e 3c a0 37 02 bd 63 9a eb 3b 2a 55 00 be
       0.014587233 -0.03179133 0.007190035 -0.12532488
000240 83 ec 86 be 92 f8 20 3d 50 84 b4 bd f6 97 ae 3e
       -0.2635232 0.039299555 -0.08814299 0.34100312
000250 89 80 c7 bc 8a d6 dd 3c 97 a7 87 bb 40 d7 7f be
       -0.024353283 0.02707984 -0.0041398513 -0.24984455
000260 4f 64 53 be 67 85 ad bd 2b c1 c8 bc 4b 0b b6 bb
       -0.20643733 -0.0847271 -0.024506172 -0.0055555454
000270 71 f0 71 3c 66 5c 28 3c c6 c0 d7 bc 6e 23 24 3d
       0.014766798 0.010275936 -0.026337039 0.04007285
000280 49 07 83 3d 0c 29 de 3d ae 53 f1 3e da d8 e9 3d
       0.06397874 0.10847673 0.47134155 0.11418314
000290 d8 6a 6b 3e da 95 da bd 69 e1 2f be 86 ad 17 bd
       0.22989976 -0.10673113 -0.17175831 -0.03703072
0002a0 81 19 20 3e e7 fb 10 3c ed 85 a6 3d 52 72 1d bd
       0.15634729 0.008849121 0.08131013 -0.038439102
0002b0 84 4f 5d 3d 84 2a 71 be 43 e3 97 3e 64 bf 5b 3e
       0.05403091 -0.23551375 0.29665574 0.21459728
0002c0 53 0a 03 be ef 68 7c 3d 7e e9 3d 3e 72 e0 1e 3e
       -0.12796907 0.06162351 0.18546101 0.15515307
0002d0 bc 09 60 3e 3e a6 09 3d 8b bc ec 3b 7b bd 2b 3e
       0.21878713 0.033605807 0.0072246245 0.167715
0002e0 92 fa 77 bd 1b ef 2c 3d 8e 84 81 3d 74 b5 87 3d
       -0.060541697 0.042220216 0.06324111 0.06626406
0002f0 51 5d a5 bd 0d 56 82 be 3e b5 a3 3d fd 7c 21 3d
       -0.08074439 -0.25456277 0.079935536 0.03942584
000300 2c ce 95 bd 70 ec 30 3d 4a 31 81 3e 69 9e af 3e
       -0.07314715 0.043194234 0.25232917 0.34300545
000310 16 42 18 be 56 32 22 3e e7 88 2f 3e 2c 02 99 be
       -0.1486896 0.15839514 0.17142068 -0.2988447
000320 61 af 9f 3e 23 64 37 3e 98 f9 11 bd 93 29 6f be
       0.3118849 0.17909293 -0.03563842 -0.23355703
000330 75 fb b4 3e 7e 9f e7 3d a3 f7 85 3e 91 52 65 3d
       0.35348096 0.113097176 0.26165494 0.055986945
000340 5e fe ee be 84 d8 93 3e fc b0 85 be 6d 36 6f 3e
       -0.46678442 0.28876126 -0.2611159 0.23360606
000350 dc 79 8e 3e e7 f4 53 be a4 4f 36 3e 8c e6 0e 3e
       0.27827346 -0.20698892 0.17803818 0.13955134
000360 2d 96 bb be 6d cf 0e 3e 47 17 32 bc 48 6b 41 3e
       -0.36638013 0.13946314 -0.010869808 0.18888581
000370 a4 a7 5c be 52 11 ad bb b9 3d 03 3e c1 e6 03 3e
       -0.21548325 -0.0052816058 0.12816514 0.12880994
000380 c9 6b 74 be a1 54 86 3e 83 f3 f8 3d 43 b8 8f be
       -0.23869242 0.26236442 0.12155821 -0.28070268
000390 33 4b 2f 3f 9f 94 4f be 11 d7 bc 3c c4 42 b1 3d
       0.6847412 -0.20271538 0.02305177 0.08655313
0003a0 35 df 8a be 1b 43 8b 3e 52 fd 05 bd 9a 16 d2 3d
       -0.27123418 0.27199635 -0.03271229 0.10258217
0003b0 4d 30 bd be 34 a3 07 3e f5 2e ca 3e df 2e cd 3c
       -0.36950913 0.13245851 0.3948895 0.025046764
0003c0 fc 69 87 3e 46 27 14 3f 64 cb a6 3e aa 7b 36 3e
       0.26448047 0.57872427 0.3257705 0.17820612
0003d0 ba bb 2a 3e bc b1 23 3f 34 28 11 3f 2a 87 bb 3c
       0.16673175 0.63943076 0.5670197 0.0228916
0003e0 1d 0c 00 3f c5 94 54 be 81 9b 67 3d c0 f1 f8 bd
       0.50018483 -0.20759876 0.056544784 -0.12155485
0003f0 af 59 b4 be d8 39 b2 bd d4 a2 98 bd fc f6 6c 3e
       -0.35224673 -0.08702439 -0.07452932 0.23141092

a2c_network.actor_mlp.2.bias f4 [64]
000000 4c 28 84 be 28 a4 d6 3e 83 f9 8c 3e 83 68 22 3f
       -0.25811994 0.41922116 0.27534112 0.6344072
000010 97 f6 ef 3c af f0 b4 3c 10 60 71 bd a8 4c f7 3e
       0.029292388 0.022087423 -0.058929503 0.48300672
000020 b4 8b 26 bf ad 0a 35 bf 62 d8 16 bf 0c ad 45 be
       -0.6505692 -0.70719415 -0.58923924 -0.19304293
000030 19 bd 63 ba df ff 27 3d c4 a4 4a 3e f2 a4 ee 3b
       -0.00086875405 0.041015502 0.19789416 0.0072828466
000040 eb e2 06 be 4d 9e 48 be 41 0a 66 bf 6b 7f 37 bf
       -0.131725 -0.19591637 -0.89859396 -0.716788
000050 0d b8 f0 3e e2 5e 2c 3f 78 74 87 be 20 4a 87 3e
       0.4701542 0.6733228 -0.26456046 0.2642374
000060 22 02 9c bc 7a ec 97 bd 98 f0 85 bf 44 ef 15 be
       -0.019043986 -0.07418151 -1.0464048 -0.14642054
000070 f7 7a 80 3e 17 b2 4c 3f 0c bf bf 3e be 78 86 be
       0.25093815 0.79959244 0.37450445 -0.26263994
000080 6e b2 22 3e 2a 7d b7 be 66 ee ae be 48 f0 b5 be
       0.15888378 -0.3583768 -0.3416626 -0.35534883
000090 ff 3f 04 3e bc d1 87 be 51 31 6c bf 5b f8 36 bf
       0.12915038 -0.26527202 -0.9226275 -0.7147271
0000a0 9c 27 51 bf d3 13 4e be 99 f4 a9 3c 5a f3 cb be
       -0.81701064 -0.2012475 0.020746516 -0.398341
0000b0 36 da 5b 3f 24 50 98 be b2 2e cc bd a8 68 e3 bd
       0.8587984 -0.29748642 -0.09969844 -0.11103946
0000c0 1a 7b 96 bd af 82 80 be 9e e0 54 3d 9a b0 06 3f
       -0.073476985 -0.25099704 0.051972024 0.5261322
0000d0 1c 54 59 bf 4a f3 11 3f dd 06 d1 be 05 43 e1 3e
       -0.84893966 0.57011855 -0.4082555 0.43996444
0000e0 d6 fe 02 3e 50 ba 3d 3f 74 63 eb be 8b aa 74 be
       0.12792525 0.74112415 -0.45974314 -0.23893182
0000f0 9e 51 4d be 19 d8 3b bf 5a 9f a9 bd 71 f9 24 3f
       -0.20050666 -0.73376614 -0.08282347 0.6444312

a2c_network.value.weight f4 [1, 64]
000000 41 f6 f6 3d c4 51 90 3c a1 13 45 3c f6 57 7f be
       0.12058688 0.017617114 0.012028606 -0.24935898
000010 c7 0b 90 3c bc 70 9b be a9 54 93 3e e4 82 79 be
       0.01758374 -0.30359447 0.28775528 -0.24366337
000020 d5 0d 9e 3e 50 37 77 3e 75 dc fc 3c 53 1d 70 ba
       0.30869928 0.24142194 0.03086684 -0.0009159643
000030 19 a3 5c bd be 74 57 3d 77 ca 82 bb 79 13 9c b9
       -0.05386648 0.05260157 -0.003991421 -0.00029769147
000040 b6 23 3f 3e d2 3e 92 3d cd 45 e9 3e 28 90 ae 3e
       0.18665966 0.07140888 0.45561066 0.34094357
000050 96 a8 5f bf 23 74 05 bf da ff a3 3e 7a b8 4a 3e
       -0.87366617 -0.52130336 0.32031137 0.19796935
000060 c7 19 94 bc ed ae 83 bc d4 f1 b0 3e dd f0 d2 bd
       -0.018078698 -0.016074622 0.345595 -0.10299847
000070 18 8a 2f 3f 8f e6 93 be a9 a0 55 3d 19 91 34 bc
       0.6857009 -0.2888684 0.05215517 -0.011020922
000080 4a 0e 2a 3d 25 79 8d bb da d3 81 bd cc 08 22 bf
       0.041517533 -0.00431742 -0.063392356 -0.6329467
000090 91 c4 8c 3e 3c d8 62 bd 75 9e e1 3e c8 b6 15 3e
       0.27493718 -0.055382 0.44066206 0.14620507
0000a0 45 90 b6 3e e6 c8 af 3d 43 a6 96 b9 db 56 fc 3c
       0.35656944 0.0858324 -0.00028734104 0.030803135
0000b0 e6 39 c5 be cb 3c d6 3d 31 08 d2 bd dd 1f 17 bf
       -0.38520736 0.10460814 -0.10255469 -0.59032995
0000c0 77 ab 89 be 50 f7 25 3f b9 0f 2d 3d 1c 7a d1 3c
       -0.2688863 0.64830494 0.042251322 0.025570922
0000d0 70 a6 4c 3e 3c f7 b2 bd 9e 61 54 be ed 0e 2a be
       0.19985366 -0.087385625 -0.20740363 -0.16607256
0000e0 1b 79 ee be 15 23 cf be 4d e7 f2 3c 40 bf d8 bc
       -0.4657677 -0.40456453 0.029651308 -0.026458383
0000f0 1d 5a d6 be 85 ef 14 3f 42 9e 5e be bd 3c 98 be
       -0.41865626 0.5817798 -0.21740058 -0.2973384

a2c_network.mu.weight f4 [1, 64]
000000 24 87 d6 3e 67 0a bf 3e b0 90 ae 3a 7a 3d 2a bd
       0.4189998 0.37312624 0.0013318267 -0.041562535
000010 eb 0f a3 bb eb c5 1e 3e 20 52 e9 3e 16 68 b6 be
       -0.004976263 0.15505187 0.4557047 -0.35626286
000020 12 3e 33 3c 82 61 0e 3e 5b 95 01 3f 5b ad 39 bd
       0.010940092 0.13904384 0.50618523 -0.04533134
000030 dc 4a 99 3d 43 05 eb 3e 65 8e b2 be 29 ad 8d bd
       0.074849814 0.45902452 -0.34874263 -0.06917793
000040 49 35 c6 bc 11 a6 67 be df 36 40 3e e1 27 42 be
       -0.02419533 -0.22621943 0.18770932 -0.18960525
000050 cb 1a c7 bc 97 d9 15 3d dc 44 be 3d 41 ab 97 3e
       -0.024304768 0.036584463 0.09290478 0.29622844
000060 b0 93 f5 ba f5 34 6b 3e 07 65 c7 3c 5e 9b 2b bd
       -0.0018736031 0.2296942 0.024340166 -0.041896217
000070 d0 36 31 bf e0 24 5e bd 50 7e fc 3d e6 77 81 3b
       -0.6922426 -0.054234385 0.1232878 0.0039510606
000080 6a f4 4d 3e de bf cb bd b3 5f 97 3d ba fb 6c 3e
       0.20112768 -0.09948705 0.073913 0.23142901
000090 96 9f 82 be d1 7d 5d 3e a7 21 15 bd 28 6e 0f be
       -0.2551238 0.21630026 -0.036409047 -0.14006865
0000a0 1d 2f 3d bc 82 19 e3 3c 5a 38 70 3b f5 16 e5 3c
       -0.011546877 0.027722124 0.0036654682 0.027965048
0000b0 68 2d 89 bc c0 6d 0e bc 2c 6e ba 3e 12 41 5e be
       -0.016745284 -0.008693159 0.3641218 -0.2170451
0000c0 e4 b6 0b be c5 cc ba bc a9 c0 68 bf c9 f3 15 3f
       -0.13643986 -0.02280272 -0.90918976 0.5857511
0000d0 cc 34 42 bd 30 cc 30 be 96 1b e5 bd ad 32 1e 3e
       -0.047413632 -0.17265391 -0.11186902 0.15449019
0000e0 dc 34 df 3c bd 9c 42 be 58 f5 f8 3e 29 cb 6a be
       0.027246885 -0.19005103 0.48624682 -0.22929062
0000f0 b6 59 14 bf 18 5a 89 3e 39 5b 4b 3e 05 52 28 3e
       -0.5794939 0.2682655 0.19859017 0.16437538

exp_avg f4 [64, 4]
000000 05 8e d4 ba 37 a1 db 39 92 00 6e bb 4c cc 68 3a
       -0.0016216642 0.0004189105 -0.0036316258 0.000888054
000010 37 57 94 b8 e7 a7 1d ba 90 e9 9d 3a 22 7f 25 3a
       -7.073435e-05 -0.0006014094 0.0012047756 0.0006313195
000020 37 85 11 39 ef ed 29 b9 9d 58 b9 39 b6 17 05 38
       0.00013877904 -0.00016205733 0.00035351972 3.1731754e-05
000030 35 23 97 ba c3 7e 72 3a 9b d5 93 ba c7 e0 e7 39
       -0.0011530878 0.00092504564 -0.0011278869 0.00044227226
000040 65 f1 36 bb 58 c0 a8 3a e8 d7 8c bb 1d b1 a2 39
       -0.0027914878 0.0012874706 -0.004298199 0.00031031008
000050 5c 1f 45 39 4c be 2f 3a 71 1e b7 39 68 d7 ce b8
       0.00018799066 0.00067040767 0.0003492716 -9.862968e-05
000060 07 7b 03 b9 0f a8 1d 3a fb 7a c1 b9 c3 e3 dc b9
       -0.00012538965 0.00060141174 -0.00036903456 -0.00042131366
000070 0f 1e 18 bb b4 ee 4e 3a e4 7b fe ba 94 75 1e b9
       -0.0023211276 0.0007893846 -0.0019415584 -0.00015111855
000080 fa db 0c bb 95 a4 ce 38 df a6 34 bb 0c b6 ee 3a
       -0.002149342 9.853501e-05 -0.0027565283 0.0018212213
000090 ce 79 d8 3a 82 e1 e7 b9 0d 8b 4f 3b 44 6b 77 b9
       0.0016515793 -0.0004422777 0.0031668574 -0.00023595715
0000a0 fa 94 14 ba 21 23 91 39 16 bd a4 b9 ef be 20 3a
       -0.0005667951 0.00027682728 -0.00031421398 0.0006131967
0000b0 18 33 bc 3a 4e f6 4a 39 c7 08 3a 3a a4 88 03 ba
       0.0014358489 0.00019355977 0.0007096645 -0.00050176145
0000c0 15 9a b7 3a 10 0b fc b9 7f 51 4a 3b 61 10 5f 3b
       0.0014007712 -0.00048073428 0.003087133 0.0034036862
0000d0 a7 dc 77 3b e6 c2 1f bb 11 16 e6 3b 08 7b 82 3a
       0.0037820728 -0.0024377643 0.0070216735 0.0009954879
0000e0 de 56 2b ba 14 62 a8 3a 2f 61 9d ba e7 28 a6 ba
       -0.00065360765 0.0012846612 -0.0012007112 -0.0012676985
0000f0 8e d4 29 bb 77 8d 71 3a 6c 75 5f bb 15 22 06 3a
       -0.0025914046 0.00092145003 -0.0034097089 0.0005116773
000100 af e6 6e b6 16 b7 1c b8 9e 2d e7 b9 70 dd 86 36
       -3.559904e-06 -3.736381e-05 -0.0004409374 4.01929e-06
000110 b8 37 1f 3b bc 82 aa b9 84 43 e6 3a af aa b4 b9
       0.0024294686 -0.00032522331 0.0017567729 -0.00034459445
000120 ce c4 1d 3b 59 43 48 ba 9b f3 8b 3b c3 12 74 ba
       0.0024073604 -0.000763943 0.0042709834 -0.0009310657
000130 ec 12 07 3a e0 4e c3 39 f1 f2 05 ba e9 92 06 b9
       0.0005152661 0.00037252065 -0.00051097485 -0.00012833964
000140 ea 52 0b 3a 6e 69 41 ba ef 9f d5 3a 56 dd b7 39
       0.00053147844 -0.0007378076 0.0016298274 0.00035069388
000150 a2 e2 1a ba 5c 1f c2 ba 62 59 15 bb 5a c8 5b ba
       -0.0005908405 -0.0014810371 -0.0022788872 -0.0008384042
000160 b0 c5 65 3a a2 c7 c7 3a e2 17 21 ba b5 3d 11 bb
       0.00087651145 0.001524199 -0.00061452214 -0.0022162024
000170 84 52 3f b8 e0 3f fc b9 59 d0 54 3a 1d 45 fa b8
       -4.5614797e-05 -0.00048112776 0.00081182044 -0.00011933802
000180 99 17 2f 39 25 0b 13 3a 1d 4d 9d ba b7 d7 43 ba
       0.00016698091 0.00056092656 -0.0012001131 -0.00074708037
000190 b3 34 c5 39 26 a1 f6 b9 04 96 e4 3a 89 db 0c ba
       0.00037614032 -0.0004704084 0.0017439728 -0.00053732895
0001a0 70 18 67 ba c0 ef ea 3a fb 7c 29 bb 04 fa e0 ba
       -0.0008815592 0.0017924234 -0.0025861848 -0.0017164354
0001b0 6c 9c 94 b9 69 74 99 3a 07 c1 0c b8 63 d0 42 3a
       -0.00028345303 0.0011707667 -3.355837e-05 0.0007431565
0001c0 24 c1 5f ba 63 9d 44 3a 92 6f fd ba ec 73 6b b9
       -0.0008535555 0.0007500259 -0.0019335619 -0.0002245453
0001d0 b7 c9 05 b9 cd fb c7 3a 81 54 aa ba e0 9e d3 ba
       -0.00012759013 0.0015257538 -0.0012995155 -0.0016145371
0001e0 bc 3f c3 3a ff 2a de b9 01 8e 4e 3b 80 f9 40 ba
       0.0014896314 -0.00042375174 0.0031517746 -0.0007361397
0001f0 af 52 85 3a 0c cd 0f ba 38 47 cb 3a d8 a6 95 b8
       0.0010171736 -0.00054855715 0.0015508896 -7.135951e-05
000200 48 cc 23 3b 10 64 4c ba 52 8f 58 3b 7f 80 3e ba
       0.0024993587 -0.0007796893 0.003304441 -0.0007267072
000210 3c 2b 0c bb be 84 18 3a 46 b8 3a bb f0 f0 60 3a
       -0.0021388074 0.000581812 -0.0028491183 0.00085808244
000220 44 35 3f 3a 93 ac 2b 3a 42 0d dc 3a f4 28 9f 3a
       0.0007294009 0.0006548848 0.0016788619 0.0012142942
000230 43 f4 e6 38 0f 06 bb ba 4e e0 75 3a 2e 28 9d 3a
       0.00011012752 -0.0014268773 0.00093794323 0.0011990124
000240 ea 86 f8 3a 83 23 9c ba 28 93 b6 3b 9f 4f 3f 3a
       0.0018961106 -0.0011912439 0.0055717416 0.0007297936
000250 f7 da 85 3b c1 5a a8 3b 15 25 a1 3b 1c 3c 09 3a
       0.0040849405 0.005137772 0.0049177506 0.0005235092
000260 2f ac 0f 3b 2f 0b 78 ba 1f 00 4c 3b a0 c9 a9 b9
       0.0021922698 -0.00094621157 0.0031128002 -0.00032384414
000270 bd 1b 08 3a ff 4b 4c bb 97 7f a3 3b 48 2b 66 3b
       0.00051921216 -0.0031173227 0.004989575 0.0035121012
000280 e8 50 0b ba e9 c9 13 3a 6f ba d4 b8 d4 bd 4a ba
       -0.0005314485 0.0005637692 -0.00010143674 -0.0007733975
000290 c0 64 3a 3a ac 55 36 3a e7 65 98 3a de 18 6d 38
       0.000711035 0.0006955515 0.0011627049 5.6528363e-05
0002a0 7f ac b1 b8 21 0f 55 b8 91 b2 d0 b9 02 f1 35 b9
       -8.4721476e-05 -5.0797247e-05 -0.00039805894 -0.00017351288
0002b0 0c 5d 77 b8 2d d0 6c b9 ef 56 e2 3a 3a 36 a8 39
       -5.8976046e-05 -0.00022584265 0.001726834 0.0003208386
0002c0 6b 9f 4b ba f3 26 da 3a 61 c1 99 ba d8 98 a5 ba
       -0.00077675906 0.0016643688 -0.0011730605 -0.0012634052
0002d0 ee 4a 74 b9 77 cf 88 3a 0e bc e6 b9 3a 4a bc 39
       -0.00023297567 0.0010437806 -0.0004400913 0.00035913457
0002e0 89 4e ea ba 99 00 99 b9 b2 20 f0 ba 03 2b 4c 3a
       -0.0017876189 -0.0002918288 -0.0018320291 0.00077883917
0002f0 f9 f9 ff b8 56 f9 69 39 e7 ea a0 b8 11 36 78 b9
       -0.000122059086 0.00022313496 -7.6731485e-05 -0.00023671264
000300 9f 95 40 ba dd a6 7c 3a 5a 5c 51 ba 0a 78 f4 39
       -0.0007346514 0.00096379017 -0.0007986479 0.00046628743
000310 ec e4 02 ba 4e a3 29 3a d0 a4 c6 39 bc 98 9c b7
       -0.00049932185 0.00064711727 0.00037888298 -1.8667772e-05
000320 f6 62 64 b9 21 59 e6 39 a0 14 28 b9 67 8b f9 b9
       -0.0002178064 0.00043935425 -0.00016029412 -0.00047596844
000330 d1 84 16 39 bb 2d 18 3a 90 f6 00 3a 64 53 49 3a
       0.00014354593 0.0005805154 0.0004919553 0.00076799677
000340 51 d2 b1 3a e8 58 88 ba 3d 9b 96 3a 37 89 55 ba
       0.0013566707 -0.0010402473 0.0011490356 -0.0008145752
000350 16 1a 13 39 c0 ec af 39 0c 28 1f 3a 5b 22 5b 39
       0.0001402873 0.00033554994 0.0006071336 0.00020898266
000360 9a 1d df ba 1c 79 1a 3a be 61 09 bb f4 5b 84 3a
       -0.0017022372 0.00058926805 -0.00209628 0.0010098205
000370 1f 21 76 b9 b2 25 87 b8 b8 6c f1 b9 bd d6 0c b6
       -0.00023472727 -6.444323e-05 -0.00046048104 -2.098662e-06
000380 e7 81 54 bb af fa 45 ba 6b 76 83 bb 36 d8 0d 3b
       -0.003242606 -0.00075523084 -0.0040119193 0.0021643764
000390 5a b5 a8 39 28 07 b5 39 fb 71 8f b8 dc 20 67 39
       0.00032178574 0.00034528342 -6.840002e-05 0.00022042118
0003a0 02 f6 e8 39 ca 47 8e ba 92 e2 86 39 b1 5f 3d 3a
       0.00044433778 -0.0010855135 0.0002572728 0.0007224037
0003b0 9f 29 0c bb fb 94 ec 39 00 ce cf 39 0b 45 4a 3a
       -0.0021387113 0.00045124427 0.000396356 0.00077159767
0003c0 92 91 b8 3a 66 65 61 b9 a6 5a 01 3b 98 1e 57 ba
       0.0014081469 -0.00021495446 0.0019737869 -0.0008206158
0003d0 a7 41 dc 39 84 1d 27 b9 09 cf e5 ba 0b 53 e8 39
       0.00042010585 -0.00015937357 -0.0017533015 0.0004431236
0003e0 d2 08 f9 39 40 9d 23 ba 49 97 11 3a 71 61 15 b9
       0.00047499553 -0.00062413886 0.0005553854 -0.00014246047
0003f0 c7 54 95 ba 9a b7 85 3a 54 cc b2 ba 10 b4 3d 3a
       -0.0011393063 0.0010201812 -0.0013641217 0.0007236609

exp_avg_sq f4 [64, 4]
000000 29 38 0f 38 6e 4d 07 37 6c 0c 07 39 65 b8 ce 37
       3.414616e-05 8.064655e-06 0.00012879231 2.4642979e-05
000010 68 2d a2 37 39 96 d4 37 2c 89 89 38 b6 f2 33 38
       1.9333049e-05 2.5342322e-05 6.558219e-05 4.2902968e-05
000020 9a 06 9c 37 4c be 20 36 0e 26 15 37 83 19 ba 35
       1.8599723e-05 2.3952625e-06 8.889952e-06 1.3865505e-06
000030 97 66 b7 38 e5 97 4b 37 ed 39 3f 39 58 43 20 38
       8.745229e-05 1.2135109e-05 0.00018236758 3.820969e-05
000040 3d fe 97 39 f9 b4 42 38 2e 30 30 3a 72 b6 eb 38
       0.00028990387 4.642175e-05 0.00067210465 0.00011239656
000050 26 14 44 37 9b 3f 39 38 d6 5a cb 38 ee 22 47 37
       1.1687202e-05 4.4166674e-05 9.696714e-05 1.1869457e-05
000060 1f dc 65 37 6d b3 bc 38 14 53 5c 39 27 96 55 38
       1.3700715e-05 8.997959e-05 0.00021011784 5.0922998e-05
000070 74 fa 4d 38 da 4a 79 37 c2 8a 31 38 8c fa a5 37
       4.910906e-05 1.4858984e-05 4.2329317e-05 1.9786203e-05
000080 44 f4 96 38 53 e4 10 38 47 51 15 39 ef a5 91 38
       7.1980554e-05 3.454492e-05 0.00014240025 6.945046e-05
000090 60 60 c4 37 cc 5d 18 38 95 51 19 39 46 9b 84 37
       2.3409899e-05 3.632698e-05 0.00014621609 1.5807931e-05
0000a0 1c 72 19 37 d6 a5 00 37 62 04 bc 37 25 58 4d 37
       9.146079e-06 7.668006e-06 2.2413387e-05 1.2239475e-05
0000b0 fc cd ac 38 91 b5 ba 37 7e 7b 2c 39 bb 4b e1 37
       8.239967e-05 2.2257476e-05 0.00016449203 2.6857355e-05
0000c0 7f cd 10 37 1d 12 a1 38 dc 3d 92 38 7b 31 b8 38
       8.630915e-06 7.680452e-05 6.973345e-05 8.78302e-05
0000d0 3a 9b c0 39 56 94 01 39 14 7c a4 3a fe 19 88 39
       0.00036736747 0.00012357658 0.0012549185 0.00025959307
0000e0 0a e5 5f 37 77 ae ae 37 4b 6b c2 37 bf 51 0c 38
       1.3345163e-05 2.0823658e-05 2.3176564e-05 3.3454733e-05
0000f0 48 e8 81 38 dc 82 7f 37 bc 2f 0c 39 06 36 14 38
       6.194465e-05 1.52296525e-05 0.00013369223 3.5336263e-05
000100 02 c7 0a 38 7d 88 8e 36 a3 34 5e 37 14 75 de 36
       3.3087104e-05 4.247819e-06 1.3244487e-05 6.6297453e-06
000110 45 02 ef 37 de 2f 8f 36 29 41 5d 37 a2 1d c8 36
       2.8492077e-05 4.2673046e-06 1.3187798e-05 5.963914e-06
000120 90 5d c1 38 2e a0 07 38 93 f9 82 39 9d c3 a3 38
       9.2203845e-05 3.2335687e-05 0.0002498148 7.8088815e-05
000130 43 41 ce 37 97 ab 77 38 99 f6 2c 39 c0 5c 13 38
       2.4587504e-05 5.9049195e-05 0.00016495063 3.513391e-05
000140 32 15 97 37 a7 12 20 37 26 fb 3b 38 61 5f 5f 37
       1.8010473e-05 9.541086e-06 4.4818175e-05 1.3314043e-05
000150 8c c4 aa 38 39 09 12 39 1f 78 34 3a 14 2b e9 38
       8.1428414e-05 0.0001392708 0.00068843545 0.0001111833
000160 a4 bd 44 38 27 fd f0 37 92 45 8b 38 6a 47 37 38
       4.6906658e-05 2.8728113e-05 6.640995e-05 4.369711e-05
000170 ab d4 10 38 aa 27 dd 36 7e 16 e2 38 b4 64 f7 37
       3.4530338e-05 6.5909308e-06 0.00010780709 2.9491588e-05
000180 26 3c 91 39 ce 97 e6 38 e0 5b 9c 3a 6f d6 18 39
       0.0002770137 0.000109955305 0.0011929236 0.00014575732
000190 ea 87 fc 37 2a 4e 19 37 3a ec 0a 39 53 99 0e 38
       3.010403e-05 9.13771e-06 0.00013248707 3.3998233e-05
0001a0 7a ea c4 37 33 24 2e 38 f6 fc b2 38 16 39 60 38
       2.3474207e-05 4.1518546e-05 8.534819e-05 5.3458927e-05
0001b0 56 4b 16 38 4d 41 a1 37 73 0b ca 38 f2 eb 99 37
       3.583295e-05 1.9223104e-05 9.634243e-05 1.8348892e-05
0001c0 27 b6 8f 37 2a 1a 51 37 2b a0 73 38 ae df 7a 37
       1.713175e-05 1.2463463e-05 5.8084883e-05 1.4953241e-05
0001d0 bf ea 7c 37 40 8f d3 38 21 a5 8f 39 6d f6 92 38
       1.5075027e-05 0.000100879464 0.00027398116 7.007723e-05
0001e0 7a fb 46 38 a2 56 54 37 fc c8 0f 39 1d 2a ae 37
       4.7441084e-05 1.26563555e-05 0.00013712415 2.0762027e-05
0001f0 73 db c4 38 2e 54 ba 37 64 01 6f 39 ca 44 15 38
       9.386884e-05 2.2212127e-05 0.00022793334 3.5588433e-05
000200 4f ac 8c 38 16 47 9b 37 a5 c6 50 39 6d 38 5b 38
       6.707815e-05 1.8510542e-05 0.00019910427 5.226622e-05
000210 77 fc 4b 38 e3 b9 35 37 dc 43 c1 38 9a e0 c7 37
       4.8634098e-05 1.0831721e-05 9.215597e-05 2.3827237e-05
000220 96 e9 d3 36 f5 45 f7 37 52 46 ac 38 a6 70 3b 38
       6.315483e-06 2.947727e-05 8.214697e-05 4.4689186e-05
000230 3c f4 e2 37 ca 43 0f 38 da 30 df 38 2f 41 cf 37
       2.705503e-05 3.415699e-05 0.00010642568 2.4706676e-05
000240 25 e0 d0 39 87 66 8c 39 f9 43 1c 3b 75 ec cd 39
       0.00039839852 0.0002677927 0.0023844226 0.0003927682
000250 26 55 c7 39 b7 3f 17 3a 3b 93 1a 3b 23 71 0d 3a
       0.00038019678 0.0005769687 0.0023586291 0.0005395582
000260 54 09 77 38 ae ec 37 37 6d 89 c7 38 10 de a6 37
       5.8898077e-05 1.0962756e-05 9.514657e-05 1.9892148e-05
000270 ba 4c e5 38 b9 b8 c5 39 41 9f e6 3a 42 ca a1 39
       0.00010933862 0.00037712397 0.0017595069 0.00030859007
000280 46 28 7b 37 37 fc c0 38 c3 d9 82 39 ba 08 60 38
       1.4970143e-05 9.202252e-05 0.00024957777 5.341389e-05
000290 ea d6 5d 37 48 11 e6 37 86 07 74 38 9f 1c bb 36
       1.3222665e-05 2.7426184e-05 5.818114e-05 5.576366e-06
0002a0 aa 2f 13 37 30 53 aa 36 ca 18 b5 37 f4 1f ad 36
       8.77298e-06 5.076079e-06 2.1588425e-05 5.1595216e-06
0002b0 87 8b 55 37 ff 43 c0 37 8f 6e 80 38 89 2a c6 36
       1.2728276e-05 2.2919847e-05 6.124109e-05 5.9058116e-06
0002c0 a8 03 3d 38 69 b1 97 39 3e d1 75 3a 92 2b 2a 39
       4.5064517e-05 0.00028933145 0.0009377188 0.00016228695
0002d0 29 b7 54 38 2f ca 6d 38 bf b6 9b 39 37 95 20 38
       5.071532e-05 5.66935e-05 0.0002970006 3.828594e-05
0002e0 64 18 84 38 cd a4 6a 37 73 80 09 39 f7 88 e5 37
       6.2987936e-05 1.3985858e-05 0.00013113189 2.7362707e-05
0002f0 56 a8 f0 36 d7 18 e1 36 c7 a3 94 37 37 41 aa 36
       7.1721543e-06 6.7084143e-06 1.771924e-05 5.073987e-06
000300 87 9c ee 37 d2 f1 c8 37 52 1a ae 38 bd 7e ac 37
       2.84447e-05 2.3954464e-05 8.301869e-05 2.0563015e-05
000310 2e 4e de 38 2e e8 f6 36 4c 81 92 39 e7 0b 78 38
       0.00010600347 7.3584006e-06 0.00027943624 5.9138893e-05
000320 b5 4a 03 36 d8 39 16 37 8d f7 9b 36 10 e1 5e 37
       1.9564006e-06 8.9541645e-06 4.6481787e-06 1.3284633e-05
000330 c0 56 b0 37 74 d3 39 39 1e 7a 81 39 6d fd a6 38
       2.1021231e-05 0.00017721747 0.00024695782 7.962701e-05
000340 3f 11 8f 38 0d 79 da 37 60 8e 5f 38 97 00 89 37
       6.821984e-05 2.6043994e-05 5.329994e-05 1.6331947e-05
000350 60 1e 6b 37 45 44 8d 37 f2 b1 88 38 03 b9 cc 36
       1.4014164e-05 1.68403e-05 6.51813e-05 6.101212e-06
000360 83 17 9e 38 13 32 ea 36 46 68 18 39 76 d3 eb 37
       7.5384065e-05 6.979573e-06 0.00014534694 2.8112652e-05
000370 26 9d 0a 37 d3 5c 66 36 40 4c be 36 b8 7f b4 36
       8.26203e-06 3.4326702e-06 5.671318e-06 5.3792864e-06
000380 05 e2 39 39 b8 d4 8e 38 f4 59 24 3a d1 56 cb 38
       0.00017727174 6.8107096e-05 0.00062695076 9.695965e-05
000390 9e 16 04 37 21 84 51 36 b7 0c 07 37 23 22 13 36
       7.873079e-06 3.1220336e-06 8.049587e-06 2.1924577e-06
0003a0 c9 12 f9 38 1c b6 35 39 33 a4 9a 3a 96 3b 0f 39
       0.00011876744 0.00017329346 0.0011798203 0.0001365974
0003b0 74 2a f1 38 86 41 5a 39 7f 8c 35 3a e7 4a ea 38
       0.00011499683 0.0002081451 0.00069255376 0.00011171941
0003c0 8e fe 1a 38 5d d2 89 37 17 fc 19 39 21 2d 4d 38
       3.6953534e-05 1.642963e-05 0.00014685128 4.891784e-05
0003d0 7e 82 4c 38 f5 12 f6 38 63 ab c5 39 85 80 38 38
       4.875892e-05 0.00011733725 0.0003770246 4.398871e-05
0003e0 5a 2b fe 37 32 f8 3a 38 c1 a0 cd 38 03 57 4a 37
       3.0299347e-05 4.4577006e-05 9.8051045e-05 1.2060397e-05
0003f0 0a ea f0 37 84 9d 0a 37 a9 ed 02 38 5b fb 14 37
       2.8719212e-05 8.262115e-06 3.1215754e-05 8.880011e-06

exp_avg f4 [64]
000000 61 e0 93 39 2f fe 87 38 89 8b ce 38 75 5b 65 3a
       0.000282052 6.484647e-05 9.848836e-05 0.0008749285
000010 11 8b 98 ba 99 50 72 b8 46 d2 61 b8 7b 65 8a ba
       -0.0011638125 -5.777236e-05 -5.3840013e-05 -0.0010558808
000020 c4 94 91 39 72 d9 84 b8 51 ec 16 ba bf 0c 4e ba
       0.00027767394 -6.334753e-05 -0.000575726 -0.00078601757
000030 68 26 c1 ba fc 05 35 3a 92 f4 69 3a c8 50 90 3a
       -0.0014736177 0.0006905494 0.00089246884 0.0011010403
000040 29 c7 92 ba 08 d2 57 3a b4 15 e3 b9 98 76 8b 39
       -0.001119827 0.0008232896 -0.00043312984 0.00026600505
000050 64 07 f4 b7 10 17 ae 39 ab 5b d7 3a 82 27 38 3a
       -2.9090508e-05 0.0003320505 0.0016430517 0.000702493
000060 a6 f2 b6 b9 17 9e b7 39 af cb 04 3a ba e4 e4 39
       -0.00034894532 0.00035022266 0.00050657516 0.00043657963
000070 03 63 37 38 5e 26 1b b8 44 8c d7 b9 0d 19 79 39
       4.3722812e-05 -3.6990612e-05 -0.00041112502 0.00023755823
000080 6b a9 a5 ba c8 dc 65 3a ff 2a 2f 39 b3 2e 4b ba
       -0.0012638991 0.00087685557 0.00016705318 -0.0007750794
000090 d2 b3 11 3a 58 93 37 bb c1 71 54 39 41 a0 9f 3a
       0.00055581063 -0.0028011408 0.00020260272 0.0012178497
0000a0 27 ff 77 b7 9b 65 0d ba 73 fc a4 39 eb 4c 44 b9
       -1.47817545e-05 -0.00053938635 0.00031468607 -0.00018720671
0000b0 93 34 69 ba 7e 2c 25 3a bd 6f 15 3a ca 8d 84 b9
       -0.0008896079 0.00063008803 0.0005700549 -0.00025282643
0000c0 8a 19 96 3a 0e 84 1e 3a 06 e7 8b 3a b3 89 92 b9
       0.0011451703 0.00060468994 0.0010673709 -0.00027949884
0000d0 b5 b2 40 ba 49 fd 16 ba 0d a9 1c 3a 06 f6 69 3a
       -0.0007350848 -0.00057597883 0.0005976118 0.0008924905
0000e0 1c 0c 9a 3a 1c 2d 1e 3a 79 13 a3 3a dd b2 37 ba
       0.0011752876 0.00060339435 0.0012441716 -0.00070075487
0000f0 e9 0b 5c ba 52 f1 04 3a d4 0b 23 3a d6 15 4a 3a
       -0.0008394109 0.000507136 0.0006219719 0.0007708942

exp_avg_sq f4 [64]
000000 70 0c 23 38 65 03 24 37 3f ac 95 37 2e 80 a9 37
       3.887381e-05 9.775952e-06 1.7842392e-05 2.0206058e-05
000010 7a 32 f8 39 09 5f 08 39 d4 69 94 37 91 eb 0d 37
       0.00047339854 0.00013005374 1.7692255e-05 8.459102e-06
000020 89 e7 0b 38 7b 7a 80 38 3b 4f 0f 37 6d 06 a4 37
       3.3355816e-05 6.1263294e-05 8.5419115e-06 1.9553316e-05
000030 1c e2 a0 37 e7 a0 fc 39 a8 2b 3f 37 3d 0b 31 37
       1.9178777e-05 0.00048185067 1.1394652e-05 1.0552639e-05
000040 cf 51 52 39 85 98 eb 36 ad 2e a4 38 d6 51 7e 38
       0.00020057637 7.0213014e-06 7.8288234e-05 6.0634535e-05
000050 79 74 82 37 01 c6 61 38 20 d8 3b 39 f1 b6 02 39
       1.5551444e-05 5.3828586e-05 0.00017914223 0.00012465917
000060 1d 18 a3 38 d0 16 96 38 b1 ed 84 38 c6 8a 74 38
       7.776937e-05 7.1568065e-05 6.338524e-05 5.8303376e-05
000070 cb c4 15 37 1c 3b ef 37 e1 37 87 38 26 f3 03 39
       8.9269115e-06 2.8518545e-05 6.44771e-05 0.00012583713
000080 a6 e1 68 37 f6 25 e5 36 f7 ea 87 37 d9 45 b3 37
       1.38808155e-05 6.829151e-06 1.6202668e-05 2.1370988e-05
000090 e6 d4 1c 39 e8 09 18 39 fc d0 80 38 5b a6 5c 39
       0.0001495663 0.0001449954 6.142442e-05 0.00021042807
0000a0 9f 18 f4 37 62 c8 06 38 79 51 ad 37 23 74 81 38
       2.9098532e-05 3.213471e-05 2.0661146e-05 6.1728315e-05
0000b0 a6 93 76 38 d6 9a 90 38 57 c9 f1 37 aa 2e f3 37
       5.878848e-05 6.8952955e-05 2.8823195e-05 2.8989587e-05
0000c0 d5 86 35 38 dc a9 5e 38 5e 77 54 37 91 bb f0 37
       4.3279335e-05 5.308712e-05 1.2663977e-05 2.8697572e-05
0000d0 ec ee 82 37 13 4a 66 38 5c b0 28 37 42 66 d0 38
       1.5608464e-05 5.490526e-05 1.0054642e-05 9.93726e-05
0000e0 18 08 41 38 55 01 3a 37 f2 bb bc 38 f4 49 54 38
       4.6022324e-05 1.1086774e-05 8.999546e-05 5.0613613e-05
0000f0 e6 32 10 37 7d e2 e7 37 50 ee 78 37 da 22 83 37
       8.59492e-06 2.7642813e-05 1.4837438e-05 1.5632646e-05

exp_avg f4 [64, 64]
000000 d4 2d 7c b9 0a e3 80 39 ee 13 6d 39 85 11 4b b9
       -0.00024049665 0.0002458322 0.00022609506 -0.00019366115
000010 e5 32 64 b9 df 2e a1 b9 b1 85 10 b9 8b 67 16 b9
       -0.00021762734 -0.00030743235 -0.00013782714 -0.00014343688
000020 74 3c 58 b9 6c 62 af 39 d5 58 51 39 f1 82 c1 38
       -0.00020621886 0.0003345193 0.00019964886 9.227347e-05
000030 93 0f 88 38 7e 12 64 39 f5 cf 53 b9 c3 2b 54 b9
       6.487886e-05 0.00021750663 -0.00020199998 -0.00020234198
000040 46 d0 5d b9 85 e0 b9 36 16 e5 6c 39 0b 62 30 b9
       -0.0002115379 5.539567e-06 0.00022592055 -0.00016821192
000050 3f 42 7c 39 74 e3 47 39 f6 d6 c9 38 b3 40 1e b8
       0.00024057271 0.00019062852 9.6244665e-05 -3.773039e-05
000060 78 ad 80 b9 68 6e 53 b8 15 32 82 b9 e1 72 4a b9
       -0.00024543307 -5.0409144e-05 -0.00024832846 -0.00019307017
000070 d4 a4 79 b9 4e 84 03 b9 c7 d9 a5 39 70 68 71 39
       -0.00023807894 -0.00012542421 0.0003163351 0.00023022457
000080 fa a9 50 39 2a ab 5f b9 da 3f 8f b9 01 fa 4d 39
       0.00019899747 -0.00021330701 -0.0002732266 0.00019643457
000090 c2 b7 81 39 8b 6e dd b8 ed a8 66 39 d6 72 82 39
       0.00024741708 -0.000105586914 0.00021997439 0.00024881092
0000a0 0f 2f a5 b8 27 4f 03 38 d5 4b fa 37 32 5b 6e b9
       -7.8765785e-05 3.130655e-05 2.9837634e-05 -0.00022731422
0000b0 38 8b 12 b9 bd 2c 45 b9 25 54 3a b9 0d 6c 4f b9
       -0.00013975508 -0.0001880405 -0.00017769689 -0.0001978131
0000c0 c4 b3 32 b9 91 5a 28 b9 b8 0c 96 b9 a4 92 e2 b8
       -0.00017042371 -0.00016055467 -0.00028619706 -0.00010803834
0000d0 58 18 68 39 b8 6d 14 39 e3 ea 64 b9 bf ce 70 b9
       0.00022134313 0.00014155253 -0.00021831277 -0.00022965203
0000e0 e3 3c 1e 39 27 c7 74 b9 12 ed 60 39 ae b7 40 b9
       0.00015090736 -0.00023343843 0.0002145062 -0.00018378973
0000f0 0f 5b 6e 39 db 59 2a 39 fc b5 0b b7 67 da 51 b9
       0.0002273137 0.00016245937 -8.327417e-06 -0.00020013154
000100 1d 99 9e b8 53 79 b5 38 73 45 d6 38 18 62 c9 b8
       -7.562547e-05 8.653351e-05 0.00010217251 -9.602698e-05
000110 96 d0 dd b8 b4 a1 6b b8 a1 3f e3 b8 84 2b eb b7
       -0.00010576953 -5.6178964e-05 -0.00010836055 -2.8034447e-05
000120 e7 1d dd b8 3f 45 9d 38 c6 9a ca 38 ad e7 19 38
       -0.00010543671 7.4992415e-05 9.6609394e-05 3.6693807e-05
000130 68 14 fe 37 73 b7 e1 38 c8 82 9b b8 b0 f8 98 b8
       3.0288662e-05 0.00010763006 -7.415336e-05 -7.2942465e-05
000140 5f 9d d2 b8 c1 72 97 37 eb ef ad 38 3f 91 dc b8
       -0.00010042893 1.805404e-05 8.293971e-05 -0.00010517472
000150 9f df bc 38 7d 41 0e 39 ae 87 00 b7 e9 06 87 b7
       9.006191e-05 0.00013566572 -7.660985e-06 -1.6096472e-05
000160 b9 5c c8 b8 15 a5 64 b7 a2 43 8b b8 79 8f 09 b9
       -9.554014e-05 -1.3628295e-05 -6.640634e-05 -0.00013118786
000170 12 04 b5 b8 e9 b8 f3 b7 06 2c 73 38 02 5d d4 38
       -8.631511e-05 -2.9053963e-05 5.7976715e-05 0.00010126272
000180 78 24 aa 38 59 76 c3 b8 f7 e9 b1 38 10 f2 a6 38
       8.1130245e-05 -9.3203686e-05 8.483597e-05 7.9605845e-05
000190 34 6d de 38 04 48 f9 b7 9a 2e d9 38 16 c8 c9 38
       0.000106061256 -2.9716648e-05 0.000103560466 9.621696e-05
0001a0 15 07 79 b8 69 d2 ff 37 78 dd 10 38 df d0 f8 b8
       -5.9372822e-05 3.0496349e-05 3.4538534e-05 -0.00011864467
0001b0 47 d7 43 b9 ea 8f d3 b8 5f a4 b2 b7 ec 6f b5 b8
       -0.00018676846 -0.0001008807 -2.1295795e-05 -8.6516e-05
0001c0 28 7a bd b8 94 80 14 b9 62 29 f2 b8 aa 62 1c b8
       -9.034976e-05 -0.00014162279 -0.000115471674 -3.7285186e-05
0001d0 a0 28 dc 38 03 34 30 38 aa 2e e3 b8 0a a3 0f b9
       0.000104979845 4.201011e-05 -0.00010832895 -0.0001369828
0001e0 99 0a 47 38 11 dc c6 b8 4e 9e 19 39 f5 96 5a b9
       4.7455167e-05 -9.482366e-05 0.0001465019 -0.00020846336
0001f0 d1 17 b3 38 dd 94 19 39 c6 af 0a 38 7e a0 d9 b8
       8.539821e-05 0.00014646673 3.3065466e-05 -0.0001037726
000200 51 96 41 b5 87 6e 24 37 6c 3a 59 37 9b b4 d4 b6
       -7.211684e-07 9.800896e-06 1.294781e-05 -6.3391176e-06
000210 27 1d 88 b7 2e 6f 53 b6 55 4e 3a b6 c6 eb cc 36
       -1.6226038e-05 -3.1506165e-06 -2.7761755e-06 6.1071214e-06
000220 db 91 2c b7 e2 e3 c2 b6 60 97 bc 37 31 db 28 b3
       -1.02859585e-05 -5.8081796e-06 2.2481836e-05 -3.93149e-08
000230 dc 56 9f b7 47 9e 4f 37 5a d9 40 37 50 5c 45 b6
       -1.8994724e-05 1.2375013e-05 1.1494698e-05 -2.940902e-06
000240 23 09 2b b7 5c 80 39 b7 d2 ba b7 36 b1 06 c8 b6
       -1.0194522e-05 -1.1056745e-05 5.4755737e-06 -5.9612435e-06
000250 66 1d 64 37 5c 9a ca 36 f5 7d d7 37 40 b2 03 36
       1.3596704e-05 6.038039e-06 2.568865e-05 1.9624276e-06
000260 dd b5 66 b7 33 6c 89 34 cb d4 19 37 90 4a 04 b7
       -1.3751412e-05 2.5596964e-07 9.169055e-06 -7.8851735e-06
000270 6c ce 46 b7 dd 60 c6 35 1c 1e 39 b5 8f f6 6c 37
       -1.1849781e-05 1.478034e-06 -6.8961685e-07 1.4124103e-05
000280 1e 03 8e 36 62 2a 13 b7 8a 37 bb 35 df d2 b1 36
       4.2322927e-06 -8.771751e-06 1.394875e-06 5.2995597e-06
000290 b9 c7 69 37 55 ae 4c b7 2f 68 63 37 40 fc 66 b6
       1.3934384e-05 -1.2199937e-05 1.35545115e-05 -3.44195e-06
0002a0 7c 77 0b 37 aa d9 a0 b6 83 f2 2b 35 18 b2 97 b6
       8.312865e-06 -4.793711e-06 6.4055365e-07 -4.5208835e-06
0002b0 4f 57 0c 37 29 4f 14 b7 77 9e 12 b6 f7 bf 01 37
       8.364978e-06 -8.839918e-06 -2.1847934e-06 7.7336945e-06
0002c0 4d 28 e0 b6 8b 6e 6f b6 26 c5 7f b7 27 04 fb b6
       -6.680412e-06 -3.567812e-06 -1.5245087e-05 -7.4808663e-06
0002d0 e9 75 61 37 8f 88 48 b6 6b 8c 40 b7 c3 a4 32 35
       1.3438498e-05 -2.988181e-06 -1.1476785e-05 6.654993e-07
0002e0 b8 92 c4 36 82 36 8e b7 47 d9 cc 36 07 14 20 35
       5.8583355e-06 -1.6953101e-05 6.104968e-06 5.963379e-07
0002f0 70 d5 07 37 c8 ec 6f b6 d3 8c 1b b7 7b be 19 b7
       8.096322e-06 -3.57516e-06 -9.271508e-06 -9.16386e-06
000300 e6 7f bf 38 64 27 34 b8 bc 94 b7 b8 71 08 10 39
       9.131413e-05 -4.295203e-05 -8.753824e-05 0.00013736055
000310 ce 9c 15 39 96 5d 33 38 a2 40 62 38 af 9c c9 38
       0.00014268162 4.2764084e-05 5.3942793e-05 9.6136115e-05
000320 a2 39 9d 38 50 a8 22 b8 bc b1 c6 b8 aa 1b 84 b8
       7.497078e-05 -3.8780563e-05 -9.474481e-05 -6.299403e-05
000330 1d ec 05 b8 0e 7d 0b b9 88 18 06 39 a2 56 e0 38
       -3.192957e-05 -0.0001330266 0.00012788374 0.00010697289
000340 06 64 8f 38 19 d3 ad b8 ac 11 12 b9 cc b2 79 b8
       6.837402e-05 -8.288603e-05 -0.00013930228 -5.9532744e-05
000350 98 c2 b5 b8 98 77 8f b8 d6 e5 65 38 88 4d 98 38
       -8.6669985e-05 -6.8410474e-05 5.4811906e-05 7.262366e-05
000360 62 31 29 39 bc b6 89 38 ab 91 f4 38 22 37 5c 38
       0.00016135492 6.566706e-05 0.000116619594 5.2503434e-05
000370 52 d4 b0 38 7f 05 8c 38 6e e7 48 b8 dc 87 01 b9
       8.431882e-05 6.676744e-05 -4.789925e-05 -0.0001235301
000380 13 ab 0f b9 6e a1 06 39 cb 8e ce 38 7b da f0 b8
       -0.00013701273 0.00012839373 9.849443e-05 -0.00011484787
000390 42 77 39 b9 d1 55 08 b8 74 49 bc b8 2c 30 8f b8
       -0.00017687402 -3.250485e-05 -8.97822e-05 -6.827744e-05
0003a0 59 f5 6a 38 9e 4a b7 b7 c2 ea 3d b8 d5 c6 c3 36
       5.6018445e-05 -2.1850046e-05 -4.5279747e-05 5.8346e-06
0003b0 77 75 5c 38 e9 61 bf 38 25 c0 50 b8 48 68 c7 38
       5.2561485e-05 9.125827e-05 -4.9770013e-05 9.508483e-05
0003c0 19 3d ad 38 1c 0a dd 38 ac 6d f9 38 ea b2 16 38
       8.260663e-05 0.00010539984 0.00011893673 3.5929414e-05
0003d0 6f 77 af b8 9a 2e 78 b8 df bb 0b 39 3c 2a d7 38
       -8.3668965e-05 -5.917121e-05 0.0001332606 0.00010259866
0003e0 71 f8 88 b8 1e 12 c5 38 0f 48 9b b8 21 7d 6f 38
       -6.531261e-05 9.3970666e-05 -7.404398e-05 5.7098576e-05
0003f0 01 84 2a b9 7d 62 61 b8 a0 85 e2 37 1d 8b c4 38
       -0.00016261639 -5.3735905e-05 2.7003523e-05 9.37192e-05
