eval/eval_rl/runs/CartpolePPO/nn/last_CartpolePPO_ep_250_rew_908.34375.pth (torch, 70524 bytes, 24 tensors)

value_mean_std.running_mean f8 [1]
0	0x4079f62a509a96ff	415.3853307760873

value_mean_std.running_var f8 [1]
0	0x40d273cccd6c7661	18895.200038066487

value_mean_std.count f8 []
0	0x417f400010000000	32768001.0

running_mean_std.running_mean f8 [4]
0	0x3fe63c9f7b66bcf9	0.6949002657110263
1	0xbfa044d640088d0d	-0.0317751839795851
2	0x3fcf2da661874539	0.24358062517289072
3	0x3fa5d290423926a6	0.04262209709538682

running_mean_std.running_var f8 [4]
0	0x3feffa7342e94ef0	0.9993225390303149
1	0x3fe70573f54f266e	0.7194156447596478
2	0x3ff6905c90338f04	1.4102445252291895
3	0x400e5fb90395a4ce	3.796739604954019

running_mean_std.count f8 []
0	0x416f400020000000	16384001.0

a2c_network.actor_mlp.0.weight f4 [64, 4]
0	0x3c3a9ba8	0.01138965
1	0x3f28a3ce	0.65874946
2	0x3e23e4bc	0.16005224
3	0x3f047de1	0.51754576
4	0xbd35d2fb	-0.04439066
5	0xbef7d855	-0.48407236
6	0xbe20b4bf	-0.15693949
7	0xbe50302b	-0.20330875
8	0xbeaab62c	-0.3334211
9	0xbf40c8ed	-0.7530659
10	0xbd6123fd	-0.05496596
11	0x3cae4727	0.021274162
12	0x3dab0973	0.08351412
13	0x3e99d788	0.3004725
14	0xbe99023b	-0.29884514
15	0x3e3bcc2a	0.18339601
16	0x3e4f142d	0.2022254
17	0x3fab5ed3	1.3388313
18	0x3e65eb5f	0.22453068
19	0x3ebe57de	0.37176412
20	0x3f26b052	0.65112793
21	0x3d83e3ee	0.064399585
22	0x3f1ee487	0.62067455
23	0xbfe7e6ac	-1.811727
24	0xbe533225	-0.20624597
25	0x3e66540b	0.22492997
26	0x3aae18b0	0.0013282504
27	0x3dde514b	0.10855349
28	0xbea7f6f9	-0.32805613
29	0xbd4ffd55	-0.050778706
30	0xbec37226	-0.38173026
31	0xbf269da5	-0.65084296
32	0xbea6e2e4	-0.3259498
33	0x3f37c24a	0.71780837
34	0x3e3002b2	0.17188528
35	0x3e304906	0.17215356
36	0x3d59f170	0.05320877
37	0xbf20d11e	-0.6281909
38	0xbdbb9776	-0.09159748
39	0xbf6ac211	-0.9170237
40	0xbee3e070	-0.4450717
41	0xbe817347	-0.25283262
42	0xbc9a1031	-0.018806549
43	0x3f077e32	0.52926934
44	0x3e435283	0.19074444
45	0x3ead0463	0.3379241
46	0x3e4d4bcf	0.2004845
47	0x3f40586d	0.7513493
48	0x3ec1154b	0.37711558
49	0x3d57f79c	0.052726373
50	0x3f345d32	0.70454705
51	0xbf23c6f6	-0.63975465
52	0xbdb36886	-0.08760171
53	0xbf990b6f	-1.1956614
54	0xbe88cc57	-0.267184
55	0xbed69a0f	-0.41914412
56	0x3d416a75	0.047220666
57	0x3ec4d30a	0.3844226
58	0xbeb1bb4b	-0.34713206
59	0x3ef97829	0.48724487
60	0xbbf35632	-0.0074260468
61	0x3e9786f3	0.29595146
62	0xbd1e4395	-0.03863867
63	0x3e836739	0.2566469
64	0x3ea5f3f5	0.32412687
65	0x3f731297	0.9495024
66	0x3e119da7	0.14220296
67	0xbf610e57	-0.87912506
68	0x3ded635b	0.11591216
69	0x3f0e19db	0.555082
70	0x3f3d8853	0.7403614
71	0x3f50f36b	0.81621426
72	0xbc338abb	-0.010958369
73	0xbf64aaea	-0.89323294
74	0xbe0cab28	-0.13737166
75	0xbf057af2	-0.52140725
76	0xbe4a9dc8	-0.19786751
77	0x3ea928a0	0.33038807
78	0x3ef6f78c	0.48235738
79	0xbf14eb90	-0.5817194
80	0xbe658b43	-0.22416405
81	0xbf2e0788	-0.6798024
82	0xbdcfbc09	-0.10143287
83	0xbe03e805	-0.12881477
84	0x3de4cb57	0.111715965
85	0xbece07fd	-0.4024047
86	0xbbda3ba5	-0.006659942
87	0x3dfa6d6a	0.122279
88	0x3ec2f827	0.3807995
89	0xbf07fafd	-0.5311735
90	0xbf0c4215	-0.54788333
91	0xbe9b10a8	-0.30286145
92	0xbe944903	-0.28961954
93	0xbeba9e1a	-0.36448747
94	0xbefb3e8e	-0.49071163
95	0xbf30f262	-0.69119847
96	0x3e980f78	0.29699302
97	0x3f73bd5e	0.95210826
98	0x3c9f08af	0.01941332
99	0x3d0b2b80	0.03397703
100	0xbeb0a5b8	-0.34501433
101	0xbf060c19	-0.5236221
102	0xbefcbc01	-0.49362186
103	0xbf2e1e0f	-0.68014616
104	0x3dc0b0f4	0.09408751
105	0x3f216e1d	0.63058645
106	0xbe6f2d13	-0.23357038
107	0x3f2750fc	0.6535795
108	0xbe1eec8c	-0.15519923
109	0x3eb4457c	0.35209262
110	0x3da5f737	0.08103793
111	0xbe6512c6	-0.22370443
112	0x3e22f121	0.15912296
113	0x3f06719e	0.52517116
114	0x3d6a85e3	0.05725659
115	0x3de424d3	0.11139836
116	0x3e8ab6e9	0.27092674
117	0x3e714d4b	0.23564641
118	0xbdfe5718	-0.124189556
119	0x3eab1241	0.33412364
120	0xbe784bb9	-0.24247636
121	0xbf0e98ab	-0.557017
122	0xbe1770ea	-0.14789167
123	0xbf2f4f96	-0.68480814
124	0xbe184310	-0.14869332
125	0xbf5b8e14	-0.8576367
126	0xbdd1d7b9	-0.10246224
127	0xbe26be6a	-0.16283575
128	0xbc8a41e0	-0.016877115
129	0xbec2c309	-0.38039425
130	0x3e834e77	0.256458
131	0xbea96e57	-0.33091995
132	0xbcaaeb17	-0.020864053
133	0x3ed88d25	0.42295185
134	0xbd3f9f4b	-0.046782773
135	0x3d4c316f	0.04985183
136	0x3f5c5697	0.86069626
137	0xbd9822c5	-0.07428507
138	0xbc930f3b	-0.017951598
139	0xbe0baa5a	-0.13639203
140	0xbe146b26	-0.14493999
141	0xbe9af8af	-0.30267856
142	0x3dcd8420	0.100349665
143	0xbe3141d3	-0.17310266
144	0xbea05be0	-0.31320095
145	0xbfb2d2e0	-1.3970604
146	0xbe7c1bac	-0.24619931
147	0xbf09e9b7	-0.53872246
148	0x3eb597d9	0.35467413
149	0x3f17e4ac	0.593333
150	0x3d1659a1	0.03670657
151	0xbe572fe1	-0.21014358
152	0xbbdd863b	-0.0067603863
153	0xbf7812ed	-0.9690388
154	0xbe35d4c9	-0.17756952
155	0xbe6fa54f	-0.23402904
156	0x3d39bb19	0.045344446
157	0xbf8e907b	-1.1137842
158	0xbd1bfa45	-0.038080472
159	0xbf3d90e8	-0.74049234
160	0xbe328928	-0.17435133
161	0x3e67ab77	0.22624002
162	0xbea931b4	-0.33045733
163	0x3f1954c9	0.59894997
164	0x3dac05bc	0.08399531
165	0xbd826a92	-0.06367983
166	0x3e31fd64	0.17381817
167	0xbf669b3c	-0.9008062
168	0x3edf9818	0.43670726
169	0x3d237f47	0.039916303
170	0xbe2b5608	-0.16732037
171	0x3f34ce22	0.70627034
172	0x3e4b2a22	0.19840291
173	0x3e428a02	0.18997958
174	0x3ec16eb4	0.37779772
175	0xbfb59725	-1.4186751
176	0xbec07ca9	-0.37595108
177	0x3f0d1471	0.55109316
178	0xbe00a284	-0.12561995
179	0x3eced90e	0.40399975
180	0x3d08226a	0.033235945
181	0x3e96fa01	0.29487613
182	0xbd13568c	-0.03597121
183	0xbbbcebb5	-0.005765403
184	0xbeb8f2ec	-0.36122835
185	0x3f01becd	0.50681764
186	0x3edeab43	0.43490037
187	0x3f03d694	0.51499295
188	0xbe6794a5	-0.22615297
189	0x3e9e01e8	0.3086083
190	0xbed1828e	-0.40919918
191	0xbf09ccd6	-0.5382818
192	0xbdb1911c	-0.086702555
193	0x3e4a067a	0.19729033
194	0xbd3695c8	-0.044576436
195	0x3d844eb8	0.06460327
196	0x3c0ec8aa	0.008714834
197	0x3da6bf16	0.081419155
198	0xbecdd4b2	-0.40201336
199	0xbe3f8393	-0.18702535
200	0xbe4eefb7	-0.20208631
201	0x3f4523d5	0.770078
202	0xbed4d76f	-0.41570613
203	0x3f571d0f	0.84028715
204	0x3e1feca4	0.15617615
205	0x3e376e13	0.17913084
206	0x3ca84051	0.020538481
207	0x3c75511a	0.014972949
208	0x39ad5b58	0.00033065188
209	0xbefcb2ef	-0.49355265
210	0x3d7e5ca0	0.062100053
211	0x3e3898b7	0.18027006
212	0xbe6f7615	-0.23384888
213	0xbdb5fa5a	-0.088856414
214	0x3e695ce1	0.22789337
215	0xbf74c542	-0.9561349
216	0xbe3e3bd2	-0.18577507
217	0x3f1cd57b	0.61263245
218	0xbcb50454	-0.02209679
219	0xbe6bb5e6	-0.23018607
220	0xbe705522	-0.23469976
221	0x3de990a3	0.114045404
222	0xbebfc71e	-0.37456602
223	0xbea31631	-0.31852868
224	0xbe7acc1d	-0.24491926
225	0xbe602712	-0.21889904
226	0x3e68138f	0.22663711
227	0x3eeed3b9	0.46645907
228	0x3e73ed79	0.23821057
229	0x3f147ab5	0.57999736
230	0x3df474da	0.1193635
231	0xbe7c92c0	-0.24665356
232	0x3e5f54ba	0.21809664
233	0xbf2aa75e	-0.6666163
234	0xbe26d6e0	-0.16292906
235	0x3dd6026e	0.10449682
236	0xbe8f4951	-0.27985623
237	0x3f3a0dd0	0.72677326
238	0xbe8a23c6	-0.26980418
239	0xbc935fd1	-0.017990025
240	0x3e03abe7	0.12858544
241	0xbf484daf	-0.78243536
242	0x3e1b0c28	0.15141356
243	0xbf21d5ae	-0.63216674
244	0x3ea192eb	0.31557402
245	0xbed8b2e6	-0.4232399
246	0x3dff6ae6	0.12471561
247	0x3ed4fc17	0.4159858
248	0x3e52d823	0.20590262
249	0xbeed0438	-0.4629228
250	0xbe14999b	-0.14511721
251	0xbf42e7cd	-0.7613495
252	0x3d10982e	0.03530138
253	0x3e9fce54	0.31212103
254	0xbd72f01b	-0.059311014
255	0xbd9c14d1	-0.07621158

a2c_network.actor_mlp.0.bias f4 [64]
0	0xbe9a11bd	-0.30091658
1	0x3d940f71	0.07229508
2	0x3ea57f58	0.32323718
3	0xbf44f220	-0.76931953
4	0x3e3441ef	0.17603277
5	0xbd4ef861	-0.05052984
6	0x3ed2135e	0.410304
7	0x3f9f7793	1.2458366
8	0xbf34196f	-0.7035131
9	0x3eb19d12	0.34690148
10	0x3f5ec39b	0.8701722
11	0x3f9853af	1.1900538
12	0x3dffee60	0.12496638
13	0xba8b428e	-0.0010624693
14	0xbebe0d88	-0.371197
15	0xbf493c43	-0.7860758
16	0x3dc8138b	0.097693525
17	0xbf50b647	-0.81528133
18	0x3ef390d9	0.47571447
19	0x3d92a2df	0.071599714
20	0x3ee06ff9	0.43835428
21	0xbee916c8	-0.45525193
22	0xbef2f908	-0.4745562
23	0xbf0ec0a6	-0.5576271
24	0x3f38d0b8	0.7219348
25	0xbf4b7f9c	-0.7949159
26	0xbe1c85e4	-0.1528545
27	0xbdc4124f	-0.095738046
28	0xbeae4009	-0.3403323
29	0x3ee081a4	0.43848908
30	0x3f06b751	0.5262347
31	0x3c447470	0.0119906515
32	0x3f44694d	0.76723176
33	0xbf4f15fd	-0.80892926
34	0xbe8887d2	-0.26666123
35	0xbe014781	-0.12624933
36	0xbf4e38b7	-0.8055529
37	0x3fb0d425	1.3814741
38	0x3ec4b2dc	0.3841771
39	0xbeee5c81	-0.4655495
40	0x3f277648	0.6541486
41	0x3e81d026	0.25354117
42	0x3e161391	0.14655901
43	0x3d973b18	0.07384318
44	0x3f89edca	1.0775692
45	0x3e2a15d8	0.16609895
46	0xbeed1046	-0.46301478
47	0x3f16228d	0.5864647
48	0xbd3c4523	-0.04596437
49	0xbf4c6fa3	-0.79857844
50	0xbe758d81	-0.2397976
51	0x3f304091	0.6884852
52	0x3f474cd1	0.7785159
53	0x3cd1200a	0.025527973
54	0xbf893c08	-1.0721445
55	0x3e41aa9d	0.1891274
56	0xbf37fb91	-0.71868235
57	0xbf1200e7	-0.57032627
58	0xbedb48af	-0.4282889
59	0x3f940b24	1.15659
60	0x3f49a12c	0.78761554
61	0xbf8588f5	-1.0432421
62	0xbf8b65fb	-1.0890497
63	0xbeecfc28	-0.4628613

a2c_network.actor_mlp.2.weight f4 [64, 64]
0	0x3ee196ee	0.44060463
1	0xbe867255	-0.26259103
2	0xbe3788a4	-0.17923218
3	0xbd9fad63	-0.07796743
4	0x3e25d721	0.16195346
5	0xbf5a4735	-0.85264903
6	0x3e5fb233	0.21845321
7	0xbec5d87b	-0.38641724
8	0x3e8f8d73	0.28037605
9	0xbed12da5	-0.40855137
10	0xbdf930d3	-0.121675156
11	0x3e58a5b9	0.21156968
12	0xbeca9d9f	-0.3957338
13	0xbd55f104	-0.052231804
14	0x3e983089	0.2972453
15	0x3ed70ed3	0.42003497
16	0x3eaada24	0.33369553
17	0xbae3b7f5	-0.0017373549
18	0x3c25406e	0.010086162
19	0xbe363c84	-0.17796522
20	0xbf10ba9e	-0.56534755
21	0x3f3c8868	0.7364564
22	0xbe692fb1	-0.22772099
23	0xbe9f8909	-0.31159237
24	0xbebe6813	-0.37188777
25	0xbe9277ba	-0.2860697
26	0x3d306d71	0.04307312
27	0x3dff2f1e	0.12460159
28	0x3ed02739	0.40654925
29	0x3e7b3fc4	0.24536043
30	0xbe63203d	-0.22180267
31	0xbd8fde1f	-0.07024788
32	0xbe959cc5	-0.29221168
33	0x3ee6620e	0.44996685
34	0xbf085aa8	-0.5326333
35	0x3eb0e59c	0.34550178
36	0xbc6f0289	-0.014588007
37	0xbe3a2b89	-0.1818067
38	0xbed8fc05	-0.42379776
39	0x3ea76d50	0.32700586
40	0x3e9b8d48	0.30381227
41	0xbe8b9e43	-0.27269182
42	0x3de9eedd	0.11422513
43	0xbefa0214	-0.4882971
44	0x3d7c6e54	0.061628655
45	0xbeb2a635	-0.3489243
46	0x3ea750e1	0.32678893
47	0xbee37636	-0.44426125
48	0xbeb7aa6e	-0.35872215
49	0xbe18bec3	-0.1491652
50	0xbb2ea88a	-0.002665075
51	0x3c90bc9e	0.017668065
52	0xbeac099e	-0.33601087
53	0x38bcc5e9	9.001402e-05
54	0x3f1c7fc9	0.61132485
55	0xbe64d165	-0.22345503
56	0x3eb70d59	0.3575237
57	0x3e938241	0.28810313
58	0x3ee66bfc	0.4500426
59	0xbefe9a3f	-0.49727055
60	0x3d600366	0.05469074
61	0x3f1ca289	0.6118551
62	0xbdbd3c99	-0.09240074
63	0x3dfc1840	0.12309313
64	0xbd9a5d7d	-0.07537363
65	0x3e813491	0.25235417
66	0x3d9ea2d5	0.077459015
67	0xbc6e37c7	-0.014539666
68	0xbdeb538b	-0.11490544
69	0xbf600a1f	-0.87515444
70	0x3cc48372	0.02398846
71	0x3e6281d1	0.22119834
72	0xbe955c06	-0.2917177
73	0xbe56f84a	-0.20993152
74	0xbf237224	-0.6384604
75	0x3e86b291	0.2630811
76	0x3c100964	0.008791301
77	0x3ddc3a56	0.10753314
78	0xbdeba927	-0.115068726
79	0xbe7071df	-0.23480938
80	0x3f3cdcf6	0.7377466
81	0xbd5acca0	-0.0534178
82	0x3eac6f68	0.33678746
83	0x3ef3fce7	0.47653887
84	0x3e2e4057	0.17016731
85	0xbe851671	-0.25993684
86	0xbe48440c	-0.19557208
87	0x3d90f7ae	0.07078491
88	0x3ebc06be	0.36723894
89	0xbd66b638	-0.05632612
90	0xbe24201d	-0.16027875
91	0x3e586a78	0.21134365
92	0xbe995a33	-0.2995163
93	0x3e65076d	0.22366114
94	0x3d5b5af8	0.05355355
95	0x3dfd51aa	0.12369092
96	0x3e7cfac7	0.24705039
97	0xbf0186a1	-0.5059605
98	0xbef54a80	-0.479084
99	0xbe03b66d	-0.12862559
100	0xbeda9cd2	-0.4269777
101	0x3f83702e	1.026861
102	0x3e3eb156	0.18622336
103	0xbe92ab4f	-0.28646323
104	0x3dd4fe05	0.10400013
105	0xbe8d1e33	-0.27562103
106	0x3d0d9903	0.03456975
107	0xbecfcbab	-0.40585074
108	0x3ed06829	0.40704468
109	0x3e981fc2	0.2971173
110	0x3cfe7ca9	0.031065302
111	0x3da7d1f4	0.08194342
112	0x3cedde20	0.029036582
113	0xbe8df36c	-0.2772478
114	0xbe66d0f0	-0.22540641
115	0x3eca1f58	0.39477038
116	0xbd469bd4	-0.048488453
117	0xbeae98b0	-0.34100866
118	0xbe8b8b9e	-0.27254957
119	0x3e422721	0.18960239
120	0xbe555448	-0.20832932
121	0x3d0d76b9	0.03453705
122	0xbe9f7b3d	-0.3114871
123	0x3f17b59c	0.5926149
124	0x3ec2d2af	0.38051364
125	0xbf0b0af8	-0.5431361
126	0xbe409a9b	-0.18808977
127	0x3d0f1bf1	0.034938756
128	0x3e83e2bf	0.2575893
129	0xbd925b09	-0.0714627
130	0xbd412946	-0.047158502
131	0x3d9ca665	0.07648925
132	0x3db90bda	0.09035464
133	0x3ddb631e	0.107122645
134	0x3d197509	0.03746513
135	0xbc5b50c9	-0.01338596
136	0xbd82b742	-0.0638261
137	0xbd8aad71	-0.067713626
138	0x3e728ddd	0.23686929
139	0xbe7d797c	-0.24753374
140	0x3deb4ac5	0.114888705
141	0xbd277478	-0.040882558
142	0x3c033971	0.008009301
143	0xbe1898db	-0.1490206
144	0xbecb65f2	-0.39726216
145	0x3d3d0dd6	0.046155773
146	0xbda3126d	-0.07962499
147	0x3ebc8f7d	0.36828223
148	0x3c043a14	0.0080704875
149	0x3d2dc3fb	0.04242323
150	0x3d263b21	0.040583733
151	0xbe6c94b0	-0.23103595
152	0xbe653bf6	-0.22386155
153	0xbd899d89	-0.067195006
154	0xbcf6cb8c	-0.030126356
155	0xbd3b63dd	-0.045749534
156	0xbca50760	-0.020145118
157	0xbc7f3883	-0.015577438
158	0xbd9ce8c5	-0.07661585
159	0x3dbfd46e	0.093666896
160	0x3d6d5b33	0.057948302
161	0x3dd38289	0.10327632
162	0x3eb67197	0.35633537
163	0x3de9cfcd	0.11416588
164	0x3e4fa268	0.20276797
165	0xbdb2f628	-0.08738357
166	0xbe1a4034	-0.15063554
167	0xbc8fb668	-0.017543033
168	0x3dbcc774	0.0921773
169	0xbc8e87f1	-0.017398806
170	0x3e02f3b1	0.12788273
171	0xbd3803ea	-0.044925608
172	0x3d79d662	0.060995467
173	0xbe6f9dca	-0.23400036
174	0x3e72ab7d	0.2369823
175	0x3e37a740	0.17934895
176	0xbdeeff17	-0.11669748
177	0x3dc134c2	0.09433891
178	0x3e382ad1	0.17985083
179	0x3e3f4973	0.18680362
180	0x3e69da8e	0.22837278
181	0xbc8c120c	-0.01709845
182	0x3c910426	0.017702173
183	0x3dafef86	0.08590607
184	0xbd70e58a	-0.058812656
185	0x3c8e706e	0.017387595
186	0x3e1f86ca	0.15578762
187	0x3d9a1c24	0.07524899
188	0xbda29348	-0.07938248
189	0xbe77896d	-0.24173518
190	0x3dc75f6b	0.097349964
191	0x3ca1bb93	0.019742763
192	0xbd0b902c	-0.03407304
193	0xbd82de46	-0.063900515
194	0x3dc92bae	0.09822784
195	0x3e6249ac	0.22098416
196	0xbd9131a2	-0.07089545
197	0x3f0c1f06	0.5473484
198	0xbb1da7fb	-0.0024056423
199	0xbeb8a79d	-0.3606538
200	0x3da5af4c	0.08090076
201	0x3d3a1428	0.04542938
202	0xbd8af84f	-0.06785642
203	0xbeb03821	-0.34417823
204	0x3ec40534	0.3828522
205	0xbcf1537f	-0.02945876
206	0x3e513bbb	0.20432942
207	0x3ce3caf2	0.027806733
208	0xbed1f981	-0.4101067
209	0x3e64c722	0.22341588
210	0xbe3735d8	-0.17891634
211	0x3e84f632	0.25969082
212	0xbc50d2cd	-0.012745571
213	0xbdcedf96	-0.101012394
214	0x3dd74225	0.10510663
215	0x3de21b21	0.11040331
216	0xbe84563a	-0.25847036
217	0x3e080871	0.1328447
218	0xba37ee7c	-0.0007016433
219	0x3e3bd2bf	0.18342112
220	0x3ce4db7a	0.027936686
221	0xbdda515b	-0.106600486
222	0xbd8f5bb1	-0.069999106
223	0x3da14808	0.07875067
224	0xbdd0a44b	-0.101875864
225	0x3e3b2f10	0.18279672
226	0x3e7cbc54	0.24681216
227	0xbe28b247	-0.16474257
228	0x3f1564cd	0.58356935
229	0xbe65fc39	-0.22459497
230	0xbd0b91c8	-0.034074575
231	0x3e664a88	0.22489369
232	0xbe825397	-0.254544
233	0x3e22dc10	0.1590426
234	0xbe23a0eb	-0.15979354
235	0x3e9741a5	0.2954227
236	0xbe6e68fb	-0.23282234
237	0x3c107194	0.008816142
238	0x3db0b21f	0.08627724
239	0xbd70e534	-0.058812335
240	0x3df9fba8	0.12206203
241	0x3edf79f6	0.43647736
242	0x3df2a398	0.11847609
243	0x3caa0b52	0.020757351
244	0x3df34675	0.11878673
245	0x3eccd226	0.4000408
246	0x3eacf05b	0.33777127
247	0xbd6bc2b6	-0.057558738
248	0x3c97bde5	0.018523166
249	0x3aa7eb0b	0.0012811137
250	0x3e15fb6a	0.14646688
251	0xbdc89dc8	-0.097957194
252	0xbe63e674	-0.2225588
253	0xbde51f2d	-0.11187587
254	0x3e332289	0.17493643
255	0x3e80ff7b	0.25194916

a2c_network.actor_mlp.2.bias f4 [64]
0	0xbea96efa	-0.3309248
1	0x3ecdb926	0.4018032
2	0x3ea67dee	0.32517952
3	0x3eca3dfd	0.39500418
4	0x3cdf5bf5	0.027265528
5	0x3b406677	0.0029357949
6	0x3c8d00aa	0.01721223
7	0x3eebb76e	0.46038383
8	0xbecc1879	-0.3986242
9	0xbf14be19	-0.58102566
10	0xbf0f2da0	-0.55928993
11	0xbe39ad4c	-0.18132514
12	0xbd959534	-0.07303849
13	0x3bfafeca	0.0076597678
14	0x3e3d9b0a	0.18516174
15	0x3d9f4c5b	0.077782355
16	0xbe674b79	-0.22587384
17	0xbe493199	-0.19647826
18	0xbf54edae	-0.8317517
19	0xbf400d93	-0.7502071
20	0x3ec91559	0.392741
21	0x3ef8a973	0.4856678
22	0xbe6ce65c	-0.2313475
23	0x3e948188	0.29005075
24	0xbd24f814	-0.04027565
25	0xbcd231ba	-0.025658477
26	0xbf6f0eba	-0.93381846
27	0xbdf5359e	-0.11973117
28	0x3e9a8452	0.30179077
29	0x3f302893	0.6881191
30	0x3ea31046	0.31848353
31	0xbe8b61db	-0.27223095
32	0x3e1a48a7	0.15066777
33	0xbeb4b7c1	-0.35296443
34	0xbeb2f23b	-0.34950432
35	0xbeb6d39d	-0.35708323
36	0x3daae1f8	0.08343881
37	0xbe5a4de5	-0.21318777
38	0xbf69fff9	-0.9140621
39	0xbf12ef50	-0.5739641
40	0xbf4592ce	-0.7717713
41	0xbe4f05a0	-0.2021699
42	0xbd83b078	-0.06430143
43	0xbed669b8	-0.41877532
44	0x3f3d4fc5	0.73949844
45	0xbeb1fd9f	-0.3476381
46	0xbd5a97aa	-0.053367294
47	0xbe54a2bf	-0.20765208
48	0xbdf03bff	-0.11730193
49	0xbea562b3	-0.32301864
50	0x3e0c4352	0.13697556
51	0x3ec66058	0.3874538
52	0xbf3e27c0	-0.74279404
53	0x3f0cb87b	0.54968995
54	0xbec90cf6	-0.392677
55	0x3eddba9f	0.43306443
56	0x3dd99175	0.10623447
57	0x3f34635b	0.70464104
58	0xbec90575	-0.39261976
59	0xbe8338d0	-0.25629282
60	0xbe269031	-0.16265942
61	0xbf404a52	-0.75113404
62	0xbdeed8b2	-0.11662425
63	0x3f31516b	0.6926486

a2c_network.value.weight f4 [1, 64]
0	0x3dcf1403	0.10111239
1	0x3d49ae4a	0.04923848
2	0xbd875378	-0.06607717
3	0xbe4a062f	-0.19728921
4	0xbd0cf447	-0.03441265
5	0xbea7222e	-0.32643265
6	0x3e85e12b	0.26148352
7	0xbdebe9bc	-0.11519191
8	0x3e736691	0.23769595
9	0x3e4a0a08	0.19730389
10	0x3d614748	0.05499962
11	0xbcd7fb9c	-0.026365094
12	0xbd796a12	-0.060892172
13	0x3d8b27ed	0.067947246
14	0xbb8bce78	-0.0042665564
15	0xbbaf9c92	-0.005359241
16	0x3dda6926	0.10664587
17	0x3de09446	0.10965781
18	0x3ecdb390	0.40176058
19	0x3e9a95b0	0.30192327
20	0xbf1ade0b	-0.6049506
21	0xbee36fd2	-0.4442125
22	0x3e55381b	0.20822184
23	0x3e59a572	0.21254519
24	0x3c63699a	0.013880158
25	0x3caee674	0.021350123
26	0x3e9acccc	0.30234373
27	0xbdb435e3	-0.087993406
28	0x3f1a2cf0	0.6022482
29	0xbe6a9fb8	-0.2291249
30	0x3da9c1e4	0.08288935
31	0x3cb36990	0.021900922
32	0x3d8689d7	0.065692596
33	0x3ce57d34	0.028013803
34	0xbd8b5781	-0.068037994
35	0xbf16fb3c	-0.58977103
36	0x3e856f69	0.26061562
37	0xbdf4bb9b	-0.119498454
38	0x3ec70ac9	0.38875416
39	0x3e212638	0.15737236
40	0x3ea20fa7	0.31652567
41	0x3d9ec272	0.07751931
42	0xbc61a45c	-0.0137720965
43	0x3e11ad12	0.14226177
44	0xbebb4344	-0.36574757
45	0x3e2730d8	0.16327226
46	0xbd6c90b9	-0.057755206
47	0xbf06b180	-0.52614594
48	0xbe601ca3	-0.21885924
49	0x3f10622f	0.56399816
50	0xbda189bc	-0.07887599
51	0x3cbe6098	0.023239419
52	0x3e1f8ccc	0.15581053
53	0xbdde8bd3	-0.10866513
54	0xbe3582ae	-0.17725632
55	0xbe11f060	-0.14251852
56	0xbe794a69	-0.24344791
57	0xbec0be8c	-0.37645376
58	0x3d3daaa4	0.046305314
59	0xbca9a470	-0.020708293
60	0xbee11165	-0.43958583
61	0x3ec29c77	0.38009998
62	0xbe3e8558	-0.18605554
63	0xbe8324b5	-0.25613943

a2c_network.mu.weight f4 [1, 64]
0	0x3edddc3c	0.43332088
1	0x3ebc6679	0.3679693
2	0x3b2dfbcf	0.0026547795
3	0xbcd3d1a9	-0.02585681
4	0x3b60e5f5	0.0034316753
5	0x3e3622d1	0.17786719
6	0x3ed8ddc0	0.42356682
7	0xbea3af2e	-0.3196959
8	0x3c58c4a1	0.013230474
9	0x3de66fa7	0.11251765
10	0x3f0b8d96	0.5451292
11	0xbd74d2ee	-0.05977147
12	0x3e1d9cdb	0.15391867
13	0x3f014ecb	0.50510854
14	0xbec9a4ae	-0.39383453
15	0xbd84cf13	-0.06484809
16	0xbc962ab9	-0.018330919
17	0xbe45bec5	-0.19311054
18	0x3e37565f	0.17904042
19	0xbe43a172	-0.19104555
20	0x3ccc2ee8	0.02492471
21	0x3d523732	0.05132217
22	0x3dad3552	0.08457436
23	0x3e9d7e90	0.30760622
24	0xbabef9ad	-0.0014570259
25	0x3e41edf5	0.1893843
26	0x3ca1306b	0.019676408
27	0xbdc43202	-0.09579851
28	0xbf25804a	-0.6464888
29	0xbd4e2e4d	-0.050337125
30	0x3e023b98	0.12718046
31	0xba512e1c	-0.0007979588
32	0x3e455c22	0.19273427
33	0xbe0249b7	-0.12723432
34	0x3cb5f418	0.02221112
35	0x3e842619	0.25810316
36	0xbe5da9a3	-0.21646743
37	0x3e815fb1	0.2526832
38	0xbd25af4c	-0.04045038
39	0xbe10ec72	-0.14152697
40	0x3c85e38e	0.016343858
41	0xbabe76fc	-0.001453131
42	0x3b16c90d	0.002300802
43	0x3b151837	0.002275003
44	0xbd1f2f13	-0.038863253
45	0x3c76bb01	0.015059234
46	0x3ebdd67d	0.37077704
47	0xbe803239	-0.25038317
48	0xbdf50b38	-0.119650304
49	0xbd4b6da5	-0.049665112
50	0xbf649e0d	-0.89303666
51	0x3f13c509	0.57722527
52	0xbd8c8a22	-0.06862284
53	0xbe2a3d25	-0.16624887
54	0xbdfbf7c4	-0.12303117
55	0x3e1adb7b	0.15122788
56	0x3d089cc6	0.033352636
57	0xbe426f0f	-0.18987678
58	0x3eebc249	0.46046665
59	0xbdf4ff82	-0.11962797
60	0xbf157ee6	-0.58396757
61	0x3e7112af	0.23542283
62	0x3e48fc70	0.19627547
63	0x3e294a2c	0.165322

exp_avg f4 [64, 4]
0	0x3ad530a8	0.0016265111
1	0x3a9b7369	0.0011859956
2	0xba332c8d	-0.00068349467
3	0xbb2e12e2	-0.0026561548
4	0xba2ab9c5	-0.0006512667
5	0xbbae8868	-0.0053263195
6	0x3bbe0626	0.005799073
7	0x3c076803	0.008264544
8	0xba8ffab7	-0.0010984753
9	0xba2ce14b	-0.00065948506
10	0xba06fb25	-0.0005149118
11	0x3abde13d	0.0014486682
12	0x3a278e76	0.0006391773
13	0xba37bb9b	-0.00070088514
14	0x3a01900d	0.0004942425
15	0x3adcc129	0.0016842234
16	0x3b293edc	0.002582482
17	0x3bf4495b	0.0074550337
18	0xbc076187	-0.008262998
19	0xbc4109dc	-0.011782136
20	0x3a547c26	0.0008105658
21	0x3bf621c2	0.0075113485
22	0xbb1d8166	-0.0024033426
23	0xb980552c	-0.0002447752
24	0x3a390a79	0.00070587505
25	0x3b48fcf0	0.003066834
26	0xbb31d772	-0.0027136472
27	0xbaf49d07	-0.001866252
28	0xb9cc38a0	-0.000389521
29	0xb9b6e5dd	-0.00034885007
30	0xbaa6f83e	-0.0012738777
31	0x3acef616	0.0015789892
32	0x3b1f3556	0.0024293265
33	0xb8d85086	-0.00010314681
34	0x3b69ca6c	0.0035673631
35	0xbadfaf6d	-0.0017065831
36	0xbb01d9e0	-0.0019813702
37	0x3b0cf924	0.0021510804
38	0xbab7cd2f	-0.0014022941
39	0xbaa72686	-0.001275257
40	0xb912fac3	-0.00014017061
41	0x3a10f4ea	0.0005529659
42	0xba29d9d9	-0.00064793
43	0x39cd0fea	0.00039112504
44	0xb9945025	-0.00028288472
45	0x3a199401	0.0005858541
46	0x3b164371	0.0022928382
47	0xbaa033db	-0.0012222485
48	0x3a16b367	0.0005748779
49	0x3b87ccff	0.0041443105
50	0x3a425f1c	0.0007414685
51	0x3ab55ead	0.001383742
52	0xbb82a45b	-0.003986878
53	0xbc020b79	-0.007937306
54	0x3c0e8080	0.008697629
55	0x3c501118	0.012699388
56	0x3ad7170f	0.001641007
57	0x3a0f8e36	0.0005476208
58	0xb99958af	-0.00029248509
59	0xba4475c8	-0.00074943574
60	0x3aef4537	0.001825488
61	0xba99da50	-0.0011738036
62	0x3aa0d964	0.0012271819
63	0x3924b77c	0.00015708612
64	0x3b006e01	0.0019596817
65	0xba9a664e	-0.0011779757
66	0xb875cbb0	-5.860225e-05
67	0xba404fc4	-0.0007336105
68	0x3a03f2f2	0.0005033455
69	0x3a725449	0.0009244127
70	0x393e5cbb	0.00018154357
71	0xbb0af71d	-0.002120442
72	0xbb4a3bb0	-0.003085833
73	0xbb455e2e	-0.003011595
74	0x3a803ec1	0.0009784327
75	0x3bb861bc	0.005626885
76	0x3a9c8a1d	0.0011943016
77	0x3b94c524	0.0045401026
78	0xbb9310d4	-0.00448809
79	0xbb28159b	-0.0025647643
80	0xba8f3133	-0.0010924697
81	0xbb03cb9b	-0.0020110372
82	0x3aaae52b	0.0013038268
83	0x3b777183	0.0037756867
84	0xbab5cc2d	-0.0013870053
85	0xbb6c6f47	-0.0036077069
86	0x397e4614	0.00024249434
87	0x3b91d60f	0.0044505666
88	0xb9a1320a	-0.00030745595
89	0x3a2ca950	0.0006586509
90	0xba0e2b29	-0.00054233015
91	0x3a7c33d4	0.000962076
92	0xba8252f6	-0.0009942937
93	0xb9bf9804	-0.0003654362
94	0xbaaac1fe	-0.0013027785
95	0x3a76c4d7	0.00094134867
96	0x39f1cdbf	0.00046120395
97	0x3bd2bd1c	0.006431235
98	0xbb80f683	-0.0039356365
99	0xbc133fe9	-0.008987405
100	0xba519e97	-0.0007996349
101	0xba48b149	-0.0007655812
102	0xba712c3e	-0.0009200013
103	0x3a7c84a3	0.00096328015
104	0x3b07ef46	0.0020741983
105	0x3b9c8626	0.004776734
106	0xbbac96b0	-0.005266987
107	0xbbcb7296	-0.006208728
108	0x3ac5f417	0.0015102652
109	0x3ab67d16	0.0013922777
110	0x3a483fbb	0.0007638891
111	0xbae27b40	-0.0017279163
112	0x3a96eb9e	0.0011514311
113	0x3b2097d4	0.002450456
114	0xbb0903b0	-0.002090674
115	0xbb7db5bf	-0.0038713065
116	0xb9ee0346	-0.00045397336
117	0x3bafa0ef	0.005359761
118	0xbbd8efd2	-0.0066203857
119	0xbbd0b729	-0.0063694906
120	0xbab63fef	-0.0013904552
121	0xba39815e	-0.0007076467
122	0xb936b10f	-0.00017422832
123	0x3b130710	0.002243463
124	0xbb5dc473	-0.0033839017
125	0xbb77f753	-0.0037836626
126	0x3ac82a78	0.0015271446
127	0x3bddd610	0.006769903
128	0xbaa5da5b	-0.0012653576
129	0x3b338e08	0.002739789
130	0xba9b1d56	-0.0011834304
131	0xbb5d8917	-0.0033803636
132	0x3adee19d	0.0017004494
133	0xb9d9309e	-0.00041425688
134	0x3a71f25f	0.00092295365
135	0x39a4b1a5	0.00031412873
136	0x399c06b4	0.00029759633
137	0x3ae8f647	0.0017773592
138	0xba67ad0e	-0.0008837738
139	0xba734e22	-0.0009281357
140	0x38fe4e16	0.000121262085
141	0xbb9bd00b	-0.0047550253
142	0x3b8809c3	0.0041515543
143	0x3ba2f9ac	0.004973611
144	0x3a3c4f0e	0.0007183411
145	0xbc54163b	-0.012944753
146	0x3c815415	0.015787164
147	0x3c8cce9f	0.017188368
148	0x3a94d2d2	0.0011354333
149	0x3c3e7746	0.011625117
150	0xbbe6161c	-0.0070216786
151	0xbc79c8cd	-0.015245629
152	0xbb400a8e	-0.0029303166
153	0xba887454	-0.0010410645
154	0xba747f6b	-0.0009326848
155	0x3b561c7f	0.0032670794
156	0xb989dfff	-0.00026297566
157	0xbc895b3d	-0.016767139
158	0x3ca8225b	0.020524194
159	0x3cb5c550	0.022188812
160	0x3927309e	0.00015944472
161	0x3b772ae9	0.0037714785
162	0xbbc252e5	-0.005930292
163	0xbb73173e	-0.003709271
164	0xba87de61	-0.0010365957
165	0x3b2e489f	0.0026593579
166	0xba01baf7	-0.00049488194
167	0x38eb64ed	0.00011224472
168	0x38a3cd69	7.810706e-05
169	0x3b159029	0.0022821522
170	0xbb2384a0	-0.0024950877
171	0xbaedae15	-0.0018133546
172	0x3a07d34f	0.0005181329
173	0x3b66ae0f	0.0035198962
174	0x3a1203ef	0.0005570044
175	0x3a3f47c8	0.0007296768
176	0xba740cba	-0.0009309758
177	0x3be42b5c	0.0069631767
178	0xbc25f6b8	-0.010129623
179	0xbbcd5793	-0.006266543
180	0x3aaaa4f6	0.0013019133
181	0x3b960c2c	0.0045790877
182	0xbae862a3	-0.0017729591
183	0xbbaa747c	-0.0052018743
184	0x3b05fa93	0.0020443543
185	0xbaa980dc	-0.001293208
186	0x3b7d3ee0	0.0038642213
187	0xba9cd51c	-0.0011965367
188	0xba4702e9	-0.0007591681
189	0x3a612983	0.00085892546
190	0xba5e7e47	-0.0008487445
191	0x39aa404d	0.00032472835
192	0x3ab35251	0.0013681148
193	0x3b06a4b6	0.0020544953
194	0xb7e7c48a	-2.7628867e-05
195	0x38803534	6.1134255e-05
196	0x39e14184	0.00042964157
197	0x3a85d836	0.0010211531
198	0xba7345fa	-0.00092801417
199	0x3a584bcd	0.0008251041
200	0x3990b44e	0.00027600158
201	0x3ba3c3cf	0.0049977074
202	0xbba60d8e	-0.005067534
203	0xbbe5e0b7	-0.0070153135
204	0x3a3f892e	0.0007306513
205	0x3b416a21	0.002951272
206	0xba2d24fd	-0.0006604938
207	0xbb319f6f	-0.0027103086
208	0xbb06bb03	-0.0020558245
209	0xb8c6f9fa	-9.4879375e-05
210	0xbb20e8ea	-0.002455289
211	0xb9e2885c	-0.00043207675
212	0xb85c8ddd	-5.2584208e-05
213	0xb912e632	-0.000140094
214	0x3abf1de3	0.001458105
215	0x3a5b71b6	0.0008371131
216	0x3b1e831b	0.0024187032
217	0x38603733	5.345717e-05
218	0x3b22e123	0.002485343
219	0x39294b7f	0.0001614522
220	0xba4b3d88	-0.00077530043
221	0xba32751f	-0.00068076135
222	0xb7f3dd9e	-2.9071056e-05
223	0x3ac09a0b	0.0014694346
224	0x3a45be18	0.000754328
225	0xbbaca773	-0.005268985
226	0x3b1e6a3d	0.002417221
227	0x3af0cc58	0.0018371446
228	0x3a276313	0.00063853076
229	0x395d24dd	0.00021089935
230	0x3a895971	0.0010478926
231	0x38815b85	6.168246e-05
232	0xbb0a7997	-0.0021129602
233	0xbbe7a172	-0.0070688063
234	0x3b869da1	0.0041081463
235	0x3c2b9128	0.01047162
236	0xb981f5e6	-0.00024788006
237	0xb8423cb9	-4.6309757e-05
238	0xbae45d4f	-0.0017422828
239	0xb9b56371	-0.000345971
240	0xba0b0e33	-0.0005304545
241	0x3a1eb516	0.00060542056
242	0x3998a24b	0.00029112617
243	0xba7f7616	-0.0009745074
244	0xba7ca16f	-0.00096370926
245	0xbb6bc622	-0.003597625
246	0x39a3f1fa	0.0003127007
247	0x3ab83c80	0.0014056116
248	0x3893dd9e	7.050786e-05
249	0xbabe7e30	-0.0014533456
250	0x396af72f	0.00022408062
251	0x3a88adf5	0.001042782
252	0x3a9c7c45	0.0011938891
253	0x3a1f6d27	0.00060816336
254	0x3a7f57ae	0.00097405433
255	0x39517449	0.00019975113

exp_avg_sq f4 [64, 4]
0	0x38e6982d	0.000109955996
1	0x37a1e04f	1.9297147e-05
2	0x38ec3877	0.00011263874
3	0x38405488	4.5855093e-05
4	0x3870df20	5.742826e-05
5	0x38211ca5	3.841207e-05
6	0x38f0bc1a	0.000114791284
7	0x38b4bc1b	8.618106e-05
8	0x389b4f4e	7.4057476e-05
9	0x37068a8a	8.0192785e-06
10	0x389cdba7	7.479573e-05
11	0x37a10477	1.9194775e-05
12	0x3803fd17	3.1468542e-05
13	0x379f4e1a	1.8990646e-05
14	0x3876e917	5.8868052e-05
15	0x3815d745	3.5724854e-05
16	0x39f53f51	0.00046777216
17	0x389e8393	7.558535e-05
18	0x3a852650	0.0010158513
19	0x397abafa	0.00023911512
20	0x37bc9615	2.2481234e-05
21	0x3988f6c5	0.000261238
22	0x39600074	0.00021362473
23	0x37d414c9	2.5282048e-05
24	0x382005df	3.815244e-05
25	0x386da71c	5.6660836e-05
26	0x38a3079b	7.773862e-05
27	0x388fcd43	6.857004e-05
28	0x391c3b41	0.00014899393
29	0x371e05c7	9.418879e-06
30	0x38ca30f1	9.641227e-05
31	0x37e96ee0	2.7827395e-05
32	0x389f4e74	7.596324e-05
33	0x38b761f6	8.744367e-05
34	0x39c59ce0	0.0003769165
35	0x39862937	0.0002558918
36	0x38a4e50f	7.862795e-05
37	0x37dfab57	2.6663458e-05
38	0x38c2fa44	9.2972565e-05
39	0x376abdfb	1.399172e-05
40	0x37c7bc72	2.38104e-05
41	0x380c0835	3.3386244e-05
42	0x37d71a79	2.5642325e-05
43	0x380647fc	3.201513e-05
44	0x385443c9	5.060787e-05
45	0x3806e1d6	3.2158416e-05
46	0x38e4c71e	0.00010908976
47	0x373712f8	1.09120665e-05
48	0x37154b32	8.8986e-06
49	0x38b3a7fe	8.566676e-05
50	0x37e34923	2.7094566e-05
51	0x37ca1631	2.409061e-05
52	0x3a84da42	0.0010135847
53	0x38b0eba6	8.436227e-05
54	0x3a8d8db3	0.0010799676
55	0x3992098f	0.00027854412
56	0x38497982	4.8035297e-05
57	0x381f4f87	3.798262e-05
58	0x38a58e47	7.894314e-05
59	0x38a247dc	7.738147e-05
60	0x381e7934	3.7783015e-05
61	0x38474347	4.7507954e-05
62	0x38b1a155	8.470068e-05
63	0x3847e835	4.7661557e-05
64	0x385a1b27	5.2000538e-05
65	0x38e96829	0.00011129707
66	0x38047993	3.1584477e-05
67	0x38df18d3	0.000106380925
68	0x38a5f72b	7.913852e-05
69	0x371d0100	9.358162e-06
70	0x37bca6d5	2.2489034e-05
71	0x37c8582d	2.3882918e-05
72	0x39548542	0.00020267538
73	0x381b3a73	3.7009315e-05
74	0x39806eab	0.00024496517
75	0x38c55381	9.409246e-05
76	0x386a79f6	5.5903532e-05
77	0x3871e7f3	5.7674897e-05
78	0x388e8c39	6.797206e-05
79	0x38015091	3.083103e-05
80	0x38d8ef1e	0.00010344222
81	0x37ed0ce8	2.8258612e-05
82	0x39126de8	0.00013964588
83	0x3898f6c3	7.293888e-05
84	0x38459af3	4.7112768e-05
85	0x38a44f16	7.83486e-05
86	0x392128cb	0.00015369353
87	0x386bf7fc	5.625932e-05
88	0x394c62a0	0.00019491697
89	0x37c54552	2.351651e-05
90	0x3929627d	0.00016153786
91	0x38585528	5.157772e-05
92	0x38443dad	4.678748e-05
93	0x37ae6f8f	2.0794365e-05
94	0x390117da	0.00012311284
95	0x382b29ae	4.0808394e-05
96	0x392a4171	0.00016236842
97	0x38b33fa9	8.547243e-05
98	0x3a611b18	0.0008587106
99	0x391ba882	0.00014844726
100	0x37be4427	2.2681501e-05
101	0x37e55cc6	2.7342128e-05
102	0x389535e9	7.114915e-05
103	0x37d00a0f	2.4800216e-05
104	0x3980799b	0.00024504666
105	0x386b0ad8	5.6038465e-05
106	0x38dadcb2	0.00010436158
107	0x38c8c1e6	9.5728596e-05
108	0x3896f93c	7.198981e-05
109	0x37b826dd	2.1952606e-05
110	0x38a6b838	7.94981e-05
111	0x37e28517	2.7003274e-05
112	0x38a04a55	7.64324e-05
113	0x3807c5a1	3.2370564e-05
114	0x39108a1e	0.00013784363
115	0x389ebb99	7.56897e-05
116	0x3814a189	3.543639e-05
117	0x388bc734	6.665141e-05
118	0x391c6035	0.00014913159
119	0x38af52e4	8.36009e-05
120	0x390aa7b6	0.00013223183
121	0x3777adc1	1.47628025e-05
122	0x3881c5b0	6.1880215e-05
123	0x37c97855	2.4017101e-05
124	0x39f924e1	0.00047520458
125	0x37f4477e	2.9120358e-05
126	0x39de327e	0.0004238076
127	0x38cd64d0	9.7939395e-05
128	0x3805a307	3.1861502e-05
129	0x381e3836	3.7722486e-05
130	0x38e751f6	0.00011030205
131	0x3885c9e9	6.379543e-05
132	0x3828d119	4.024906e-05
133	0x382b0dc5	4.07824e-05
134	0x38b99af9	8.850353e-05
135	0x387f1179	6.081301e-05
136	0x37505f08	1.2419892e-05
137	0x3892688c	6.981296e-05
138	0x393a5ad4	0.00017772178
139	0x390598a0	0.00012740726
140	0x38188017	3.6358917e-05
141	0x381dc031	3.761071e-05
142	0x38eba6c0	0.00011236733
143	0x38a4b5dd	7.854004e-05
144	0x39ac0ae3	0.00032814508
145	0x395a4bac	0.0002081829
146	0x3adfb9e9	0.0017068955
147	0x39f3a2b3	0.00046469792
148	0x3916a2bc	0.00014365738
149	0x39a1b53f	0.00030843352
150	0x3a93bb54	0.0011271038
151	0x3995fef1	0.0002860944
152	0x397d9fd0	0.00024187495
153	0x380533e7	3.175801e-05
154	0x3995f07d	0.00028598672
155	0x38e7fb08	0.000110616966
156	0x39f2dbc9	0.0004632159
157	0x399bca87	0.00029714798
158	0x3a9d307b	0.0011992598
159	0x39e7e81f	0.00044232697
160	0x388d0477	6.7242356e-05
161	0x388f589b	6.8352754e-05
162	0x38de2bd0	0.000105939456
163	0x38afd6b7	8.384644e-05
164	0x37a0f0d1	1.9185625e-05
165	0x38316359	4.2292613e-05
166	0x384b181a	4.8421418e-05
167	0x36d84774	6.44562e-06
168	0x36a7104c	4.978885e-06
169	0x3799cc3e	1.8334129e-05
170	0x37cf6b50	2.4726294e-05
171	0x368016d4	3.817355e-06
172	0x37ac405d	2.053397e-05
173	0x388c5417	6.691383e-05
174	0x38855013	6.356849e-05
175	0x36e5e6d3	6.8516033e-06
176	0x386fbbc6	5.7156918e-05
177	0x38d51b75	0.00010161746
178	0x39684092	0.00022149298
179	0x38e09e2a	0.00010710613
180	0x381a4b0f	3.6786365e-05
181	0x38280499	4.0058603e-05
182	0x3916b598	0.00014372764
183	0x384ac3fb	4.8343074e-05
184	0x3852e0f7	5.0277416e-05
185	0x37688ccc	1.3861059e-05
186	0x38f66299	0.00011748559
187	0x37e8ccde	2.7751954e-05
188	0x3852a4a8	5.022125e-05
189	0x36e9586c	6.954235e-06
190	0x379ca469	1.8673209e-05
191	0x36aa59fd	5.076871e-06
192	0x38008e77	3.065026e-05
193	0x380ee36c	3.406724e-05
194	0x387dcd44	6.051107e-05
195	0x385b9a9b	5.2357656e-05
196	0x38a45978	7.836794e-05
197	0x37994758	1.8272243e-05
198	0x391c4194	0.00014901749
199	0x3828def7	4.0261973e-05
200	0x38496099	4.8012098e-05
201	0x3829e13a	4.05025e-05
202	0x388e065d	6.772273e-05
203	0x38b73e59	8.737733e-05
204	0x37d530df	2.5414336e-05
205	0x3906155e	0.00012787196
206	0x38c09c55	9.1843925e-05
207	0x38b62a5e	8.686328e-05
208	0x38c97036	9.605328e-05
209	0x387bfd24	6.007882e-05
210	0x3955c7c8	0.00020387687
211	0x3889d8b4	6.573033e-05
212	0x3767c561	1.3814629e-05
213	0x370f4e16	8.541645e-06
214	0x379cb3c4	1.8680359e-05
215	0x35e0a919	1.6738514e-06
216	0x3871540e	5.753716e-05
217	0x37a66c4c	1.9839172e-05
218	0x38d7c5f4	0.000102888705
219	0x37c70bc9	2.3728137e-05
220	0x37a64469	1.9820598e-05
221	0x370270fe	7.774912e-06
222	0x36dbc8d9	6.5500903e-06
223	0x36c32f77	5.8169785e-06
224	0x3829fea8	4.0529907e-05
225	0x388842af	6.497406e-05
226	0x38ea391e	0.000111686284
227	0x37a82301	2.004346e-05
228	0x3883cf38	6.285164e-05
229	0x3769b2f0	1.3929544e-05
230	0x389a48ca	7.35685e-05
231	0x37aa0a66	2.0270421e-05
232	0x39d33729	0.00040286154
233	0x38defe14	0.00010633111
234	0x3a71e010	0.00092268083
235	0x392d5bd0	0.00016532768
236	0x3906c753	0.0001285349
237	0x38c5d65a	9.433618e-05
238	0x38936013	7.0274014e-05
239	0x38b9d970	8.861988e-05
240	0x378d95db	1.6878292e-05
241	0x3783ac23	1.5696574e-05
242	0x3894ceac	7.0956856e-05
243	0x37d9a874	2.5946858e-05
244	0x3889eb06	6.5764456e-05
245	0x38535a7c	5.039059e-05
246	0x3843a5f9	4.6646197e-05
247	0x374943c0	1.1996308e-05
248	0x38aa1a87	8.111173e-05
249	0x38218907	3.8513008e-05
250	0x38d4d4c2	0.00010148577
251	0x375abd3b	1.3037871e-05
252	0x38329689	4.2578704e-05
253	0x378eb995	1.7014137e-05
254	0x388ef39e	6.816465e-05
255	0x37b6967c	2.1766165e-05

exp_avg f4 [64]
0	0xba73361c	-0.0009277777
1	0x3a6bc5f2	0.0008994035
2	0xb98fde67	-0.00027440788
3	0x3921b1c8	0.00015420385
4	0xbb7c3914	-0.003848617
5	0xbad5bcd5	-0.0016306887
6	0xbae31832	-0.0017325936
7	0xb95643df	-0.00020433914
8	0xba4445ec	-0.0007487226
9	0xba42ec68	-0.000743574
10	0xba0c247c	-0.0005346013
11	0xb9a1231a	-0.00030734466
12	0xba3e9d1e	-0.0007271337
13	0x3b69275c	0.0035576439
14	0xba5ea677	-0.0008493433
15	0xba4008b8	-0.0007325518
16	0x38f8d2c7	0.00011864822
17	0xb9f84ec6	-0.00047360937
18	0x3b133574	0.002246228
19	0xbafb35e2	-0.0019165839
20	0x3995f03b	0.0002859848
21	0x3b0ca5a6	0.002146104
22	0xb9b8481b	-0.00035148938
23	0x3a10c111	0.0005521933
24	0xbb8a6dd5	-0.004224519
25	0x3a2e6096	0.00066519657
26	0xbb09b679	-0.0021013303
27	0xba471ffd	-0.0007596014
28	0xba6a61f4	-0.0008940988
29	0xbb04b58d	-0.0020249814
30	0x3975341e	0.00023384436
31	0x3aeac47a	0.0017911338
32	0x37ea6d38	2.7945833e-05
33	0xb9ab2f3c	-0.00032650854
34	0xb9cb7d26	-0.0003881242
35	0x3abe7519	0.0014530747
36	0x3bd4812b	0.0064851246
37	0xbbdcdb35	-0.0067399987
38	0x3a548653	0.0008107174
39	0x3bf5387b	0.0074835396
40	0xbb02627c	-0.0019895127
41	0xb9bdbf39	-0.0003619136
42	0xba83b10c	-0.0010047271
43	0xba1eafb5	-0.0006053404
44	0xbb54fb0a	-0.0032498264
45	0xbb050a62	-0.0020300378
46	0xb88e7801	-6.79344e-05
47	0xba60ab8c	-0.00085704844
48	0xba9f95b5	-0.0012175353
49	0xb8b12d1e	-8.4484214e-05
50	0xbaa151cb	-0.0012307701
51	0xba83aa90	-0.0010045338
52	0x39357853	0.0001730633
53	0x3860f28a	5.3631644e-05
54	0xb90c0b49	-0.00013355644
55	0x3a069053	0.00051332003
56	0x3aee10e0	0.0018162988
57	0x3991bb10	0.00027795928
58	0x3b912c69	0.004430343
59	0xb9a5c723	-0.0003161962
60	0xb9a038f9	-0.00030560026
61	0x3ae9f2d7	0.0017848861
62	0x39feeb66	0.0004862204
63	0xb8c8b170	-9.5697935e-05

exp_avg_sq f4 [64]
0	0x3884ed04	6.338398e-05
1	0x37f4f28a	2.9200008e-05
2	0x382d6bba	4.1346742e-05
3	0x37180b10	9.062482e-06
4	0x3988f0bb	0.000261193
5	0x384537e0	4.7020498e-05
6	0x37acc1df	2.0594276e-05
7	0x38055af6	3.1794385e-05
8	0x381cd638	3.7392805e-05
9	0x3879477d	5.9432805e-05
10	0x36f73afd	7.3680408e-06
11	0x378948ce	1.6365575e-05
12	0x37892216	1.6347545e-05
13	0x3a12fcef	0.0005607148
14	0x37b9a313	2.2129656e-05
15	0x37ac1ba5	2.051687e-05
16	0x384aaf40	4.8323767e-05
17	0x37ac1453	2.0513462e-05
18	0x38f0108a	0.000114471724
19	0x37ea15fe	2.7905215e-05
20	0x384b39c5	4.8452774e-05
21	0x37c84002	2.3871664e-05
22	0x38c7c3fb	9.525564e-05
23	0x37c4524f	2.3403349e-05
24	0x388597ec	6.370232e-05
25	0x37508d51	1.2430669e-05
26	0x391debec	0.00015060575
27	0x3802b98c	3.116722e-05
28	0x381d9d4c	3.757821e-05
29	0x37ae4c5a	2.077797e-05
30	0x389da058	7.51621e-05
31	0x3991d1f4	0.00027812982
32	0x37459bc2	1.177838e-05
33	0x37a3c568	1.9523039e-05
34	0x37b6eaa6	2.1805357e-05
35	0x37967bf2	1.793911e-05
36	0x38f0f8ad	0.00011490411
37	0x38c6f2a2	9.4865696e-05
38	0x3907bac3	0.00012944177
39	0x3993a306	0.00028159487
40	0x38015ef4	3.084443e-05
41	0x379604fa	1.788371e-05
42	0x36c5c424	5.8938913e-06
43	0x37be0c47	2.2655482e-05
44	0x37e97b4b	2.7833177e-05
45	0x37843f37	1.5765063e-05
46	0x37e8f491	2.777044e-05
47	0x37f38359	2.902902e-05
48	0x3781c658	1.547036e-05
49	0x37dbc65b	2.61992e-05
50	0x37febbc4	3.0366595e-05
51	0x37e2c895	2.7034703e-05
52	0x37997e63	1.8297875e-05
53	0x371194d5	8.677326e-06
54	0x3768eb17	1.3883014e-05
55	0x374d0d73	1.2222084e-05
56	0x379b4b99	1.8512643e-05
57	0x37972fb6	1.802282e-05
58	0x39552d7d	0.00020330209
59	0x380b72c3	3.3247063e-05
60	0x36da2cdc	6.5021286e-06
61	0x3789068b	1.633472e-05
62	0x37fb2820	2.9940216e-05
63	0x3741e008	1.1555858e-05

exp_avg f4 [64, 64]
0	0xba032692	-0.0005003001
1	0x3a02093d	0.0004960483
2	0x3a6d9ce9	0.0009064214
3	0xba3052c6	-0.00067262014
4	0xba511842	-0.0007976332
5	0xba3b5864	-0.0007146655
6	0xb8a4755d	-7.84199e-05
7	0xb9b02d89	-0.00033603262
8	0xba73fa5e	-0.0009307022
9	0x39298f89	0.00016170567
10	0x3a591ff9	0.00082826574
11	0x3a2a5fc2	0.00064992544
12	0x38179e7c	3.6148806e-05
13	0x3a4a776e	0.0007723485
14	0xba00b1df	-0.00049093174
15	0xba2592d9	-0.00063161325
16	0xba853429	-0.001016264
17	0x393ca329	0.00017989859
18	0x3a4aeabe	0.0007740668
19	0xba09fdf9	-0.000526398
20	0x3a5e428c	0.0008478544
21	0x3a1ddcbb	0.0006021966
22	0xb928207d	-0.00016033831
23	0xba26d216	-0.00063637027
24	0xba309bbf	-0.0006737075
25	0xba112b6d	-0.0005537782
26	0xb9fcbe6c	-0.0004820706
27	0xba553249	-0.0008132798
28	0xba496a8d	-0.0007683419
29	0x388ae7a9	6.623503e-05
30	0x397ee650	0.00024309126
31	0x3a57c33a	0.000823069
32	0x3a2f0f77	0.00066780247
33	0xba5fb6d7	-0.000853402
34	0x358bddf4	1.0420904e-06
35	0x39c490be	0.00037491875
36	0x39e013b6	0.00042739295
37	0xb95b03a4	-0.00020886824
38	0x3a7339ee	0.00092783466
39	0x39dae204	0.00041748595
40	0x3905128a	0.00012690775
41	0xba02447e	-0.00049693126
42	0x3a14f498	0.0005682199
43	0xba592626	-0.00082835776
44	0x36a38f1e	4.8744396e-06
45	0xba05fcab	-0.0005111198
46	0xb944e938	-0.00018778897
47	0xba61e92f	-0.0008617816
48	0xb9e5060f	-0.00043682798
49	0xba3c9c59	-0.00071949285
50	0xba0869bb	-0.00052037433
51	0x393a141d	0.00017745835
52	0x3a7437f8	0.00093162013
53	0xba0722ca	-0.0005155025
54	0xba7b4dab	-0.00095864636
55	0xba44bee6	-0.0007505253
56	0x3a24173d	0.0006259566
57	0xba74644c	-0.0009322807
58	0x3a4856bc	0.0007642319
59	0xba1a617d	-0.00058891607
60	0x3a4d2e18	0.0007826998
61	0x3a332105	0.00068332284
62	0xba17280c	-0.00057661603
63	0xba521e5a	-0.0008015387
64	0xbaa2fbea	-0.0012434695
65	0x3aa013c3	0.0012212921
66	0x3af1bef6	0.0018443752
67	0xbaf40b75	-0.0018619137
68	0xbae65cc7	-0.0017575257
69	0x394436f9	0.00018712496
70	0xb98f59e9	-0.00027342074
71	0x3986e831	0.00025731468
72	0xbaf50b37	-0.0018695359
73	0x3a4fc406	0.0007925633
74	0x3ab98900	0.0014155209
75	0x3a14dd24	0.00056787045
76	0x3a64bd04	0.0008725675
77	0x3adb0ef5	0.0016712832
78	0xbad8ffd3	-0.0016555734
79	0xbade6216	-0.0016966488
80	0xbac831c9	-0.0015273626
81	0xb9623a66	-0.00021574795
82	0x3ae1f6c7	0.0017239683
83	0xb9364a2e	-0.00017384507
84	0x3aeabfae	0.0017909908
85	0x3a8d0010	0.0010757465
86	0xb92dfa09	-0.00016591711
87	0xb9a4c328	-0.0003142592
88	0xbade2d2a	-0.0016950716
89	0xb95da0b3	-0.00021136068
90	0xbacd4db3	-0.0015663415
91	0xbab53309	-0.0013824414
92	0xbae1149a	-0.0017172277
93	0xb9c5c2c3	-0.00037719877
94	0x3a67df60	0.0008845236
95	0x3ae94502	0.0017797055
96	0x3af1d927	0.0018451557
97	0xbaf63c0c	-0.0018786206
98	0xb9989cd2	-0.0002910854
99	0x3a9e71e8	0.001208839
100	0x3ab1c340	0.0013562217
101	0xb9b8bae0	-0.00035234448
102	0x3af32fed	0.0018553712
103	0x3aba851a	0.0014230341
104	0xb9bf28ae	-0.00036460668
105	0x39bdd897	0.0003621026
106	0xb6291fc8	-2.5201462e-06
107	0xb856f15a	-5.1246352e-05
108	0xba15366f	-0.000569201
109	0xba981e87	-0.0011605778
110	0xba065694	-0.00051245955
111	0xba4a67c4	-0.0007721151
112	0xba8cf36a	-0.0010753695
113	0xbac6c90c	-0.0015166118
114	0xbad9154d	-0.0016562134
115	0x39e1f143	0.00043095098
116	0x3af83ea7	0.001893957
117	0x3984c3f7	0.00025323007
118	0xbafd6894	-0.0019333535
119	0xba4932f7	-0.0007675136
120	0x39e446c3	0.0004354027
121	0xbaec4b18	-0.0018027751
122	0x3ac35e72	0.0014905466
123	0xbac7c3d4	-0.0015240856
124	0x3af32008	0.0018548975
125	0x39e4a99c	0.00043613918
126	0xb9b89cf5	-0.00035212157
127	0xbae11713	-0.0017173014
128	0xb782f958	-1.5613317e-05
129	0x367dd5d2	3.7824398e-06
130	0x35a95424	1.2615969e-06
131	0xb8027e7b	-3.111221e-05
132	0xb800a80c	-3.0674084e-05
133	0x38cdba52	9.8098666e-05
134	0xb7c00fed	-2.28956e-05
135	0xb8929266	-6.989091e-05
136	0xb87486ed	-5.8299793e-05
137	0x36f2f211	7.2403423e-06
138	0xb8a7e058	-8.004968e-05
139	0xb8128ef1	-3.4942237e-05
140	0x38d1c123	0.00010001871
141	0x37f08aa1	2.8674784e-05
142	0xb8309d3a	-4.21081e-05
143	0xb81acb65	-3.6905887e-05
144	0x381fe4d0	3.8121652e-05
145	0x388e2e31	6.7796915e-05
146	0x385fa8c8	5.3324533e-05
147	0x389bde2b	7.432358e-05
148	0x376d9314	1.4160545e-05
149	0x37860b45	1.5979293e-05
150	0x366919d1	3.4734733e-06
151	0xb8288dbc	-4.018632e-05
152	0xb7ef7ba5	-2.8548597e-05
153	0xb820fd08	-3.8382626e-05
154	0xb82ec0c8	-4.1664374e-05
155	0xb690fd53	-4.3210252e-06
156	0xb79400e5	-1.7643391e-05
157	0xb7282ee8	-1.00245015e-05
158	0xb7c0fe88	-2.3006709e-05
159	0x37db3dd3	2.6135624e-05
160	0x384725f3	4.748064e-05
161	0xb80f580b	-3.4175853e-05
162	0x385950c5	5.1812054e-05
163	0x37c753b2	2.3761622e-05
164	0xb716b46b	-8.982704e-06
165	0x3822f240	3.8849423e-05
166	0x381ad647	3.6916023e-05
167	0x382220b0	3.8654252e-05
168	0xb88a2ede	-6.5890825e-05
169	0x3818c26c	3.6420694e-05
170	0xb735c783	-1.0834893e-05
171	0x38c8ef8e	9.581364e-05
172	0xb77f62f0	-1.522222e-05
173	0xb7855884	-1.5896054e-05
174	0x37e53c60	2.7327042e-05
175	0xb8520865	-5.007572e-05
176	0xb8049b36	-3.1615804e-05
177	0xb6c28608	-5.797254e-06
178	0xb82e0c93	-4.1496543e-05
179	0x38162a4e	3.5802186e-05
180	0x37b4aa9b	2.1537116e-05
181	0x37d3aef0	2.5234622e-05
182	0xb7fc41ed	-3.007144e-05
183	0xb8872b3d	-6.4453554e-05
184	0xb6d6e93a	-6.404848e-06
185	0x37c3694b	2.3294842e-05
186	0x37d8f0c1	2.5861316e-05
187	0xb8212a9f	-3.8425085e-05
188	0x389665ae	7.171497e-05
189	0x3809ae1d	3.28255e-05
190	0x3863fbd6	5.4355558e-05
191	0xb7a6d30e	-1.9887022e-05
192	0x38ca6896	9.651591e-05
193	0xb8f3e689	-0.000116300835
194	0xb93839f6	-0.000175692
195	0x3904e36b	0.00012673221
196	0x3941965a	0.00018461925
197	0x37fe852f	3.0341178e-05
198	0x386fe75e	5.7197518e-05
199	0xb7ea773d	-2.7950498e-05
200	0x391fd465	0.00015242545
201	0xb8c31174	-9.3015755e-05
202	0xb92b3e39	-0.0001633101
203	0xb78e98e0	-1.6998907e-05
204	0x36fef7a5	7.5986195e-06
205	0xb9347eac	-0.00017213327
206	0x38fab1f0	0.000119540724
207	0x38b83342	8.783351e-05
208	0x39566438	0.00020445965
209	0x3898f081	7.292722e-05
210	0xb8de55f4	-0.00010601795
211	0x38e4aaf6	0.00010903731
212	0xb91fa466	-0.00015224665
213	0xb90f0fe7	-0.00013643467
214	0xb83afd71	-4.458189e-05
215	0xb80975b0	-3.277295e-05
216	0x39487824	0.00019118242
217	0xb803365c	-3.128346e-05
218	0x38eea600	0.00011379644
219	0x3924ee1d	0.00015728963
220	0x3913a4c5	0.00014080394
221	0x382e2342	4.151767e-05
222	0xb8b18824	-8.465376e-05
223	0xb937e78d	-0.000175385
224	0xb8efdaf0	-0.000114371884
225	0x3908f941	0.00013062825
226	0x38392add	4.4147357e-05
227	0xb8d8d66d	-0.000103396225
228	0xb93cde8d	-0.00018011984
229	0x390c98e9	0.00013408404
230	0xb92ea197	-0.0001665413
231	0xb910fbc1	-0.00013826696
232	0x37d327b8	2.5171656e-05
233	0xb7a1c3f9	-1.9283952e-05
234	0xb6888638	-4.068741e-06
235	0x389ecc0d	7.5720345e-05
236	0x38de3e1b	0.00010597353
237	0x38fee837	0.00012154917
238	0x38cef127	9.8677636e-05
239	0x3884c8a3	6.331622e-05
240	0x38bec5de	9.096762e-05
241	0x38f99a81	0.00011902024
242	0x390d43ba	0.00013472038
243	0x3829ac21	4.0453047e-05
244	0xb91ed1f1	-0.00015146263
245	0xb7bf0ba6	-2.2774399e-05
246	0x39212420	0.00015367614
247	0x382211cc	3.8640384e-05
248	0xb8bb0aa9	-8.9188405e-05
249	0x393d9409	0.00018079592
250	0xb944fc10	-0.00018785917
251	0x390f8211	0.00013685996
252	0xb8e4327e	-0.00010881292
253	0xb88b84d0	-6.652775e-05
254	0x36410190	2.876015e-06
255	0x390e4dad	0.00013571112
