eval/eval_rl/runs/CartpolePPO_v2/11-13-2025-13-58-39/nn/CartpolePPO.pth (torch, 69200 bytes, 24 tensors)

value_mean_std.running_mean f8 [1]
00000000: 3660 ea9b 3f1f 7340
305.953029552012

value_mean_std.running_var f8 [1]
00000000: df39 73d9 4e19 e340
39114.46404420188

value_mean_std.count f8 []
00000000: 0000 0020 0080 6041
8650753.0

running_mean_std.running_mean f8 [4]
00000000: f555 ddd7 e3a9 e03f 9514 d4b0 321f a3bf
00000010: 4e1f aaed 232c d53f 8e22 8516 f926 c3bf
0.5207385269265489 -0.037347396932127776 0.33081911286762 -0.14962686156856758

running_mean_std.running_var f8 [4]
00000000: 58f3 4454 be07 f73f 2eb4 e426 85f0 f43f
00000010: 583d dd26 bc0a ff3f 3a1c 8ac0 8393 1540
1.439390496422865 1.308720733573192 1.940120841801976 5.394057281903821

running_mean_std.count f8 []
00000000: 0000 0040 0080 5041
4325377.0

a2c_network.actor_mlp.0.weight f4 [64, 4]
00000000: a40c 413b 1a53 1e3f 262b 373e 8898 ec3e
00000010: 9025 f7bc d396 f1be d8d1 c4bd 4121 01be
00000020: ffc7 9abe 6736 31bf 911b 8bbd 7643 5d3c
00000030: ed83 583e ca92 8e3e 7969 84be e25e 3fbd
00000040: f732 8c3e 126f a23f 34f9 353e fd8a 663e
00000050: 5975 8a3e ffbd ec3c 7dd8 2f3f cb13 abbf
00000060: 0845 86be 2d03 3b3e 7428 d73a f571 833e
00000070: c86c adbe 7993 9ebe 9fc3 d6be b186 2cbf
00000080: e41c a9be 312b 593f c699 1d3e 3bc0 1d3e
00000090: a8a0 9f3c 5370 f0be b86d ab3c f541 6fbf
000000a0: 9a9a e5be ad6c 8fbe 89f1 193e 9d5a e83e
000000b0: 0e99 f8bd 027c 903e c018 443e bb10 413f
000000c0: 03fa 953e d844 a13c 386a 023f fc73 0bbf
000000d0: fe37 dbbd d6d6 8cbf 36da 12be 2195 9abe
000000e0: 4660 03bb f47d ad3e f19a 10be 8681 e53e
000000f0: 8299 e73c 134d a83e 5732 1d3d df35 843e
00000100: c39a b33e f0ef 6a3f efe3 233e d3fd 72bf
00000110: 8c1e 7f3e 41d1 063f 2012 2e3f 5c75 243f
00000120: 61df cd3d 555c 57bf dbd1 ecbc 88e6 15bf
00000130: a4f6 0bbe 3302 983e c40d e93e 1e20 01bf
00000140: 6586 09be 1e63 1dbf 332b c4bd f6c5 1cbe
00000150: 2cc5 fd3d bc67 9fbe 539a 213d 2e05 4a3e
00000160: 7b49 ba3e 9b37 58be ae07 e9be d276 c1be
00000170: 5e3e 29be be28 e5be 3118 0ebf 31f0 3ebf
00000180: af5d aa3e 5c2e 5c3f 4111 673d 450f f23a
00000190: f6c8 9dbe 5197 19bf f1e2 0cbf 2f41 58bf
000001a0: 9722 df3d e268 213f 4f31 91bd 5c76 073f
000001b0: 9b5e cbbd acf4 943e 6264 4c3e 9d92 81be
000001c0: ad9a b03d b032 f33e 1861 ab3d 47f7 df3d
000001d0: eff9 853d 8d2b 1c3e 1e67 89bd da64 e83e
000001e0: c4bc 99be ca7a 17bf 6833 37be 5581 e1be
000001f0: cf61 13be 4bf2 4ebf feb8 57bd e540 fbbd
00000200: 43d5 dabb 7247 92be 7e9a 603e 3a2f d8be
00000210: 60a6 583c 968c c13e d201 d03c a937 f83d
00000220: 8b7b 563f 09bf a53d 5dbc 7a3d 0135 02be
00000230: b689 93be 9c2b d1be e607 1f3e c161 b7bd
00000240: 0921 aebe 11ec 9cbf 57a6 9ebe f4cb 0bbf
00000250: ff32 a73e e598 0a3f e6bf 043e 736c 73be
00000260: be9d ce3b 9840 6cbf 92de 1ebe 7a50 33be
00000270: b9e5 fb3c b157 9cbf 2faa 34bd fa89 10bf
00000280: 53ce 51be 078d 813e b484 c4be 16d3 033f
00000290: a2f1 90bc e8ab f3bd 5c3a 413e 7f57 4fbf
000002a0: 8deb ff3e a13d 0d3e bc11 fbbd 613d 363f
000002b0: 14c8 99bc 77e9 1bbd 2f59 bb3e ec22 8abf
000002c0: ba29 d9be 4c31 d63e 6f20 75be 8817 073f
000002d0: b904 eb3d ca53 963e 4ae9 7dbd 9225 cb3c
000002e0: ed81 bcbe 5667 d53e ee38 d63e 1da9 f43e
000002f0: 350f 72be 9f59 e0bd d38f 83be d9c8 22bf
00000300: 8788 21bc b229 5e3e 0463 7ebd 47cd 943d
00000310: 27f0 663d 40ba 813e 9ecc eebe 22b5 99be
00000320: bbbb d1be ccd5 3b3f 6594 46be 19c3 3f3f
00000330: 35eb 003e 2986 973d 65e6 79bd ddd5 763d
00000340: b00f 03bc bda3 ddbe 0dff 3c3d 1ffd 9a3d
00000350: 0293 67be 4623 84bd 3849 8e3e 7aba 47bf
00000360: ec22 50be 1f45 4e3f f7c0 e03c 5caa 57be
00000370: fdde 8dbe e270 4e3e d424 10bf 2f5f 95be
00000380: 4956 a9be 5991 1cbd b353 0f3e 3be6 c83e
00000390: 68d6 8b3d 7a5e 053f bc33 0a3e b925 3abe
000003a0: 04b1 813e 7858 1dbf d2c5 c3bd bfe3 28ba
000003b0: 004d 9ebe df2b ae3e c4f6 d1be 39ad 8dbd
000003c0: f314 583e 9f49 3ebf ddae 1f3e 41f7 35bf
000003d0: 8aba a43e 51f7 88bd f923 a83a 94c9 5a3e
000003e0: ba4f 803e 39f6 aabe 9bff 53be ee57 39bf
000003f0: 83c7 de3d eb75 a63e 3345 fbbc c426 9fbd
0.0029456997 0.6184555 0.17887554 0.46210122 -0.030169278 -0.47185382 -0.09610337 -0.12610342
-0.3023071 -0.69223636 -0.06792367 0.0135048535 0.21144076 0.27846366 -0.2586172 -0.046721347
0.27382633 1.2690146 0.17770845 0.22513957 0.27042654 0.028899191 0.6868971 -1.3365415
-0.26224542 0.1826293 0.0016415254 0.2567288 -0.33872056 -0.30971888 -0.41946122 -0.6739302
-0.33029854 0.8483153 0.15390691 0.15405361 0.019485787 -0.46960697 0.020926341 -0.9346002
-0.44844514 -0.280126 0.15033545 0.45381632 -0.12138568 0.2821961 0.19150066 0.75416154
0.29292306 0.019686148 0.50943327 -0.54473853 -0.10704039 -1.1003063 -0.14341053 -0.301919
-0.0020046397 0.33885157 -0.14121605 0.4482538 0.02827144 0.32871303 0.038378086 0.2582235
0.3507901 0.91772366 0.16004919 -0.94918555 0.24913996 0.52663046 0.67996407 0.64241576
0.10052372 -0.8412526 -0.02890866 -0.5855489 -0.13668305 0.29689178 0.45518315 -0.5043963
-0.13430174 -0.61479366 -0.09578552 -0.15309891 0.12391123 -0.3113383 0.039453816 0.19728538
0.36384186 -0.21114962 -0.45513672 -0.37785965 -0.16527697 -0.44757646 -0.55505663 -0.74585253
0.332746 0.8600824 0.05641294 0.0018467685 -0.30817384 -0.59996516 -0.55033785 -0.8447446
0.10895269 0.63050663 -0.07089483 0.5291498 -0.09930154 0.2909292 0.19960168 -0.2530717
0.08623252 0.4749961 0.083681285 0.10935836 0.06541812 0.15250988 -0.06709121 0.45389444
-0.3002683 -0.59171736 -0.17890704 -0.44043985 -0.1439278 -0.8083846 -0.052666657 -0.12268237
-0.006678255 -0.28570133 0.21933934 -0.4222353 0.013223261 0.3780257 0.025391493 0.12119991
0.8378226 0.08093078 0.061214793 -0.12715532 -0.28816003 -0.40853584 0.15530357 -0.08954192
-0.3400958 -1.2259542 -0.30986282 -0.5460808 0.32656094 0.5413955 0.12963828 -0.23771839
0.0063054254 -0.9228606 -0.15514591 -0.17511168 0.030749189 -1.2214261 -0.044107612 -0.56460536
-0.20488863 0.25302908 -0.38382494 0.51493967 -0.017693345 -0.11898023 0.18869919 -0.80992883
0.49984398 0.13793041 -0.12259242 0.71187407 -0.018772162 -0.038064446 0.3659148 -1.0791907
-0.42414647 0.41834486 -0.23938154 0.5277028 0.1147551 0.293608 -0.06199006 0.024798188
-0.36817876 0.41680402 0.4184031 0.47785273 -0.23638614 -0.10954594 -0.25695667 -0.6358772
-0.009859211 0.21695593 -0.062106147 0.07265716 0.05638137 0.2533741 -0.46640486 -0.30021006
-0.4096354 0.73373103 -0.19392546 0.7490707 0.12589724 0.07398636 -0.061010737 0.06026255
-0.007999346 -0.43288985 0.046141673 0.0756781 -0.22614673 -0.064520404 0.27790236 -0.78018916
-0.20325822 0.8057422 0.027435763 -0.2106108 -0.2770919 0.20160249 -0.56306195 -0.29174182
-0.33073643 -0.03822455 0.13996772 0.39238152 0.06828004 0.52097285 0.13496298 -0.18178453
0.25330365 -0.6146312 -0.095592156 -0.0006442628 -0.3091812 0.34017846 -0.4100858 -0.06917805
0.21101741 -0.74331087 0.15594049 -0.71080405 0.32173568 -0.06687797 0.0012828103 0.21365958
0.25060827 -0.33390978 -0.20702974 -0.72399795 0.108778976 0.3251184 -0.030672645 -0.07771066

a2c_network.actor_mlp.0.bias f4 [64]
00000000: 24f2 86be e396 a33d 1532 8e3e 53ad c9be
00000010: 2fb1 283e dbf4 963e b2a0 983e 9e54 483f
00000020: 4887 17bf 7bf4 a43e 1e6f 0e3f 7645 7d3f
00000030: 1349 ee3d 191b 54bb 19c1 d6be 7cd7 22bf
00000040: fe8e 8d3d e149 27bf 2a6f f03e 8f68 b83d
00000050: 9b2f c73e a1ac 94be 14da ecbe 19cc ecbe
00000060: 0a25 f73e 2df1 1fbf 9629 32be 2c93 98bd
00000070: 515a a5be 30fa 953e 1b19 ec3e 302c 703c
00000080: 3851 2b3f ab04 27bf 073e cebe 314a 8cbd
00000090: 0cf9 30bf 8987 7a3f b773 c83e e8dc 9ebe
000000a0: 9f5c 133f c893 bb3e 1f5e 6fbd 7949 bd3e
000000b0: 278a 4c3f 70dd 673d 53d7 00bf e055 bf3e
000000c0: 7bba 5ebd 15df 02bf 0596 bbbe 7144 d03e
000000d0: a70a 1b3f a2b7 df3d 7c4b 2cbf ca56 1b3d
000000e0: c5a5 0cbf 65ae f6be ed83 b7be aaac 3e3f
000000f0: 506d 3a3f f691 33bf b05d 7ebf 43e4 a6be
-0.26356614 0.07987764 0.27772585 -0.39390048 0.1647384 0.29483685 0.298101 0.78254116
-0.591908 0.32217774 0.556383 0.98934114 0.116350316 -0.0032364784 -0.41944197 -0.63610053
0.06912039 -0.65347105 0.4695981 0.09004318 0.38903508 -0.29037955 -0.4626013 -0.46249464
0.48270446 -0.6247738 -0.17398676 -0.07449946 -0.32295468 0.2929244 0.46112904 0.014658973
0.66920805 -0.652415 -0.40281698 -0.068500884 -0.69130015 0.9786306 0.39150783 -0.31027913
0.57563204 0.36636186 -0.05843937 0.36970118 0.79898304 0.056607664 -0.5032856 0.37370205
-0.05437706 -0.51121646 -0.36637893 0.40677217 0.6056313 0.10923697 -0.6730268 0.037924565
-0.54940444 -0.48179927 -0.3584284 0.74482214 0.7282305 -0.70144594 -0.99361706 -0.32596025

a2c_network.actor_mlp.2.weight f4 [64, 64]
00000000: 56a8 f53e 7e25 98be a4c1 95bc 7bd8 7cbe
00000010: 0110 7a3e bf54 47bf 518e 103e 51e6 b5be
00000020: 03fe 8b3e db45 9fbe ca61 8f3d 9a3e fe3d
00000030: f5bc bbbe ce40 54be 776c 333e 0228 f73e
00000040: 1353 393e 1f6d 863c bcb8 b1bd de98 9fbe
00000050: 6978 efbe a4e5 123f 412e 9bbe a55f 64bd
00000060: 37ed 81be 0258 d7bb ca51 493c 902a 6c3c
00000070: d004 a83e dd8f 1a3e 0c17 5b3b aaaf 0cbe
00000080: 4f6b 56be 67e0 b23e 3fe0 1bbf 0680 df3e
00000090: 5311 fdbd 1451 48be 11ee d6be 387a 273e
000000a0: 53af 463e 93aa a7be d466 853e 9f40 13bf
000000b0: 5d26 96bd 02ed b9be 72d7 e93e 75bd c2be
000000c0: 9319 d1be 20fe 1bbe d279 ffbc da02 0cbe
000000d0: 4f8f e3bd 290f 01be 8902 bd3e d10c 1cbe
000000e0: 8b2c 373f 9b38 dd3d be3a 713e 2c80 bcbe
000000f0: aa70 413d e2af e03e c24e 223b 74cb c9bb
00000100: 91ae b2bd d3e7 8b3e 31bb af3d 081e 23bc
00000110: c204 e5bd de99 02bf a9c2 b2bd aa40 1e3e
00000120: b9c7 7fbe a567 59be 0a65 26bf f910 7b3e
00000130: 0320 923b 3b1c c53d 07dd aabc d75c 47be
00000140: e776 163f 9214 c4bd b185 973e 775f a63d
00000150: eff0 2c3e 5d28 21be c764 3fbe 7699 f5bd
00000160: 1cea ac3e 1480 80be d45a aebd bcc8 933d
00000170: f71c 9abe 605d 563e 61d1 ac3d 8f32 f23d
00000180: 8005 323e 2452 f8be 7ef0 06bf a72b d9bd
00000190: 96d4 cebe a41f 443f 9e11 2f3e 42db b7be
000001a0: 7ebe 003c 6853 5cbe 0b5d f03d 6842 8cbe
000001b0: 10a1 4c3e 338d 903e 3bee 8c3c b9cc 69bd
000001c0: 4b74 083d b00a 2ebe b871 88bd cfc4 ec3e
000001d0: e9c2 83bd 647a b4be 1e96 73be 3fd6 fd3d
000001e0: e1ff 17be 1545 e13c 6e19 7bbe 30c8 df3e
000001f0: 5acf 8e3e 0d2e e7be b094 e9bd 203e 113d
00000200: 65e5 123e d00b 763d b617 38bd 3fc1 e33d
00000210: dadf 003d 9fb7 c23d 2fb4 ccbd 0cf4 0abd
00000220: 1a9b c7bd f462 18be a85e ac3d 5b7b 46be
00000230: 64c0 cc3d 4157 8e3d 9247 b9bc 550a 07be
00000240: 5fb3 3abd 4e22 2f3c bc8d 07bb 7d9e 803e
00000250: 0ab4 bf3d 3f0d 94bd 8adf 743d 74d2 14be
00000260: 4fd6 a9bd 322b 313b 1d80 8ebd 36b0 a13d
00000270: 952e bbbd 5fa0 57bd 25f5 e8bd d545 ed3d
00000280: e2f9 0e3d 9532 863d 8b43 463e 48d1 043e
00000290: d5b6 803d 252c 58bd 7aac bdbc 41ad c63c
000002a0: 2a5d 9b3d 752c 8cbd 565c 1f3e 00db 02bd
000002b0: 7aae 2fbd 82fd 17be 65ac 113e 12bb 273e
000002c0: 3286 14be 5ab1 3b3e d232 d13d d6af e13d
000002d0: 07a9 653e dd5d e9bd 4808 5a3d 661a e63d
000002e0: 10f6 67bd 7978 563d 4aa8 cebc 80e6 c43d
000002f0: 602d d2bd 1f5e 30be 53fa a43d 0fb5 343d
00000300: 371a e0bd d00d 613d cbb3 a53d ba5d ddbc
00000310: 955b 413c 4c7b 6a3d e0f7 48bd 3fb2 3cbe
00000320: c09a 30bd 6ab3 99bd e200 b73d e99b 0dbe
00000330: c5ae cc3d f2ee febc 75a3 4cba 5171 27bd
00000340: 3dc0 c8bd 0703 95bb 243d 8cbd 8b30 fcba
00000350: ee41 a33d 774e 90bd bcdd 853b 0f1c 353d
00000360: f6c9 53bd 8278 543d 0d82 0abe 6999 afbd
00000370: 3599 94bd b34b ee3c 1be8 b5bd 3254 503d
00000380: 8f6e 863d 1c1c dd3c 1d31 0b3e 4c0b 9ebd
00000390: 5b6c 923e d791 19be d018 a73d a1c9 5c3d
000003a0: a002 c7bd aa45 bd3d 1f06 c23c fb63 cd3d
000003b0: 22dd 18be 879e 03be 1d35 44bd 69b0 013e
000003c0: 6012 00be fae6 0f3e b761 d33b 09e9 26bd
000003d0: 66e7 9c3e a4e2 e33d 2d97 e33d 88d6 81bc
000003e0: 3f2f 5ebd e6ae c4bd a5a6 343d 1f08 c43c
000003f0: 6d75 9fbd b27e 41be ba22 e53d dd0d ce3d
0.47979993 -0.29716104 -0.018280812 -0.24691956 0.24420168 -0.7786369 0.1411679 -0.3552728
0.27342233 -0.31107983 0.07001074 0.12414284 -0.366676 -0.20727846 0.17521845 0.4827271
0.18098097 0.016409455 -0.086778134 -0.31171316 -0.46771553 0.57381654 -0.30308726 -0.055755276
-0.25376293 -0.0065717706 0.012287566 0.014414445 0.32816172 0.15093942 0.0033430485 -0.13738886
-0.20939372 0.3493683 -0.6088905 0.43652362 -0.1235682 -0.19562179 -0.41978505 0.16355217
0.19402818 -0.32747325 0.26055014 -0.5752048 -0.07331536 -0.36313635 0.45672184 -0.3803517
-0.40839824 -0.1523366 -0.031186018 -0.13672963 -0.11111318 -0.1260344 0.36915997 -0.15239264
0.7155234 0.10801812 0.23557565 -0.36816537 0.047226585 0.43884188 0.0024766182 -0.0061582867
-0.08724702 0.27325305 0.08580626 -0.0099558905 -0.11182548 -0.5101603 -0.08728535 0.15454355
-0.24978532 -0.21230944 -0.64997923 0.24518193 0.0044593825 0.09624525 -0.020857347 -0.1946901
0.5877518 -0.09574236 0.29594186 0.08123677 0.16888784 -0.15738054 -0.18690787 -0.11992161
0.3377236 -0.25097716 -0.08513418 0.072160214 -0.30100223 0.20934057 0.08438373 0.118260495
0.1738491 -0.48500168 -0.5271071 -0.10604029 -0.40396565 0.7661078 0.17096564 -0.35909468
0.007857917 -0.21516192 0.117364965 -0.27394414 0.19983315 0.28232726 0.01720344 -0.057080004
0.03331403 -0.16996264 -0.06662315 0.46243903 -0.064336605 -0.35249627 -0.23787734 0.1239438
-0.14843704 0.027498761 -0.2452142 0.43707418 0.27892572 -0.4515232 -0.11405313 0.035459638
0.1434532 0.06006986 -0.044944488 0.11120843 0.03146348 0.09507679 -0.09995305 -0.033924147
-0.0974638 -0.14881498 0.08416492 -0.19382994 0.09997633 0.06950236 -0.022617135 -0.13187535
-0.045581218 0.010689331 -0.0020683846 0.25120917 0.093605116 -0.07229089 0.059783496 -0.14533406
-0.08292829 0.0027033803 -0.069580294 0.07894938 -0.09139744 -0.052643176 -0.113748826 0.11585585
0.034906276 0.065526165 0.19361703 0.1297046 0.062848724 -0.052776475 -0.023153532 0.024252536
0.07586129 -0.06844417 0.15562567 -0.031947136 -0.042891003 -0.148428 0.1422592 0.16379955
-0.14504316 0.18329373 0.10214771 0.11019866 0.2242776 -0.11394856 0.053230554 0.11235504
-0.056631148 0.052360985 -0.02522673 0.09614277 -0.10262561 -0.17223404 0.08055558 0.044117983
-0.109425 0.054944813 0.080909334 -0.027022231 0.01180162 0.05724649 -0.049064517 -0.1842737
-0.04311633 -0.07504924 0.08935715 -0.13829006 0.09994272 -0.031119797 -0.00078063394 -0.04087955
-0.098022915 -0.00454748 -0.06847599 -0.0019240541 0.079715595 -0.07046216 0.0040852707 0.044216212
-0.051706277 0.051872738 -0.13526173 -0.085741825 -0.072557844 0.02908883 -0.08882161 0.050861545
0.06564056 0.026990943 0.13592954 -0.077169985 0.28598294 -0.1499704 0.081590295 0.053903226
-0.097172976 0.09241803 0.02368456 0.100288354 -0.14928105 -0.12853442 -0.047902215 0.12664951
-0.1250701 0.14052954 0.0064508575 -0.040749583 0.30645293 0.11127213 0.11112819 -0.015849367
-0.054244276 -0.09603672 0.044104237 0.023929654 -0.07786069 -0.18895987 0.11188264 0.10061238

a2c_network.actor_mlp.2.bias f4 [64]
00000000: 3d9a ddbe 36d8 bf3e b531 673e 8505 ba3e
00000010: df15 053b 73db c6bd 5793 723d a234 383e
00000020: 59ac 85be 635b f1be b8f0 08bf 56f6 68be
00000030: caac 80bd d281 183d cdf9 133e cdd6 5c3e
00000040: fbaa 8bbe ca63 c7bc eade 32bf e832 08bf
00000050: 4280 b73d 0531 d93d 8fa0 59bd 1f6c b13e
00000060: c381 f5bc dfbb 15bd 6721 18bf 8e7a 00be
00000070: 12e8 7b3e 6843 d63e 9dbe 893e 2f01 96be
00000080: f80c 253e fe19 86be 748d acbe 49db 80be
00000090: 35e8 ef3c f8e0 c8bd f48d 0dbf 6837 c1be
000000a0: ae9b 08bf d68f 00be 6e71 01bd 8a3b d0be
000000b0: d769 023f 443a 7bbe 4bff 57bd 751f 9ebe
000000c0: bd61 5bbe 8125 d2bb ad37 2d3e 6015 6f3e
000000d0: ec96 0fbf 4eef fb3e 32db 8abe 25a8 b93e
000000e0: 64b6 0fbe 60b8 213f 3cfe 2fbe 0f50 81be
000000f0: dd65 2fbe 5cd5 15bf 143e 0ebe 3f89 113f
-0.43281737 0.37469643 0.22577555 0.36332336 0.0020307226 -0.09709825 0.059222545 0.17988828
-0.26108053 -0.47140035 -0.5349231 -0.2275022 -0.06282957 0.03723318 0.1445076 0.21566315
-0.27278885 -0.024339575 -0.6987139 -0.53202677 0.0896001 0.10605053 -0.053131636 0.34652802
-0.029969102 -0.03655612 -0.5942597 -0.12546751 0.24600247 0.41848302 0.2690324 -0.29297778
0.16118228 -0.26191705 -0.3370167 -0.251673 0.02928553 -0.098085344 -0.5529473 -0.37737584
-0.5336255 -0.12554869 -0.031602316 -0.40670425 0.5094275 -0.24533945 -0.0527337 -0.30883375
-0.21424003 -0.006413162 0.1691577 0.23347998 -0.56089664 0.49206012 -0.27120358 0.36261097
-0.1403442 0.6317196 -0.17186826 -0.25256392 -0.17128702 -0.58528686 -0.13890868 0.56850046

a2c_network.value.weight f4 [1, 64]
00000000: 879d 973d 8db9 673e 5cf3 2c3a 8d04 56ba
00000010: 4bb3 dd3b 3766 0fbe 5481 3e3e a7a5 d2bd
00000020: d290 aa3b 800d a03d 6f41 2a3e b352 95bd
00000030: 623c 7abd 902e fbbc 2937 963c 0357 093d
00000040: 252e c2b9 8f13 cf3d 9f33 983e 027a 3a3e
00000050: 1f70 a8be 7869 9ebe e955 3a3e f7d6 743e
00000060: 5c32 03bb 17b1 823b 3826 5a3e 67a2 d5bc
00000070: c635 a33e c9dc 66be b240 663e be95 f3ba
00000080: 7897 bfbc 0d0a 3dbc da0c a03d be11 b0be
00000090: f421 823e 5e68 04be 0a6a a53e 3e77 cf3d
000000a0: 65e1 3d3e 87fd 9fbb af23 b13a 13e3 3539
000000b0: 88c0 64be 3867 2eb9 17c3 a0bd cab9 08bf
000000c0: 2450 6fbe e408 943e 5fb5 22be 1a86 22be
000000d0: 34b5 243e 451d dabd 5682 51be 140d 07be
000000e0: 3292 37be 1415 3abe 1156 bdbd 4025 773d
000000f0: dace ebbe df71 0e3e f662 60be 6102 3fbe
0.07403093 0.22629376 0.00065975427 -0.000816413 0.006765758 -0.14003836 0.18604022 -0.10285502
0.005205252 0.07815075 0.16626523 -0.07291164 -0.06109274 -0.030661851 0.01833685 0.033530246
-0.00037036944 0.101111524 0.29726884 0.18210605 -0.32898042 -0.3093984 0.18196835 0.23910128
-0.002001903 0.003988396 0.21303642 -0.026078416 0.31876963 -0.2254516 0.22485617 -0.0018584055
-0.023387656 -0.011538041 0.07814951 -0.34388536 0.2541653 -0.12930438 0.32307464 0.101301655
0.18543012 -0.0048825177 0.0013514663 0.00017346097 -0.2233907 -0.00016632385 -0.078497104 -0.5340849
-0.23370415 0.28913033 -0.158895 -0.15871468 0.16084749 -0.10650114 -0.20459875 -0.13188583
-0.17926863 -0.18172103 -0.092449315 0.06033826 -0.46056253 0.13910626 -0.2191275 -0.18653251

a2c_network.mu.weight f4 [1, 64]
00000000: 7ea8 d73e 3e4e b03e dc20 6f3b 2d8c e43a
00000010: ba29 b6ba c736 703e 0c89 cc3e a71e bbbe
00000020: f78c b1bb c930 013e c6b9 193f 0f2d 6abd
00000030: 56a1 193e 895a 143f 3ea1 07bf 9f0d f9bd
00000040: 1e3a 18bb 22ca 4dbe 424e 383e 82ca 39be
00000050: 26b4 d4bc cd32 1b3d 5625 153e 2b8a ad3e
00000060: ac39 ea3a 2124 553e 7bde 2f3d 42a5 30be
00000070: 1857 14bf 4770 45bd 2a36 2a3e 2521 2dbb
00000080: 4629 753e e435 49be 13f3 a33c d8c4 843e
00000090: 2100 4bbe 9abe 7b3e 6f8d 1abc ef41 28be
000000a0: 8a45 963d 64b9 003a 4237 b5ba c93b 363d
000000b0: d19c 8abd bd67 1bbc 05a9 c83e a40b acbe
000000c0: 9f09 31be 2c42 fdbc 5fe1 6ebf adc8 0f3f
000000d0: eb5a b8bd 7c86 3fbe 1c4e 0ebe 5ce0 223e
000000e0: 8e99 553c 9dbd 63be b642 063f d987 b9bd
000000f0: 8354 1abf 76bd 533e 44a0 823e 9847 333e
0.42120737 0.34434694 0.0036488092 0.0017436795 -0.0013897934 0.23458396 0.39948308 -0.36546823
-0.0054184156 0.12616266 0.6004909 -0.057171877 0.15002951 0.57950646 -0.5298041 -0.12160801
-0.0023228 -0.20096639 0.17998603 -0.18143657 -0.025964808 0.037890244 0.14565024 0.33894476
0.0017869971 0.20814563 0.042936783 -0.17250541 -0.57945395 -0.04820278 0.16622224 -0.002641746
0.23941526 -0.19649464 0.020013368 0.2593143 -0.19824268 0.24584427 -0.009433134 -0.16431402
0.07337482 0.0004910438 -0.0013825672 0.04449061 -0.067681916 -0.009485182 0.39191452 -0.3360263
-0.17288826 -0.030915342 -0.9331264 0.5616558 -0.09001716 -0.18703645 -0.13896984 0.15905899
0.013037099 -0.222403 0.5244554 -0.09059114 -0.60285205 0.20677742 0.25512898 0.1750778

exp_avg f4 [64, 4]
00000000: ac80 c5ba 09f7 8b39 0b76 b2ba 1e6e e839
00000010: 93ac a73a 5ff5 04b9 ac0b 093b a800 0aba
00000020: 1dfa 7f3a 07d7 34ba 8c83 383a 6c5e d739
00000030: e076 20ba 76ea 8839 991e c7ba dc49 873a
00000040: d2d5 66bb 6810 923a 0948 82bb 9db0 39b8
00000050: 0632 f5b9 aed4 e8b8 9ace a2ba 85a9 fab9
00000060: fd77 04ba 24dc 91ba f800 7939 6f7c 3d3a
00000070: 385b 07b9 273f b439 9e61 03b9 d599 55ba
00000080: 9760 f9ba 31b0 383a 57a2 05bb 796e 713a
00000090: a841 c838 30ab e8b9 19c1 e8ba 0724 293a
000000a0: bcb0 cf38 28a9 8aba d822 d239 96bd 28ba
000000b0: 3ade 28ba 6c8c 07ba 72bb 9539 34fd 7eb9
000000c0: 1dbe f2b8 3d29 e7b7 fa51 95ba f900 60ba
000000d0: 9a3f 573b 359d 46ba 8731 4f3b 495c 1ab9
000000e0: 6835 a5ba 8975 a439 20cf e8b7 6682 39b9
000000f0: 40ab e2ba 05f9 8f3a d65e 19bb 3a91 a13a
00000100: 3e5d 52b9 eb56 aa3a 2ecc ce3a 10f0 ad39
00000110: b8ae 98b8 4401 a1b9 65aa 82b9 af84 843a
00000120: 7e21 d93a 6104 b834 17c3 c838 953b c9b8
00000130: c2fe 76ba a925 8b39 f0b0 7dba c8c3 b9b9
00000140: 0b7e 023b c679 40ba 6ef9 483b 51f0 48ba
00000150: 7d20 343a a74f 8137 3fe5 e33a 77b8 52ba
00000160: 5dfe 913a ab37 4336 468e 963a b88d 5db9
00000170: de24 c03a 3f5b f839 59eb a23a c0ac b2b9
00000180: 194e 1dbb 8c76 d039 4c79 84bb a65b af39
00000190: 9b7e af3a a176 253a 44a9 4e3a 5acc a8b9
000001a0: cca7 95ba 7360 60b7 d676 b4b7 e09d 22b7
000001b0: 575a 95ba f9d3 dc39 39d8 d3ba 21a9 6e39
000001c0: f469 f8ba 785d aa39 f0a5 4dbb 4f79 a43a
000001d0: f4bd 5cba 71f5 1cba 4fd5 1c39 b5da 8b38
000001e0: e710 043a 6ac1 acb8 77a4 0bba b02a 38b9
000001f0: fb85 3f3b b4ce 28ba 0c53 643b 1ef4 c1b9
00000200: 9468 303a 82b5 6aba ae3d dbb8 2096 5939
00000210: 55c6 c3ba c3fd 383a c688 08bb 29be 953a
00000220: 243e e4b8 94c9 06ba 61b5 c739 8e8e ceba
00000230: 2f11 873a 2a2c 9db8 c7eb d73a b377 bab9
00000240: 2c43 833b 3150 4b39 f446 c23b ca8a 17bb
00000250: 0f57 e7ba 1cf5 59b9 98b8 8fbb 50d5 343a
00000260: 8731 2a3b 139f 57ba 2174 4e3b 2679 3eba
00000270: c200 e83a ae8e da39 3857 0d3a 711a 0c3a
00000280: 5770 bdb9 e166 9aba bd02 513a dd81 603a
00000290: ab86 8f38 f35e f3b9 20bb 40ba 4e6f 1637
000002a0: c886 00ba 5dc4 21b9 ab45 3ab9 ed47 c939
000002b0: af87 c2b7 c101 b5b9 c42d 22ba 86bd e0b8
000002c0: e6ff 90b9 6c30 24ba 316c 383a 5c93 c939
000002d0: 4bc6 99ba 8bc3 7238 ad91 e5ba e789 1e3a
000002e0: f055 8aba 30d2 d539 5cad e9b9 2bfa 4439
000002f0: e814 2a3a 20d7 f4b9 2345 683a 6fe1 cfb9
00000300: 03ff 5dba 15bd 94b8 39f4 b3ba 3a9c 053a
00000310: 7a0b d539 e650 aa39 206c 1cba 0f35 873a
00000320: 3fbc 2eba 5520 25ba 6b55 183a e8c8 023a
00000330: 21bd 8cb8 5913 16ba 2c7e d6b9 01d0 00b9
00000340: b30b e53a 342e c7ba 54bf 343b cf45 b4ba
00000350: 8d17 0239 a17c 6bb9 a797 78b9 7a76 07b9
00000360: 2b0a a6ba 528f 6c3a bea6 bfba ebf5 1f3a
00000370: 8d92 aa39 9ace 393a 2977 9db8 402b dc39
00000380: e5f4 dab8 7c69 743a bd79 cc3a 8fce 5cb7
00000390: 6b73 52ba e2b5 433a 4337 b1ba 6d61 f739
000003a0: fa25 193b 97fc 4939 cb0a 5f3b 4574 ccb9
000003b0: 4a56 ddb9 f58a 0a38 6892 1d3a bdd4 dab7
000003c0: 085f bc39 4c49 4039 0c8a d5b8 fb8e 49ba
000003d0: 8797 5c39 e690 8c39 df30 e63a 11ad 60b9
000003e0: 073c 213a bf31 793a c9e9 aeb9 ba32 b6b8
000003f0: 9c92 bbba 3adb 4b3a 8d81 48bb b0de 8f3a
-0.0015068254 0.00026696202 -0.0013615502 0.00044332532 0.001279252 -0.00012679909 0.0020911498 -0.000526438
0.0009764748 -0.00068984966 0.0007038645 0.00041078345 -0.00061212294 0.00026114628 -0.0015191614 0.0010321694
-0.0035222662 0.0011143805 -0.0039758724 -4.427192e-05 -0.00046767312 -0.00011102237 -0.0012421191 -0.00047810018
-0.000505328 -0.0011128229 0.00023746851 0.000722832 -0.00012908585 0.00034379328 -0.00012529499 -0.0008148228
-0.0019025978 0.00070452975 -0.0020390952 0.0009209882 9.5489726e-05 -0.00044378033 -0.0017757743 0.0006452207
9.9034485e-05 -0.0010578977 0.00040080282 -0.0006436942 -0.0006441806 -0.0005170766 0.00028559152 -0.00024317653
-0.000115748706 -2.7556549e-05 -0.0011392229 -0.0008545067 0.0032844306 -0.0007576526 0.0031615214 -0.00014720963
-0.0012604417 0.00031368088 -2.7753005e-05 -0.00017691552 -0.0017293468 0.0010984248 -0.0023402474 0.0012326606
-0.00020061896 0.0012995874 0.0015777403 0.00033175992 -7.280469e-05 -0.00030709256 -0.00024922486 0.0010110344
0.0016565768 3.4275857e-07 9.5730815e-05 -9.595525e-05 -0.0009422117 0.00026540205 -0.000967755 -0.00035431818
0.0019911553 -0.00073423644 0.003066625 -0.00076652045 0.0006871296 1.541509e-05 0.0017387046 -0.00080383517
0.0011138428 2.9089667e-06 0.0011486493 -0.00021128997 0.0014659425 0.0004737023 0.0012429758 -0.00034079514
-0.0024002849 0.00039761176 -0.00404278 0.00033446884 0.0013389172 0.00063119276 0.0007883499 -0.0003219571
-0.0011417805 -1.3373897e-05 -2.151301e-05 -9.692711e-06 -0.0011394721 0.00042119602 -0.0016162462 0.00022760454
-0.0018952475 0.00032494566 -0.0031379424 0.001254836 -0.0008420639 -0.00059875014 0.00014956783 6.668774e-05
0.0005037919 -8.237625e-05 -0.00053269364 -0.0001756351 0.0029224146 -0.00064394926 0.003483954 -0.0003699371
0.00067294505 -0.00089534384 -0.000104542225 0.00020750659 -0.0014936427 0.00070568564 -0.0020833476 0.001142447
-0.00010883462 -0.0005141732 0.00038091376 -0.0015759037 0.0010304804 -7.4945696e-05 0.0016473465 -0.00035565867
0.0040058102 0.00019389462 0.0059288684 -0.0023123496 -0.0017649847 -0.00020786043 -0.004386019 0.0006898241
0.0025969462 -0.0008225303 0.0031502324 -0.00072659773 0.0017700421 0.00041686505 0.000539172 0.0005344516
-0.0003613259 -0.0011779928 0.00079731253 0.0008564273 6.843855e-05 -0.00046419314 -0.00073521025 8.966612e-06
-0.00049028965 -0.00015427308 -0.00017764296 0.00038391296 -2.3189785e-05 -0.00034524317 -0.0006186629 -0.00010716454
-0.0002765648 -0.0006263319 0.0007035165 0.000384475 -0.001173207 5.787941e-05 -0.0017514728 0.0006047771
-0.0010554176 0.00040783128 -0.00044570386 0.00018785211 0.00064881006 -0.00046699587 0.00088604 -0.00039650078
-0.00084684807 -7.092409e-05 -0.00137294 0.0005096827 0.00040635077 0.000324852 -0.00059670396 0.0010315495
-0.0006665624 -0.00062990683 0.0005811068 0.0004989044 -6.710948e-05 -0.0005724929 -0.00040911266 -0.00012284519
0.00174748 -0.0015196265 0.002757986 -0.0013753715 0.0001240654 -0.00022457774 -0.00023707618 -0.00012918739
-0.0012667825 0.0009024042 -0.0014621837 0.0006102013 0.00032534116 0.0007087976 -7.508539e-05 0.00041993894
-0.00010440665 0.000932358 0.0015600246 -1.3161115e-05 -0.0008028063 0.00074657623 -0.0013520498 0.000471841
0.0023368583 0.00019262951 0.0034033533 -0.0003899654 -0.00042216695 3.3031178e-05 0.0006010891 -2.608669e-05
0.00035928958 0.00018337852 -0.00010182345 -0.0007688847 0.00021037283 0.0002681084 0.0017562172 -0.00021426777
0.00061506074 0.0009506009 -0.0003336205 -8.687885e-05 -0.0014310661 0.0007776503 -0.0030594796 0.00109764

exp_avg_sq f4 [64, 4]
00000000: f984 9037 36e2 9c36 803e be38 a002 f437
00000010: 6ee6 1337 5ee4 9236 ae94 6a38 ed6e 9b37
00000020: 65b0 6637 1d3e 8736 23c7 ba37 4824 ef36
00000030: 6673 5137 2596 b336 5ad0 5337 52aa c636
00000040: 0923 8738 c133 8637 fb4d 8d39 62f5 9438
00000050: eb49 ba36 9da3 b637 002c a437 99da d936
00000060: 2b19 cc36 6d7c d136 c3d4 2b37 054f 0b37
00000070: a5cb 1e38 9928 3637 a0c3 6037 80e9 5037
00000080: bdee 1d38 b573 a137 bb64 a438 ecaf f737
00000090: 05f1 1238 affc 5c37 ffb2 1538 e2f2 2437
000000a0: defd 8b36 570c 6f36 10c5 ff36 0c4d 4a36
000000b0: 5ff1 9437 1e31 2837 b511 a537 6b66 8637
000000c0: 6757 5f36 242f 0f37 3d49 b836 5396 5d36
000000d0: 56ee 7c38 c438 4937 e48c 9039 bd7e 9b38
000000e0: 4887 e237 c854 3037 475a 4638 3270 ab37
000000f0: b028 e537 2937 a037 4283 c038 5d49 0738
00000100: c742 0538 06b2 2237 2974 2e38 e7ef 6437
00000110: ac16 3e38 5146 3e37 ae8f 3237 e914 6637
00000120: f82a 2438 17dc a337 d522 ad38 72b6 1738
00000130: a2cb 5337 80dc d637 b579 1938 7cd5 6537
00000140: 9741 c237 af40 1737 222f aa38 8b5e f137
00000150: 4803 5d37 12a6 0e37 4bfb d737 7f1b 5037
00000160: 9ae4 b937 71f0 9936 6ce0 8738 097e 8f37
00000170: 6340 4037 eded ba36 d42a 7238 2a8c 9337
00000180: d16b ca37 960e 1d37 2870 1039 e33c 1438
00000190: 0c8c 1937 44ad 2237 c38e 2338 631d 7537
000001a0: 8b8a 9137 e429 4537 9301 4738 d1b3 b937
000001b0: 4dd9 6737 812d 4d37 7e1a e137 3045 3337
000001c0: d3af ab37 c04f 1137 e181 b338 f8f0 f937
000001d0: b5c5 2237 7103 0e37 6920 9737 0657 1737
000001e0: 8f4e 8037 b83b 1437 9409 7437 f6c4 3937
000001f0: d2e6 4538 cc55 3d37 066d 2a39 a127 4138
00000200: ef45 3637 74af 1c37 0189 a837 9ddd 2a37
00000210: 517e 6937 21ac 1f37 25c1 5f38 7c79 a537
00000220: 31a5 0037 fc1e ab37 ca06 a637 5d07 9637
00000230: ac1e 2137 32cc b036 3b02 ab37 8367 1537
00000240: aa1a c938 a0da 1538 4bf0 053a f9b0 2839
00000250: 400a 3138 4154 2d38 9619 da38 9c80 4038
00000260: 4aa9 1638 f43a fe36 8553 dd38 4620 f937
00000270: 40ae 7638 8abb 0c38 2f11 0a39 b701 8f38
00000280: a3aa 8f36 e0a6 3737 a93e 0437 e84a 3137
00000290: 8e31 ed36 dd8c c136 6e00 4d37 0660 6236
000002a0: 856f c736 29eb d036 12e3 4637 4ee5 a836
000002b0: d591 0737 aa0d 0e37 6e1d 7537 7df8 bf36
000002c0: 7ba9 0337 efc4 3f37 deef 8337 8f39 6337
000002d0: b255 9637 c0cb 7137 aa46 1738 dc90 9d37
000002e0: 67a5 a237 2e88 d736 5a39 2738 5755 6437
000002f0: 1d44 f036 c1e6 2a36 366c 1038 7572 2837
00000300: e66d 1237 ec53 bd36 bb24 8537 ed12 d536
00000310: f566 1e38 32a6 7537 4887 3838 cdcc a737
00000320: b04a 6d37 a3ba 9c37 6989 d937 a627 ba37
00000330: 988c 8436 16b6 c536 b9c6 3637 e333 d836
00000340: c45f 3938 80c0 0a38 8676 cb38 f360 4138
00000350: 7700 e636 3557 9236 4677 0e37 c71e 5536
00000360: afd7 3238 b351 8637 a0e9 1e38 a7c2 7f37
00000370: 2388 6836 9762 8636 c911 c835 ba03 6136
00000380: fb07 9837 3906 8237 5b52 4038 97ba 4337
00000390: 224e 1b38 45c5 5a37 354e 1138 af57 5a37
000003a0: 1bf5 8b38 8987 c637 ffd8 0939 520e 3a38
000003b0: 4fbc 1538 69ba 6c37 9aeb af37 082e 8337
000003c0: 72c5 ad37 9558 9537 065e af37 e8f6 9437
000003d0: f144 4737 6293 db36 54e0 8037 da0e ef36
000003e0: 55b4 8837 6923 2737 30c1 b337 e43b 7837
000003f0: dcc9 3537 2aec b136 274f 0538 9d42 3737
1.7228058e-05 4.6754967e-06 9.0715475e-05 2.9088289e-05 8.815534e-06 4.3777245e-06 5.5928416e-05 1.8529094e-05
1.3750138e-05 4.0305445e-06 2.2265658e-05 7.1269787e-06 1.2484239e-05 5.352095e-06 1.2625091e-05 5.9206877e-06
6.4438274e-05 1.5998145e-05 0.00026951716 7.102896e-05 5.551837e-06 2.1772279e-05 1.9570813e-05 6.492552e-06
6.0826037e-06 6.2431704e-06 1.0241932e-05 8.303444e-06 3.7859794e-05 1.0857498e-05 1.3396988e-05 1.2452132e-05
3.765406e-05 1.9246576e-05 7.838892e-05 2.9526615e-05 3.503358e-05 1.3171854e-05 3.569107e-05 9.831712e-06
4.172077e-06 3.5620958e-06 7.6225333e-06 3.0145193e-06 1.7755372e-05 1.0025016e-05 1.9677778e-05 1.6021737e-05
3.3280464e-06 8.53444e-06 5.4921534e-06 3.3019066e-06 6.030345e-05 1.199375e-05 0.00027570792 7.414583e-05
2.7004295e-05 1.0510157e-05 4.7290956e-05 2.0437034e-05 2.7317874e-05 1.9099172e-05 9.179722e-05 3.2254833e-05
3.1771862e-05 9.697402e-06 4.1593015e-05 1.3645716e-05 4.5320645e-05 1.1341254e-05 1.064308e-05 1.3713937e-05
3.9140665e-05 1.9533602e-05 8.255771e-05 3.617112e-05 1.2623992e-05 2.5613466e-05 3.659139e-05 1.3699169e-05
2.3157145e-05 9.015362e-06 8.115011e-05 2.8773464e-05 1.31733905e-05 8.502526e-06 2.5747015e-05 1.2404168e-05
2.216017e-05 4.5877464e-06 6.4791035e-05 1.7105618e-05 1.1459083e-05 5.57093e-06 5.7737183e-05 1.7589035e-05
2.4130482e-05 9.361325e-06 0.00013774692 3.5342655e-05 9.152118e-06 9.696294e-06 3.8995186e-05 1.460998e-05
1.7349861e-05 1.1751868e-05 4.7446763e-05 2.2137452e-05 1.3819267e-05 1.2229547e-05 2.6834427e-05 1.068534e-05
2.0466663e-05 8.661242e-06 8.559577e-05 2.9795323e-05 9.701985e-06 8.464661e-06 1.8015695e-05 9.020563e-06
1.529537e-05 8.835392e-06 1.4545763e-05 1.1072718e-05 4.718343e-05 1.1285254e-05 0.00016253078 4.6051693e-05
1.0864328e-05 9.339175e-06 2.0090958e-05 1.0184388e-05 1.3917293e-05 9.517215e-06 5.3347223e-05 1.9726103e-05
7.667856e-06 2.0399217e-05 1.9791903e-05 1.7884822e-05 9.603489e-06 5.26898e-06 2.0385827e-05 8.905193e-06
9.5893934e-05 3.572798e-05 0.0005109354 0.00016087656 4.2209635e-05 4.132488e-05 0.00010399816 4.5896144e-05
3.592045e-05 7.576653e-06 0.00010553658 2.9698142e-05 5.8813253e-05 3.355326e-05 0.00013167107 6.819091e-05
4.281597e-06 1.0946504e-05 7.882402e-06 1.0567463e-05 7.0689193e-06 5.768247e-06 1.2219052e-05 3.3732517e-06
5.9436447e-06 6.2262593e-06 1.1854589e-05 5.0334847e-06 8.080581e-06 8.467041e-06 1.460999e-05 5.7211714e-06
7.847669e-06 1.1430339e-05 1.5728114e-05 1.3543656e-05 1.7921298e-05 1.4412159e-05 3.6067016e-05 1.8783314e-05
1.9388926e-05 6.4233527e-06 3.9869316e-05 1.3609729e-05 7.160487e-06 2.546629e-06 3.4433055e-05 1.0040229e-05
8.727866e-06 5.6424087e-06 1.587194e-05 6.350098e-06 3.776602e-05 1.4641833e-05 4.399501e-05 2.000332e-05
1.414369e-05 1.8683559e-05 2.5932402e-05 2.219139e-05 3.950274e-06 5.892255e-06 1.0894314e-05 6.443342e-06
4.4196626e-05 3.3081044e-05 9.701871e-05 4.6105077e-05 6.8545883e-06 4.3612913e-06 8.49163e-06 3.1757388e-06
4.2639378e-05 1.6012089e-05 3.7887716e-05 1.5244505e-05 3.4649936e-06 4.0049886e-06 1.4906337e-06 3.3529782e-06
1.8123528e-05 1.5500105e-05 4.5853067e-05 1.166635e-05 3.7027647e-05 1.3039743e-05 3.464353e-05 1.3014228e-05
6.673691e-05 2.3666553e-05 0.00013146175 4.4359193e-05 3.5699744e-05 1.4110098e-05 2.0971336e-05 1.5637852e-05
2.071515e-05 1.7803433e-05 2.0905409e-05 1.775795e-05 1.1877376e-05 6.543866e-06 1.536325e-05 7.124484e-06
1.6296437e-05 9.96222e-06 2.1428423e-05 1.4795896e-05 1.083544e-05 5.302504e-06 3.1783387e-05 1.092316e-05

exp_avg f4 [64]
00000000: e0a3 083a c228 1fba 21e0 03ba 7ced 1b3a
00000010: d264 a53a 1575 b2b9 e7aa e439 f358 0dba
00000020: 1fd2 bc3a 48f0 8637 5f7e 9938 c24b 653a
00000030: 0b20 95b9 6f00 9cba df22 273a 96db 903a
00000040: 7f47 d6b9 339d 1d3a b447 9eb9 091d afb9
00000050: a52d 67ba b86c d0b9 b893 68b8 5ae5 70ba
00000060: e249 883a 4853 86ba 4d90 423a e539 70b9
00000070: 50d1 3a3a 6945 7a3a b6e2 14ba 5690 49ba
00000080: cda4 9ab9 b620 543a 4ab5 21b9 6959 6bba
00000090: 796f 07bb e2c0 283a b7c0 8fba 49ec beba
000000a0: 85b3 8639 8b3c 2cba 9f89 823a 3bb6 f0b9
000000b0: 6b95 8939 5c4c 5a3a c4d8 173a 10cf 12ba
000000c0: 959c c239 016a e439 a9b8 6339 af2a 6f39
000000d0: 4f16 80ba 5094 3cba 26b1 7d3a e10b d3b9
000000e0: 9577 9bb7 3859 6d39 a5bf 56ba cfd5 5c39
000000f0: 6315 29ba 3bd3 0638 d14f 4cba 5784 043a
0.00052124076 -0.0006071442 -0.0005030651 0.00059481687 0.0012618548 -0.0003403804 0.0004361488 -0.00053919776
0.0014405883 1.6085934e-05 7.319147e-05 0.00087469455 -0.00028443369 -0.0011901985 0.00063757406 0.001105177
-0.0004087053 0.0006012499 -0.0003018953 -0.00033400234 -0.0008818752 -0.00039753853 -5.5450684e-05 -0.00091894495
0.0010397995 -0.0010248208 0.0007422015 -0.00022909751 0.0007126527 0.0009547086 -0.00056795345 -0.0007689049
-0.00029495955 0.00080920325 -0.00015421692 -0.0008977862 -0.0020665808 0.0006437433 -0.0010967468 -0.0014566268
0.00025692224 -0.0006570301 0.0009959227 -0.0004591214 0.00026242 0.00083274185 0.00057924935 -0.0005600313
0.00037119226 0.00043566528 0.00021717198 0.00022808717 -0.0009772273 -0.0007193731 0.0009677581 -0.00040253907
-1.8533125e-05 0.00022635318 -0.00081920094 0.00021060485 -0.0006450025 3.2144813e-05 -0.0007793876 0.00050551206

exp_avg_sq f4 [64]
00000000: d758 a338 d113 0438 1b4b 8838 6267 6037
00000010: 5fa1 0c3a 4ec6 0538 7ebe 2a38 b50f 0f38
00000020: 970d 1939 d9d3 2939 7d25 9e36 939f 0938
00000030: 78ec af37 e1c5 0d3a b1a1 e438 dcd4 8d38
00000040: feec d739 cfa0 3a38 628c 8639 e28f 4038
00000050: eb45 6838 8b00 1438 f222 e638 b9b9 8d38
00000060: 1bec 2239 0e6f 7138 c971 1339 8c00 4a38
00000070: fb51 7c38 f28d 4238 8e0e 6038 1e0f aa39
00000080: 6f94 0b38 3098 5238 f8c7 8a38 2a81 2338
00000090: d53a a339 3f37 9538 445d 6339 d688 9539
000000a0: 03c7 d737 7aee 5838 f6b0 3d38 42a0 1f38
000000b0: 01eb c237 c92b 0f38 132f e638 62a0 f437
000000c0: a033 af37 38d2 c538 776a 4c38 a8ed d236
000000d0: ba32 7a38 4092 0338 9e7e 8738 6dfb 1937
000000e0: f4cc 3f38 3be5 f437 3489 d239 40e1 6c38
000000f0: e54b cc37 c675 1537 ccf1 0d38 13ab a537
7.7889934e-05 3.1489708e-05 6.498975e-05 1.3375511e-05 0.00053646223 3.1894357e-05 4.0708568e-05 3.4108485e-05
0.0001459628 0.00016196015 4.713131e-06 3.281196e-05 2.097174e-05 0.00054082094 0.000109020046 6.763052e-05
0.0004118457 4.449562e-05 0.00025663065 4.591037e-05 5.5378227e-05 3.5286455e-05 0.00010973764 6.7579975e-05
0.0001553748 5.7562305e-05 0.000140614 4.8161062e-05 6.0157832e-05 4.63854e-05 5.3419317e-05 0.0003243619
3.3278422e-05 5.0209637e-05 6.6176e-05 3.898252e-05 0.00031133616 7.115164e-05 0.00021683151 0.00028521445
2.572267e-05 5.172051e-05 4.522592e-05 3.8057806e-05 2.3236034e-05 3.4134635e-05 0.00010976023 2.916175e-05
2.0885665e-05 9.432848e-05 4.8736543e-05 6.2861545e-06 5.9651888e-05 3.136904e-05 6.460886e-05 9.17805e-06
4.5728826e-05 2.919381e-05 0.00040156546 5.6476565e-05 2.4354036e-05 8.908513e-06 3.384221e-05 1.9749195e-05

exp_avg f4 [64, 64]
00000000: efd8 a038 ce9f 8538 a536 a839 38e1 8539
00000010: 2a35 53b9 f576 bab8 c6d1 a439 fc6f 8139
00000020: e700 0c38 0c40 aeb9 4355 9a39 4e4c 9d39
00000030: de7e e1b8 b344 29b8 05af b139 9736 f236
00000040: 1523 d8b9 fa1b 2fb9 b33b c6b9 41b1 90b9
00000050: 8528 4239 1065 ffb8 3f9e 0d39 0381 dc39
00000060: e511 4cb9 a52c bd39 8ff9 8f39 abe0 a8b9
00000070: 219b 27b9 9010 a139 c6b9 6a39 7d90 d837
00000080: e934 ceb9 3944 a1b8 4435 bab9 a930 1fb9
00000090: 922e 9538 c703 c7b9 9925 1c39 5fbf 85b9
000000a0: 35a5 0539 459a a7b9 fb57 c339 955d 8ab9
000000b0: 9b26 3039 1488 ba38 27bd 0cb9 2c63 4239
000000c0: e888 4539 e3e4 053a 5735 9139 710a 2f39
000000d0: b989 ac38 95c6 a7b9 4f4b 37b9 da23 ca39
000000e0: 095a 6939 5dd2 a9b9 0a89 67b9 e04a 1b39
000000f0: 3c6c d5b9 5c4e 79b9 0dd3 9fb9 5d65 0db9
00000100: 19c3 d039 acf4 bdb9 06ef cab9 9e7c 9139
00000110: 8a0e d739 d735 8ab9 fe38 2a39 f1c4 d5b9
00000120: 3072 cf39 277d cbb9 7a81 28b9 1043 9439
00000130: 5c0b 1cb9 0d41 d6b9 b322 c039 7734 c339
00000140: 26b1 0039 908f dd39 1480 cfb9 84fa 0fb8
00000150: 9636 ccb9 57ac 7737 4035 86b9 7bcf d4b9
00000160: 7ecf c739 1b02 dbb9 53c9 cc39 d076 0339
00000170: 01b6 c339 45d8 8839 9452 d0b9 4bfb ceb9
00000180: 1d0b c0b9 b7e8 c039 db00 8d39 558b a6b9
00000190: 5c58 deb9 7ddf 4d38 2d8b d1b9 e154 d6b9
000001a0: 4205 3039 cb87 b3b9 9cb4 b639 e176 a6b9
000001b0: c802 5e39 5eb6 7a39 c9ec d139 4574 c9b9
000001c0: 56d1 6939 812d bc38 5170 c839 9946 ffb7
000001d0: b874 b6b9 1029 a2b9 d0cf c639 27d6 6eb9
000001e0: 13d7 9e39 6403 b939 2a59 9ab9 e9f3 58b9
000001f0: e349 cbb9 6811 a039 7128 95b9 56bc 9939
00000200: e8cd 0a37 fad7 5db7 7ed6 97b7 a132 3e37
00000210: 302d a337 3677 df37 ffef 88b6 fba8 7fb6
00000220: fd34 b237 170b f336 e424 80b7 dec7 26b7
00000230: a255 9e37 b790 a1b7 62d4 d135 98fe 1937
00000240: 8017 cf37 1255 3137 e5e1 2fb7 38a6 b037
00000250: 1b30 83b7 c259 32b7 9951 2636 904b 7b36
00000260: 76cf 8437 78ec 8036 adf0 5036 8372 8e37
00000270: 50b1 6e37 efaa 23b7 c880 06b7 36e2 94b7
00000280: 78b0 8eb6 1609 5637 f5cc 3337 8af0 0eb7
00000290: 3173 3cb7 7137 0137 e7a2 a7b7 4d8b 38b7
000002a0: f1e9 7eb7 86ca 4437 5222 26b7 ec3d 9737
000002b0: ef51 40b7 a2ab 0f37 35f0 ed36 1952 7d36
000002c0: 1706 cf36 e5ce 5537 c238 13b6 9b6d 57b6
000002d0: 60a4 8ab7 2724 8137 9afb b737 4f7d 2736
000002e0: d647 a7b5 d400 a937 7e7a 80b7 7c19 bdb6
000002f0: e329 bbb6 f28e 0935 01fe 1837 0632 6937
00000300: 35bd 8434 1b7c 2bb6 b574 56b6 a3f5 8b34
00000310: 5905 9136 bde6 5f37 5947 e8b5 317f 9d35
00000320: 3e29 ad36 dff1 dc36 3121 3ab6 43a8 38b6
00000330: 19c6 1837 0e7d 87b6 6520 64b6 8384 d833
00000340: 2faf 0c37 78a7 1436 09c3 4a34 d628 1f37
00000350: d1c4 20b6 a470 7cb6 59da 5ab5 80f1 ef35
00000360: 295d 6a36 7b01 2036 de8f 57b6 0ebf d436
00000370: 8fe1 1a36 cb42 adb6 bf96 ef34 3493 61b6
00000380: 1261 2e36 821a c335 0441 0936 b31e 3235
00000390: 088c 17b6 f47e 4336 6bfc 8fb6 b901 39b5
000003a0: 2c66 f2b6 10b5 0137 e3b2 01b7 d0c8 2b37
000003b0: 3731 afb6 288e 5d35 9452 de35 0bd4 7836
000003c0: ba23 6034 6399 b435 5728 a0b6 e6bd b2b5
000003d0: cba4 3db6 bf02 1b37 81ad b036 c021 23b5
000003e0: 2c0a c7b5 f04e aa36 ede1 9eb6 a895 26b6
000003f0: 8f34 1836 9ab8 07b6 ed64 1e36 45b8 1f36
7.6698016e-05 6.3717e-05 0.0003208417 0.00025535538 -0.00020142333 -8.8913286e-05 0.0003143681 0.00024688232
3.337944e-05 -0.00033235585 0.00029436694 0.00030002225 -0.00010752467 -4.035672e-05 0.0003389047 7.218517e-06
-0.0004122487 -0.00016699723 -0.00037809982 -0.00027597885 0.00018516376 -0.00012178172 0.00013505759 0.0004205779
-0.00019461622 0.00036082152 0.0002746102 -0.00032210848 -0.00015984151 0.00030720653 0.00022385185 2.581649e-05
-0.00039330803 -7.689786e-05 -0.0003551637 -0.00015181549 7.113548e-05 -0.00037959052 0.00014891326 -0.0002551032
0.00012745413 -0.00031967662 0.0003725885 -0.00026391135 0.0001679905 8.894518e-05 -0.00013421905 0.00018538226
0.00018838386 0.0005107654 0.00027696296 0.0001669319 8.227252e-05 -0.00032000677 -0.00017480295 0.00038555154
0.00022254152 -0.00032390925 -0.00022080928 0.00014809845 -0.00040707167 -0.00023775682 -0.00030484088 -0.00013484569
0.0003981821 -0.00036231184 -0.0003870653 0.00027749402 0.00041018828 -0.00026361525 0.00016233695 -0.0004077326
0.00039567193 -0.00038812423 -0.00016069962 0.00028278725 -0.00014881551 -0.00040865727 0.00036646947 0.00037232388
0.00012273024 0.00042259367 -0.00039577542 -3.4327168e-05 -0.00038950582 1.4762473e-05 -0.00025598146 -0.00040590376
0.00038110832 -0.00041772504 0.0003905991 0.00012537395 0.00037328902 0.00026101075 -0.00039734377 -0.0003947861
-0.00036629374 0.0003679448 0.00026894253 -0.00031765798 -0.00042408973 4.908395e-05 -0.0003996728 -0.000408805
0.00016786627 -0.00034242714 0.0003484831 -0.0003175056 0.00021172606 0.00023909795 0.00040040005 -0.00038424335
0.00022298595 8.973014e-05 0.00038230655 -3.0431243e-05 -0.00034800707 -0.00030929642 0.00037920335 -0.00022777227
0.0003029635 0.00035288476 -0.000294396 -0.00020690229 -0.00038774227 0.00030530547 -0.00028449626 0.00029322755
8.273382e-06 -1.32229125e-05 -1.8100483e-05 1.13366705e-05 1.9452156e-05 2.6639183e-05 -4.081055e-06 -3.809632e-06
2.1243928e-05 7.2432554e-06 -1.5275968e-05 -9.940906e-06 1.8874944e-05 -1.9260084e-05 1.5633525e-06 9.178788e-06
2.4687266e-05 1.0569829e-05 -1.0483408e-05 2.1058237e-05 -1.5638818e-05 -1.0630525e-05 2.4783424e-06 3.7445898e-06
1.5832233e-05 3.842226e-06 3.1134507e-06 1.6981043e-05 1.4227189e-05 -9.755356e-06 -8.017007e-06 -1.7748313e-05
-4.2524734e-06 1.27575095e-05 1.0716952e-05 -8.519864e-06 -1.1232493e-05 7.701908e-06 -1.9983809e-05 -1.0999688e-05
-1.51940485e-05 1.1729664e-05 -9.902362e-06 1.8029437e-05 -1.1463168e-05 8.563426e-06 7.091114e-06 3.7747725e-06
6.1697897e-06 1.2743961e-05 -2.1937744e-06 -3.2101295e-06 -1.6527425e-05 1.5394833e-05 2.1932461e-05 2.4957878e-06
-1.2463377e-06 2.0146756e-05 -1.5315829e-05 -5.6356057e-06 -5.5779105e-06 5.124449e-07 9.119046e-06 1.3899529e-05
2.4724582e-07 -2.5553225e-06 -3.1956417e-06 2.6069492e-07 4.3219593e-06 1.3345559e-05 -1.7306112e-06 1.1734429e-06
5.160603e-06 6.5846684e-06 -2.773548e-06 -2.7516078e-06 9.106029e-06 -4.037872e-06 -3.3993504e-06 1.00823875e-07
8.385438e-06 2.2151198e-06 1.888367e-07 9.486646e-06 -2.395642e-06 -3.7616492e-06 -8.1529066e-07 1.7877173e-06
3.4922944e-06 2.384272e-06 -3.2121238e-06 6.340334e-06 2.307908e-06 -5.1635775e-06 4.46269e-07 -3.3613296e-06
2.5984523e-06 1.4536347e-06 2.0452435e-06 6.635484e-07 -2.2582262e-06 2.913116e-06 -4.2911174e-06 -6.892038e-07
-7.2240564e-06 7.731156e-06 -7.7306495e-06 1.023915e-05 -5.221136e-06 8.253578e-07 1.6564322e-06 3.7078305e-06
2.0874623e-07 1.3455686e-06 -4.7730678e-06 -1.3317301e-06 -2.8259117e-06 9.239359e-06 5.2654073e-06 -6.0771345e-07
-1.4829616e-06 5.0755843e-06 -4.735068e-06 -2.482304e-06 2.2680358e-06 -2.022402e-06 2.3602581e-06 2.3800105e-06

exp_avg_sq f4 [64, 64]
00000000: d8c3 c634 3bb9 0835 8fc9 4d36 0507 a835
00000010: 418c af35 11e3 9936 29a1 5b36 f2a4 7f36
00000020: 9ce2 0e36 021d 5e36 4dc3 9136 82df c836
00000030: d3ae 8c36 a32d 7135 6c6b 1a36 e8d6 6935
00000040: 047f a136 7e82 8e36 ee95 1136 e72e 7c36
00000050: f349 ff35 ca6e 6e35 472b c535 1feb e235
00000060: 1dde 5e35 4041 f335 e841 2636 2186 4436
00000070: 21c1 c335 6fc4 7336 1e4f 1036 aa79 6535
00000080: 9223 2436 5f7d ed35 a683 9036 d0b0 be35
00000090: 0251 cd35 449d b235 7b7e 1836 193a 8236
000000a0: 378d ad36 ba87 5936 55fe 4036 83a4 8336
000000b0: a3e5 b436 0a0b 1135 db06 ff35 bdb5 8c35
000000c0: e79f 7735 a057 1736 c6c4 8936 8af7 e835
000000d0: 664c 1136 d6bb 7d36 4973 5336 343e 8a36
000000e0: e741 0635 433b 8b36 7b0a db35 1a9b a836
000000f0: 0b74 6736 7897 1e36 d70b c936 5c81 e735
00000100: 21b4 3f35 5654 fd34 8258 5e35 d506 3d35
00000110: ee40 7135 4258 0c35 681e 4434 90f2 7235
00000120: 3836 8935 49e6 5835 f590 eb34 56f5 6835
00000130: 3603 9b34 f427 6635 8c31 3f35 d6b9 3035
00000140: 1b55 2235 9d8d 7835 4588 7d35 f438 6434
00000150: 1472 4235 56db 3734 979c 3735 70ce 6135
00000160: 0557 3135 49ec 8135 ef20 3d35 a8d2 8a34
00000170: c533 2035 a227 ce34 88db 5e35 fc18 5735
00000180: 2642 4d35 291e 3d35 d0c2 0c35 b15b 0835
00000190: 0bc3 8a35 3cac 8034 6a9d 7e35 331e 7935
000001a0: 5933 7a34 58e0 1535 30ba 2f35 0d29 2d35
000001b0: 048f c634 f83e aa34 f4ea 4835 1380 2235
000001c0: ad46 c234 9de4 4035 6cc0 7e35 a524 4733
000001d0: 5f11 3d35 20ef 2135 fcdb 8835 7211 1635
000001e0: 6391 e534 4518 5a35 c220 1035 9e60 9734
000001f0: 2a13 9135 94f5 c234 2ee0 5f35 6e9e 2c35
00000200: 9dcd 5533 1ffd 7232 1e7e 5b33 b918 2f33
00000210: 5d03 8633 9739 6533 646f 1333 2bf6 d633
00000220: d2c6 d533 bd17 9933 8f67 7233 5bd2 0234
00000230: 0857 1a33 e40f 4933 2fc1 4533 c5e0 8733
00000240: d59d 6a33 42cc dd33 623e be33 9c89 e232
00000250: 3173 5c33 6d7a e732 01dc 5733 9927 4f33
00000260: 46d0 7533 9bc1 aa33 9490 1033 8597 d832
00000270: fd6b 0533 7dce 1c33 7058 8e33 fd8d 1833
00000280: 82cc 8b33 ea56 9d33 d9ec a033 0aaf ed32
00000290: 0cbc de33 1a04 0134 7ae3 a033 af92 8533
000002a0: 4db7 8633 b5f3 2633 4f04 3533 21c5 9733
000002b0: e317 b833 457b 6b32 f1a0 b033 5e74 4c33
000002c0: 59e7 ca32 fa9d 8533 935e be33 7d46 d132
000002d0: 8258 6533 ad4f 3e33 5ca6 cf33 eed8 4833
000002e0: d044 9133 0ce5 8933 4798 3633 094f c533
000002f0: c13a 0634 641d 6233 e8e2 f833 6e5e 3833
00000300: 81fa 3834 2d79 5633 7f5d 6d34 72cf 5d34
00000310: 33b2 8334 2789 5834 7b3f 0d34 ed54 e434
00000320: ad61 c934 c190 8734 c5c0 9034 44d8 1e35
00000330: 8b8e 2834 800d 2d34 c9c4 2934 6d9a 8534
00000340: 6849 9434 90ee e534 7c87 a834 3ae4 1034
00000350: 015a 3c34 3cef 0c34 ac49 8e34 5154 7a34
00000360: 4cce 9534 fe95 c834 2052 d833 9741 0d34
00000370: 3bf5 e033 be23 2934 5f4c a034 d12b 2234
00000380: f792 8834 5cd4 9934 ba74 d234 0977 1934
00000390: f090 0535 30e3 1c35 c890 8f34 a605 9834
000003a0: 09d5 8834 8ee8 0d34 3c94 3f34 076f 8634
000003b0: 35c1 ca34 35c1 a333 ee77 b134 dfc8 4434
000003c0: a9a8 da33 8a5d ab34 95ea b034 dfd6 ee33
000003d0: 6834 5634 c1df 3d34 f24f d434 0242 8034
000003e0: 6531 9a34 6c72 9a34 b29d 6534 cb13 f734
000003f0: cb8f 0135 2c85 6234 0ccf 1635 3435 5534
3.702287e-07 5.0933494e-07 3.0664703e-06 1.2519018e-06 1.3079335e-06 4.5861893e-06 3.272735e-06 3.8093972e-06
2.1291553e-06 3.3097463e-06 4.3440727e-06 5.986484e-06 4.1926774e-06 8.9845906e-07 2.3010316e-06 8.7111994e-07
4.8129605e-06 4.247121e-06 2.1693954e-06 3.7578227e-06 1.9020503e-06 8.882313e-07 1.4690239e-06 1.6906741e-06
8.302466e-07 1.8123901e-06 2.477429e-06 2.928435e-06 1.458484e-06 3.632416e-06 2.1503724e-06 8.548619e-07
2.445861e-06 1.7694364e-06 4.3068603e-06 1.4207562e-06 1.5297267e-06 1.3307804e-06 2.2723386e-06 3.8810654e-06
5.1722413e-06 3.2414523e-06 2.875827e-06 3.923256e-06 5.3911513e-06 5.4032773e-07 1.9000976e-06 1.0483706e-06
9.224736e-07 2.2551758e-06 4.1058256e-06 1.735739e-06 2.1651153e-06 3.7809273e-06 3.1508555e-06 4.119962e-06
5.001479e-07 4.149422e-06 1.6319822e-06 5.0248464e-06 3.4489228e-06 2.3632e-06 5.991645e-06 1.724849e-06
7.1415167e-07 4.7186285e-07 8.283024e-07 7.041793e-07 8.987398e-07 5.2282496e-07 1.8264984e-07 9.0505e-07
1.0223075e-06 8.080138e-07 4.387763e-07 8.6783746e-07 2.8873336e-07 8.5739816e-07 7.1225145e-07 6.5835536e-07
6.047355e-07 9.2593274e-07 9.444814e-07 2.1254874e-07 7.243664e-07 1.7122997e-07 6.840068e-07 8.411944e-07
6.606427e-07 9.680017e-07 7.045591e-07 2.5857776e-07 5.967998e-07 3.8399327e-07 8.3020905e-07 8.01301e-07
7.646471e-07 7.0451875e-07 5.2437554e-07 5.0797377e-07 1.0338566e-06 2.3967175e-07 9.485144e-07 9.2803674e-07
2.3301745e-07 5.583329e-07 6.546352e-07 6.450726e-07 3.6984432e-07 3.1710783e-07 7.484771e-07 6.0536075e-07
3.618674e-07 7.185825e-07 9.4902384e-07 4.6366626e-08 7.0433265e-07 6.0325146e-07 1.0196813e-06 5.590474e-07
4.2760357e-07 8.1246645e-07 5.369185e-07 2.819624e-07 1.0808919e-06 3.6313997e-07 8.34002e-07 6.430554e-07
4.977993e-08 1.4143807e-08 5.1104614e-08 4.0767848e-08 6.240473e-08 5.3370595e-08 3.4327414e-08 1.0009929e-07
9.9547506e-08 7.128936e-08 5.64392e-08 1.218372e-07 3.5935074e-08 4.6813412e-08 4.6043336e-08 6.327313e-08
5.4625918e-08 1.0328269e-07 8.858912e-08 2.637244e-08 5.1327508e-08 2.6947612e-08 5.025868e-08 4.8231957e-08
5.723293e-08 7.9514585e-08 3.3659106e-08 2.5214613e-08 3.106469e-08 3.650938e-08 6.628477e-08 3.5519395e-08
6.509892e-08 7.326692e-08 7.493663e-08 2.767003e-08 1.0371886e-07 1.2015553e-07 7.491958e-08 6.219977e-08
6.2732035e-08 3.8871537e-08 4.2146265e-08 7.067343e-08 8.572513e-08 1.3706829e-08 8.224914e-08 4.7603287e-08
2.36211e-08 6.222031e-08 8.8647674e-08 2.4362857e-08 5.3398715e-08 4.4310287e-08 9.669449e-08 4.6763425e-08
6.7646056e-08 6.421223e-08 4.2513673e-08 9.187904e-08 1.2501097e-07 5.2646456e-08 1.1589674e-07 4.292672e-08
1.7227468e-07 4.9935966e-08 2.2106359e-07 2.0657697e-07 2.4530308e-07 2.0166463e-07 1.3154742e-07 4.25301e-07
3.7510236e-07 2.5251032e-07 2.6962348e-07 5.9174295e-07 1.5698076e-07 1.6116792e-07 1.5810942e-07 2.488554e-07
2.7620558e-07 4.282815e-07 3.1391016e-07 1.3494073e-07 1.7541608e-07 1.3125549e-07 2.6503164e-07 2.3313738e-07
2.7903513e-07 3.7362037e-07 1.0073222e-07 1.315551e-07 1.047542e-07 1.5752354e-07 2.985789e-07 1.5103366e-07
2.5438905e-07 2.8652983e-07 3.9200478e-07 1.429254e-07 4.975727e-07 5.844513e-07 2.6741168e-07 2.8316316e-07
2.5486978e-07 1.3216251e-07 1.7842189e-07 2.5040228e-07 3.776601e-07 7.625423e-08 3.305608e-07 1.8326999e-07
1.0182095e-07 3.191929e-07 3.2953236e-07 1.11218235e-07 1.9949368e-07 1.7683398e-07 3.9546245e-07 2.3889885e-07
2.8720675e-07 2.8767988e-07 2.1384656e-07 4.6021736e-07 4.826549e-07 2.1096338e-07 5.618065e-07 1.9856526e-07
