eval/eval_rl/runs/CartpolePPO_v2/11-13-2025-13-58-39/nn/last_CartpolePPO_ep_50_rew_1193.8536.pth (torch, 70478 bytes, 24 tensors)

value_mean_std.running_mean f8 [1]
0	0x40700228c2426793	256.13495088519375

value_mean_std.running_var f8 [1]
0	0x40e3a2068c31a8d3	40208.20461352323

value_mean_std.count f8 []
0	0x4159000040000000	6553601.0

running_mean_std.running_mean f8 [4]
0	0x3fe1e4ac65d878d7	0.5591642369434123
1	0xbfa5f5540b2c1445	-0.042887331355850246
2	0x3fd9d3b2f2ddb375	0.4035460826624367
3	0xbfcbe5d423f35b69	-0.21795131450081875

running_mean_std.running_var f8 [4]
0	0x3ffbaa23b386c137	1.7290379536389773
1	0x3ff92965b7b43d85	1.5726067710819234
2	0x4001ff870887fad9	2.2497692743776097
3	0x4018a8d5f4418de5	6.1648786702166705

running_mean_std.count f8 []
0	0x4149000080000000	3276801.0

a2c_network.actor_mlp.0.weight f4 [64, 4]
0	0xbb08f4e2	-0.0020897915
1	0x3f229096	0.6350187
2	0x3e1ef144	0.15521723
3	0x3eefbb13	0.46822414
4	0xbcfd4468	-0.030916408
5	0xbeecbceb	-0.46237883
6	0xbdde19d7	-0.10844772
7	0xbe080810	-0.13284326
8	0xbe99a3dc	-0.30007827
9	0xbf342690	-0.7037134
10	0xbe0d8414	-0.13819915
11	0x3d072831	0.032997314
12	0x3e75b024	0.23992974
13	0x3ea3384d	0.31878892
14	0xbe803027	-0.25036737
15	0xbd48c9cd	-0.049020577
16	0x3e8dea5b	0.27717862
17	0x3f9ea6b2	1.2394621
18	0x3e671e86	0.22570238
19	0x3e4e25ac	0.20131558
20	0x3e77dd62	0.24205545
21	0x3d3f1e90	0.046660006
22	0x3f2f45f2	0.68466103
23	0xbfa8161c	-1.3131747
24	0xbe86ae9f	-0.263051
25	0x3e254003	0.161377
26	0xbd392270	-0.045198858
27	0x3e97f9ff	0.2968292
28	0xbebf4f9b	-0.37365422
29	0xbe9473cb	-0.28994593
30	0xbed267ef	-0.4109492
31	0xbf39f82c	-0.72644305
32	0xbea62b22	-0.32454783
33	0x3f5f4702	0.87217724
34	0x3e1694a0	0.14705133
35	0x3e190aaf	0.14945482
36	0x3aefb16e	0.0018287131
37	0xbee9edcf	-0.45689246
38	0x3cc7b877	0.024379952
39	0xbf7689bf	-0.96303934
40	0xbee5892c	-0.44831216
41	0xbe812d4b	-0.25229868
42	0x3d95ae69	0.07308657
43	0x3f024d07	0.50898784
44	0xbe18b5a8	-0.14913046
45	0x3e90b7ba	0.28265172
46	0x3e2fab75	0.1715525
47	0x3f46def8	0.77683973
48	0x3e80230c	0.2502674
49	0x3d13ba94	0.036066607
50	0x3f025622	0.5091268
51	0xbf153eb8	-0.58298826
52	0xbde38633	-0.11109581
53	0xbf8629a7	-1.0481461
54	0xbe2a817c	-0.16650957
55	0xbe93b8ad	-0.28851834
56	0x3b865cfb	0.0041004396
57	0x3ece278a	0.4026454
58	0xbe1fbec6	-0.15600118
59	0x3ede7f76	0.4345662
60	0x3cc2a87d	0.023761982
61	0x3eb69e55	0.35667673
62	0x3bd2d1ae	0.006433687
63	0x3e98d3b5	0.2984902
64	0x3ec55391	0.3854032
65	0x3f6ae76e	0.91759384
66	0x3e2bbb81	0.16770746
67	0xbf624f7b	-0.8840253
68	0x3e870540	0.26371193
69	0x3f02704a	0.5095259
70	0x3f1d35d4	0.6141026
71	0x3f2a1837	0.664432
72	0x3de3bfc8	0.11120564
73	0xbf56b7f2	-0.8387443
74	0xbd0c7cc4	-0.034298673
75	0xbf1a1520	-0.60188484
76	0xbe2eadfe	-0.1705856
77	0x3ea228c1	0.31671718
78	0x3ed777f3	0.42083701
79	0xbefc25e2	-0.49247652
80	0xbe0d24cd	-0.1378357
81	0xbf22bfbe	-0.63573825
82	0xbdea5fd9	-0.11444063
83	0xbe272b8d	-0.16325207
84	0x3e04e37e	0.12977406
85	0xbe96d526	-0.29459494
86	0x3d5a7a35	0.053339202
87	0x3e3eab22	0.1861997
88	0x3ec64e07	0.38731405
89	0xbe348c75	-0.17631705
90	0xbee31a97	-0.44356224
91	0xbec6020c	-0.38673437
92	0xbdbd567f	-0.092450134
93	0xbec8497d	-0.39118567
94	0xbf1810c5	-0.5940059
95	0xbf418f59	-0.75609356
96	0x3ea70b67	0.32625887
97	0x3f57143c	0.8401525
98	0x3cf6600d	0.030075097
99	0x3c22a156	0.009926161
100	0xbe56879d	-0.2095017
101	0xbf072841	-0.527958
102	0xbefad966	-0.48993987
103	0xbf715d80	-0.94283295
104	0x3e163584	0.14668852
105	0x3f22b978	0.6356425
106	0xbdaedb53	-0.085379265
107	0x3f031442	0.51202786
108	0xbd9083a5	-0.07056359
109	0x3e9ac250	0.30226374
110	0x3e6e0b49	0.23246492
111	0xbe811f81	-0.25219348
112	0x3da9da91	0.08293641
113	0x3f018f2a	0.50609076
114	0x3da6b29e	0.08139537
115	0x3e0e3c2c	0.13890141
116	0x3dc4547e	0.09586428
117	0x3e2089b9	0.15677537
118	0xbdc9924e	-0.098423585
119	0x3eede6ea	0.46465236
120	0xbeacbd28	-0.33738065
121	0xbf142994	-0.57875943
122	0xbe70ac91	-0.23503329
123	0xbee04e86	-0.4380991
124	0xbe233542	-0.15938285
125	0xbf49bae7	-0.78800815
126	0xbdc167a6	-0.094435975
127	0xbdc5b742	-0.09654094
128	0xbcd3c05b	-0.025848558
129	0xbeb8a540	-0.36063576
130	0x3e6e3a4b	0.23264425
131	0xbecef3f9	-0.4042051
132	0xbb487a27	-0.0030590387
133	0x3ed5955a	0.4171551
134	0xbc7eb944	-0.0155471
135	0x3e17e911	0.14835002
136	0x3f567a42	0.837803
137	0x3ddea894	0.108719975
138	0x3da7dcd3	0.08196416
139	0xbe4190be	-0.18902871
140	0xbe9a283d	-0.30108824
141	0xbed8b8a4	-0.4232837
142	0x3e4644fc	0.19362253
143	0xbe0a2512	-0.13490704
144	0xbea81120	-0.32825565
145	0xbf9f2add	-1.2434956
146	0xbe83b0e2	-0.25720888
147	0xbf0834d4	-0.5320561
148	0x3e97ab1c	0.29622734
149	0x3f034dad	0.512904
150	0x3e1979b5	0.14987834
151	0xbe752bad	-0.23942442
152	0xbc06c49e	-0.008225588
153	0xbf65d4d9	-0.89777905
154	0xbe393db3	-0.18089943
155	0xbe37a063	-0.17932276
156	0x3d14b1c2	0.036302336
157	0xbf9b3075	-1.2124163
158	0xbc45124d	-0.012028289
159	0xbf12265a	-0.5708977
160	0xbe50b0d6	-0.20379958
161	0x3e4beab4	0.19913751
162	0xbebf8804	-0.3740846
163	0x3f0c3c8c	0.5477989
164	0xbd5af7c4	-0.053458944
165	0xbe03c087	-0.12866412
166	0x3e5437bf	0.2072439
167	0xbf5c33a7	-0.86016315
168	0x3f018ef1	0.50608736
169	0x3e1b9f4b	0.15197484
170	0xbe4ffd68	-0.2031151
171	0x3f405156	0.7512411
172	0xbd77494a	-0.06037263
173	0xbd838e45	-0.0642362
174	0x3eb7aeaf	0.3587546
175	0xbf8d67c6	-1.1047294
176	0xbed054fd	-0.4068984
177	0x3ed63995	0.41840807
178	0xbe73bbc6	-0.23802099
179	0x3f04df74	0.5190346
180	0x3dd0b329	0.10190422
181	0x3e9e9bf3	0.30978355
182	0xbdabcf1e	-0.08389114
183	0x3d55e861	0.052223567
184	0xbec6be33	-0.38816985
185	0x3ee51c78	0.44748282
186	0x3ec77782	0.38958365
187	0x3ef4f0ea	0.47840053
188	0xbe7ad844	-0.24496561
189	0xbe1b7dde	-0.15184733
190	0xbe80bab1	-0.25142434
191	0xbf21f301	-0.6326142
192	0x3c2ca2c3	0.010536852
193	0x3e73918d	0.23785992
194	0xbdbef2a3	-0.09323623
195	0x3dbb1f05	0.09136776
196	0x3da45d46	0.08025603
197	0x3e8b3879	0.27191523
198	0xbef5307b	-0.4788855
199	0xbea06310	-0.3132558
200	0xbed5b73e	-0.41741365
201	0x3f41cbef	0.757018
202	0xbe3f7ddb	-0.18700354
203	0x3f36e407	0.7144169
204	0x3ded2e8f	0.11581146
205	0x3d850f7c	0.06497094
206	0xbdce5afc	-0.10075948
207	0x3dbd7597	0.09250944
208	0xbc632d13	-0.013865727
209	0xbee78e4f	-0.4522576
210	0x3d379844	0.044822946
211	0x3d8903a8	0.066901505
212	0xbe92c6db	-0.2866734
213	0xbd9ff99b	-0.0781128
214	0x3e9158ed	0.28388157
215	0xbf5031b8	-0.81325865
216	0xbe49c850	-0.1970532
217	0x3f58c04f	0.8466844
218	0x3cdb1837	0.026744945
219	0xbe65617e	-0.22400472
220	0xbe951e08	-0.29124475
221	0x3e901b21	0.28145698
222	0xbf18afe0	-0.59643364
223	0xbe88e16e	-0.2673449
224	0xbeaf4d67	-0.3423874
225	0xbabf1d53	-0.0014580883
226	0x3de7a158	0.11310071
227	0x3edf7bf9	0.4364927
228	0x3d97db64	0.07414892
229	0x3f0fa13b	0.56105393
230	0x3e1a463d	0.15065856
231	0xbe566d15	-0.20940049
232	0x3e93aca3	0.2884265
233	0xbf1db991	-0.61611277
234	0xbd5454c3	-0.051838648
235	0xbcab444a	-0.020906586
236	0xbe9bc1c8	-0.3042128
237	0x3eabd789	0.33562878
238	0xbee3fed1	-0.44530347
239	0xbd626a97	-0.055277433
240	0x3e62b163	0.2213798
241	0xbf42d5a9	-0.7610727
242	0x3e3da7bd	0.18521018
243	0xbf3ac33a	-0.7295414
244	0x3ebde2a1	0.37086967
245	0xbcfc9441	-0.030832412
246	0x3d7244f0	0.059147775
247	0x3e27377c	0.1632976
248	0x3e8cebf6	0.27523774
249	0xbea5de83	-0.32396325
250	0xbe4975c4	-0.1967383
251	0xbf3f1430	-0.7464018
252	0x3dd3c4d2	0.10340275
253	0x3ebdb4c6	0.37051982
254	0xbbf86b7d	-0.007581173
255	0xbdb4ef40	-0.08834696

a2c_network.actor_mlp.0.bias f4 [64]
0	0xbe83c467	-0.2573578
1	0x3d9964f0	0.074899554
2	0x3e8a54a8	0.27017713
3	0xbebaf621	-0.36515906
4	0x3e1fcd17	0.1560558
5	0x3e8a3db9	0.27000216
6	0x3e93ed57	0.28892013
7	0x3f42260e	0.75839317
8	0xbf12afdf	-0.5729961
9	0x3ea22fa1	0.31676963
10	0x3eff5801	0.4987183
11	0x3f77e4de	0.968336
12	0x3db98876	0.09059231
13	0x3b7e68ed	0.0038819865
14	0xbed12f80	-0.40856552
15	0xbf1a96f0	-0.6038656
16	0x3d8259b9	0.063647695
17	0xbf289504	-0.6585238
18	0x3eefba28	0.46821713
19	0x3d8ca2e8	0.068670094
20	0x3eba889a	0.36432344
21	0xbe8b9097	-0.2725875
22	0xbee5d780	-0.44890976
23	0xbee6d856	-0.45086926
24	0x3eee6713	0.46563014
25	0xbf2178dd	-0.6307505
26	0xbe2fa2da	-0.17151967
27	0xbd9b63f7	-0.07587426
28	0xbe99be8e	-0.30028194
29	0x3e926603	0.28593454
30	0x3ee59503	0.4484025
31	0x3cab48ab	0.020908674
32	0x3f248063	0.642584
33	0xbf1ef81d	-0.6209734
34	0xbee7a8da	-0.4524601
35	0xbd9854b2	-0.07438029
36	0xbf2c1278	-0.6721568
37	0x3f70f16b	0.94118375
38	0x3ec65233	0.38734588
39	0xbe9b69a2	-0.3035403
40	0x3f103cae	0.5634259
41	0x3eb41b90	0.3517728
42	0xbd3635d6	-0.044484936
43	0x3eb8d510	0.36100054
44	0x3f499e84	0.787575
45	0x3d60ee72	0.0549149
46	0xbefa637f	-0.48904034
47	0x3ebba163	0.36646566
48	0xbd62511a	-0.055253126
49	0xbefc49e8	-0.49275136
50	0xbec4cfa5	-0.3843967
51	0x3eb79dd6	0.35862607
52	0x3f0ec972	0.5577613
53	0x3ddab1b3	0.10678425
54	0xbf249442	-0.64288723
55	0x3d889f98	0.06671065
56	0xbf05dc5d	-0.5228937
57	0xbee6c66b	-0.45073256
58	0xbeb46b49	-0.35238102
59	0x3f3d865d	0.7403315
60	0x3f3671ef	0.712676
61	0xbf29b664	-0.6629393
62	0xbf782a26	-0.96939313
63	0xbe9f22cd	-0.31081238

a2c_network.actor_mlp.2.weight f4 [64, 64]
0	0x3eede366	0.46462554
1	0xbe981170	-0.29700804
2	0x3a1d15b4	0.0005992309
3	0xbe5cbe4a	-0.21556965
4	0x3e44287c	0.19156069
5	0xbf41614d	-0.75539094
6	0x3e1bd31e	0.15217254
7	0xbea5f5bd	-0.32414046
8	0x3e7cae47	0.24675857
9	0xbe93545f	-0.28775308
10	0x3d841595	0.06449429
11	0x3e106953	0.14102678
12	0xbea1e7ab	-0.3162206
13	0xbe32c014	-0.17456084
14	0x3e36c440	0.17848301
15	0x3f00dab7	0.5033373
16	0x3e2bdef5	0.1678427
17	0x3d06d150	0.03291446
18	0xbdbeb2f9	-0.0931148
19	0xbea311d5	-0.31849542
20	0xbee686b0	-0.45024633
21	0x3f11098b	0.56655186
22	0xbe8f60ee	-0.2800364
23	0xbcc90e23	-0.024542874
24	0xbe8853a0	-0.266263
25	0x3c82eb1b	0.015981248
26	0x3c6b15c8	0.014348455
27	0xbbca9f18	-0.0061835162
28	0x3ea453b2	0.32095104
29	0x3e24d6d4	0.16097575
30	0x3d1fd9b2	0.03902597
31	0xbdeaade8	-0.11458951
32	0xbe5777d2	-0.21041802
33	0x3eb92d48	0.3616736
34	0xbf202870	-0.625617
35	0x3eccfa6d	0.4003481
36	0xbd9dfac1	-0.07713843
37	0xbe63a536	-0.22230992
38	0xbec2d294	-0.38051283
39	0x3e28f502	0.16499713
40	0x3e5a1ca1	0.21299984
41	0xbe9d5676	-0.30730027
42	0x3e8543eb	0.2602838
43	0xbf0e041a	-0.5547501
44	0xbd69a612	-0.057043143
45	0xbeafb38f	-0.3431668
46	0x3ed79fdd	0.42114154
47	0xbeb5406b	-0.3540071
48	0xbec71282	-0.38881308
49	0xbde0c3b0	-0.109748244
50	0xbd93109e	-0.07180904
51	0xbe032d33	-0.12810211
52	0xbdc7dbba	-0.097587064
53	0xbdf08931	-0.11744917
54	0x3ea988ec	0.33112276
55	0xbe2d15ba	-0.1690282
56	0x3f36e1ae	0.7143811
57	0x3db0b7a9	0.086287804
58	0x3e5469ae	0.20743439
59	0xbebc460e	-0.36772197
60	0x3d9ca16e	0.07647978
61	0x3ed24383	0.41067132
62	0xbc536e82	-0.012904765
63	0xbb83725b	-0.004011435
64	0xbd9cf9ec	-0.07664856
65	0x3e89789a	0.26849824
66	0x3da51ec3	0.08062508
67	0xbc5f32cc	-0.013622951
68	0xbdd5d9f8	-0.10441965
69	0xbee8b06f	-0.45447108
70	0xbdbab23d	-0.091160275
71	0x3e0fae36	0.140313
72	0xbe774538	-0.24147499
73	0xbe66971d	-0.22518583
74	0xbf17f8bb	-0.5936391
75	0x3e6be2cd	0.23035736
76	0xbce0e7f0	-0.027454346
77	0x3db4321a	0.087986186
78	0x38ec4088	0.00011265377
79	0xbe36465d	-0.17800279
80	0x3efbf5b8	0.49210906
81	0xbda41f45	-0.08013777
82	0x3e917de1	0.2841635
83	0x3d897017	0.067108326
84	0x3e221106	0.15826806
85	0xbe313eba	-0.17309085
86	0xbe29ef37	-0.1659516
87	0xbe00afde	-0.12567088
88	0x3eac3847	0.33636686
89	0xbe876b29	-0.26448944
90	0xbd815ea7	-0.063168816
91	0x3d73e83c	0.059547648
92	0xbe9558a4	-0.2916919
93	0x3e50ff92	0.20409992
94	0x3d9215e2	0.0713308
95	0x3de0c0e5	0.10974292
96	0x3e1a3944	0.15060908
97	0xbef0cf0c	-0.47032964
98	0xbf1a8e69	-0.6037355
99	0xbdd876af	-0.10569512
100	0xbed68c79	-0.41904047
101	0x3f3103fd	0.6914671
102	0x3e26b0c5	0.1627837
103	0xbebcd31a	-0.36879808
104	0x3c5c60fb	0.013450856
105	0xbe5df478	-0.21675289
106	0x3e0c4d63	0.13701396
107	0xbe841450	-0.25796747
108	0x3e3a9bdb	0.18223517
109	0x3e8c7a24	0.27436936
110	0x3c894515	0.016756574
111	0xbd8842fe	-0.06653403
112	0x3d1764d7	0.036961403
113	0xbe2f947e	-0.17146489
114	0xbd54a158	-0.051911682
115	0x3ecdd3c5	0.4020063
116	0xbd97b713	-0.074079655
117	0xbeb78ca7	-0.35849497
118	0xbe6c6e86	-0.23089036
119	0x3e224c83	0.158495
120	0xbe247b4a	-0.16062656
121	0x3ce27d66	0.027647685
122	0xbe73ee23	-0.2382131
123	0x3ef1b147	0.47205564
124	0x3e863474	0.26211894
125	0xbee40afb	-0.44539627
126	0xbdc66170	-0.096865535
127	0x3d0e85ac	0.03479545
128	0x3e2015c4	0.15633303
129	0x3d2c088e	0.042000346
130	0xbd6c736e	-0.05772727
131	0x3df35b63	0.11882665
132	0x3d15f9f5	0.03661533
133	0x3dbd755b	0.092508994
134	0xbdb36fbf	-0.08761548
135	0xbd4e6093	-0.05038507
136	0xbdc7a4c8	-0.097482264
137	0xbe231995	-0.15927728
138	0x3d8fed7f	0.07027721
139	0xbe45b697	-0.19307934
140	0x3dd81865	0.10551528
141	0x3d622b10	0.05521685
142	0xbccefc83	-0.025266891
143	0xbe075ed3	-0.13219766
144	0xbcf7be92	-0.030242238
145	0x3cabe075	0.020981053
146	0xbae91049	-0.0017781343
147	0x3e830d21	0.25595954
148	0x3db3fc27	0.087883286
149	0xbd99b400	-0.075050354
150	0x3d88d361	0.06680942
151	0xbe18dcd0	-0.14927983
152	0xbd8bafe8	-0.06820661
153	0xbc2e77c0	-0.010648668
154	0xbd77d9f1	-0.06051058
155	0x3dabafb5	0.08383123
156	0xbdaab950	-0.08336127
157	0xbd216425	-0.039402146
158	0xbe016af5	-0.12638457
159	0x3dcf4154	0.10119882
160	0x3d2ac676	0.041693173
161	0x3d836683	0.06416037
162	0x3e44296a	0.19156423
163	0x3dd44a12	0.1036569
164	0x3ced1e0e	0.028944995
165	0xbd2b3062	-0.04179419
166	0xbcc36960	-0.023853958
167	0x3c04bf08	0.008102186
168	0x3db07026	0.086151406
169	0xbdb4121f	-0.08792519
170	0x3e3b21d0	0.18274617
171	0xbd3d59c9	-0.046228204
172	0xbcf01f94	-0.029311933
173	0xbe006b5c	-0.12540954
174	0x3e1052b4	0.14094049
175	0x3e10931e	0.14118621
176	0xbe10b875	-0.14132865
177	0x3e3d4f69	0.18487324
178	0x3dd1fc94	0.102532536
179	0x3e056b6f	0.13029264
180	0x3e631225	0.2217489
181	0xbe064fd6	-0.13116392
182	0x3d6c0a4d	0.05762701
183	0x3de36d52	0.111048356
184	0xbd5eab1d	-0.054362405
185	0x3d75a36c	0.059970304
186	0xbcfb9802	-0.030712131
187	0x3ddf1f5c	0.10894653
188	0xbdc5aee2	-0.09652497
189	0xbe3232e1	-0.17402221
190	0x3da6c133	0.081423186
191	0x3d4f80be	0.050659887
192	0xbdde31b2	-0.108493224
193	0x3d64268b	0.05570082
194	0x3dacf83b	0.08445784
195	0xbd0f64a6	-0.035008095
196	0x3c39bfb4	0.0113372095
197	0x3d8d8c4a	0.06911524
198	0xbd60fd57	-0.054929104
199	0xbe3faeaf	-0.1871898
200	0xbd3fae27	-0.046796944
201	0xbd8e5748	-0.06950241
202	0x3db94099	0.09045524
203	0xbe0cf7ce	-0.13766405
204	0x3de6023c	0.11230895
205	0xbcec575b	-0.028850248
206	0xbc5f7797	-0.013639352
207	0xbd39a603	-0.045324337
208	0xbdc3ea7b	-0.09566208
209	0xbbfbd53b	-0.007685331
210	0xbd71f679	-0.059072945
211	0x3c16ed95	0.009211917
212	0x3da7bbdd	0.08190129
213	0xbd845bbb	-0.06462809
214	0xbbdfda6e	-0.006831459
215	0x3d02aeba	0.031904913
216	0xbd60fea4	-0.054930344
217	0x3d2c4a7e	0.04206323
218	0xbe157bda	-0.14598027
219	0xbda8a8bf	-0.08235311
220	0xbd989393	-0.074500225
221	0x3cc29ef5	0.023757437
222	0xbdbad53c	-0.091227025
223	0x3d61db9a	0.05514107
224	0x3d9def1e	0.077116236
225	0x3cbdbd54	0.023161568
226	0x3e0d7578	0.13814342
227	0xbd8cf86f	-0.068833224
228	0x3e8e5ae2	0.27803713
229	0xbe17bfb3	-0.14819221
230	0x3dabbb1c	0.08385298
231	0x3d7197f2	0.058982797
232	0xbdd2896f	-0.1028012
233	0x3dd29682	0.10282613
234	0x3c6ea5cb	0.014565895
235	0x3de237eb	0.11045822
236	0xbe1905b9	-0.1494359
237	0xbe0a33a9	-0.1349627
238	0xbd2fdbdd	-0.042934287
239	0x3dfba6d0	0.12287676
240	0xbe0759c1	-0.13217832
241	0x3e06677b	0.13125412
242	0xbb91f601	-0.004454375
243	0xbd21e11c	-0.03952132
244	0x3e9e3ca7	0.3090565
245	0x3dfea246	0.12433295
246	0x3de2ac3f	0.110680096
247	0xbcb64eb9	-0.022254335
248	0xbd5e47b8	-0.054267615
249	0xbdc5f14c	-0.09665164
250	0x3d5f960f	0.054586466
251	0x3cb53bcd	0.022123242
252	0xbd8d664e	-0.06904279
253	0xbe3cca83	-0.18436627
254	0x3de50d8d	0.11184225
255	0x3dc49ba2	0.09599997

a2c_network.actor_mlp.2.bias f4 [64]
0	0xbed3a370	-0.4133563
1	0x3eb7f017	0.35925362
2	0x3e7277cc	0.23678511
3	0x3eba771b	0.36418995
4	0x3a848d61	0.0010112935
5	0xbd8d2924	-0.068926126
6	0x3cbf0916	0.023319762
7	0x3e026187	0.12732516
8	0xbe86fb16	-0.26363438
9	0xbeea3419	-0.45742872
10	0xbf052b18	-0.5201888
11	0xbe6cf38e	-0.23139784
12	0xbd634b9f	-0.05549204
13	0x3cfa1d50	0.030531555
14	0x3e1d4aea	0.15360609
15	0x3e6fbd36	0.23412022
16	0xbe8e0e08	-0.2774508
17	0xbaddbd99	-0.0016917466
18	0xbf3028b0	-0.68812084
19	0xbf0195db	-0.50619286
20	0x3da296c7	0.07938915
21	0x3dc2fdc6	0.0952106
22	0xbd533026	-0.05155959
23	0x3e9acd6a	0.30234843
24	0xbd04c9df	-0.03241908
25	0xbd478f40	-0.0487206
26	0xbf11ba9a	-0.56925356
27	0xbded33bf	-0.115821354
28	0x3e702fc1	0.23455717
29	0x3ed0754b	0.40714487
30	0x3e8825c4	0.26591313
31	0xbe98879a	-0.29790956
32	0x3e2b9f30	0.16759944
33	0xbe7fcd07	-0.24980555
34	0xbeb30c35	-0.3497025
35	0xbe7bf2f8	-0.24604404
36	0x3cac7140	0.021050096
37	0xbdb710a5	-0.089387216
38	0xbf0a20d1	-0.53956324
39	0xbeb2c611	-0.34916738
40	0xbf053a87	-0.5204243
41	0xbdffb2cb	-0.12485274
42	0xbd1da80c	-0.03849034
43	0xbed09a30	-0.40742636
44	0x3efe5c1c	0.4967965
45	0xbe7b2a4a	-0.24527851
46	0xbd1673b7	-0.036731448
47	0xbea078bb	-0.3134211
48	0xbe5042bb	-0.20337956
49	0xbcbbbedf	-0.022918163
50	0x3e27bb95	0.1638015
51	0x3e61ccd8	0.22050798
52	0xbf0f7ece	-0.56052864
53	0x3ef3bbcd	0.47604218
54	0xbe8586f5	-0.26079527
55	0x3eb8d1b0	0.3609748
56	0xbe10c092	-0.1413596
57	0x3f211af7	0.6293177
58	0xbe336290	-0.17518067
59	0xbe80a378	-0.25124717
60	0xbe267b42	-0.16257957
61	0xbf0a52e1	-0.54032713
62	0xbe0da52c	-0.1383254
63	0x3f026461	0.50934416

a2c_network.value.weight f4 [1, 64]
0	0x3db999e5	0.09062556
1	0x3e79d62f	0.24398111
2	0xba713e52	-0.0009202707
3	0x3bdbe5bb	0.0067107356
4	0x3ca152c3	0.019692784
5	0xbe115806	-0.14193735
6	0x3e485f66	0.19567642
7	0xbdc9757e	-0.09836863
8	0x3c237dbe	0.00997871
9	0x3d992e40	0.074795246
10	0x3e2f655f	0.17128514
11	0xbde0129f	-0.10941052
12	0xbdca11d7	-0.09866684
13	0xbc899845	-0.01679624
14	0x3c7959e0	0.015219182
15	0x3d388bda	0.045055248
16	0xbb84a406	-0.0040478734
17	0x3dd68a6c	0.104756206
18	0x3e95b157	0.29236862
19	0x3e2c1dae	0.16808197
20	0xbe9fc4d5	-0.31204858
21	0xbe9e673f	-0.30938146
22	0x3e410860	0.18850851
23	0x3e6f65c4	0.23378664
24	0x3b81ed56	0.00396506
25	0x3ba2a114	0.0049630497
26	0x3e58891a	0.2114605
27	0xbcbb3669	-0.022853093
28	0x3ea48a9b	0.32136998
29	0xbe60c8dd	-0.21951623
30	0x3e7470ea	0.23871198
31	0x3a9829c7	0.001160913
32	0xbcbe699c	-0.023243718
33	0xbc3b9bf7	-0.011450759
34	0x3da91302	0.082555786
35	0xbeaf5d5b	-0.34250912
36	0x3e838b5b	0.25692257
37	0xbdff615a	-0.1246974
38	0x3ea36c6e	0.31918663
39	0x3dd07549	0.1017862
40	0x3e334c4f	0.17509578
41	0xbc58e336	-0.013237765
42	0x3c62a638	0.013833575
43	0xbb2d705c	-0.0026464676
44	0xbe5f5c00	-0.21812439
45	0xbbb57ad8	-0.0055383258
46	0xbdb8ed21	-0.09029604
47	0xbf0baf3a	-0.5456425
48	0xbe77bffe	-0.24194333
49	0x3e987f89	0.29784802
50	0xbe2efdf2	-0.1708906
51	0xbe36f903	-0.17868428
52	0x3e2c621d	0.16834302
53	0xbdcd5385	-0.10025696
54	0xbe631235	-0.22174914
55	0xbe0776c3	-0.13228898
56	0xbe486b34	-0.19572145
57	0xbe2a85da	-0.16652623
58	0xbdcbf477	-0.09958737
59	0x3db1a1b1	0.08673418
60	0xbeeda937	-0.46418163
61	0x3defdbdd	0.117118575
62	0xbe7080c4	-0.2348662
63	0xbe36f9a1	-0.17868663

a2c_network.mu.weight f4 [1, 64]
0	0x3ed160ec	0.40894258
1	0x3eb07bee	0.3446955
2	0x3c315d8f	0.010825529
3	0xbc401d8a	-0.011725793
4	0xbbd94a7a	-0.0066311928
5	0x3e6c4b20	0.23075533
6	0x3ecd7948	0.40131593
7	0xbeb964a1	-0.36209586
8	0xbc53f10c	-0.012935888
9	0x3e03dc86	0.12877092
10	0x3f1c449b	0.61042184
11	0xbdaa71c4	-0.0832248
12	0x3e173f5e	0.14770266
13	0x3f191daf	0.5981092
14	0xbefc2097	-0.49243614
15	0xbe014067	-0.12622224
16	0xbc0cad50	-0.008586243
17	0xbe50a90b	-0.20376985
18	0x3e37be83	0.17943768
19	0xbe426a94	-0.18985969
20	0xbcc2acf3	-0.02376411
21	0x3d23c867	0.03998604
22	0x3e290023	0.16503958
23	0x3eb4a41d	0.35281458
24	0xbbcb83e4	-0.006210791
25	0x3e4e2d7d	0.2013454
26	0x3d1fc7a7	0.039008763
27	0xbe55e3bf	-0.2088766
28	0xbf120083	-0.5703203
29	0xbd709fba	-0.058746077
30	0x3e33cf3c	0.17559522
31	0xba685941	-0.00088633975
32	0x3e735b0c	0.237652
33	0xbe4d375d	-0.2004065
34	0x3c4b2e3e	0.012401162
35	0x3e8622b7	0.2619836
36	0xbe44d1da	-0.19220677
37	0x3e806d25	0.2508327
38	0xbc99391d	-0.018703992
39	0xbe2e1783	-0.17001157
40	0x3d900810	0.07032788
41	0xb968d87e	-0.00022205894
42	0xbc116513	-0.008874196
43	0x3d0d9187	0.034562614
44	0xbd8a22b7	-0.067449026
45	0xbd4e21fe	-0.050325386
46	0x3ec7dd4e	0.3903603
47	0xbeaef2c4	-0.3416959
48	0xbe2d1bc8	-0.16905129
49	0xbd083b17	-0.033259477
50	0xbf6fa35f	-0.9360866
51	0x3f10836b	0.5645053
52	0xbdcdf446	-0.10056357
53	0xbe377536	-0.17915806
54	0xbe132a30	-0.14371562
55	0x3e1dd6e1	0.15414001
56	0x3c45c9b7	0.012072018
57	0xbe6036f5	-0.21895964
58	0x3f048549	0.51765877
59	0xbdf018a7	-0.11723452
60	0xbf1b3a60	-0.6063595
61	0x3e3e192d	0.18564291
62	0x3e8278a1	0.25482658
63	0x3e32acae	0.17448685

exp_avg f4 [64, 4]
0	0xba3dc51c	-0.00072391494
1	0x39b8ac8b	0.0003522377
2	0xba90c399	-0.0011044621
3	0xb9a1cd33	-0.00030861198
4	0x39e056b2	0.00042789202
5	0xb9203961	-0.00015280164
6	0x3a3c8414	0.0007191312
7	0x39909f81	0.0002758466
8	0x39b216ab	0.00033967695
9	0x38ac146c	8.205403e-05
10	0xb953055c	-0.00020124525
11	0x37fbce73	3.0017667e-05
12	0xb7305516	-1.0510228e-05
13	0x390eefdd	0.00013631531
14	0x39e8083e	0.0004425663
15	0x397fb9f8	0.00024387974
16	0xba9926fb	-0.0011684591
17	0x39abf5da	0.00032798835
18	0xba96076f	-0.0011446307
19	0xba033b27	-0.0005006068
20	0xb82a225a	-4.056315e-05
21	0xba275984	-0.00063838833
22	0xb98903ec	-0.00026133598
23	0x38e7f3b1	0.000110603294
24	0xb9997711	-0.00029271145
25	0x39eda36a	0.00045325916
26	0xb9bdd59f	-0.0003620805
27	0xb9f9b0d0	-0.00047624717
28	0xba174a22	-0.00057712395
29	0xb8fd6407	-0.00012082612
30	0xba399d8b	-0.00070806657
31	0x39a5792a	0.00031561527
32	0xb95d8af7	-0.00021127971
33	0xb8b8ed9c	-8.818062e-05
34	0xb9ccbe08	-0.00039051496
35	0x399ae85f	0.000295463
36	0x3a302eda	0.00067208486
37	0xb9d96f99	-0.00041472612
38	0x38bb003a	8.916897e-05
39	0x392e32fd	0.00016612928
40	0x3943b56f	0.00018664238
41	0xb8e4a132	-0.00010901912
42	0xb99305aa	-0.00028042245
43	0xb95f6d03	-0.00021307547
44	0xb9ffee0f	-0.00048814758
45	0x39537119	0.0002016466
46	0xba2c0390	-0.000656181
47	0xb954f347	-0.00020308523
48	0xb8ec5309	-0.000112688234
49	0xba80a526	-0.0009814843
50	0x396fac59	0.0002285702
51	0x39f72d6d	0.00047145356
52	0x3ab8f0d7	0.0014109862
53	0xb9da524c	-0.00041641516
54	0x3ad1d884	0.0016009961
55	0x39e2768f	0.00043194412
56	0xba16c599	-0.000575149
57	0x398a1571	0.00026337386
58	0xb9cc43b5	-0.00038960358
59	0xb9f0fba3	-0.0004596385
60	0xba11daea	-0.0005563932
61	0x3982fafd	0.00024982533
62	0xba7b6696	-0.00095901766
63	0x3964ca7a	0.00021819203
64	0xb9a75ba7	-0.00031921008
65	0x3a6914c9	0.0008891342
66	0x398878ec	0.00026030035
67	0x3a1d5e83	0.0006003158
68	0x39faf203	0.0004786403
69	0xb7bee48b	-2.2756189e-05
70	0x399aca50	0.00029523904
71	0xb90028e2	-0.00012222261
72	0x3a2275b9	0.00061973516
73	0xb9b00c8e	-0.0003357869
74	0x3a3d7357	0.0007226965
75	0x39e84efd	0.0004430934
76	0xb8fc016a	-0.0001201656
77	0x39fb5885	0.00047940403
78	0x3779502d	1.4860224e-05
79	0x3a26421b	0.0006342248
80	0x3a19c983	0.00058665144
81	0xb84d5b6b	-4.896095e-05
82	0x3a09f04e	0.00052619434
83	0x396e3779	0.00022718114
84	0x398c4536	0.00026754447
85	0xb9c12396	-0.00036838342
86	0xb829d452	-4.049048e-05
87	0xb9d5fe70	-0.00040816097
88	0x39dedf86	0.00042509678
89	0xb99ac88a	-0.00029522582
90	0x3a6301db	0.0008659639
91	0x38bf2a4f	9.11547e-05
92	0x39e9b740	0.00044577755
93	0xb97a7135	-0.00023884031
94	0x39621af8	0.00021563086
95	0x39461b50	0.00018892926
96	0xba3f3d6e	-0.00072952255
97	0x39cf1611	0.00039498557
98	0xbade8db1	-0.0016979483
99	0xb9560f68	-0.0002041437
100	0x39beea89	0.00036414366
101	0xb9a1138e	-0.00030722882
102	0x3a03b2bf	0.00050238887
103	0x387899df	5.927111e-05
104	0xba0e8899	-0.0005437225
105	0x39d1972b	0.00039976215
106	0xba639bc7	-0.00086825754
107	0xba4309df	-0.00074401306
108	0xb9901f3f	-0.000274891
109	0x398e7225	0.00027169395
110	0x3936dbb1	0.00017438714
111	0x39eb6ff7	0.00044906113
112	0xba19be18	-0.0005864813
113	0x3920e7e4	0.00015345175
114	0xba53f9b9	-0.0008086223
115	0xb99526eb	-0.0002844849
116	0xba080f77	-0.0005190293
117	0x3a100faa	0.0005495498
118	0xba18c884	-0.0005828219
119	0xb9998ac9	-0.00029285837
120	0x38bbb9c4	8.9514564e-05
121	0xb92784a4	-0.00015975774
122	0xb9594b06	-0.00020722681
123	0x39a41402	0.00031295425
124	0x3a5578a1	0.000814328
125	0xb80f4398	-3.415681e-05
126	0x3a161024	0.0005724451
127	0x398d6e75	0.00026975913
128	0x395fbf09	0.00021338103
129	0xb9145244	-0.00014145026
130	0xb992ee3d	-0.0002802479
131	0xb9064fba	-0.00012808936
132	0xba084f4b	-0.0005199804
133	0x39729da3	0.00023137643
134	0xba21a08e	-0.0006165587
135	0x396f5492	0.00022824321
136	0xb81d0369	-3.7434893e-05
137	0xb99aa389	-0.00029495012
138	0xba108944	-0.0005513618
139	0xb9aaba68	-0.0003256381
140	0x39dbc6b9	0.00041918995
141	0xb9a449f6	-0.00031335623
142	0x3a1cad27	0.00059767294
143	0x39a3fa23	0.0003127615
144	0x3a63029e	0.0008659753
145	0xba614076	-0.0008592674
146	0x3b3fcdbc	0.0029266914
147	0x3a186749	0.00058137305
148	0xba07ac11	-0.0005175481
149	0x39c6c1a7	0.00037909785
150	0xbad828b5	-0.0016491624
151	0xba14ee5b	-0.00056812697
152	0x3a607a3f	0.0008563138
153	0x36b746f8	5.462087e-06
154	0x3a0a01de	0.00052645605
155	0x37113d12	8.6568925e-06
156	0x3a8c4f98	0.0010704873
157	0xba697934	-0.00089063053
158	0x3b200a29	0.0024420118
159	0x3a999a50	0.0011718962
160	0xb8bfbf9b	-9.143279e-05
161	0x3a55c361	0.0008154419
162	0xb96a0f25	-0.00022321621
163	0xba09b631	-0.0005253284
164	0x39c2490c	0.00037056988
165	0xba02582b	-0.00049722445
166	0xb7b4f0dd	-2.1569833e-05
167	0x391a46d0	0.00014712964
168	0xb761673b	-1.343508e-05
169	0x3a125e5c	0.00055835187
170	0xb9d38193	-0.00040341596
171	0xb91069c6	-0.00013772314
172	0x3919f46f	0.00014682276
173	0xba11c159	-0.0005560122
174	0xb8988e02	-7.274376e-05
175	0x396f5fb5	0.0002282847
176	0xb9306f6e	-0.00016826179
177	0x3a57f1da	0.0008237638
178	0xba026e10	-0.0004975507
179	0xba0b9174	-0.00053241034
180	0xba0ff180	-0.00054910034
181	0x39da5a25	0.00041647363
182	0xba1feb67	-0.00061004463
183	0xb8ade246	-8.2914295e-05
184	0xb965059f	-0.00021841236
185	0x38e6a377	0.00010997702
186	0xba1d0e05	-0.0005991164
187	0x38cfcaaf	9.908282e-05
188	0x392ad35b	0.000162912
189	0xb94448d3	-0.00018719146
190	0x399d45d7	0.00029997408
191	0xb69c486e	-4.657594e-06
192	0xb94bbba1	-0.00019429486
193	0x380a2909	3.293998e-05
194	0x38b50bce	8.632951e-05
195	0xb95486cc	-0.00020268111
196	0x39c68b30	0.00037869206
197	0x390af5e7	0.00013252311
198	0x39b0d137	0.00033725213
199	0x396b6ec1	0.00022452605
200	0xb7b5d7b7	-2.1677331e-05
201	0x39e9b94c	0.0004457928
202	0xba0b4ae5	-0.00053135894
203	0xba244b2f	-0.0006267307
204	0xb9066163	-0.00012815515
205	0xb7d0ab6d	-2.4875359e-05
206	0xb9b3c14e	-0.00034285564
207	0xb9b63513	-0.00034753288
208	0x39973b44	0.0002884512
209	0xb9a0bc6b	-0.0003065796
210	0xba38ceec	-0.0007049877
211	0xba766449	-0.0009399099
212	0x3895c9db	7.142472e-05
213	0xba0c62e1	-0.000535531
214	0x397fa04d	0.00024378412
215	0x3958ce68	0.00020676258
216	0xb8b2ff2c	-8.535231e-05
217	0x38b93afc	8.832474e-05
218	0x39a225a1	0.00030927084
219	0x3906b6d0	0.00012847339
220	0xb84a2556	-4.8195325e-05
221	0x39fdac4b	0.0004838429
222	0x393e9aaa	0.00018177429
223	0x39e49122	0.0004359568
224	0xb8abf1a5	-8.198925e-05
225	0x39b550a5	0.00034583095
226	0xb8ff5cc7	-0.00012176629
227	0x39ae3fb9	0.00033235343
228	0x386e0b66	5.6754237e-05
229	0x37a56aed	1.9719324e-05
230	0x3a491c18	0.0007671728
231	0x39820b4b	0.00024803946
232	0x3a70f8d7	0.00091923535
233	0xb9f0689c	-0.00045854307
234	0x3ada798d	0.0016668305
235	0x39bf19fd	0.00036449722
236	0xba10039b	-0.00054937013
237	0x3a033fcc	0.000500676
238	0xb9c5d4a8	-0.0003773321
239	0x3865087c	5.4605756e-05
240	0xb924d858	-0.00015720853
241	0xb89871c0	-7.2691124e-05
242	0xb9551f6e	-0.00020324971
243	0x38a6e189	7.957506e-05
244	0xb896c649	-7.189491e-05
245	0x38c71957	9.493779e-05
246	0x3950db78	0.00019918184
247	0xb858c94f	-5.1685896e-05
248	0x3a15c04b	0.0005712553
249	0xb983bc84	-0.00025126722
250	0x3a42356d	0.0007408474
251	0x39a416de	0.00031297555
252	0xb9eded7b	-0.000453811
253	0x393a6cf9	0.00017778938
254	0xb8e978dc	-0.000111328176
255	0x39d67444	0.00040903885

exp_avg_sq f4 [64, 4]
0	0x37ac3f65	2.0533518e-05
1	0x36ffed54	7.627221e-06
2	0x37fb89a3	2.9985624e-05
3	0x377a8c78	1.4933867e-05
4	0x36ec1926	7.0362757e-06
5	0x36cb45c7	6.0579946e-06
6	0x37866c29	1.602441e-05
7	0x372ff5a3	1.0488005e-05
8	0x37cc9e2f	2.4392355e-05
9	0x36f8417d	7.3986e-06
10	0x37b3fe21	2.14568e-05
11	0x373494a2	1.0763442e-05
12	0x37e656ce	2.7458558e-05
13	0x371cd588	9.348041e-06
14	0x377c2799	1.502959e-05
15	0x37289c44	1.0049964e-05
16	0x38b2f5f6	8.533515e-05
17	0x37e250d4	2.6978938e-05
18	0x38fb8248	0.000119928794
19	0x382eb883	4.1656673e-05
20	0x373875ae	1.0994654e-05
21	0x37bc08ca	2.241544e-05
22	0x376089fc	1.3383567e-05
23	0x36fedcb8	7.595485e-06
24	0x37522aec	1.2526969e-05
25	0x36d27ca8	6.2729996e-06
26	0x371fc160	9.522162e-06
27	0x36dd70de	6.5994527e-06
28	0x38bd9ebb	9.041788e-05
29	0x37decad1	2.6558906e-05
30	0x37cf665c	2.4723988e-05
31	0x37de46c5	2.6497417e-05
32	0x38a6029f	7.915985e-05
33	0x38458d4a	4.7100046e-05
34	0x38ac8848	8.2269835e-05
35	0x3841eeb9	4.6237114e-05
36	0x38a6b5eb	7.949382e-05
37	0x37f0bc4f	2.8697918e-05
38	0x38684121	5.5373766e-05
39	0x37a31a3a	1.9443327e-05
40	0x371c2af2	9.308324e-06
41	0x36b43476	5.3705253e-06
42	0x3755c579	1.2741767e-05
43	0x368ecdb3	4.2558763e-06
44	0x3831a7bf	4.2356314e-05
45	0x37ad7a49	2.068015e-05
46	0x37e68c90	2.7483591e-05
47	0x38081137	3.244096e-05
48	0x36edb64a	7.0843716e-06
49	0x3742bcad	1.1607231e-05
50	0x370a003d	8.2254965e-06
51	0x36ab38f9	5.1028296e-06
52	0x388bbc3c	6.663098e-05
53	0x37914116	1.7315655e-05
54	0x38bb56df	8.933036e-05
55	0x3801c632	3.094058e-05
56	0x38509b62	4.9735776e-05
57	0x37882b91	1.623275e-05
58	0x387a910b	5.9739727e-05
59	0x37f4ec64	2.9197145e-05
60	0x3847e6e7	4.766034e-05
61	0x382a17ff	4.0553507e-05
62	0x387fc198	6.0977036e-05
63	0x3812edd4	3.5030607e-05
64	0x38830040	6.246613e-05
65	0x37206f6f	9.562688e-06
66	0x38586500	5.1592477e-05
67	0x377f2ee9	1.52101065e-05
68	0x38e52224	0.0001092593
69	0x37ee56dc	2.8412258e-05
70	0x37d03f2e	2.4824953e-05
71	0x38034478	3.12966e-05
72	0x389d7773	7.5085925e-05
73	0x3813abc3	3.5207497e-05
74	0x38ba8dc3	8.895576e-05
75	0x383765e5	4.3725497e-05
76	0x37ab7528	2.0439344e-05
77	0x37e955f3	2.7815788e-05
78	0x38224aa0	3.869331e-05
79	0x37a698c8	1.9859886e-05
80	0x380c8483	3.3502012e-05
81	0x37860d95	1.598037e-05
82	0x38310e97	4.2213676e-05
83	0x37d676e7	2.5566156e-05
84	0x37721951	1.44302185e-05
85	0x37199f0c	9.156542e-06
86	0x37613c94	1.34251495e-05
87	0x3734b823	1.0771709e-05
88	0x381fe646	3.8123013e-05
89	0x37283fa3	1.0028397e-05
90	0x37ef3177	2.8514054e-05
91	0x37682627	1.3837161e-05
92	0x374e5867	1.229914e-05
93	0x36971404	4.502481e-06
94	0x374d7d20	1.2248085e-05
95	0x369b8f4a	4.636041e-06
96	0x37f73843	2.9470893e-05
97	0x37477e84	1.1890781e-05
98	0x385730fa	5.1305607e-05
99	0x37946969	1.769206e-05
100	0x375cd4f5	1.3162605e-05
101	0x3703c8e2	7.85498e-06
102	0x3788773a	1.6267983e-05
103	0x36d49d36	6.336394e-06
104	0x37deb28a	2.6547601e-05
105	0x376cc0bf	1.4111573e-05
106	0x38486a16	4.7782516e-05
107	0x37c5ff67	2.3603161e-05
108	0x37c584db	2.3546096e-05
109	0x378a9f1d	1.6524975e-05
110	0x37fd5b78	3.0202544e-05
111	0x3787d8f3	1.6194279e-05
112	0x37e31f83	2.7075183e-05
113	0x3759a080	1.2971577e-05
114	0x381a2a8c	3.6756086e-05
115	0x37a64382	1.9820178e-05
116	0x37a32e94	1.9452804e-05
117	0x373b4829	1.116287e-05
118	0x37b064c9	2.1027767e-05
119	0x3738cc84	1.1014872e-05
120	0x380610ea	3.1963842e-05
121	0x37ad6c70	2.0673702e-05
122	0x37b5b22d	2.1659851e-05
123	0x37bd5b92	2.2573196e-05
124	0x388164ce	6.169976e-05
125	0x37a092a2	1.9141768e-05
126	0x3892688c	6.981296e-05
127	0x37e2ce4e	2.7037368e-05
128	0x37a77a74	1.9964973e-05
129	0x378ee959	1.703638e-05
130	0x37df58a9	2.6624957e-05
131	0x37968143	1.7941586e-05
132	0x379a3f35	1.8387664e-05
133	0x376c7e40	1.4096091e-05
134	0x37d3a530	2.5230082e-05
135	0x377eb4da	1.5181688e-05
136	0x3798ddb3	1.8223049e-05
137	0x38410094	4.6015324e-05
138	0x37dfbe3e	2.667226e-05
139	0x3813c0a8	3.5226956e-05
140	0x379abf36	1.844727e-05
141	0x3707a85f	8.085829e-06
142	0x37c354a9	2.3285234e-05
143	0x3733ad15	1.070953e-05
144	0x3905466c	0.00012710103
145	0x38722f8b	5.7741574e-05
146	0x393a15f4	0.0001774652
147	0x38a5ed9a	7.91207e-05
148	0x38d12464	9.972675e-05
149	0x388c20bb	6.681817e-05
150	0x38eecd2d	0.00011386941
151	0x389b6470	7.409684e-05
152	0x385a42b2	5.2037365e-05
153	0x37697803	1.3915825e-05
154	0x386dd028	5.6699064e-05
155	0x37b1ee27	2.1210943e-05
156	0x38bb6d36	8.937197e-05
157	0x38276275	3.9907598e-05
158	0x390283d2	0.00012446873
159	0x38916fb4	6.934945e-05
160	0x371392b0	8.796036e-06
161	0x376e0a18	1.4188256e-05
162	0x37270a80	9.95642e-06
163	0x373e8b6c	1.1357344e-05
164	0x3760c5fe	1.3397539e-05
165	0x36f64a24	7.3400024e-06
166	0x376b7cc5	1.4036142e-05
167	0x36c345d3	5.8195815e-06
168	0x37586bfa	1.28997435e-05
169	0x376d9acd	1.4162343e-05
170	0x37a4346b	1.9574733e-05
171	0x37325137	1.0628536e-05
172	0x379f5709	1.8994806e-05
173	0x377ec799	1.5186052e-05
174	0x37ae9f00	2.0816457e-05
175	0x375183ef	1.2488089e-05
176	0x37863c79	1.6002205e-05
177	0x372eb8e2	1.0414255e-05
178	0x37295590	1.00931065e-05
179	0x372fadba	1.0471262e-05
180	0x37e391d6	2.7128419e-05
181	0x37a51778	1.9680461e-05
182	0x381616af	3.5783913e-05
183	0x37d4089f	2.5276384e-05
184	0x381a7a14	3.6830155e-05
185	0x37650865	1.3651418e-05
186	0x37f6920f	2.9393499e-05
187	0x37539b64	1.261276e-05
188	0x3705b02a	7.968434e-06
189	0x3683de18	3.9299593e-06
190	0x370c0a7c	8.347091e-06
191	0x36546733	3.1650532e-06
192	0x373f9984	1.142023e-05
193	0x36d98138	6.482147e-06
194	0x37509d20	1.243435e-05
195	0x370573a5	7.954343e-06
196	0x38bd4436	9.0249276e-05
197	0x381a1b38	3.674181e-05
198	0x384174c0	4.6123518e-05
199	0x380aba0d	3.3075037e-05
200	0x3814b36a	3.5453042e-05
201	0x382043c4	3.8210084e-05
202	0x38423fa0	4.631246e-05
203	0x38182a80	3.6279205e-05
204	0x36a6eb43	4.9745736e-06
205	0x36edbfca	7.0854776e-06
206	0x36d338fd	6.2949243e-06
207	0x36f13690	7.1887116e-06
208	0x3873458e	5.8000493e-05
209	0x38410439	4.601872e-05
210	0x38ae4f62	8.311753e-05
211	0x3895730f	7.126305e-05
212	0x3784a90a	1.5814341e-05
213	0x37142861	8.830889e-06
214	0x376ccee3	1.4114866e-05
215	0x36f2292a	7.216954e-06
216	0x38cfb3ee	9.904044e-05
217	0x38250453	3.9343093e-05
218	0x388b75d7	6.649986e-05
219	0x3819045c	3.6482103e-05
220	0x370d8afd	8.436616e-06
221	0x36c282ce	5.796878e-06
222	0x364f5947	3.089737e-06
223	0x36a6e623	4.973977e-06
224	0x3821b692	3.8555423e-05
225	0x37a9c42e	2.0237723e-05
226	0x382d03b9	4.124988e-05
227	0x3738f494	1.10242e-05
228	0x38ac0490	8.202449e-05
229	0x37c9e1e1	2.406625e-05
230	0x38590ae1	5.1746963e-05
231	0x37deafd6	2.6546342e-05
232	0x39050b73	0.00012688134
233	0x380c2c81	3.342005e-05
234	0x38f7c250	0.00011814071
235	0x38482e00	4.7726557e-05
236	0x38ae53b5	8.312558e-05
237	0x37fd1cc0	3.0173338e-05
238	0x38325dc3	4.252583e-05
239	0x3815d9c2	3.572717e-05
240	0x3852193f	5.0091414e-05
241	0x38339ce1	4.282303e-05
242	0x382020d4	3.8177546e-05
243	0x38268ac4	3.970672e-05
244	0x37cb6a74	2.4249057e-05
245	0x3714c017	8.866212e-06
246	0x37644cd7	1.360775e-05
247	0x3712c42d	8.747954e-06
248	0x3812191b	3.4832494e-05
249	0x379a7cd9	1.8416367e-05
250	0x37d4899d	2.533645e-05
251	0x37ec0125	2.8133925e-05
252	0x37803cc5	1.5287087e-05
253	0x36ccc1fa	6.1022556e-06
254	0x3787694a	1.6142283e-05
255	0x372748be	9.970912e-06

exp_avg f4 [64]
0	0xba01e87e	-0.00049556035
1	0x395d88b5	0.0002112713
2	0x3a062259	0.00051168125
3	0x389bd490	7.430569e-05
4	0xba9b9d8f	-0.0011872518
5	0x39315664	0.00016912218
6	0xb8dfd928	-0.00010673917
7	0xb964f7ca	-0.00021836083
8	0xba056e68	-0.0005089999
9	0x3a1f8919	0.0006085798
10	0x393bed37	0.00017922079
11	0xb95c6411	-0.00021018113
12	0x39934d7f	0.00028095764
13	0x3a871ba0	0.0010307916
14	0xba480302	-0.0007629843
15	0xb975f8d2	-0.00023457714
16	0xba8483cf	-0.0010110083
17	0x3918f276	0.00014586173
18	0x3a5a120a	0.0008318728
19	0xb830e7c6	-4.2177526e-05
20	0x3a181bfc	0.000580251
21	0x397ffad3	0.00024412134
22	0x38bd6652	9.031281e-05
23	0x39a86ea6	0.00032125897
24	0xba270837	-0.00063717685
25	0x39800311	0.00024416347
26	0xba34e3d2	-0.0006900403
27	0xb9673a48	-0.00022051588
28	0xb9cb78cd	-0.0003880918
29	0xba03ab69	-0.00050227955
30	0x39898e10	0.0002623652
31	0x3a7073e1	0.0009172541
32	0x39b9b91c	0.00035423867
33	0xb93a7024	-0.00017780118
34	0x387a1d96	5.96322e-05
35	0x39f0b0bb	0.00045908042
36	0x3a2769fb	0.0006386337
37	0xb99789bf	-0.00028903593
38	0x3a4eb9c6	0.0007885959
39	0x3a8dc4cd	0.0010816097
40	0xb8dd83cb	-0.000105626495
41	0x3a0f9bcb	0.0005478232
42	0xb9af1d60	-0.00033400487
43	0x39f3fd72	0.00046537403
44	0xb96afdbf	-0.00022410507
45	0xba1322e9	-0.0005612807
46	0xb9ee3120	-0.00045431498
47	0x398c2825	0.0002673279
48	0xb94a26be	-0.00019278654
49	0x395e894f	0.00021222721
50	0xb9d94c2a	-0.00041446212
51	0xb8cf3214	-9.879857e-05
52	0x396150c0	0.00021487754
53	0x39bb473e	0.000357205
54	0xb965290b	-0.00021854432
55	0xb8947fc4	-7.080988e-05
56	0xb936ed88	-0.0001744536
57	0xb91455b1	-0.00014146302
58	0x3a7f5c80	0.00097412616
59	0xba14b743	-0.000567306
60	0x38b6f983	8.7249115e-05
61	0xb8cc4bee	-9.741621e-05
62	0x38cf8101	9.894558e-05
63	0xb925ddbf	-0.00015818233

exp_avg_sq f4 [64]
0	0x389f8ccd	7.607937e-05
1	0x37e3dae1	2.7162432e-05
2	0x388e26e0	6.778329e-05
3	0x37fd1f65	3.017457e-05
4	0x39ed9b74	0.00045319984
5	0x384a4aad	4.82301e-05
6	0x3824e87a	3.9317158e-05
7	0x38b02311	8.3988656e-05
8	0x395defc9	0.0002116553
9	0x395019be	0.00019846015
10	0x371fd442	9.526559e-06
11	0x3857bc40	5.1435316e-05
12	0x37dfc886	2.6677048e-05
13	0x39bdf572	0.0003623176
14	0x39092969	0.00013080765
15	0x38d87444	0.00010321339
16	0x39def676	0.00042526767
17	0x38dbb501	0.000104764484
18	0x3992ff05	0.00028037294
19	0x38130aba	3.505752e-05
20	0x38862778	6.3969695e-05
21	0x38021470	3.101345e-05
22	0x39056b98	0.0001272395
23	0x38884b75	6.49904e-05
24	0x39143429	0.00014133811
25	0x38646808	5.4456323e-05
26	0x38f5c5af	0.00011719332
27	0x382aff0a	4.0768682e-05
28	0x3880197f	6.108265e-05
29	0x3876311b	5.8696703e-05
30	0x38b237ae	8.4980726e-05
31	0x396c4ae9	0.0002253462
32	0x383c474a	4.4889086e-05
33	0x38638b38	5.4250675e-05
34	0x38cd8720	9.800331e-05
35	0x3825e5f8	3.955324e-05
36	0x399de693	0.00030117165
37	0x390ffdd8	0.00013732107
38	0x395e20c4	0.00021183776
39	0x399700de	0.0002880161
40	0x3827a011	3.9964976e-05
41	0x3881342d	6.160918e-05
42	0x387dd774	6.0520557e-05
43	0x3873a033	5.8084912e-05
44	0x37f9623b	2.9728855e-05
45	0x38259317	3.9476054e-05
46	0x39008a4a	0.00012258548
47	0x3809a6a1	3.281853e-05
48	0x37a1ca8c	1.9287014e-05
49	0x391d7b66	0.00015018656
50	0x388b694e	6.647651e-05
51	0x371898da	9.0954945e-06
52	0x38b09d22	8.421602e-05
53	0x3848abe1	4.784379e-05
54	0x38ff6e0b	0.000121798446
55	0x37957094	1.7814607e-05
56	0x38a740f8	7.975282e-05
57	0x3892bf15	6.997414e-05
58	0x39e91efa	0.00044464302
59	0x38dc4e9c	0.000105050596
60	0x3884f394	6.3396204e-05
61	0x3798d84d	1.8220535e-05
62	0x384fcdcd	4.9544313e-05
63	0x37c109ab	2.3011895e-05

exp_avg f4 [64, 64]
0	0x381f684d	3.800569e-05
1	0x37d80337	2.5750704e-05
2	0x3904dc77	0.0001267063
3	0x3871188c	5.748174e-05
4	0xb8b992e8	-8.848851e-05
5	0xb835fd42	-4.3389628e-05
6	0x38fee4f8	0.000121543126
7	0x390a979d	0.00013217186
8	0xb805cc21	-3.189978e-05
9	0xb8fa11e6	-0.00011924263
10	0x390f5b6c	0.000136716
11	0x38cd0724	9.776492e-05
12	0xb819b8ab	-3.6650028e-05
13	0x3799da60	1.834071e-05
14	0x38fe19a9	0.000121164434
15	0x37e9f989	2.7891963e-05
16	0xb8da946b	-0.00010422695
17	0xb8ac11bb	-8.204902e-05
18	0xb9140949	-0.00014117839
19	0xb870bdf9	-5.7397385e-05
20	0x38b71bd9	8.731307e-05
21	0xb8a2cedf	-7.763295e-05
22	0x389aba84	7.3780335e-05
23	0x39205b73	0.00015292857
24	0xb797ae62	-1.8081806e-05
25	0x38a541de	7.880082e-05
26	0x38ef847b	0.000114210845
27	0xb8b3c252	-8.57158e-05
28	0xb866cde3	-5.502802e-05
29	0x38d827e1	0.00010307111
30	0x38ca0610	9.63324e-05
31	0x387191be	5.759461e-05
32	0xb8fe3e21	-0.00012123236
33	0xb65b5f00	-3.268884e-06
34	0xb92a0e6f	-0.0001621784
35	0xb8a40e99	-7.8228484e-05
36	0xb8171bb4	-3.6027006e-05
37	0xb8c4a136	-9.376036e-05
38	0x38b4850a	8.607849e-05
39	0xb9499fb8	-0.00019228354
40	0x38b65e95	8.6960536e-05
41	0xb8b5aa30	-8.6624525e-05
42	0x38f1805a	0.00011515683
43	0xb8835a43	-6.263379e-05
44	0x38e4d024	0.000109106564
45	0x388f36e9	6.828999e-05
46	0xb84aad2c	-4.8321832e-05
47	0x38b23331	8.4972366e-05
48	0x38b8b1c7	8.806917e-05
49	0x390106d6	0.00012304945
50	0x39417b6e	0.00018451895
51	0x38a94ed7	8.073233e-05
52	0x3866abb7	5.4996195e-05
53	0xb8b6b200	-8.711591e-05
54	0xb8cbe093	-9.7216245e-05
55	0x3929c9a4	0.00016192213
56	0x38ae39ba	8.307719e-05
57	0xb900a62b	-0.00012268934
58	0xb91a16df	-0.00014695105
59	0x39199d20	0.0001464975
60	0xb916b7db	-0.00014373606
61	0xb8eda4a7	-0.000113317095
62	0xb8d4e59d	-0.000101517166
63	0xb8919462	-6.941777e-05
64	0x392c9771	0.00016459615
65	0xb908ce02	-0.00013046715
66	0xb9125027	-0.00013953504
67	0x38de549b	0.00010601544
68	0x3918aeaf	0.00014560924
69	0xb88c798e	-6.6983615e-05
70	0x38855791	6.358245e-05
71	0xb9187d21	-0.00014542464
72	0x3932f588	0.0001706687
73	0xb92b9631	-0.00016363781
74	0xb6f15244	-7.1919367e-06
75	0x37e8f3be	2.7770056e-05
76	0xb8a956f4	-8.074744e-05
77	0xb921ba12	-0.00015423473
78	0x392c9517	0.00016458739
79	0x392be8a1	0.00016394492
80	0x36f9a020	7.4394193e-06
81	0x3916ea58	0.00014392415
82	0xb93daaf1	-0.00018088125
83	0x3782fe8f	1.5615746e-05
84	0xb921b300	-0.00015420839
85	0xb7a6c523	-1.9880541e-05
86	0xb8488cbd	-4.781479e-05
87	0xb8a9c307	-8.094875e-05
88	0x38f5df98	0.00011724158
89	0xb8b38046	-8.559278e-05
90	0x392fe682	0.00016775171
91	0x38767f7c	5.87697e-05
92	0x391a9bbd	0.00014744602
93	0x387e0e5e	6.05717e-05
94	0xb92350e8	-0.00015575031
95	0xb91753f5	-0.00014431759
96	0xb930be18	-0.00016855483
97	0x3929d67e	0.00016197
98	0x380d8587	3.3741377e-05
99	0xb8df9444	-0.00010661085
100	0xb91422a1	-0.0001412728
101	0xb85dabe9	-5.285061e-05
102	0xb927a835	-0.00015989023
103	0xb930ce38	-0.0001686149
104	0x3863130e	5.4138764e-05
105	0xb90101b1	-0.00012303029
106	0x38d488ef	0.000101344536
107	0xb8d626f0	-0.00010211568
108	0x38ab5101	8.1690036e-05
109	0x38ace172	8.2435916e-05
110	0x3923da89	0.00015626302
111	0xb8f46187	-0.000116529925
112	0x38bcae25	8.9969755e-05
113	0x386b1297	5.604568e-05
114	0x394075f1	0.00018354483
115	0xb816cdb3	-3.595436e-05
116	0xb91ab731	-0.00014754829
117	0xb8be41aa	-9.072137e-05
118	0x3929f9b9	0.00016210125
119	0x37a8a463	2.010371e-05
120	0x3900ad4b	0.00012271588
121	0x390a5965	0.00013194008
122	0xb8f2c47f	-0.000115760595
123	0xb7b398ed	-2.1409674e-05
124	0xb941e08c	-0.00018489565
125	0x38da010b	0.00010395244
126	0xb80d21e0	-3.364857e-05
127	0x38f13d5f	0.00011503207
128	0x38052053	3.1739775e-05
129	0xb756397f	-1.2768781e-05
130	0xb593719a	-1.0985416e-06
131	0x37237b95	9.744331e-06
132	0xb6b83f8e	-5.491026e-06
133	0xb830a86c	-4.2118525e-05
134	0x37faca3f	2.98965e-05
135	0xb7e3f775	-2.717574e-05
136	0x37da889b	2.6051237e-05
137	0xb85a957f	-5.211448e-05
138	0x37890c40	1.6337377e-05
139	0x3752f894	1.2574852e-05
140	0xb7f42378	-2.9103583e-05
141	0xb713fe40	-8.82108e-06
142	0x38228a37	3.8752532e-05
143	0x37eebc54	2.8459508e-05
144	0xb6814422	-3.8524313e-06
145	0x37d6a1ff	2.5586223e-05
146	0xb83df40b	-4.5288394e-05
147	0xb6b801dc	-5.483844e-06
148	0xb72d8b93	-1.0344101e-05
149	0xb568a7a2	-8.667067e-07
150	0xb76d0d02	-1.4129329e-05
151	0xb6eadb0c	-6.999244e-06
152	0xb6c8b477	-5.9814734e-06
153	0xb71ae6dc	-9.232866e-06
154	0x380c4f85	3.345266e-05
155	0xb4e264f0	-4.2169222e-07
156	0x3761d71a	1.3461127e-05
157	0x37be7571	2.2704453e-05
158	0xb76a009a	-1.3947627e-05
159	0xb69b4cb2	-4.6282885e-06
160	0xb81736ce	-3.6052246e-05
161	0x37cad138	2.4177702e-05
162	0xb7c0d6b0	-2.2988155e-05
163	0xb713b20c	-8.803338e-06
164	0xb7117aa0	-8.671224e-06
165	0xb7dd72ea	-2.6398764e-05
166	0xb74f30c2	-1.2349514e-05
167	0xb8036677	-3.132826e-05
168	0x37ec11d8	2.8141701e-05
169	0xb82d2220	-4.1278196e-05
170	0x37e020cd	2.6718155e-05
171	0xb82896d5	-4.0194795e-05
172	0x38022e5f	3.10376e-05
173	0x37146061	8.843927e-06
174	0x382371cd	3.8968214e-05
175	0xb7bcf1e9	-2.2523995e-05
176	0x37859877	1.5925832e-05
177	0x3751b45c	1.2499364e-05
178	0x387dcf74	6.0513106e-05
179	0xb5c49116	-1.4645364e-06
180	0xb79a7145	-1.8410976e-05
181	0xb7fa4082	-2.9832361e-05
182	0x37e3219c	2.707616e-05
183	0x3625fe55	2.4734957e-06
184	0x382c5b27	4.1092888e-05
185	0x3725396d	9.848137e-06
186	0xb7a99513	-2.0215788e-05
187	0xb5e92bab	-1.7372562e-06
188	0xb8659461	-5.4736043e-05
189	0x365b3a42	3.2667454e-06
190	0xb78c278b	-1.6707714e-05
191	0x37009650	7.664392e-06
192	0xb7980531	-1.812223e-05
193	0xb5d03d34	-1.551502e-06
194	0xb78ff79b	-1.7162229e-05
195	0x364667e9	2.9564783e-06
196	0x37a06af4	1.912329e-05
197	0x382e23d6	4.1518208e-05
198	0xb7b5067f	-2.1579906e-05
199	0x379b03e1	1.8479246e-05
200	0xb6eb4b8a	-7.0123397e-06
201	0x382560a8	3.9429084e-05
202	0xb7b5e65f	-2.1684156e-05
203	0xb72d0093	-1.0311737e-05
204	0x37f2b111	2.8931101e-05
205	0xb6d334fc	-6.294458e-06
206	0xb7b72825	-2.1833994e-05
207	0xb755cce6	-1.2743496e-05
208	0x37e82605	2.767426e-05
209	0xb792a6ba	-1.7482194e-05
210	0x37ddbd40	2.643338e-05
211	0x37b9e307	2.2159436e-05
212	0xb6a8f5df	-5.0354133e-06
213	0xb71043e1	-8.598873e-06
214	0x374c848c	1.21902085e-05
215	0x365c9652	3.2870053e-06
216	0x37ab4639	2.0417488e-05
217	0x369050fb	4.300962e-06
218	0xb789b7a0	-1.641718e-05
219	0x37835124	1.5654201e-05
220	0x36191d87	2.2815964e-06
221	0xb79641bc	-1.7912003e-05
222	0x369a7449	4.603095e-06
223	0xb73bcaee	-1.1193317e-05
224	0x37a8dddf	2.0130477e-05
225	0xb6d765bf	-6.419344e-06
226	0x37c29b73	2.3198989e-05
227	0xb6bd3040	-5.638256e-06
228	0xb6cb1a86	-6.052959e-06
229	0x37dd5b66	2.6387814e-05
230	0xb64bb584	-3.0355013e-06
231	0x36f3e2d2	7.2683697e-06
232	0xb7a6c0b8	-1.9878484e-05
233	0x38152d51	3.5566572e-05
234	0xb7b4c0be	-2.1547425e-05
235	0x382175da	3.849515e-05
236	0xb7920942	-1.7408867e-05
237	0x3665be80	3.4234545e-06
238	0xb7e78dfa	-2.7603459e-05
239	0x3794f4a5	1.7756896e-05
240	0xb6819916	-3.862321e-06
241	0xb641e475	-2.889222e-06
242	0xb80ee246	-3.406617e-05
243	0xb52a6f48	-6.349187e-07
244	0xb507c355	-5.0575665e-07
245	0x37e4324e	2.7203143e-05
246	0xb643c3bb	-2.9171194e-06
247	0x356479da	8.5113936e-07
248	0xb808defa	-3.263259e-05
249	0x37421a91	1.1569487e-05
250	0x35543027	7.9046225e-07
251	0x36f7d813	7.386328e-06
252	0x380bd4e6	3.333846e-05
253	0x3599fa0f	1.1472165e-06
254	0x3758d510	1.2924211e-05
255	0x3708f117	8.162365e-06
